5min_model/authdata_nsteps_40/threshold_model.pt (torch, 369026 bytes, 26 tensors)

nodes.0.callable.fc_input.weight f4 [95, 82]
0.18209592 -0.023544995 -0.037175585 -0.11068668 0.06629812 0.07099312 0.012918388 0.0553534
-0.073600255 0.06469028 0.00877334 0.010420209 0.0042121466 0.019966306 -0.025366245 -0.04176799
0.038801543 -0.06747554 0.005039344 -0.03713182 -0.03366978 -0.0030632247 0.022980578 -0.055152584
-0.0612272 -0.028795162 -0.015609628 0.09694647 0.069499046 0.006828112 -0.07473099 -0.025930133
0.051273588 -0.059706267 -0.014889151 0.0011569654 0.0026841399 -0.0239436 -0.003688519 -0.05300799
-0.0033108762 0.09533995 0.07572439 -0.010384926 -0.04593829 0.033757403 0.026542978 0.035516795
-0.034944367 -0.097966515 0.04786358 -0.026503453 0.05706093 0.08708072 0.054414526 -0.099746004
-0.06281927 0.017762227 0.009991405 0.053492207 -0.009214755 0.017515859 -0.0081433505 -0.08556738
-0.03502344 -0.013094999 0.056258813 0.032626137 -0.033485252 0.06260096 0.0012406466 -0.015340652
-0.05166914 -0.013041743 -0.058748305 -0.051858068 0.038319916 -0.021112757 0.009268233 0.06217595
0.01019588 -0.0069231493 0.05558894 0.25782678 0.033950366 -0.06492302 -0.051509522 0.025022637
-0.028957328 -0.041804086 -0.01808247 0.028141832 -0.03939795 -0.056093555 -0.043662485 0.03135347
0.02730051 -0.033853695 0.03315811 -0.0037386469 -0.022468725 -0.06370221 -0.014235938 0.055634506
-0.0024735273 0.04626386 -0.012567362 0.049775325 0.026418753 -0.09671631 0.0038017973 0.009759502
0.035105497 -0.03360292 3.6771203e-06 -0.049241062 0.03771381 0.10521308 -0.040097013 -0.04495846
0.04802541 0.0018439605 -0.06439818 -0.0006327026 -0.053399537 0.048370965 0.025983257 -0.0419544
-0.017526252 -0.048908245 -0.0044124634 0.049093034 0.030289173 0.060751792 -0.0033304377 -0.09440729
-0.014886292 -0.010071704 0.01148337 -0.047289208 0.010241492 0.031049937 -0.019163204 0.03798456
-0.040023986 -0.07488509 -0.0184919 0.08941056 0.0028617796 -0.046332568 0.00833679 0.04420288
-0.006742593 -0.0031847158 -0.052107047 -0.021132628 0.0151168415 -0.003573907 0.02423138 0.02719759
0.0053823525 0.019985538 -0.035389487 -0.015719907 0.07090518 0.13868618 -0.072500765 -0.04063627
-0.054520097 0.01125121 0.052657645 -0.038211238 0.06820388 0.016310968 0.05595029 -0.05874573
-0.046371624 0.0742407 0.016417343 -0.030456576 -0.06458223 0.019813633 -0.039753754 -0.0030750786
0.025130106 -0.030221533 -0.033650365 0.060884733 0.033586126 -0.03499952 -0.00039339325 -0.015198538
-0.011300801 0.07875614 -0.00047488656 0.0024675124 0.017934188 -0.06553765 0.033416193 -0.017611003
0.036126025 0.033354566 0.055560432 -0.062548354 -0.0075596804 -0.002270812 -0.039940543 0.029773071
-0.005276521 0.055209287 -0.0012058814 0.00082937855 -0.03127075 0.024727607 0.050092906 -0.08835373
0.013377506 0.043876283 -0.014296729 0.06979061 -6.809041e-05 -0.048921704 -0.008333296 0.040982515
-0.03347635 -0.015537309 -0.019806325 0.040870223 -0.018308958 -0.065365285 -0.040875815 0.030821044
-0.011404166 -0.05344588 -0.0101299705 0.064272925 -0.024779143 -0.054253854 -0.013912357 0.022261484
0.0150141725 -0.012339869 0.0376972 0.038269524 0.050151568 -0.011004732 0.087746434 0.28452387
0.00947153 -0.0461044 -0.024441905 0.015585952 -0.013982604 -0.031214237 -0.018214837 -0.004153854
00000000: 5a77 3a3e 6fe1 c0bc 6d45 18bd b3af e2bd
00000010: 4fc7 873d d764 913d a5a7 533c 3fba 623d
00000020: bbbb 96bd 567c 843d 0ebe 0f3c 86b9 2a3c
00000030: 0c06 8a3b 6190 a33c dfcc cfbc e914 2bbd
00000040: 5eee 1e3d 9e30 8abd 1521 a53b 8917 18bd
00000050: 53e9 09bd 62c0 48bb c441 bc3c ade7 61bd
00000060: 5fc9 7abd d5e3 ebbc 86bf 7fbc df8b c63d
00000070: 8455 8e3d 5bbe df3b 900c 99bd 6e6b d4bc
00000080: 4104 523d 8f8e 74bd a0f1 73bc 51a5 973a
00000090: 65e8 2f3b 5e25 c4bc 14bb 71bb e81e 59bd
000000a0: 49fb 58bb 9741 c33d 6415 9b3d 8925 2abc
000000b0: ca29 3cbd 3445 0a3d a970 d93c 0f7a 113d
000000c0: d321 0fbd aba2 c8bd 9a0c 443d c51d d9bc
000000d0: b9b8 693d 6057 b23d c4e1 5e3d a247 ccbd
000000e0: 64a7 80bd 1782 913c fdb2 233c a51a 5b3d
000000f0: 7cf9 16bc 6b7d 8f3c b06b 05bc f33d afbd
00000100: bd74 0fbd 688c 56bc a46f 663d fca2 053d
00000110: d527 09bd ef34 803d 319d a23a 5c57 7bbc
00000120: 05a3 53bd 09ad 55bc 10a2 70bd 2069 54bd
00000130: 58f5 1c3d a9f4 acbc c9d9 173c 35ac 7e3d
00000140: 9f0c 273c 96db e2bb 3ab1 633d df01 843e
00000150: 8a0f 0b3d 5cf6 84bd a6fb 52bd 46fc cc3c
00000160: eb37 edbc c33a 2bbd b021 94bc b389 e63c
00000170: bf5f 21bd 5bc2 65bd 6fd7 32bd 7f6c 003d
00000180: 52a5 df3c 2caa 0abd ccd0 073d 1604 75bb
00000190: 5510 b8bc 4e76 82bd da3d 69bc 02e1 633d
000001a0: e71a 22bb 2c7f 3d3d 56e7 4dbc 36e1 4b3d
000001b0: 246c d83c 3313 c6bd 9327 793b 51e6 1f3c
000001c0: c8ca 0f3d 37a3 09bd 72c4 7636 ffb0 49bd
000001d0: cc79 1a3d f579 d73d c43c 24bd 5d26 38bd
000001e0: 4bb6 443d 0cb1 f13a 31e3 83bd f4db 25ba
000001f0: 79b9 5abd a220 463d d7da d43c 60d8 2bbd
00000200: 3793 8fbc 0354 48bd 6d96 90bb c715 493d
00000210: 0021 f83c dfd6 783d 7943 5abb 9c58 c1bd
00000220: a2e5 73bc ca03 25bc bf24 3c3c 54b2 41bd
00000230: eecb 273c 705c fe3c 27fc 9cbc b395 1b3d
00000240: 31f0 23bd 5b5d 99bd 537c 97bc e21c b73d
00000250: b28c 3b3b 38c7 3dbd 0897 083c 140e 353d
00000260: f8f0 dcbb aab6 50bb 336e 55bd 551e adbc
00000270: a1ac 773c 3638 6abb e380 c63c 7bcd de3c
00000280: 725e b03b b6b8 a33c 91f4 10bd 09c7 80bc
00000290: bc36 913d c003 0e3e 487b 94bd 3872 26bd
000002a0: 7750 5fbd ff56 383c 8baf 573d 6383 1cbd
000002b0: 7aae 8b3d 949e 853c 222c 653d 5d9f 70bd
000002c0: 2cf0 3dbd 820b 983d aa7d 863c 1280 f9bc
000002d0: b043 84bd 3350 a23c d5d4 22bd 4287 49bb
000002e0: a7dd cd3c 2693 f7bc f7d4 09bd 4562 793d
000002f0: 9b91 093d a85b 0fbd 5940 ceb9 4a03 79bc
00000300: ff26 39bc e64a a13d 32fa f8b9 fdb5 213b
00000310: b8ea 923c 9a38 86bd 6bdf 083d f344 90bc
00000320: e2f8 133d cc9e 083d 5693 633d 5a19 80bd
00000330: 32b7 f7bb e7d1 14bb b298 23bd a8e6 f33c
00000340: abe6 acbb 2223 623d aa0e 9eba a76a 593a
00000350: c215 00bd 8d91 ca3c 382e 4d3d cdf2 b4bd
00000360: 542d 5b3c 9eb7 333d d43c 6abc 61ee 8e3d
00000370: c3cb 8eb8 2062 48bd 6088 08bc 48dd 273d
00000380: 7f1e 09bd 3390 7ebc e040 a2bc 8967 273d
00000390: abfc 95bc 3cde 85bd 666d 27bd 6a7c fc3c
000003a0: 8ad8 3abc 11ea 5abd 2df8 25bc 86a1 833d
000003b0: a1fd cabc 4a39 5ebd a8f0 63bc b75d b63c
000003c0: 01fe 753c 292d 4abc 6168 1a3d 81c0 1c3d
000003d0: bb6b 4d3d 314d 34bc 67b4 b33d 1dad 913e
000003e0: 7a2e 1b3c f8d7 3cbd 643a c8bc 395c 7f3c
000003f0: 4b17 65bc 00b5 ffbc 4837 95bc 0e1d 88bb

nodes.0.callable.fc_input.bias f4 [95]
-0.17936292 0.021020947 -0.09079988 -0.14222175 -0.060943983 -0.0146700805 -0.20948696 -0.032835104
0.092805125 -0.18675508 0.1522791 -0.19982499 0.11328971 0.02760812 0.06512842 0.05270845
0.032613624 0.13319367 0.10695128 0.07126846 -0.058963027 0.021137679 0.06707625 -0.056730807
-0.012299793 -0.07811244 -0.08224339 0.014427836 0.12984583 0.15216278 -0.13404205 0.042354118
0.13091154 0.20544425 0.10185858 -0.2178431 0.033772405 0.04647658 -0.09957246 0.023031503
0.12862481 -0.019341147 -0.047367264 0.07688191 0.23521528 -0.2371009 0.004603496 0.08961383
-0.14586249 0.32124865 0.097181484 -0.08777988 0.031368546 0.044603195 -0.15243919 0.12914759
-0.029805928 0.109329015 -0.03985801 0.060047563 -0.16725095 0.08760244 -0.091859885 0.004250527
-0.008081168 0.024080176 0.12850179 0.06210848 0.15100746 -0.088084094 0.07768414 0.13100144
-0.044178803 -0.09292157 0.0011218952 -0.03365639 0.08630806 -0.21090634 -0.12787876 0.08206698
-0.058625493 -0.05090453 0.0021466906 0.062322844 0.030368013 0.01705041 -0.061657876 -0.02567682
-0.09372201 0.029555429 0.08303789 0.13826317 0.028991222 -0.07807654 -0.09982391
00000000: eaaa 37be 1f34 ac3c 4af5 b9bd 94a2 11be
00000010: 66a0 79bd c75a 70bc c083 56be 1a7e 06bd
00000020: 9d10 be3d b93c 3fbe 0def 1b3e ec9e 4cbe
00000030: 6f04 e83d 6d2a e23c 0d62 853d d1e4 573d
00000040: dd95 053d ec63 083e 4609 db3d 33f5 913d
00000050: 3783 71bd ed28 ad3c 465f 893d 905e 68bd
00000060: 1285 49bc 6af9 9fbd 396f a8bd bb62 6c3c
00000070: 4ef6 043e 8fd0 1b3e 5242 09be 837b 2d3d
00000080: ad0d 063e fa5f 523e 3b9b d03d 4312 5fbe
00000090: ef54 0a3d 3a5e 3e3d a5ec cbbd 90ac bc3c
000000a0: 39b6 033e 5371 9ebc 2d04 42bd 4374 9d3d
000000b0: 46dc 703e 94ca 72be ecd8 963b 7587 b73d
000000c0: fa5c 15be b47a a43e 1607 c73d f0c5 b3bd
000000d0: 4e7c 003d d7b1 363d 0519 1cbe 443f 043e
000000e0: 902b f4bc e4e7 df3d 2742 23bd 6ff4 753d
000000f0: d543 2bbe e868 b33d 0921 bcbd 0148 8b3b
00000100: e066 04bc ca43 c53c f995 033e 7665 7e3d
00000110: b3a1 1a3e 6f65 b4bd dd18 9f3d 3e25 063e
00000120: d5f4 34bd aa4d bebd 8e0c 933a 48db 09bd
00000130: 48c2 b03d d5f7 57be a6f2 02be bc12 a83d
00000140: 4921 70bd 4581 50bd 7eaf 0c3b 3d46 7f3d
00000150: 57c6 f83c 4dad 8b3c f88c 7cbd 3258 d2bc
00000160: 53f1 bfbd 3a1e f23c c50f aa3d dc94 0d3e
00000170: 007f ed3c 98e6 9fbd 7a70 ccbd

nodes.0.callable.fc1_x1.weight f4 [95, 95]
-0.11650711 0.00035139945 0.06265611 -0.055862255 -0.03831449 -0.049458 0.00801803 -0.047527187
0.011214241 0.091258086 0.09742275 0.04237807 -0.03781016 0.018882275 -0.02124806 -1.4711052e-05
0.015028275 -0.04184689 -0.038934894 0.091051504 0.06016524 -0.001616671 0.020141538 -0.018452782
-0.02142014 0.0053604706 -0.105813436 -0.028366229 0.041372478 0.07389667 0.05789623 0.07293019
0.0587813 0.040502626 0.065179884 0.11273983 -0.06227536 0.009978835 0.014045299 0.05072328
-0.057917107 -0.053888265 -0.031286355 -0.064273424 0.08842941 -0.08970796 -0.060678218 0.020444138
-0.113742806 -0.05339556 0.08302134 0.034446742 -0.05049175 -0.10919549 0.014516434 -0.00857008
0.064061455 0.035530508 -0.007898475 -0.073265806 -0.07150269 -0.03833736 -0.1191847 -0.03885694
-0.008370101 0.06960265 0.027225811 0.07061424 -0.032653946 0.022549938 -0.064317174 0.039964348
-0.1145938 -0.024449049 -0.037317045 0.018795267 -0.079852134 -0.012935955 0.070620686 0.024066912
-0.0005266568 -0.037877932 -0.06746013 -0.04060666 -0.03941199 -0.07217642 -0.07130418 0.009924727
-0.036539085 -0.09067245 -0.09829639 0.06425391 -0.015966458 0.061202675 0.06398635 -0.012115499
-0.010615993 0.03764188 0.028561871 0.023307955 0.055196196 0.037148807 -0.0772634 -0.001979993
-0.04194937 -0.0315065 -0.0076957317 0.021798538 -0.035800744 0.06410834 0.046505354 0.030822577
-0.0070818015 0.075872645 0.0339199 0.06276626 0.0431357 0.07962185 -0.05187784 -0.028892335
0.07410461 -0.0011757152 -0.013937302 -0.08225634 -0.09234265 0.0085325 -0.075531125 0.04385108
-0.0008179559 0.11561146 -0.042314313 0.029004518 0.041296095 -0.022040656 0.07784089 -0.0025877894
-0.08166801 0.002624309 -0.032349348 0.054910142 0.0053693955 -0.053142224 0.09487071 0.00897072
-0.067461655 -0.049837053 -0.0836796 0.07485882 -0.04680083 -0.032048658 -0.060697734 -0.059202645
-0.10674223 -0.07797095 -0.08761713 0.023340307 -0.050314747 0.0045818333 0.101180084 -0.0243598
-0.010466515 0.016677378 0.07653849 0.028003361 0.012535822 0.040000062 0.044240225 -0.09467669
0.042698357 0.07357677 0.107497394 0.13038905 -0.008538144 -0.003852662 -0.023752559 -0.065608084
-0.06557317 0.10430858 0.09110522 0.09429791 -0.04839428 -0.028086841 -0.0458986 -0.0926363
-0.01981053 0.0051629734 0.059502065 0.10144854 -0.045281418 0.100797415 0.025316633 0.030120041
-0.07886562 0.04080797 0.07105997 0.03283913 0.023651391 -0.05111685 0.06517034 0.037461396
0.032341722 -0.03857367 -0.022193518 0.021030568 0.009587117 0.051414464 -0.07994096 0.050674926
-0.045263957 -0.08693497 -0.01653774 -0.0045504663 0.074858025 0.025633952 0.062283088 0.014138492
0.10642644 0.018348495 -0.09030911 -0.043208722 -0.01209808 -0.08015948 -0.02856833 0.03572755
-0.05036711 -0.1012778 0.008951656 0.045033716 0.10668545 0.018716916 -0.0774095 -0.07279081
0.055522475 0.084684014 0.032678865 -0.088393725 -0.029624801 0.071280435 0.0474276 -0.09171368
-0.01998881 -0.039898265 0.043176893 0.03128306 -0.029816302 -0.07523063 -0.013466087 -0.065584905
-0.08293277 -0.009605175 -0.019996021 -0.041508608 -0.051315047 -0.109327175 -0.017910507 0.060627654
00000000: 489b eebd 093c b839 d951 803d d2cf 64bd
00000010: a8ef 1cbd 7994 4abd 0e5e 033c deab 42bd
00000020: f0bb 373c 85e5 ba3d 9485 c73d a194 2d3d
00000030: d4de 1abd 00af 9a3c 6910 aebc 7dcf 76b7
00000040: 2739 763c a567 2bbd 327a 1fbd 3679 ba3d
00000050: d46f 763d 7ae6 d3ba deff a43c 4a2a 97bc
00000060: 4a79 afbc e3a6 af3b b7b4 d8bd 4b60 e8bc
00000070: 3076 293d 2357 973d 9924 6d3d 6c5c 953d
00000080: a9c4 703d 15e6 253d 087d 853d 24e4 e63d
00000090: 7314 7fbd 447e 233c 411e 663c 37c3 4f3d
000000a0: 7d3a 6dbd f1b9 5cbd 1f26 00bd c9a1 83bd
000000b0: 7a1a b53d cfb8 b7bd b989 78bd 777a a73c
000000c0: fdf1 e8bd 4db5 5abd 1807 aa3d 0718 0d3d
000000d0: 70d0 4ebd e3a1 dfbd 56d6 6d3c 8569 0cbc
000000e0: a732 833d 7088 113d 9b68 01bc 620c 96bd
000000f0: 0170 92bd a307 1dbd 1c17 f4bd 7428 1fbd
00000100: c022 09bc d68b 8e3d aa08 df3c 339e 903d
00000110: 25c0 05bd a6ba b83c b9b8 83bd a8b1 233d
00000120: 27b0 eabd 5f49 c8bc c2d9 18bd 88f8 993c
00000130: 8489 a3bd 54f1 53bc 94a1 903d f927 c53c
00000140: 570f 0aba e425 1bbd 8928 8abd 2b53 26bd
00000150: 786e 21bd 3bd1 93bd ed07 92bd 529b 223c
00000160: 02aa 15bd 7ab2 b9bd 9e4f c9bd 8e97 833d
00000170: 17cc 82bc a8af 7a3d 470b 833d 1680 46bc
00000180: b4ee 2dbc 5f2e 1a3d 96fa e93c 53f0 be3c
00000190: 6815 623d 5929 183d 463c 9ebd c5c2 01bb
000001a0: 1ad3 2bbd f60c 01bd 7a2c fcbb d992 b23c
000001b0: cda3 12bd 3c4b 833d 667c 3e3d a17f fc3c
000001c0: 750e e8bb 1e63 9b3d 98ef 0a3d 998b 803d
000001d0: 0faf 303d c810 a33d dc7d 54bd 9eaf ecbc
000001e0: 28c4 973d 751a 9aba 4859 64bc 0376 a8bd
000001f0: 251e bdbd e6cb 0b3c 10b0 9abd 319d 333d
00000200: 176c 56ba b3c5 ec3d c651 2dbd e29a ed3c
00000210: 1826 293d 9b8e b4bc 0b6b 9f3d e797 29bb
00000220: 8f41 a7bd 99fc 2b3b c080 04bd 75e9 603d
00000230: c1f1 af3b a9ab 59bd 934b c23d edf9 123c
00000240: 5629 8abd f021 4cbd 3660 abbd 954f 993d
00000250: 3ab2 3fbd 7445 03bd 309e 78bd 797e 72bd
00000260: ac9b dabd 3caf 9fbd 9c70 b3bd 2c34 bf3c
00000270: d616 4ebd 3423 963b 8137 cf3d 348e c7bc
00000280: bf7b 2bbc ff9e 883c 36c0 9c3d 4e67 e53c
00000290: 0c63 4d3c 1bd7 233d 3d35 353d dae5 c1bd
000002a0: 79e4 2e3d 6baf 963d 9827 dc3d b584 053e
000002b0: 92e3 0bbc f17c 7cbb ba94 c2bc 885d 86bd
000002c0: 3a4b 86bd bd9f d53d 6095 ba3d 431f c13d
000002d0: 1539 46bd 6016 e6bc 2c00 3cbd 1ab8 bdbd
000002e0: b149 a2bc 292e a93b 70b8 733d 41c4 cf3d
000002f0: 0279 39bd e06e ce3d d464 cf3c 4ebe f63c
00000300: 4c84 a1bd 4226 273d e487 913d 5382 063d
00000310: 90c0 c13c e75f 51bd 0778 853d 1f71 193d
00000320: c178 043d 6dff 1dbd 2ecf b5bc 4c48 ac3c
00000330: 4813 1d3c f997 523d 16b8 a3bd 8390 4f3d
00000340: b366 39bd f60a b2bd 287a 87bc 141c 95bb
00000350: 2a4f 993d 4bfe d13c 8d1c 7f3d 22a5 673c
00000360: 1bf6 d93d 954f 963c fcf3 b8bd a1fb 30bd
00000370: 0637 46bc a72a a4bd 2108 eabc 0d57 123d
00000380: be4d 4ebd bc6a cfbd f7a9 123c 4675 383d
00000390: e77d da3d 3854 993c df88 9ebd 5913 95bd
000003a0: 896b 633d d06e ad3d 46da 053d c507 b5bd
000003b0: b6af f2bc 7afb 913d 7143 423d 62d4 bbbd
000003c0: 93bf a3bc 5d6c 23bd 41da 303d aa22 003d
000003d0: 5141 f4bc 8412 9abd dda0 5cbc 6151 86bd
000003e0: a8d8 a9bd 065f 1dbc b2ce a3bc ee04 2abd
000003f0: ba2f 52bd ede6 dfbd 0eb9 92bc b454 783d

nodes.0.callable.fc1_x1.bias f4 [95]
0.09299178 0.038104564 0.0060642585 -0.061110936 -0.104792 -0.04733821 0.044093885 0.02864053
-0.009909234 -0.080898665 0.04230967 -0.06978691 -0.009864276 -0.07997271 0.022359112 0.07614469
-0.09733636 0.005084898 0.050929133 -0.02002658 0.076714225 0.07571065 0.06573354 -0.083902575
-0.06553311 -0.07200474 0.032497786 0.035310455 -0.08941052 0.027370796 0.034332454 0.060337164
0.0092884675 -0.08362313 -0.09491202 0.0073340717 -0.017969193 0.005472295 -0.09325108 -0.057882708
-0.066806346 0.075821824 -0.09128468 -0.023539865 0.04114505 -0.067737 -0.09879085 -0.059775367
0.054884814 -0.05125499 0.08205715 0.062485524 -0.03012791 -0.03352117 0.064668745 -0.06806862
0.05194766 0.04866057 -0.049453054 -0.0162645 0.018814187 -0.06512858 0.03591478 -0.10469038
-0.09137639 0.03222649 -0.07258439 0.091495164 -0.06588549 -0.060758922 0.048391826 -0.04923752
0.04654248 0.09323584 0.058515754 -0.07271809 -0.05706473 0.07747658 0.057516895 -0.07832296
0.053628676 -0.041396406 0.0071771415 0.08542441 0.05375234 -0.017049875 -0.04830481 0.029531594
-0.06551724 -0.042733416 0.050297447 0.1000639 0.03257435 -0.0240114 0.0075737853
00000000: 7972 be3d 8813 1c3d b0b6 c63b 764f 7abd
00000010: 309d d6bd b6e5 41bd ca9b 343d 8b9f ea3c
00000020: 575a 22bc 33ae a5bd e84c 2d3d 71ec 8ebd
00000030: c69d 21bc bbc8 a3bd 752a b73c bff1 9b3d
00000040: 4958 c7bd 379f a63b 119b 503d c80e a4bc
00000050: 591c 9d3d 2f0e 9b3d 4e9f 863d 1dd5 abbd
00000060: 3936 86bd 3977 93bd 661c 053d b2a1 103d
00000070: dd1c b7bd b838 e03c 30a0 0c3d 1a24 773d
00000080: a82e 183c 9b42 abbd 3c61 c2bd a752 f03b
00000090: 2134 93bc f050 b33b 6cfa bebd 6b16 6dbd
000000a0: c4d1 88bd 7948 9b3d 76f3 babd add6 c0bc
000000b0: b687 283d b2b9 8abd db52 cabd 04d7 74bd
000000c0: e6ce 603d c1f0 51bd 940d a83d d2f0 7f3d
000000d0: cfce f6bc 7f4d 09bd 0c71 843d 9067 8bbd
000000e0: 12c7 543d 4e50 473d 498f 4abd 213d 85bc
000000f0: 3620 9a3c 2262 85bd 601b 133d e967 d6bd
00000100: 8b23 bbbd edff 033d 20a7 94bd d161 bb3d
00000110: f9ee 86bd 59de 78bd 8236 463d 48ad 49bd
00000120: 54a3 3e3d 6ff2 be3d 37ae 6f3d 39ed 94bd
00000130: b5bc 69bd 0bac 9e3d d696 6b3d ca67 a0bd
00000140: bea9 5b3d 478f 29bd 3a2e eb3b fef2 ae3d
00000150: 6a2b 5c3d 2eac 8bbc 44db 45bd 3eec f13c
00000160: e72d 86bd 3c09 2fbd b204 4e3d 4dee cc3d
00000170: ae6c 053d 8eb3 c4bc 842d f83b

nodes.0.callable.fc2_x1.weight f4 [95, 95]
-0.072111 0.02892293 -0.06137193 0.011730604 0.075548664 -0.06971822 -0.09468405 0.053200014
0.02429934 -0.07999244 -0.08894234 0.0797272 0.10399936 0.04226128 -0.0874166 -0.022434043
-0.0034513539 -0.03200939 0.010334747 -0.03886199 -0.063448586 -0.044833403 0.03650305 -0.044295624
0.063188076 0.06253776 0.069498055 -0.084210806 -0.105575785 -0.070889585 -0.08826587 0.053492647
0.023725213 0.11827252 -0.08648357 0.014735985 -0.07598797 -0.052889492 -0.10736717 0.017479124
-0.06925067 -0.012237763 0.050361756 -0.027698662 0.03920181 0.00013991255 0.0121062305 -0.12225229
0.116845906 0.058211453 0.11033447 0.0094969 -0.14617926 0.059703656 -0.013304336 -0.07146551
0.1190499 -0.09233124 -0.1333787 -0.011015743 0.14480451 -0.26697662 0.0001537802 -0.07997647
-0.093767315 0.065717965 -0.098803125 -0.05987533 -0.0011781617 -0.081458695 -0.047833428 -0.010545471
0.10262123 0.084408686 0.04340874 -0.062041443 0.07613309 0.11203428 0.05354633 0.028117348
-0.01551515 0.072236635 0.057114244 -0.07145174 0.061725117 0.10744594 -0.014240342 -0.056376312
0.05032977 0.11631597 -0.093199104 0.14389923 0.022681436 0.00015956066 -0.020444991 -0.036298342
-0.07483897 -0.062477183 -0.021393873 0.053892355 0.009148537 -0.081955865 0.080675215 0.0038883584
-0.067852475 0.007910425 -0.051410638 0.031386606 -0.022331424 0.033106912 -0.07007655 -0.109180175
0.09466876 0.07369639 -0.059203956 -0.06462269 -0.080565006 0.057548355 0.022442864 -0.0696033
0.033795677 0.0055718673 -0.110986635 0.01160531 -0.042130485 -0.028641645 -0.07297711 -0.024520135
-0.04478504 0.0064623505 0.02429323 0.06970508 -0.019244572 0.06651881 0.07716651 0.027518565
-0.06810497 0.09939185 -0.0131162 0.06984591 -0.06284418 0.07961212 -0.0005078403 -0.06153349
0.091550246 -0.03968802 0.049086746 0.031534575 -0.03847755 -0.042050827 0.06649479 -0.07256951
-0.041171756 0.003006754 0.027154168 -0.07097243 -0.09472155 -0.08643178 0.035091247 0.06347692
0.06814185 0.03773121 0.023491606 0.0372056 -0.111622415 -0.053171035 -0.11479248 -0.0028142992
-0.06283004 0.0763918 -0.07820776 -0.027293 -0.090246834 -0.044409934 0.009879952 -0.031974237
0.07169543 0.016910793 -0.014892283 0.07493414 0.10930392 0.089178376 -0.07918899 -0.06853844
-0.080750406 -0.121238634 -0.05550062 -0.0014697267 -0.05012825 0.040233064 -0.10741396 -0.025077332
-0.07480936 0.09255009 -0.06629331 0.007972685 -0.048261132 0.05656901 0.1292934 -0.07870422
-0.071226045 0.041893993 0.110435635 0.037934273 0.08612426 -0.054242007 0.031111753 -0.03327784
-0.015448674 0.029702928 0.0048750252 0.09266074 0.09015858 -0.086833455 0.050230622 0.09930994
-0.055434577 -0.10752118 -0.0036535682 0.0777274 -0.018515445 -0.044609066 0.06940526 -0.034332
0.08260652 0.0049423845 -0.059690606 0.015355086 0.064251855 -0.0018754366 0.00835314 -0.11588041
-0.037184775 -0.064482175 0.05960763 -0.057072267 0.09872505 0.07420581 0.1094805 0.08809355
0.020298772 0.08244613 -0.118139975 0.06410457 0.0032804592 -0.059550975 0.041253682 -0.07694331
-0.049501874 0.025917988 0.072173275 0.04454884 0.017518956 0.09019289 -0.004057482 -0.06519805
00000000: efae 93bd c8ef ec3c 2261 7bbd b831 403c
00000010: 42b9 9a3d 6dc8 8ebd b6e9 c1bd 42e8 593d
00000020: 690f c73c 14d3 a3bd 6727 b6bd 0448 a33d
00000030: 9efd d43d 2a1a 2d3d 7907 b3bd 99c7 b7bc
00000040: 1c30 62bb 471c 03bd 1253 293c c02d 1fbd
00000050: 55f1 81bd 3ba3 37bd 3984 153d 546f 35bd
00000060: c068 813d cc13 803d ff54 8e3d b776 acbd
00000070: 1e38 d8bd 8f2e 91bd bdc4 b4bd 1b1b 5b3d
00000080: 615b c23c dd38 f23d 4c1e b1bd 336f 713c
00000090: 959f 9bbd a7a2 58bd 52e3 dbbd 6130 8f3c
000000a0: 4cd3 8dbd e680 48bc 2148 4e3d 4ee8 e2bc
000000b0: 1492 203d 7db5 1239 3659 463c 695f fabd
000000c0: e84c ef3d 226f 6e3d 0af7 e13d e398 1b3c
000000d0: 04b0 15be d28b 743d 6efa 59bc 825c 92bd
000000e0: 6fd0 f33d 2918 bdbd 6d94 08be 607b 34bc
000000f0: a247 143e 29b1 88be 0f40 2139 b4ca a3bd
00000100: 1409 c0bd 2497 863d 4b59 cabd d63f 75bd
00000110: 8c6c 9aba d1d3 a6bd fcec 43bd e9c6 2cbc
00000120: 142b d23d 76de ac3d 5dcd 313d 2b1f 7ebd
00000130: aaeb 9b3d 3b72 e53d 6653 5b3d 5a56 e63c
00000140: 4133 7ebc cdf0 933d a0f0 693d 4a55 92bd
00000150: 7ad3 7c3d 9e0c dc3d 5350 69bc d9ea 66bd
00000160: 9726 4e3d 1137 ee3d 2cdf bebd 525a 133e
00000170: 6bce b93c bd4f 2739 417c a7bc 92ad 14bd
00000180: 2d45 99bd 13e8 7fbd 3442 afbc 3bbe 5c3d
00000190: bfe3 153c 7ad8 a7bd 0c39 a53d d4d3 7e3b
000001a0: 3df6 8abd ba9a 013c f693 52bd 3e8f 003d
000001b0: 64f0 b6bc 1d9b 073d 4b84 8fbd db99 dfbd
000001c0: b2e1 c13d 22ee 963d d97f 72bd e758 84bd
000001d0: 44ff a4bd d3b7 6b3d 19da b73c 2d8c 8ebd
000001e0: 566d 0a3d 3694 b63b f64c e3bd 3324 3e3c
000001f0: 0491 2cbd e2a1 eabc 0675 95bd 73de c8bc
00000200: 8570 37bd 20c2 d33b 9902 c73c 89c1 8e3d
00000210: cba6 9dbc 043b 883d 7a09 9e3d 9d6e e13c
00000220: 9e7a 8bbd f48d cb3d 55e5 56bc 5f0b 8f3d
00000230: 73b4 80bd ae0b a33d 9620 05ba 8a0a 7cbd
00000240: b27e bb3d e88f 22bd 2f0f 493d 662a 013d
00000250: a39a 1dbd 7d3d 2cbd 6c2e 883d 539f 94bd
00000260: b7a3 28bd f60c 453b 6b72 de3c fe59 91bd
00000270: 5ffd c1bd 2503 b1bd d7bb 0f3d 3000 823d
00000280: f48d 8b3d 0b8c 1a3d 7871 c03c e664 183d
00000290: 4b9a e4bd dfc9 59bd 5218 ebbd 1b70 38bb
000002a0: 09ad 80bd 4e73 9c3d 642b a0bd 9295 dfbc
000002b0: 55d3 b8bd 31e7 35bd 86df 213c 6bf7 02bd
000002c0: 0ed5 923d 8188 8a3c c3fe 73bc 1277 993d
000002d0: bcda df3d 27a3 b63d d62d a2bd e25d 8cbd
000002e0: 7860 a5bd f64b f8bd 9e54 63bd d8a3 c0ba
000002f0: 4853 4dbd 6dcb 243d dafb dbbd fa6e cdbc
00000300: a635 99bd e78a bd3d c9c4 87bd dd9f 023c
00000310: 77ad 45bd e8b4 673d 7d65 043e ae2f a1bd
00000320: f6de 91bd 0999 2b3d 142c e23d f860 1b3d
00000330: eb61 b03d de2c 5ebd 13de fe3c 584e 08bd
00000340: 6f1c 7dbc 8e53 f33c adbe 9f3b eac4 bd3d
00000350: 10a5 b83d bdd5 b1bd a0be 4d3d 0363 cb3d
00000360: 5e0f 63bd 1034 dcbd b470 6fbb 8b2f 9f3d
00000370: b4ad 97bc ffb7 36bd 5824 8e3d b69f 0cbd
00000380: 9b2d a93d baf3 a13b 237e 74bd e693 7b3c
00000390: 7a96 833d 36d1 f5ba 9cdb 083c b552 edbd
000003a0: 104f 18bd 3b0f 84bd 2127 743d 9cc4 69bd
000003b0: 5c30 ca3d 37f9 973d 5037 e03d 646a b43d
000003c0: 9c49 a63c 84d9 a83d 5ff3 f1bd 4249 833d
000003d0: f9fc 563b b9eb 73bd 9ff9 283d 7494 9dbd
000003e0: 7ac2 4abd f651 d43c 95cf 933d d878 363d
000003f0: ea83 8f3c 0db7 b83d a0f4 84bb 8e86 85bd

nodes.0.callable.fc2_x1.bias f4 [95]
0.022759466 0.03699788 0.046122245 -0.047646895 0.09916626 -0.040933006 -0.049720623 -0.10089865
0.04515044 -0.021818837 0.0009962763 -0.070146725 -0.07228037 0.07324736 -0.025461014 0.08728609
-0.031138336 -0.01333758 -0.03461927 -0.08283124 -0.030045763 -0.008327234 -0.048960753 -0.048724126
-0.0077528893 0.08564824 -0.076322936 0.051113173 0.022883957 0.10038414 0.089178756 0.098459594
-0.01965347 -0.089523606 -0.04798046 -0.039500248 -0.07230047 0.06598438 0.08659374 -0.063874446
-0.05010214 -0.06815953 -0.055118676 -0.05506755 0.0631278 0.039539453 0.07709676 0.07976698
0.091241576 -0.053317472 -0.03894152 0.016520746 -0.049793385 0.07002051 -0.008091916 -0.04829149
0.006239043 0.03867931 0.09543314 -0.0076660607 -0.0002639788 -0.027783291 0.05084645 -0.054865103
-0.11442278 0.0066666007 0.08325742 -0.01349401 -0.092832245 -0.00631182 -0.08859446 0.015663827
0.10147159 0.049649112 0.019914089 0.10536918 -0.020231115 -0.00020498032 -0.09009402 -0.062028617
0.05968116 -0.081269994 -0.09112221 0.031922452 0.09496808 -0.09055035 0.067951344 -0.04588788
-0.041593812 0.027537461 0.073973104 -0.091178626 -0.018922145 -0.07823772 -0.027817778
00000000: 0f72 ba3c 178b 173d aeea 3c3d 6429 43bd
00000010: ae17 cb3d 5ea9 27bd daa7 4bbd f4a3 cebd
00000020: abef 383d 6bbd b2bc 7c95 823a 16a9 8fbd
00000030: bb07 94bd b602 963d 9e93 d0bc 0dc3 b23d
00000040: d315 ffbc dd85 5abc f0cc 0dbd 6da3 a9bd
00000050: 8822 f6bc f36e 08bc 128b 48bd f392 47bd
00000060: f30b febb 5868 af3d 334f 9cbd 0c5c 513d
00000070: 2377 bb3c 3396 cd3d 5aa3 b63d 2fa5 c93d
00000080: 5000 a1bc 2758 b7bd 2987 44bd 03cb 21bd
00000090: 4512 94bd d222 873d 0f58 b13d 9bd0 82bd
000000a0: e737 4dbd 3997 8bbd 1fc4 61bd 838e 61bd
000000b0: 2649 813d 1ff4 213d e8e4 9d3d df5c a33d
000000c0: dddc ba3d 6c63 5abd 2581 1fbd 8456 873c
000000d0: 26f4 4bbd ea66 8f3d f593 04bc 4ccd 45bd
000000e0: e370 cc3b 326e 1e3d 7372 c33d 9433 fbbb
000000f0: a366 8ab9 c999 e3bc 5e44 503d 3bba 60bd
00000100: 7e56 eabd 8073 da3b de82 aa3d fb15 5dbc
00000110: d51e bebd 62d3 cebb 0371 b5bd 6d51 803c
00000120: 56d0 cf3d de5c 4b3d df22 a33c cccb d73d
00000130: b9bb a5bc fcef 56b9 3783 b8bd b811 7ebd
00000140: 3b74 743d e270 a6bd 489e babd 1ec1 023d
00000150: a07e c23d 7672 b9bd 132a 8b3d eef4 3bbd
00000160: 465e 2abd 3e96 e13c 367f 973d dcbb babd
00000170: 9d02 9bbc 193b a0bd 1ce2 e3bc

nodes.0.callable.fc_output_x1.weight f4 [2, 95]
-0.017284341 -0.05845798 -0.058478296 0.047569998 -0.082470685 -0.07028997 -0.046630997 -0.058843054
-0.003321131 -0.055381257 -0.0804054 0.0092961155 0.055561204 -0.043808285 -0.08239495 0.073156126
0.04547567 0.07633883 -0.041249495 -0.055821713 0.03601952 0.037715353 0.019074975 0.023761047
0.005398197 0.08553457 0.042546228 0.060717184 0.033358812 0.0760839 -0.06428831 -0.05257166
0.010810915 -0.0006323345 0.043664258 -0.043178845 0.005233577 0.05220761 0.050707057 -0.041981257
-0.034787316 -0.015612475 -0.075026296 0.042354908 0.012118689 -0.048707098 0.019600084 0.04380435
-0.090320684 0.05714986 0.057339527 -0.0576877 -0.048581604 -0.07131838 0.07248827 0.08074333
0.027002146 -0.019954776 -0.060686387 0.018126754 -0.014830884 0.04310229 0.015195754 -0.0236144
0.016234426 0.028345725 -0.0032847028 0.0113586495 0.014213213 -0.029849492 -0.059339687 0.033863515
-0.029720178 0.05649136 -0.060202897 -0.023790399 -0.078603 -0.054448325 0.08740783 0.010615163
-0.0139476685 -0.043705508 0.08789025 -0.023269746 0.05131788 0.050381474 -0.07171947 -0.01056115
-0.0052611 -0.04602806 0.025443684 0.0030915241 0.048059303 0.074040495 -0.06241112 -0.0059939604
0.019533431 0.0053974167 0.016889732 0.062786795 0.054033935 0.074466825 0.000774767 -0.044232886
-0.013869335 0.02063288 0.019834656 -0.0042159203 0.07131717 0.091888644 -0.06743856 -0.06551105
-0.04048191 0.0011541104 -0.0070593115 0.029794788 0.005397759 0.029182084 0.010753202 0.042569693
-0.05614129 -0.003670575 -0.027468998 0.009366478 0.00038672547 0.07075745 0.07334389 0.016838854
0.041647706 0.009087262 -0.011231274 0.018585503 0.050606105 -0.061286338 -0.026154982 0.064873494
-0.061426125 0.085452884 -0.08152696 -0.0003890641 -0.008367808 -0.044792492 -0.009569389 0.011747072
-0.033370715 -0.07549785 0.009649877 -0.029432794 -0.031258013 -0.014536194 -0.02727901 -0.07487548
0.06312098 0.09559633 -0.021905348 -0.0362207 0.012047611 -0.06426359 -0.031350903 -0.06977317
-0.0416344 0.029677873 0.039962996 -0.041511983 -0.010888061 0.010486122 -0.0620969 0.05629326
0.035282344 0.024816005 0.06878228 0.05906058 -0.042850863 -0.091342926 0.014410217 0.07188602
0.024157498 -0.03766353 0.08302873 0.0016003052 -6.455257e-05 0.027755128 -0.043270834 0.03152488
0.035907112 0.016428461 -0.056119844 0.0033232784 -0.05362996 -0.028725594
00000000: e497 8dbc a371 6fbd f086 6fbd c2d8 423d
00000010: 64e6 a8bd 30f4 8fbd 2500 3fbd 6a05 71bd
00000020: 55a7 59bb 75d7 62bd 96ab a4bd bc4e 183c
00000030: 2594 633d 5170 33bd afbe a8bd e1d2 953d
00000040: b244 3a3d 8857 9c3d 3bf5 28bd 4fa5 64bd
00000050: 3489 133d 6a7b 1a3d 1f43 9c3c 87a6 c23c
00000060: 5ce3 b03b c02c af3d f444 2e3d 95b2 783d
00000070: 40a3 083d e0d1 9b3d 97a9 83bd 6255 57bd
00000080: 4420 313c 40c3 25ba 4bd9 323d 4ddc 30bd
00000090: 6d7e ab3b a6d7 553d 34b2 4f3d 8af4 2bbd
000000a0: 257d 0ebd 77cb 7fbc 63a7 99bd 577c 2d3d
000000b0: 778d 463c 1881 47bd 5b90 a03c 316c 333d
000000c0: 0dfa b8bd f915 6a3d dadc 6a3d f049 6cbd
000000d0: 81fd 46bd 5f0f 92bd bb74 943d c25c a53d
000000e0: 9b33 dd3c 3378 a3bc 4a92 78bd 8f7e 943c
000000f0: 3cfd 72bc 078c 303d 9df7 783c fc72 c1bc
00000100: 0ffe 843c 4b35 e83c 2b44 57bb a119 3a3c
00000110: 89de 683c ec86 f4bc 2c0e 73bd 78b4 0a3d
00000120: bb77 f3bc 7c63 673d 5097 76bd 15e4 c2bc
00000130: 9cfa a0bd 3505 5fbd e002 b33d 38eb 2d3c
00000140: c384 64bc 8c04 33bd ceff b33d 32a0 bebc
00000150: b332 523d ce5c 4e3d a8e1 92bd ac08 2dbc
00000160: 4e65 acbb eb87 3cbd 466f d03c 2b9b 4a3b
00000170: d5d9 443d 8ba2 973d cda2 7fbd fc68 c4bb
00000180: 9304 a03c d0dc b03b 565c 8a3c 5d96 803d
00000190: b052 5d3d 1082 983d bc19 4b3a 8b2d 35bd
000001a0: 353c 63bc 4906 a93c 4a7c a23c b425 8abb
000001b0: bd0e 923d 1d30 bc3d 3a1d 8abd a82a 86bd
000001c0: 5cd0 25bd 8545 973a cc51 e7bb 3314 f43c
000001d0: afdf b03b 440f ef3c 332e 303c 8f5d 2e3d
000001e0: 69f4 65bd 088e 70bb aa06 e1bc db75 193c
000001f0: 6ac1 ca39 48e9 903d 5235 963d a3f1 893c
00000200: c996 2a3d bde2 143c 6103 38bc a040 983c
00000210: 5948 4f3d 6207 7bbd f942 d6bc 65dc 843d
00000220: f699 7bbd ec01 af3d 9bf7 a6bd 4dfb cbb9
00000230: 2119 09bc 5578 37bd edc8 1cbc cb76 403c
00000240: bbaf 08bd 9e9e 9abd 851a 1e3c 0b1d f1bc
00000250: 6708 00bd 3729 6ebc 3b78 dfbc 5158 99bd
00000260: 9345 813d 02c8 c33d d872 b3bc 285c 14bd
00000270: 5863 453c a19c 83bd ce69 00bd 3ce5 8ebd
00000280: d588 2abd 031f f33c 3db0 233d 7808 2abd
00000290: d663 32bc fccd 2b3c 5259 7ebd c393 663d
000002a0: 3884 103d ef4a cb3c b9dd 8c3d 82e9 713d
000002b0: 6384 2fbd 0012 bbbd d518 6c3c fa38 933d
000002c0: f2e5 c53c 1345 1abd f70a aa3d 55c1 d13a
000002d0: 6660 87b8 b95e e33c c23c 31bd 3c20 013d
000002e0: 5613 133d fb94 863c ecdd 65bd 5ccb 593b
000002f0: 17ab 5bbd f051 ebbc

nodes.0.callable.fc_output_x1.bias f4 [2]
-0.044661816 0.091644466
00000000: 4fef 36bd 18b0 bb3d

nodes.0.callable.fc1_x2.weight f4 [95, 95]
-0.03276711 0.09632667 0.090890385 0.123324335 -0.051958494 -0.031057782 -0.030627279 -0.07773328
-0.014599385 0.04552018 0.0074530295 0.1456085 -0.108365156 0.03356481 -0.08482568 0.045571163
-0.0014581278 -0.017963834 0.1084177 -0.038316775 0.020302722 0.07842939 0.024670513 0.029213201
0.0024991136 -0.04864468 -0.109020345 -0.038253486 0.068351686 -0.01704295 0.018803474 0.05366169
-0.03601522 -0.03722071 0.03098371 0.032979894 0.10953228 -0.006307943 -0.08688749 0.0045998134
-0.09498069 -0.087694585 -0.041676056 -0.042523187 -0.031218821 -0.08284075 -0.0487428 -0.09261519
-0.0039058332 0.19238159 -0.013158132 0.100647144 -0.02687377 -0.08164079 -0.003062963 -0.15181218
-0.02590143 -0.12667719 0.04743015 0.073630616 0.010282439 0.027593933 0.062107384 0.08838162
-0.045606486 0.04443557 -0.06137114 0.05281321 -0.05962215 -0.07614875 -0.07186314 -0.026631035
-0.044130325 0.07454978 0.09627323 3.5249425e-06 -0.012737353 -0.08022838 -0.032807216 -0.14916866
0.058660556 -0.085506305 -0.08743757 0.02707801 -0.0075494065 0.003166975 0.07041239 -0.006737455
0.024321713 -0.03603462 -0.048949685 -0.051339503 0.08452874 -0.068263076 -0.09378709 -0.09495607
-0.06857497 0.03599931 0.038875107 -0.012441148 -0.01887263 0.0046966556 0.08682102 0.03146759
-0.041408744 -0.03998563 0.07964908 0.079936005 0.035321653 0.04086749 -0.07181362 0.071440555
0.04769531 -0.062789395 0.078882694 0.058990136 0.0036046735 0.036991633 0.08862075 0.06298555
0.102557294 -0.05297732 -0.07477188 -0.0073836586 0.018114865 -0.015453541 0.05202666 0.06670867
0.09217453 0.032809075 -0.019014329 -0.0062039704 -0.085825875 0.09680609 -0.027187573 0.09180889
0.093496114 0.10093133 -0.03267284 0.044600394 0.031749517 0.0022699183 0.01834503 0.0764998
0.04325027 -0.08303161 0.048205275 0.08244341 -0.0975858 -0.05700584 -0.093784966 0.048471306
0.024256608 0.041764673 -0.0824126 -0.02678113 -0.0010938877 0.018358681 -0.085148126 -0.07963791
-0.0011976974 0.022058608 -0.068219244 0.055320304 -0.08489068 0.037445586 0.082869664 0.09233823
0.0983591 -0.053731084 0.105730526 -0.07528954 -0.028285244 -0.003320763 0.011998301 0.08216031
-0.034233786 0.09195836 -0.032258637 0.0019233435 0.04972069 -0.016646005 -0.08843638 -0.098005116
0.06463001 0.02553768 0.09637999 -0.032305628 0.08265746 0.052924152 -0.008836176 0.12167634
0.05231385 -0.010300735 -0.049410943 -0.06623001 0.033362355 0.037710473 -0.016769178 -0.11641414
-0.0027666525 0.07489423 0.044188112 -0.02550632 -0.09762407 0.08587458 -0.06382418 0.0903493
-0.007925311 0.0840847 0.011409856 0.010502612 0.010048773 0.08236268 -0.029429954 0.08976706
0.058634523 0.02176326 -0.0055280617 0.018252183 0.07064606 -0.026203133 -0.037431486 -0.02951057
-0.041168947 0.056119666 0.052869547 -0.05984775 -0.012745569 0.07602236 -0.027606897 0.019218234
0.048298504 0.026348917 0.07391746 0.092278056 0.02708549 0.060004696 -0.09972459 -0.004699827
0.09244589 0.08079926 -0.0015492918 0.033572588 0.107521296 -0.00018509463 0.019604562 0.0048408434
0.049359128 -0.020660408 0.068666115 -0.058413424 -0.052774705 -0.061209876 -0.02973524 -0.0039867517
00000000: ce36 06bd eb46 c53d bd24 ba3d 7891 fc3d
00000010: 6ed2 54bd e46c febc 0fe6 fabc a032 9fbd
00000020: 4232 6fbc 5e73 3a3d 8b38 f43b 651a 153e
00000030: 8dee ddbd 417b 093d 16b9 adbd d4a8 3a3d
00000040: a61e bfba e428 93bc 190a de3d 0df2 1cbd
00000050: e551 a63c 979f a03d d119 ca3c 8650 ef3c
00000060: 2bc8 233b a53f 47bd 0f46 dfbd b0af 1cbd
00000070: f8fb 8b3d a89d 8bbc be09 9a3c 5ccc 5b3d
00000080: b284 13bd be74 18bd 8dd1 fd3c ed15 073d
00000090: 7652 e03d dcb2 cebb 11f2 b1bd 08ba 963b
000000a0: 3c85 c2bd 3899 b3bd 83b4 2abd cb2c 2ebd
000000b0: 9dbe ffbc 69a8 a9bd 88a6 47bd 08ad bdbd
000000c0: 02f9 7fbb aeff 443e 3595 57bc 1720 ce3d
000000d0: 6126 dcbc 4933 a7bd febb 48bb a774 1bbe
000000e0: 3c2f d4bc aab7 01be 1e46 423d a6cb 963d
000000f0: ad77 283c ac0c e23c 5064 7e3d 6c01 b53d
00000100: decd 3abd 1202 363d 4e60 7bbd aa52 583d
00000110: 5b36 74bd e0f3 9bbd fb2c 93bd 5429 dabc
00000120: 00c2 34bd 8ead 983d e62a c53d 0d8e 6c36
00000130: 55b0 50bc c74e a4bd dc60 06bd abbf 18be
00000140: 0d46 703d ee1d afbd 7812 b3bd b4d2 dd3c
00000150: 0361 f7bb 068d 4f3b 5f34 903d dec5 dcbb
00000160: 543e c73c 0a99 13bd 777f 48bd 5f49 52bd
00000170: 671d ad3d 83cd 8bbd 7213 c0bd 5478 c2bd
00000180: 0971 8cbd 0374 133d 813b 1f3d f5d5 4bbc
00000190: c69a 9abc 67e6 993b 38cf b13d 29e4 003d
000001a0: 379c 29bd f9c7 23bd 0f1f a33d 7db5 a33d
000001b0: 70ad 103d ab64 273d 0513 93bd 6d4f 923d
000001c0: 285c 433d ba97 80bd 408d a13d a49f 713d
000001d0: 633c 6c3b 8a84 173d cc7e b53d 91fe 803d
000001e0: 8f09 d23d bffe 58bd 0022 99bd 9ef2 f1bb
000001f0: a065 943c d930 7dbc e819 553d 8e9e 883d
00000200: 00c6 bc3d cf62 063d f0c3 9bbc ad4a cbbb
00000210: 7ac5 afbd 4542 c63d 79b8 debc 4d06 bc3d
00000220: e47a bf3d 16b5 ce3d f5d3 05bd e7ae 363d
00000230: c80b 023d e9c2 143b 5148 963c edab 9c3d
00000240: 3227 313d 7a0c aabd e572 453d 17d8 a83d
00000250: 10db c7bd f57e 69bd 5512 c0bd d989 463d
00000260: cbb5 c63c 6f11 2b3d f0c7 a8bd 1a64 dbbc
00000270: c860 8fba f264 963c 2462 aebd 3319 a3bd
00000280: 0efc 9cba 41b4 b43c 88b6 8bbd 8b97 623d
00000290: 2adb adbd 8b60 193d 92b7 a93d d31b bd3d
000002a0: 7f70 c93d 2015 5cbd 3f89 d83d 6731 9abd
000002b0: 75b6 e7bc 28a1 59bb 8694 443c aa43 a83d
000002c0: ba38 0cbd aa54 bc3d a221 04bd b318 fc3a
000002d0: eca7 4b3d 345d 88bc 221e b5bd e8b6 c8bd
000002e0: bd5c 843d 6634 d13c df62 c53d e852 04bd
000002f0: 5048 a93d ffc6 583d 9cc5 10bc 7231 f93d
00000300: 0c47 563d 6ac4 28bc 2163 4abd 99a3 87bd
00000310: f7a6 083d 4c76 1a3d 845f 89bc 896a eebd
00000320: ba50 35bb 2562 993d 98fe 343d a1f2 d0bc
00000330: 21ef c7bd 03df af3d 40b6 82bd 0e09 b93d
00000340: 2ad9 01bc 9934 ac3d 68f0 3a3c 2613 2c3c
00000350: 9ca3 243c c4ad a83d 1617 f1bc cbd7 b73d
00000360: c12a 703d dd48 b23c be24 b5bb 9a85 953c
00000370: e2ae 903d f4a7 d6bc c251 19bd 27c0 f1bc
00000380: c5a0 28bd bcdd 653d bd8d 583d ea22 75bd
00000390: cbd2 50bc 9cb1 9b3d dc27 e2bc 8f6f 9d3c
000003a0: a7d4 453d afd9 d73c 0a62 973d 47fc bc3d
000003b0: 64e2 dd3c 7cc7 753d 683c ccbd 0201 9abb
000003c0: 4554 bd3d 157a a53d 9b11 cbba 6983 093d
000003d0: 2034 dc3d f615 42b9 bf99 a03c f09f 9e3b
000003e0: cc2c 4a3d 0440 a9bc d2a0 8c3d ea42 6fbd
000003f0: 4a2a 58bd 35b7 7abd 5197 f3bc 4ca3 82bb

nodes.0.callable.fc1_x2.bias f4 [95]
-0.016340705 0.09527224 0.015629623 -0.023461888 0.022669133 -0.020454528 0.024530819 -0.0126792835
-0.027438821 0.03190261 0.0014053762 -0.04863596 0.027058234 0.076962344 -0.050926726 0.0016751128
-0.08285813 -0.056194734 0.044793934 0.013552431 0.042072058 -0.03625018 -0.043074694 -0.042793844
0.03661222 -0.029599737 0.020376222 0.01563398 0.028067945 0.060564257 -0.025003504 -0.029533928
-0.01042353 -0.016495533 0.09980128 -0.04559237 -0.069787525 0.15364075 -0.014950123 -0.010476209
0.070902266 0.04150872 -0.033365197 -0.09325826 -0.10570426 0.008000362 0.0006906202 0.033995435
-0.010984442 -0.038936142 -0.05544494 0.006538801 -0.003138637 0.03510094 9.479968e-05 -0.0085350415
0.0054001575 0.009564213 -0.08981456 0.091373466 -0.046593416 -0.035212718 0.021290248 -0.048462786
0.049380638 -0.00598603 0.046921454 -0.018209346 -0.043766238 0.005212512 -0.015499426 -0.03335932
0.030332524 -0.08441525 0.019593056 0.023331242 0.07611808 -0.047086 0.090515725 -0.04765986
-0.15875384 0.06501384 0.009678371 -0.038872615 0.012121415 0.08829427 -0.055116456 0.04650157
-0.02558404 -0.10405151 0.07491078 0.08842673 0.010446341 -0.045435563 0.088686556
00000000: f1dc 85bc 181e c33d b209 803c 2533 c0bc
00000010: 9eb4 b93c 4190 a7bc dbf4 c83c c5bc 4fbc
00000020: 61c7 e0bc 50ac 023d 9a34 b83a 8036 47bd
00000030: 3ba9 dd3c 6f9e 9d3d 8b98 50bd 758f db3a
00000040: 86b1 a9bd 732c 66bd d879 373d 040b 5e3c
00000050: c053 2c3d 127b 14bd 176f 30bd 9948 2fbd
00000060: b2f6 153d 267b f2bc 09ec a63c d512 803c
00000070: bfee e53c 3a12 783d 26d4 ccbc 23f1 f1bc
00000080: 74c7 2abc a421 87bc 9d64 cc3d 11bf 3abd
00000090: c3ec 8ebd 0054 1d3e 5cf1 74bc 68a4 2bbc
000000a0: 3535 913d 0c05 2a3d f2a9 08bd 30fe bebd
000000b0: 7a7b d8bd f313 033c bd0a 353a cc3e 0b3d
000000c0: 17f8 33bc 817b 1fbd 3c1a 63bd 7043 d63b
000000d0: 97b1 4dbb 01c6 0f3d 31cf c638 8fd6 0bbc
000000e0: cef3 b03b 38b3 1c3c b2f0 b7bd 0322 bb3d
000000f0: bdd8 3ebd 363b 10bd e368 ae3c ea80 46bd
00000100: 5a43 4a3d 7626 c4bb b630 403d c42b 95bc
00000110: 3a44 33bd b8cd aa3b 4ef1 7dbc c8a3 08bd
00000120: ea7b f83c e7e1 acbd 9e81 a03c 2921 bf3c
00000130: cce3 9b3d 40dd 40bd 4f60 b93d fc36 43bd
00000140: 5e90 22be fa25 853d 0892 1e3c e438 1fbd
00000150: e698 463c a0d3 b43d cbc1 61bd 6e78 3e3d
00000160: 9f95 d1bc f518 d5bd d36a 993d 1319 b53d
00000170: 2127 2b3c a41a 3abd 4ca1 b53d

nodes.0.callable.fc2_x2.weight f4 [95, 95]
-0.09728124 -0.022272134 0.082531735 0.0048925215 -0.049400944 0.06139922 0.08783352 0.07341324
0.027083822 0.025093544 -0.022125922 0.06127038 0.08852808 -0.0461318 0.009320825 0.016110674
-0.078401305 -0.0662779 -0.04905704 -0.001484885 -0.038326044 -0.05483431 -0.061584618 0.014289129
-0.06588915 -0.05871438 -0.05632221 0.0052871206 -0.041577574 -0.07014743 0.050728396 0.016167603
-0.10038618 -0.010807964 -0.091894485 -0.0027701787 -0.041184466 -0.01537402 0.06924827 0.07026171
0.029861378 0.06818937 0.08182434 -0.0010809039 0.06654522 0.093846865 -0.05359946 -0.03215915
-0.04902093 -0.05905395 0.032012027 0.0269753 0.07690307 0.0646896 -0.077027105 0.015572333
-0.032982085 -0.10096529 -0.064615056 0.07626052 -0.030931557 0.06763154 -0.052164756 -0.014719692
0.04283815 0.006395027 -0.08420207 0.012061313 0.08639797 -0.0142857805 -0.0099747265 0.0017382047
0.03245615 -0.031172117 -0.03258757 -0.04519098 0.026040182 -0.0934887 0.11368892 0.07688058
0.090935215 0.096250646 -0.039524086 -0.017183773 0.059957873 -0.05271131 -0.02851015 -0.09440374
0.010252279 0.060474537 0.038154624 0.08777717 -0.051456027 -0.067107275 -0.06571578 -0.017787423
-0.074810416 -0.040042225 -0.027527083 0.016853888 0.08646982 -0.06692945 0.06288401 0.020657003
-0.03594181 0.06083681 -0.042435586 -0.092329174 -0.032445077 -0.047331862 -0.005235897 -0.086380675
-0.030449511 -0.09569785 -0.011816645 0.04496548 0.078232646 -0.044340674 0.011887788 -0.07654338
0.08849563 -0.09319328 0.07210326 -0.047002595 0.055898834 0.034205563 0.024231158 -0.02237417
0.088337064 -0.018456586 -0.052728675 -0.012963816 0.10906383 0.010423612 0.07369401 0.06226391
0.044861794 0.03743733 0.069513574 0.051640112 -0.026993131 -0.060819857 -0.06954953 0.057052728
-0.08650222 0.07150311 -0.01247155 0.067651056 0.09231114 -0.03136985 -0.0021741858 0.08449935
-0.09756076 -0.05735866 0.051828027 -0.09270491 0.02319487 -0.020255197 0.090824075 -0.0060480963
-0.09028376 -0.01606684 0.079258166 -0.09737367 -0.055020526 0.04499132 0.001209484 0.06296102
-0.0901034 0.05368461 -0.035206445 -0.038363174 0.021961877 -0.067025214 -0.09275523 0.055408824
0.012145172 -0.07181645 0.046221197 -0.08569892 -0.094393 -0.009653601 0.008967628 0.020205708
0.045677695 -0.07194483 0.08072607 0.035817478 -0.018757109 -0.041137114 0.0107596265 0.075098775
-0.017597608 0.07859556 0.10154484 -0.07282987 0.07365554 -0.110606864 -0.07328797 0.06700296
0.012147163 -0.047076687 0.08652414 0.0709392 -0.07404579 -0.1152608 -0.0127236 0.10067376
0.055265136 -0.031862177 -0.031382844 0.07882591 -0.05767677 0.06886206 -0.09036348 0.013583514
-0.032710724 0.048944112 -0.11612771 0.07149119 0.09499261 0.067906566 0.053212225 -0.0003496375
0.059543084 0.05959653 -0.07802637 -0.09441802 0.0815828 -0.07351322 -0.03291106 -0.050960172
0.04801618 -0.09921893 -0.08944835 0.029792326 0.018504381 -0.047268532 0.02599626 0.07876009
-0.063076146 -0.02193767 0.010608914 -0.030432682 -0.0300645 -0.07270795 -0.035837505 -0.05363386
-0.014511454 0.02221154 0.09073158 -0.06208031 -0.085598364 -0.09977856 0.083218664 0.0041367314
00000000: 633b c7bd 0d74 b6bc 6606 a93d 7251 a03b
00000010: a558 4abd c07d 7b3d 0fe2 b33d ae59 963d
00000020: e4de dd3c fa90 cd3c 6c41 b5bc a6f6 7a3d
00000030: 364e b53d b3f4 3cbd 60b6 183c 88fa 833c
00000040: dd90 a0bd b5bc 87bd 09f0 48bd 79a0 c2ba
00000050: c5fb 1cbd f199 60bd 2740 7cbd f31c 6a3c
00000060: e4f0 86bd 7d7e 70bd 1eb2 66bd 953f ad3b
00000070: 3f4d 2abd 75a9 8fbd 94c8 4f3d ec71 843c
00000080: 4597 cdbd e313 31bc 2d33 bcbd e38b 35bb
00000090: 0bb1 28bd 50e3 7bbc 09d2 8d3d 5fe5 8f3d
000000a0: d99f f43c dea6 8b3d 8593 a73d 1ead 8dba
000000b0: dc48 883d c932 c03d 1b8b 5bbd 50b9 03bd
000000c0: 2cca 48bd 8ee2 71bd 0b1f 033d 4efb dc3c
000000d0: 5b7f 9d3d fb7b 843d 63c0 9dbd 1923 7f3c
000000e0: 3918 07bd e4c6 cebd e654 84bd 7a2e 9c3d
000000f0: 2d64 fdbc 6882 8a3d b6aa 55bd dd2a 71bc
00000100: 0e77 2f3d 608d d13b 2372 acbd d09c 453c
00000110: 6bf1 b03d e80e 6abc 096d 23bc 79d4 e33a
00000120: bdf0 043d ab5c ffbc 8b7a 05bd 2d1a 39bd
00000130: 3852 d53c 0177 bfbd bdd5 e83d 9173 9d3d
00000140: 3e3c ba3d 0f1f c53d 02e4 21bd fcc4 8cbc
00000150: 6396 753d d1e7 57bd 1e8e e9bc bf56 c1bd
00000160: 2df9 273c 26b4 773d 0648 1c3d 84c4 b33d
00000170: 8ec3 52bd 8a6f 89bd ff95 86bd eeb6 91bc
00000180: 3436 99bd 5103 24bd 7a80 e1bc 2a11 8a3c
00000190: 1717 b13d 4f12 89bd 55c9 803d e038 a93c
000001a0: b837 13bd 0530 793d f0d0 2dbd 1417 bdbd
000001b0: 21e5 04bd 0edf 41bd e391 abbb 5ae8 b0bd
000001c0: 4171 f9bc 3cfd c3bd 9a9a 41bc b92d 383d
000001d0: 7038 a03d 919e 35bd ffc4 423c c7c2 9cbd
000001e0: 323d b53d 1edc bebd e0aa 933d cb85 40bd
000001f0: 2df6 643d 221b 0c3d 6c80 c63c 094a b7bc
00000200: 10ea b43d 4432 97bc 06fa 57bd 2f66 54bc
00000210: db5c df3d ccc7 2a3c e3ec 963d 7108 7f3d
00000220: 00c1 373d e357 193d 225d 8e3d 9584 533d
00000230: b320 ddbc 3e1e 79bd fc6f 8ebd 1fb0 693d
00000240: 1328 b1bd 3970 923d 7955 4cbc a38c 8a3d
00000250: 9f0d bd3d ac7d 00bd c97c 0ebb ff0d ad3d
00000260: f0cd c7bd eaf0 6abd a049 543d 12dc bdbd
00000270: 2b03 be3c 3aee a5bc f901 ba3d 1c2f c6bb
00000280: b1e6 b8bd 9b9e 83bc 1b52 a23d d96b c7bd
00000290: 345d 61bd d248 383d 8c87 9e3a b5f1 803d
000002a0: 2288 b8bd 65e4 5b3d a234 10bd b422 1dbd
000002b0: 65e9 b33c 8444 89bd 74f6 bdbd 5df4 623d
000002c0: 8bfc 463c 8114 93bd 7052 3d3d ea82 afbd
000002d0: 1e51 c1bd 232a 1ebc f5ec 123c 7186 a53c
000002e0: 8918 3b3d d057 93bd b653 a53d 59b5 123d
000002f0: 82a8 99bc 647f 28bd 2549 303c 63cd 993d
00000300: dc28 90bc b5f6 a03d bef6 cf3d d427 95bd
00000310: b7d8 963d da85 e2bd 0118 96bd d938 893d
00000320: e504 473c 7cd3 40bd 9133 b13d 9248 913d
00000330: 52a5 97bd db0d ecbd a576 50bc 0b2e ce3d
00000340: b25d 623d ea81 02bd 4c8b 00bd 7b6f a13d
00000350: 7a3e 6cbd 8d07 8d3d 7d10 b9bd 638d 5e3c
00000360: aefb 05bd 9f79 483d 5dd4 edbd f969 923d
00000370: 7c8b c23d 9912 8b3d 10f5 593d 8d4f b7b9
00000380: 73e3 733d 7e1b 743d 4acc 9fbd 3c5e c1bd
00000390: e214 a73d 198e 96bd bfcd 06bd 9dbb 50bd
000003a0: 9dac 443d 4b33 cbbd b230 b7bd 090f f43c
000003b0: 8096 973c a69c 41bd 1cf6 d43c f84c a13d
000003c0: 112e 81bd a1b6 b3bc 03d1 2d3c f64d f9bc
000003d0: d449 f6bc e8e7 94bd 59ca 12bd 2eaf 5bbd
000003e0: 73c1 6dbc faf4 b53c 7bd1 b93d ec47 7ebd
000003f0: 324e afbd b458 ccbd 8c6e aa3d 6b8d 873b

nodes.0.callable.fc2_x2.bias f4 [95]
0.115810126 0.05394881 0.08325529 0.004213817 -0.0344191 -0.063245624 -0.02822463 -0.078663304
0.0053669205 0.009496101 0.058617577 0.08904971 0.055072155 -0.04893838 -0.0146601815 -0.07566426
-0.035439964 -0.047225993 0.108041435 0.060342204 0.062483743 -0.104340866 0.013138148 -0.093647346
0.0614154 0.08042721 0.06765613 0.02864579 0.046383265 0.07257037 0.044710994 0.13365379
-0.0028139718 0.09701626 0.021349024 0.07030942 -0.010005605 -0.029076919 -0.021643033 0.11001298
0.08572167 -0.024224274 -0.07099068 -0.031159872 0.04798068 0.07299111 0.00108612 -0.013816329
0.00709821 -0.0867523 -0.08184537 0.05551249 -0.06707377 -0.08190456 -0.022524325 -0.08669127
0.022998173 -0.04123697 -0.03467761 0.07840026 -0.0033219943 0.019555239 0.10033719 -0.06733097
-0.066875435 -0.06827017 -0.04758585 -0.0015002082 -0.05787915 -0.029405495 -0.083747864 -0.015433068
0.011341082 0.082965754 -0.03616317 0.02889536 -0.088651076 0.015926357 -0.07267875 -0.009440754
0.041640382 0.007641589 -0.002823411 0.052445665 -0.007084813 -0.081154644 -0.08369322 -0.014157462
-0.08873102 -0.00726504 0.020792596 0.018471736 0.04908864 -0.08852799 0.08508573
00000000: dc2d ed3d 6df9 5c3d c081 aa3d 0f14 8a3b
00000010: 0bfb 0cbd ec86 81bd 5737 e7bc 3a1a a1bd
00000020: fedc af3b 8995 1b3c fc18 703d b25f b63d
00000030: 5793 613d 9c73 48bd 4231 70bc ddf5 9abd
00000040: 7f29 11bd 0b70 41bd d444 dd3d 6329 773d
00000050: f4ee 7f3d aab0 d5bd 6341 573c 2eca bfbd
00000060: b78e 7b3d 05b7 a43d 4c8f 8a3d 93aa ea3c
00000070: 61fc 3d3d c69f 943d e022 373d 8adc 083e
00000080: 9d6a 38bb 76b0 c63d 26e4 ae3c 63fe 8f3d
00000090: 8dee 23bc b832 eebc bb4c b1bc 7c4e e13d
000000a0: d88e af3d fc71 c6bc 9063 91bd fd42 ffbc
000000b0: 6487 443d 5d7c 953d 245c 8e3a e25d 62bc
000000c0: 1a98 e83b 31ab b1bd 8c9e a7bd 1161 633d
000000d0: f95d 89bd 94bd a7bd ef84 b8bc 318b b1bd
000000e0: aa66 bc3c 19e8 28bd 1c0a 0ebd 5190 a03d
000000f0: d1b5 59bb 4f32 a03c 967d cd3d d2e4 89bd
00000100: fdf5 88bd 3bd1 8bbd 61e9 42bd a2a2 c4ba
00000110: b012 6dbd cbe3 f0bc 0084 abbd fbda 7cbc
00000120: f2cf 393c f3e9 a93d d51f 14bd f6b5 ec3c
00000130: b28e b5bd fe77 823c 99d8 94bd 64ad 1abc
00000140: 1b8f 2a3d 4b66 fa3b fa08 39bb 44d1 563d
00000150: b827 e8bb 6834 a6bd 5a67 abbd b3f4 67bc
00000160: 9cb8 b5bd 930f eebb 3c55 aa3c 0a52 973c
00000170: 2b11 493d 2a4e b5bd 6d41 ae3d
