5min_model/nsteps_20/gumbel_states_model.pt (torch, 348868 bytes, 14 tensors)

nodes.0.callable.fc_input.weight f4 [140, 42]
0	0xbe54108a	-0.20709434
1	0xbc9ec3d5	-0.01938049
2	0x3dbaf4cd	0.09128723
3	0xbe031248	-0.12799942
4	0x3dbac8ab	0.09120306
5	0xbdd9d8bf	-0.10637044
6	0xbdf62f27	-0.12020712
7	0x3ce1c1bc	0.0275582
8	0xbe027d92	-0.12743214
9	0x3d251e9a	0.040312387
10	0x3d28723c	0.041124567
11	0xbe1ae0d8	-0.15124834
12	0xb89cfa2f	-7.48526e-05
13	0xbdecf300	-0.11569786
14	0x3d43e84b	0.047828954
15	0x3d68e19c	0.056855783
16	0xbb59dcd3	-0.0033243194
17	0xbe187b70	-0.14890838
18	0xbd0d7258	-0.034532875
19	0x3d806c37	0.0627064
20	0x3c558177	0.013031355
21	0x3d320f82	0.04347182
22	0xbe21e521	-0.15810062
23	0xbe0d4110	-0.1379435
24	0xbc9cefd7	-0.019157333
25	0x39f26cfa	0.0004623903
26	0xbb4e12a9	-0.0031444228
27	0xbe2781dc	-0.16358131
28	0xbd8e1025	-0.06936673
29	0xbd98ddf0	-0.07464206
30	0xbd94f855	-0.07273928
31	0xbccd9051	-0.02509323
32	0xbb806887	-0.0039187106
33	0xbe310496	-0.17286906
34	0xbe02490d	-0.12723179
35	0xbe324140	-0.17407703
36	0xbdf275aa	-0.11838849
37	0xbc32d7dd	-0.010915724
38	0x3d7c874a	0.06165246
39	0x3d12d3aa	0.03584639
40	0xbe2ca450	-0.16859555
41	0xbcd8fc8e	-0.026487615
42	0xbd0f6c8b	-0.035015624
43	0xbd76265b	-0.060095172
44	0x3d3e751e	0.04649841
45	0xbdc65098	-0.09683341
46	0xbdd4bac4	-0.10387185
47	0x3d053439	0.032520507
48	0xbdec438f	-0.11536323
49	0xbc9d6634	-0.019213773
50	0x3d6480af	0.055786785
51	0xbe02f2f5	-0.12787993
52	0xbba9efe4	-0.005186068
53	0xbc8e0e52	-0.017340813
54	0x3e02585e	0.12729022
55	0xbaf18f68	-0.0018429579
56	0x3d3693aa	0.044574417
57	0x3d184300	0.03717327
58	0x3db4028f	0.087895505
59	0xbd622cc8	-0.055218488
60	0xbb2ab0f2	-0.002604541
61	0x3c8254d1	0.015909584
62	0xbd7f8361	-0.062381152
63	0xbdd94d33	-0.10610428
64	0xbd154b06	-0.0364485
65	0x3cb9af30	0.022666544
66	0x3d7cae09	0.06168941
67	0xbdd0a37c	-0.10187432
68	0xbd5ee57e	-0.05441808
69	0xbd182369	-0.037143145
70	0x3d6d2ee0	0.05790603
71	0xbdc03ecf	-0.0938698
72	0xbdbbdcae	-0.09172951
73	0xbc2c5391	-0.010517971
74	0x3d6a873c	0.057257876
75	0xbda3d682	-0.079998985
76	0xbcdf533b	-0.027261367
77	0xbc8b4de3	-0.017004913
78	0x3c075939	0.008261018
79	0x3d147c07	0.036251094
80	0xbc9228cf	-0.017841725
81	0x3cdba13d	0.026810283
82	0x3cd39b43	0.02583087
83	0x3bf92506	0.0076032905
84	0x3e1e4fd2	0.15460137
85	0xbe4b1022	-0.19830373
86	0x381d2de3	3.7474452e-05
87	0x3d2cf086	0.04222157
88	0xbd65456a	-0.0559744
89	0xbc9423ca	-0.018083472
90	0x3d02b729	0.031912956
91	0x3d15e8ce	0.036598973
92	0xbcd5ebaa	-0.02611335
93	0x3a8ddc2e	0.0010823065
94	0xbc680dfa	-0.0141634885
95	0xbbc6c9be	-0.00606653
96	0xbb858bdf	-0.004075512
97	0x3bb9a110	0.005664952
98	0xbc0e10df	-0.008671015
99	0x3c90dabf	0.017682431
100	0x3d3d4823	0.046211373
101	0xbc925c33	-0.01786623
102	0x3cc3df0f	0.023910074
103	0x3d1126e5	0.035437483
104	0xbc4ab236	-0.01237159
105	0x3c33a9b9	0.010965758
106	0x3ad348f0	0.001611976
107	0x3b80c19e	0.003929331
108	0xbc489e22	-0.012244733
109	0xbca30695	-0.0199006
110	0x3c4e4ca9	0.012591519
111	0x3c415600	0.011800289
112	0x3ce879c0	0.028378367
113	0x3b9dd637	0.004816796
114	0xbc519900	-0.012792826
115	0x3be139f3	0.006873363
116	0x3d15cdd6	0.036573254
117	0x3be5eb16	0.00701655
118	0xbd074f5b	-0.033034664
119	0x3c3d22c3	0.011543932
120	0x3c9bc618	0.019015357
121	0x3b837751	0.0040120264
122	0xbb7bd06b	-0.0038423787
123	0xbb80fac7	-0.003936145
124	0xbbbe2ef7	-0.0058039385
125	0x3cdd4f0f	0.027015237
126	0xbe24b58e	-0.16084883
127	0xbdf7b335	-0.12094728
128	0x3d79faa1	0.061030034
129	0x3d01cbf1	0.031688634
130	0x3afd48a4	0.0019324017
131	0xbc80cde9	-0.015723186
132	0xbe160878	-0.14651668
133	0xbd3c8a23	-0.046030175
134	0x3c6aa56a	0.014321664
135	0xbdc6e9d0	-0.09712565
136	0xbda02faf	-0.07821595
137	0xbdafd41e	-0.0858538
138	0xbe133df4	-0.14379102
139	0xbe103612	-0.14083126
140	0xbd2479e7	-0.040155318
141	0x3d9e2609	0.077220984
142	0xbcf0a5ff	-0.029376028
143	0x3d320154	0.043458298
144	0xbe3a8acc	-0.1821701
145	0xbdb837e1	-0.08995033
146	0xbe0af351	-0.1356938
147	0x3a8d680a	0.0010788452
148	0xbd59c741	-0.05316854
149	0x3d07b68d	0.03313308
150	0xbd867a83	-0.06566336
151	0xbda23994	-0.079211384
152	0xbd8f6e75	-0.0700349
153	0xbc069f64	-0.008216713
154	0xbdd65a83	-0.104664825
155	0xbd39d439	-0.045368407
156	0x3d8185ea	0.0632437
157	0xbe050652	-0.12990692
158	0x3da99880	0.0828104
159	0xbd1dd39f	-0.038531896
160	0xbd6cf375	-0.057849366
161	0x3d8037c8	0.062606394
162	0x3d6a669e	0.05722677
163	0xbe1d384d	-0.15353508
164	0xbad1cfbc	-0.0016007344
165	0xbca0d671	-0.019633504
166	0x3d9ea146	0.07745604
167	0xbe33832e	-0.1753051
168	0x3dfc64b4	0.12323895
169	0x3e3831c8	0.1798774
170	0x3dbd66f4	0.092481524
171	0xbd9ba264	-0.07599333
172	0xbd794ae5	-0.06086244
173	0xbcd4f75b	-0.025996855
174	0xbdd21e43	-0.10259678
175	0x3ce27167	0.027641965
176	0x3d518a73	0.051157426
177	0xbd5f0e2f	-0.054456886
178	0x3bb6909f	0.0055714394
179	0x3ba36f66	0.004987645
180	0xbc7e34a4	-0.01551548
181	0x3d50b3f1	0.050952855
182	0x3c698184	0.01425207
183	0xba968e12	-0.0011486432
184	0x3bde39a2	0.0067817727
185	0xbd61654d	-0.05502825
186	0x3dae407e	0.08508395
187	0xbbb8ca28	-0.0056393333
188	0xbc759124	-0.0149882175
189	0x3d6e1956	0.05812963
190	0xbda2daf9	-0.07951922
191	0x3d16ffbc	0.03686498
192	0x3cb83552	0.022486363
193	0x3dadb96f	0.08482634
194	0x3d1a8fb5	0.037734706
195	0xbd352397	-0.044223394
196	0xbd07ee11	-0.033186022
197	0x3d19db35	0.037562568
198	0x3cadf678	0.02123569
199	0xbc79bedd	-0.015243259
200	0x3dc548c4	0.096330196
201	0xbcb66cd4	-0.02226869
202	0xbd493f68	-0.049132735
203	0x3db5c86b	0.08876117
204	0x3d2455b6	0.040120803
205	0x3b01eec3	0.001982615
206	0xbcd8d992	-0.026470933
207	0x3b406713	0.0029358312
208	0x3d6174d1	0.055043045
209	0x3d32dc3b	0.04366706
210	0x3d44100d	0.04786687
211	0x3d109118	0.035294622
212	0xbd604bcc	-0.054759786
213	0xbdb4b839	-0.088242
214	0xb75da28a	-1.3210471e-05
215	0xbd26f879	-0.040764306
216	0xbcfbfee3	-0.030761188
217	0xbd3c366f	-0.04595035
218	0xbd07b2b3	-0.033129405
219	0xbcd62cfc	-0.026144497
220	0xbd33be41	-0.043882612
221	0xbcc73b59	-0.024320291
222	0xbd51533b	-0.051104765
223	0xbccf2974	-0.025288321
224	0xbd1f747c	-0.038929448
225	0xbb1cc9ae	-0.0023923921
226	0xbd0789bd	-0.03309034
227	0xbb4ff627	-0.0031732412
228	0xbd338f65	-0.043837924
229	0xbcb1584e	-0.021648552
230	0xbc4ad63c	-0.012380179
231	0xbca34534	-0.01993046
232	0xbca17154	-0.01970736
233	0xba7968aa	-0.00095141924
234	0xbb5bc93e	-0.0033536698
235	0xbc5c7c0a	-0.013457308
236	0xbc799ceb	-0.015235166
237	0xbb4c1808	-0.0031142253
238	0xbc5a0a90	-0.013308182
239	0xbbcd84ad	-0.0062719197
240	0x3c1c98a7	0.0095578795
241	0x3bb2d45a	0.005457443
242	0xbc9f670d	-0.019458318
243	0x3bf82a64	0.0075734127
244	0xbc0ad160	-0.00847277
245	0x3aee7504	0.0018192832
246	0x3c348b01	0.011019469
247	0x3b2c6fa6	0.0026311665
248	0xbc0c2464	-0.008553598
249	0x3c02114d	0.007938695
250	0x3c57480a	0.013139734
251	0xbca29215	-0.019845048
252	0x3e944a15	0.2896277
253	0xbf5e05ca	-0.86727583
254	0xbbaadbd8	-0.0052141957
255	0x3d938d64	0.072047025

nodes.0.callable.fc_input.bias f4 [140]
0	0xbe065291	-0.13117434
1	0xbddd9fad	-0.10821471
2	0xbe51fd9f	-0.20506905
3	0xbdfc18f5	-0.12309448
4	0x3d355624	0.044271603
5	0x3dd6fd56	0.10497539
6	0xbe884ce3	-0.2662116
7	0xbe923435	-0.28555456
8	0xbe0b8082	-0.1362324
9	0xbd82a2e8	-0.06378728
10	0x3e7e533c	0.24836439
11	0xbe667687	-0.22506152
12	0x3de96681	0.11396504
13	0xbdf54b63	-0.119772695
14	0xbdc3917c	-0.09549233
15	0xbe4bfec7	-0.19921409
16	0x3ddb1d62	0.10698964
17	0xbd982700	-0.07429314
18	0xbe6478b3	-0.22311668
19	0x3f50625b	0.8140008
20	0xbe8b9441	-0.27261546
21	0xbdfed025	-0.12442044
22	0x3e9b205f	0.30298135
23	0xbd0b3973	-0.033990335
24	0x3e50d017	0.2039188
25	0x3d70b3f9	0.058765385
26	0xbe3cdad0	-0.18442845
27	0x3e2c459b	0.16823427
28	0x3dac8a2e	0.08424793
29	0x3c5b9a90	0.01340355
30	0x3b1af534	0.0023644688
31	0x3e46ff37	0.19433294
32	0x3e184120	0.14868593
33	0x3d635aad	0.055506397
34	0xbe4df2d4	-0.20112163
35	0x3f015d1b	0.5053269
36	0xbddeb9c1	-0.108752735
37	0xbe38836e	-0.18018886
38	0xbdc84431	-0.097786315
39	0xbe100398	-0.14063871
40	0xbdbef567	-0.093241505
41	0x3e5e9693	0.21737127
42	0x3ea345ec	0.31889284
43	0x3d3aa82b	0.045570534
44	0xbe47d16b	-0.1951348
45	0xbd9e75d0	-0.07737315
46	0xbe25c284	-0.16187483
47	0xbe2f788f	-0.17135833
48	0x3f6b4f08	0.9191747
49	0x3c8b2a74	0.016988017
50	0xbe66df54	-0.2254613
51	0xbe12169c	-0.14266437
52	0xbdcb1542	-0.09916164
53	0x3e14ff8a	0.14550605
54	0x3d2b42c3	0.041811716
55	0x3ecea325	0.40358844
56	0x3d67f00a	0.056625403
57	0x3d884549	0.0665384
58	0xbe12a373	-0.14320163
59	0xbdd44d72	-0.10366334
60	0x3e5bed2e	0.21477196
61	0x3db36c8b	0.08760937
62	0xbdc3bf72	-0.09558
63	0xbda3d6b6	-0.07999937
64	0x3dc9271a	0.09821911
65	0x3e8990f4	0.26868403
66	0x3dd8cd50	0.10586035
67	0x3dc7ade8	0.09749967
68	0x3ddddd36	0.10833208
69	0xbb9af6dc	-0.004729135
70	0xbdac0dda	-0.084010795
71	0xbda020b0	-0.07818735
72	0x3f037f19	0.5136581
73	0x3eb3a477	0.35086414
74	0xbd31002f	-0.043213066
75	0xbeaae607	-0.33378622
76	0x3d92ea2b	0.0717357
77	0x3d03330b	0.0320311
78	0xbdbfa753	-0.093580864
79	0x3ccb6cbb	0.02483212
80	0xbe344949	-0.17606081
81	0xbd36cee9	-0.04463092
82	0xbd7846a9	-0.06061426
83	0xbdebf6cb	-0.115216814
84	0xbe6257be	-0.22103783
85	0xbcae3338	-0.021264657
86	0x3e83c93c	0.25739467
87	0xbd356d4f	-0.044293698
88	0x3f1be5fe	0.60897815
89	0xbe071d59	-0.13194789
90	0xbe3d5fe5	-0.18493612
91	0xbe8d56ba	-0.2760523
92	0x3ec3268e	0.38115352
93	0xbe26a0fc	-0.16272348
94	0xbeb13316	-0.34609288
95	0xbd518c47	-0.05115917
96	0xbc84ba69	-0.016202169
97	0xbe6540a5	-0.22387941
98	0x3d58c1ce	0.0529192
99	0xbd086ffd	-0.033309925
100	0xbe39f10b	-0.18158357
101	0xbe1100f8	-0.14160526
102	0x3f4614d7	0.7737555
103	0x3e43026c	0.19043893
104	0x3d40c986	0.047067188
105	0x3e709a7c	0.23496431
106	0x3ea8a24c	0.32936323
107	0xbe2a7fc0	-0.16650295
108	0x3e28e993	0.16495351
109	0xbdb963a8	-0.09052211
110	0x3d031d05	0.032010097
111	0x3e26d7ab	0.16293208
112	0xbe031244	-0.12799937
113	0xbe021403	-0.12702946
114	0xbe0f3b15	-0.13987382
115	0xbd9e2976	-0.07722752
116	0x3da37052	0.07980408
117	0xbe2021bb	-0.15637867
118	0x3e011211	0.12604548
119	0x3ecd3ba0	0.40084553
120	0xbaf09807	-0.0018355855
121	0x3e05b724	0.13058144
122	0xbdbd6ecf	-0.09249651
123	0x3db93d37	0.09044879
124	0xbdbba81d	-0.091629244
125	0x3d865acb	0.06560286
126	0x3e9b72d0	0.30361032
127	0xbe939746	-0.2882635
128	0x3c938c81	0.018011333
129	0xbde5257c	-0.1118879
130	0x3da338ea	0.0796984
131	0x3ea39ef7	0.31957218
132	0xbe579fc2	-0.21057037
133	0xbeb51d49	-0.35373905
134	0xbe8f94fe	-0.2804336
135	0xbe362c6f	-0.17790388
136	0x3dd58eef	0.10427653
137	0x3deb3ff1	0.11486805
138	0x3f25e27c	0.6479871
139	0x3e2ee2a3	0.17078643

nodes.0.callable.fc1_x1.weight f4 [140, 140]
0	0xbd885128	-0.06656104
1	0xbc0649f4	-0.008196343
2	0x3cf3cb05	0.029759893
3	0xbd8cc71c	-0.068739146
4	0x3d565c7e	0.0523343
5	0xbd06ea0c	-0.03293805
6	0x3b360670	0.0027774833
7	0x3d4c04c6	0.04980924
8	0x3cf2cf83	0.029639965
9	0xbd234387	-0.03985932
10	0xbd14a177	-0.036286797
11	0x3d0aff5a	0.03393493
12	0x3d1fa26c	0.038973257
13	0x3d3acbc3	0.04560448
14	0x3aac076f	0.0013124774
15	0x3d948594	0.072520405
16	0xbc546832	-0.012964295
17	0xbbda4800	-0.006661415
18	0x3cc15fb2	0.023605201
19	0xbd896b8e	-0.067099676
20	0x3d5889e2	0.05286587
21	0x3c1b5072	0.009479629
22	0xbd67dc1e	-0.056606404
23	0x3da7797c	0.08177468
24	0x3d906427	0.070503525
25	0x3d83169c	0.06400797
26	0x3cbb1533	0.022837257
27	0x3d4744cf	0.048649605
28	0x3cda62c2	0.02665842
29	0x3d56bb3e	0.05242466
30	0x3b9e7e03	0.004836799
31	0x3c4e773f	0.012601673
32	0xbca9480f	-0.020664243
33	0xbb376e3c	-0.0027989289
34	0x3d319f2d	0.043364692
35	0x3dd21d63	0.10259511
36	0xbd589ae4	-0.05288209
37	0xbda13b74	-0.07872668
38	0xbbc2c8c2	-0.0059443424
39	0xbb7f9a0f	-0.0039001738
40	0xbd389cf0	-0.045071542
41	0x3d40df4c	0.047087952
42	0x3df6468c	0.120251745
43	0xbd874f82	-0.06606962
44	0xbc839c05	-0.016065607
45	0xbb8691df	-0.0041067447
46	0xbd2afefa	-0.04174707
47	0xbcaa6331	-0.020799251
48	0xbc98918e	-0.018624093
49	0xba99698f	-0.0011704433
50	0xbce9d84b	-0.02854552
51	0x3d589540	0.05287671
52	0x3ca3c2fe	0.01999044
53	0xbd516de3	-0.051130187
54	0xbd55dd46	-0.052212976
55	0xbc3afb6e	-0.011412485
56	0x3d495b30	0.04915923
57	0x3ca1d30e	0.019753959
58	0x3d599889	0.053123984
59	0x3d66b68e	0.05632644
60	0xbce72fb3	-0.028220987
61	0xbd2165e8	-0.039403826
62	0xbcdecc39	-0.02719699
63	0xbd9f8986	-0.077899024
64	0xbd36d8d7	-0.04464039
65	0xbd4b8142	-0.049683817
66	0x3cf04f4b	0.029334685
67	0x3cafd8ba	0.021465648
68	0xbc7585a8	-0.014985479
69	0x3b9c4b76	0.004769738
70	0x3c9bc049	0.019012587
71	0x3d084b1a	0.033274747
72	0xbca3f6a0	-0.02001506
73	0xbb1dc3bc	-0.0024072966
74	0xbd8d0a65	-0.06886748
75	0xbcc67fb4	-0.024230815
76	0x3d6cf6fb	0.057852726
77	0x3d876ab1	0.06612147
78	0x3d940879	0.072281785
79	0xbd06ac4f	-0.03287917
80	0x3d8d8431	0.06909979
81	0xbd81fe12	-0.06347288
82	0x3d71deae	0.059050255
83	0xbd39d279	-0.045366738
84	0x3d7817b3	0.060569476
85	0x3da63c11	0.081169255
86	0xbbf12dce	-0.0073601967
87	0xbd925795	-0.07145611
88	0x3d834900	0.06410408
89	0xbda89641	-0.08231784
90	0xbd8adc71	-0.06780327
91	0x3d65dd74	0.056119397
92	0xbc47d3ca	-0.012196491
93	0x3c26baef	0.010176404
94	0x3ca81dc0	0.020521998
95	0x3d477f2d	0.04870527
96	0x3c63ba62	0.013899418
97	0x3d8b22ed	0.06793771
98	0x3da385eb	0.07984527
99	0xbb196386	-0.0023405268
100	0x3d6e7700	0.058218956
101	0x3d36ea9c	0.044657335
102	0x3dcaeb5e	0.09908174
103	0xbc7de1c5	-0.015495722
104	0xbc9bfbc3	-0.019040948
105	0x3c3dfa27	0.0115952855
106	0x3d293fe8	0.04132071
107	0xbd6e5e99	-0.058195684
108	0x3c35bcfd	0.011092422
109	0x3d2d39db	0.042291503
110	0xbd3fb93b	-0.04680751
111	0x3d079e7b	0.033110123
112	0xbd6048f0	-0.05475706
113	0xbd87ab9b	-0.06624528
114	0xbcb11e03	-0.021620756
115	0x3d1c0ed3	0.038100075
116	0xbd89b98a	-0.06724842
117	0x3d08388c	0.033257052
118	0x3d3a257e	0.04544591
119	0x3c22b551	0.0099309245
120	0xbd34e6d1	-0.044165436
121	0xbd714e73	-0.058912706
122	0xbbc20235	-0.0059206733
123	0xbce0f090	-0.02745846
124	0x3b283357	0.0025665367
125	0xbd6a30ce	-0.05717545
126	0xba87ce2f	-0.001036113
127	0xbd81cb8a	-0.0633765
128	0x3b3ff77b	0.0029291797
129	0x3d195058	0.037430137
130	0xbc12fba6	-0.0089711305
131	0x3d0df527	0.034657624
132	0x3cf7f632	0.030268762
133	0x3cea699d	0.028614813
134	0xbcb8259b	-0.02247887
135	0x3d4c218b	0.049836677
136	0x3d1b01bf	0.037843462
137	0x3d2c7b2d	0.042109657
138	0xbaea8e27	-0.0017895148
139	0x3e0bd866	0.13656768
140	0x3d534dcf	0.051587876
141	0x3db659a5	0.08903817
142	0x3ca93032	0.020652864
143	0xbd8b5cac	-0.06804785
144	0x3ac2b01b	0.0014853509
145	0xbcf5df53	-0.030013716
146	0x3d9c1278	0.0762071
147	0x3e09543d	0.1341104
148	0xbd7ee8fb	-0.062233906
149	0x3cc0dfbb	0.023544183
150	0x3d82143b	0.06351515
151	0xbd07c7ed	-0.03314965
152	0x3cfb14ab	0.030649504
153	0x3d730e12	0.05933959
154	0x3dad8a82	0.08473684
155	0xbd61d3af	-0.055133518
156	0xbdbc6d12	-0.09200491
157	0xbbea4e80	-0.007150471
158	0x3aca8649	0.0015451397
159	0x3d98efb1	0.074675925
160	0x39912086	0.00027680787
161	0x3c767920	0.015043527
162	0xbd566bed	-0.05234902
163	0xbcd3c5a0	-0.02585107
164	0xbd2eefe2	-0.04270924
165	0x3cc59c5c	0.02412241
166	0xbb067a5f	-0.0020519716
167	0xbd061aa6	-0.032740258
168	0x3d4e9f99	0.050445173
169	0xbd4171c6	-0.047227643
170	0xbd839509	-0.064249106
171	0xbe02876a	-0.12746969
172	0xbcd02de4	-0.025412507
173	0xbd875696	-0.06608312
174	0x3cc2fcb7	0.023802144
175	0xbceeb1da	-0.02913754
176	0x3d4ba5c1	0.049718622
177	0xbd26d988	-0.040734798
178	0x3cc01d79	0.023451554
179	0x3d5d7f07	0.05407622
180	0x3d9aaa2a	0.075519875
181	0x3d35cb82	0.044383533
182	0x3d2b761c	0.041860685
183	0x3d2a06a9	0.041510258
184	0x3d7114c4	0.058857694
185	0xbc0e267e	-0.008676169
186	0x3d0321a8	0.03201452
187	0x3d85ca79	0.06532759
188	0x3d209e2c	0.039213344
189	0xbd0fff47	-0.03515556
190	0xbcb808df	-0.022465168
191	0x3d818e37	0.063259535
192	0x3b3c8ae4	0.0028769309
193	0x3cfa346f	0.03054258
194	0xbd6c86a1	-0.05774558
195	0xbc57a1d9	-0.013161146
196	0xbcbf9fd4	-0.023391642
197	0x3da1c7e3	0.078994535
198	0xbcde0d2f	-0.027105896
199	0x3d2751bc	0.040849432
200	0x3d53b9c3	0.051690828
201	0x3d805597	0.06266325
202	0x3d62ab81	0.05533934
203	0xbb71baf3	-0.0036885112
204	0x3d64a46a	0.05582086
205	0x3d78142d	0.060566116
206	0x3c80155f	0.01563519
207	0x3d32098c	0.043466136
208	0xbd8abe81	-0.06774617
209	0xbd583d83	-0.052793037
210	0x3d3f131e	0.04664909
211	0xbd43ad21	-0.04777253
212	0xbb85c90a	-0.0040828036
213	0x3d8af831	0.0678562
214	0xbd0f2119	-0.034943674
215	0x3cd9eea7	0.026603056
216	0x3c5f78be	0.013639627
217	0x3d9b4194	0.075808674
218	0xbd693b48	-0.0569413
219	0x3c3f571f	0.011678486
220	0x3c819ce1	0.015821876
221	0xbd89c922	-0.06727816
222	0x3be4e9b3	0.006985867
223	0xbd871ef1	-0.065976985
224	0x3ddc3351	0.10751975
225	0xbd2ce16a	-0.04220716
226	0xbd571ca9	-0.052517567
227	0x3cc89a83	0.02448774
228	0xbdad96db	-0.08476039
229	0xbd21f9b2	-0.03954477
230	0x3ce25b31	0.027631374
231	0xbc9b35ff	-0.018946646
232	0xbcfa2b82	-0.030538324
233	0xbc46627d	-0.012108442
234	0xbc91c88d	-0.017795825
235	0x3d5522f3	0.052035283
236	0x3d02a2d4	0.031893566
237	0xbd253dd0	-0.040342152
238	0xbd414e7a	-0.04719398
239	0xbd593f01	-0.0530386
240	0x3da1d5e5	0.07902125
241	0x3d8d0f90	0.06887734
242	0x3d02dc14	0.031948164
243	0x3cd232a2	0.02565891
244	0xbd0e2ce9	-0.0347108
245	0x3c9a382e	0.018825617
246	0xbdc904c0	-0.09815359
247	0xbd47ea5f	-0.048807498
248	0xbd5046f4	-0.050848916
249	0xbdaa1b44	-0.08305982
250	0xbd71a2f7	-0.058993306
251	0x3ca6c5b2	0.02035794
252	0x3cc14c6a	0.023596007
253	0x3da1fe92	0.079098836
254	0x3d9724ca	0.07380064
255	0xbc85e082	-0.016342405

nodes.0.callable.fc1_x1.bias f4 [140]
0	0x3d878b2f	0.06618344
1	0x3cafb052	0.02144638
2	0xbbb00b6f	-0.0053724567
3	0xbd818680	-0.06324482
4	0x3d3e76ce	0.04650002
5	0xbda71373	-0.081580065
6	0xbba3e36c	-0.005001476
7	0xbc4971b1	-0.012295173
8	0x3d9b9c99	0.07598228
9	0x3d7c7fc8	0.0616453
10	0x3da6f51e	0.08152221
11	0xbdd27ffb	-0.102783166
12	0xbd42d4d1	-0.04756624
13	0x3d756118	0.05990705
14	0x3d360a53	0.04444344
15	0xbd949783	-0.07255461
16	0x3c84f90c	0.016232036
17	0xbc877747	-0.016536368
18	0xbd80e9da	-0.06294604
19	0x3cfe2734	0.031024553
20	0xbb26ef36	-0.002547217
21	0xbc984871	-0.01858923
22	0xbd67c3f8	-0.056583375
23	0x3d1df2c2	0.03856159
24	0xbdaad958	-0.08342236
25	0x3d868047	0.06567436
26	0xbb2f6b3b	-0.0026766795
27	0xbcfad847	-0.030620707
28	0xbd89684c	-0.06709346
29	0x3cf67b36	0.030088048
30	0x3dec752a	0.11545785
31	0x3c011c7a	0.0078803245
32	0xbd7f49d6	-0.062326275
33	0x3d981654	0.07426134
34	0x3b0c38b9	0.0021396114
35	0xbd3f8414	-0.04675682
36	0xbdaee4fd	-0.0853977
37	0xbb33e909	-0.0027452132
38	0xbd8ba34d	-0.068182565
39	0x3cb3ef8b	0.021964809
40	0x3d25fd45	0.04052474
41	0xb9eaec44	-0.0004480799
42	0xbd5f8c1e	-0.054576986
43	0xbdccdddb	-0.10003253
44	0xbd8b7ba8	-0.06810695
45	0xbd9686dd	-0.07349942
46	0xbd2faf96	-0.04289206
47	0x3da5bc04	0.08092502
48	0xbd9177ba	-0.07102914
49	0xbdb31167	-0.087435536
50	0xbd132ac7	-0.035929468
51	0xbd776ddd	-0.06040751
52	0x3c565608	0.013082035
53	0x3d7ad99e	0.061242692
54	0x3d8dfda0	0.06933141
55	0xbda013f8	-0.07816309
56	0x3d71de99	0.059050176
57	0xbd96d7ab	-0.07365354
58	0x3cf1916f	0.029488293
59	0x3c8fd0f9	0.0175557
60	0x3d44eb38	0.048075885
61	0x3d9541cb	0.0728794
62	0x3d33de38	0.043913096
63	0x3d5aeecd	0.053450394
64	0x3dc6bbff	0.09703826
65	0xbba3b401	-0.0049958234
66	0xbc941af2	-0.018079255
67	0x3d952127	0.07281714
68	0x3d8e4221	0.06946207
69	0x3d89905a	0.06716986
70	0x3d2f37db	0.042777877
71	0xbd5701b4	-0.05249186
72	0xba3825f6	-0.00070246996
73	0x3da99138	0.082796514
74	0xbc7681f3	-0.015045631
75	0x3cbcbadd	0.023038322
76	0xbd05d50b	-0.032673877
77	0xbdabf0f6	-0.08395569
78	0x3d0c0166	0.03418102
79	0xbcbe2345	-0.023210177
80	0xbd9036a5	-0.070416726
81	0x3ad47be5	0.001621124
82	0x3cd49900	0.025951862
83	0xbcd5a112	-0.02607778
84	0xbdb97740	-0.09055948
85	0x3e15127d	0.14557834
86	0x3dc9688a	0.09834392
87	0x3d9b3099	0.07577629
88	0x3d725ca0	0.059170365
89	0x3cfc2beb	0.03078266
90	0xbb8a06e8	-0.004212249
91	0x3ad17cbf	0.0015982612
92	0xbd7e7f26	-0.062132977
93	0x3d08d414	0.03340538
94	0x3dafbb46	0.085806414
95	0x3d6904af	0.056889232
96	0x3c980749	0.018558161
97	0xbd6d5393	-0.05794103
98	0xbd304889	-0.043037925
99	0xbd9a7f66	-0.075438306
100	0x3d532e85	0.051558036
101	0xbdae4753	-0.08509698
102	0x3c2ab3c5	0.010418837
103	0x3d707bd3	0.058711838
104	0x3d7d6eb8	0.061873168
105	0xbc51e608	-0.012811191
106	0xbad96d5b	-0.0016588377
107	0xbc98f0d2	-0.01866952
108	0xbd3acf2c	-0.04560773
109	0xbc5ac317	-0.013352177
110	0x3c29e9ab	0.010370652
111	0xbc80b693	-0.015712058
112	0x3bc50e09	0.006013636
113	0x3d259215	0.040422518
114	0x3ce4dc5f	0.027937112
115	0x3c9779a7	0.018490626
116	0x3d486b4f	0.048930462
117	0xbd875519	-0.06608028
118	0x3d87c860	0.066300154
119	0xbd00f4e5	-0.03148355
120	0xbdc6b012	-0.097015515
121	0xbd6e96a8	-0.058249146
122	0xbc0f38bb	-0.008741553
123	0xbcffd93e	-0.031231519
124	0x3cb5bcfb	0.02218484
125	0xbdb94eab	-0.09048208
126	0xbc52f940	-0.012876809
127	0x3d63418d	0.055482436
128	0xbd8d3ecd	-0.06896744
129	0xbd69f76c	-0.057120726
130	0xbd8e7bdf	-0.0695722
131	0x3da610d5	0.08108679
132	0x3d7b70bf	0.06138682
133	0x3cff48c3	0.031162625
134	0x3cb769ff	0.02238941
135	0xbdaaa361	-0.08331943
136	0x3cd4b79f	0.025966464
137	0x3b07da0e	0.0020729336
138	0x3d9723c1	0.073798664
139	0xbd067c03	-0.03283311

nodes.0.callable.fc2_x1.weight f4 [140, 140]
0	0x3d195eb4	0.03744383
1	0xbcb2844d	-0.021791602
2	0x3d47c729	0.04877392
3	0xbd8639b7	-0.06553977
4	0x3a166e99	0.0005738526
5	0x3d7f24ef	0.062291082
6	0xbc1a8600	-0.009431362
7	0xbcdf7094	-0.027275361
8	0xbc946645	-0.018115172
9	0xbd1063c6	-0.0352514
10	0xbc7c347d	-0.015393374
11	0xbd567be0	-0.05236423
12	0xbcad5023	-0.021156376
13	0xbc71273a	-0.014718825
14	0xbd1b3836	-0.037895404
15	0xbb05a6a8	-0.0020393524
16	0x3d64c238	0.055849284
17	0xbd76d996	-0.0602661
18	0x3c06c8f3	0.008226621
19	0xbd1df605	-0.0385647
20	0x3c1356a2	0.008992823
21	0x3c6c3e3e	0.014419137
22	0x3d1e7807	0.038688686
23	0x3cfad07f	0.030616997
24	0xbcb44101	-0.022003653
25	0x3cf1f389	0.029535072
26	0xbc15fb16	-0.009154102
27	0x3c4a4ce7	0.0123474365
28	0xbc579cea	-0.01315997
29	0x3d4501ff	0.048097607
30	0x3d8c84e3	0.06861284
31	0x3ccf1d17	0.025282426
32	0x3c573ddb	0.013137306
33	0xbc66b42b	-0.014081041
34	0x3d307e86	0.043089412
35	0xbd88a7fd	-0.06672666
36	0x3d07716c	0.033067152
37	0xbdb8c88e	-0.09022628
38	0x3cfdbb8b	0.030973217
39	0xbcc1db26	-0.023664068
40	0xbd495a69	-0.049158487
41	0xbcb8a0dd	-0.022537643
42	0xbd675b5f	-0.056483623
43	0xbce5179e	-0.027965363
44	0x3d6beaa8	0.057596833
45	0xbddeb17d	-0.10873697
46	0xbd714815	-0.058906633
47	0x3d4a515f	0.049394008
48	0x3ce5a507	0.028032793
49	0xbca06a2e	-0.01958188
50	0xbcb68b37	-0.02228318
51	0xbc265a32	-0.01015334
52	0xbd158b97	-0.036510076
53	0x3d065355	0.032794315
54	0xbcf37959	-0.029720949
55	0xbd370de0	-0.044690967
56	0x3baedd6e	0.005336455
57	0x3d3d62f4	0.046236947
58	0x3cf56eaa	0.029959995
59	0xbd311c5c	-0.043239936
60	0xba81594b	-0.000986853
61	0x3ce606e7	0.028079463
62	0xbc817fe0	-0.015808046
63	0x3d802888	0.06257731
64	0x3d85faa9	0.0654195
65	0x3d6a4f8f	0.05720478
66	0xbd4cd9cd	-0.0500124
67	0x3c412c8e	0.011790408
68	0xbd8d1af0	-0.068899035
69	0xbda4e961	-0.08052326
70	0x3b4fb206	0.0031691804
71	0x3ce65caa	0.028120358
72	0x3cbad166	0.022804927
73	0x3c03d66e	0.0080467295
74	0xbd2c1ab0	-0.04201764
75	0xbb99191e	-0.0046721837
76	0xbd63630e	-0.055514388
77	0xbaaa68be	-0.0013001186
78	0xbd8de3a9	-0.06928188
79	0xbcb07e23	-0.021544522
80	0x3d07ce14	0.033155516
81	0xbc837141	-0.016045215
82	0x3d1ae9d0	0.037820637
83	0x3c06b86c	0.008222681
84	0x3c96fe70	0.018431872
85	0xbb8ca23b	-0.0042918003
86	0x3d861c7f	0.06548404
87	0xbca69112	-0.020332847
88	0xbd60a1e2	-0.054841883
89	0x3be2ed86	0.0069252877
90	0xbd34dfa5	-0.044158597
91	0x3c6e98c5	0.01456279
92	0x3d402893	0.046913695
93	0xbd1dd436	-0.03853246
94	0x3d00cb51	0.031443898
95	0xb95c981b	-0.00021037499
96	0x3d7c2825	0.061561722
97	0x3c699efe	0.014259098
98	0x3c30bd06	0.010787254
99	0x3d1f823c	0.03894256
100	0x3cbe20dd	0.02320903
101	0xbc089c29	-0.008338013
102	0xbc3a1f5b	-0.011360015
103	0x3c90155a	0.017588306
104	0xbd3be793	-0.045875143
105	0x3d792725	0.060828347
106	0x3c13fbef	0.009032234
107	0xbdb42ed9	-0.08797998
108	0xbde21c82	-0.11040594
109	0xbd82b90d	-0.06382952
110	0xbd84eb81	-0.06490231
111	0xbd893bf7	-0.067008905
112	0x3d26bc63	0.040707003
113	0xbba66cba	-0.005078879
114	0xbca80d6e	-0.020514216
115	0xbdd801fa	-0.10547252
116	0x3bd1af47	0.0063990685
117	0xbd11c5ce	-0.035589032
118	0xbd945983	-0.072436355
119	0xbc813b85	-0.015775451
120	0xbd93a19a	-0.072085574
121	0x3d57b4b3	0.052662563
122	0xbcc0e3fd	-0.023546213
123	0x3cff7796	0.031184953
124	0xbcd5511e	-0.026039656
125	0xbcc73b29	-0.024320202
126	0x3d7dbf49	0.061950002
127	0xbcaea674	-0.021319605
128	0x3d5354e4	0.05159463
129	0xbcf5acfe	-0.029989716
130	0xbd425d79	-0.047452424
131	0x3d1b4ee9	0.03791705
132	0x3d8515b0	0.06498277
133	0x3d79b20b	0.06096081
134	0xbc04eff0	-0.008113846
135	0x3d365304	0.044512764
136	0xbd645b44	-0.0557511
137	0xbb3b23a1	-0.0028555172
138	0x3b5fd5d1	0.0034154544
139	0xbcf09b83	-0.029371029
140	0xbcc88da4	-0.024481602
141	0x3d02e2d1	0.03195459
142	0x3d7fcd89	0.062451873
143	0x3dc6a907	0.09700208
144	0x3daefc11	0.085441716
145	0x3d4a533b	0.04939578
146	0xbbc3d986	-0.0059768585
147	0xbd4b6a7d	-0.049662102
148	0xb9c0a7ee	-0.0003674621
149	0xbd1785e8	-0.036992937
150	0xbd6580ad	-0.056030918
151	0xbd50f492	-0.05101449
152	0xbd005b01	-0.031336788
153	0xbd4ab977	-0.04949328
154	0xbd90bcd9	-0.0706727
155	0xbbcb4cd7	-0.0062042284
156	0xbd904140	-0.070436954
157	0xbd72fb80	-0.05932188
158	0xbc9c7b3e	-0.019101735
159	0x3cec0a3d	0.028813476
160	0xbbf2c024	-0.007408159
161	0xbd130f01	-0.03590298
162	0x3d804416	0.06262986
163	0x3c9bcb56	0.019017857
164	0x3cd3c559	0.025850939
165	0x3da0f283	0.078587554
166	0xbd823544	-0.06357816
167	0x3d5d87cc	0.054084584
168	0x3cab6659	0.020922827
169	0x3c6a6ada	0.014307702
170	0x3d78a09f	0.060700055
171	0xbd3b91ee	-0.045793466
172	0xbccf35a5	-0.025294134
173	0xbd3ad4b8	-0.04561302
174	0xbccffb34	-0.025388338
175	0xbca905e7	-0.020632697
176	0xbd385f8c	-0.045012996
177	0xbd192710	-0.03739077
178	0xbd4bfd33	-0.049802016
179	0xbdb09beb	-0.08623489
180	0xbdd3825c	-0.103275985
181	0x3cc7edc7	0.024405373
182	0xbd60786b	-0.05480234
183	0x3b7d76e0	0.0038675591
184	0xbccefd2b	-0.025267204
185	0xbdfcd6ff	-0.12345695
186	0x3c0143c0	0.007889688
187	0xbcf19162	-0.02948827
188	0xbd35eebf	-0.04441714
189	0xbd3ada17	-0.045618143
190	0xbdb0fe19	-0.08642215
191	0x3cd749e3	0.02628035
192	0x3d6d746f	0.057972368
193	0xbe03d7ce	-0.12875292
194	0xbc24e070	-0.010063276
195	0xbd4f77ea	-0.05065147
196	0xbb8391ed	-0.0040151984
197	0xbcdd8a91	-0.027043613
198	0x3c4e22c2	0.012581529
199	0x3d3c1c2d	0.045925308
200	0xbd915c93	-0.07097735
201	0x3d97f067	0.074189
202	0x3bb00173	0.0053712665
203	0x3d8dcf2f	0.06924283
204	0xbd4b16e0	-0.049582362
205	0xbd9263de	-0.071479544
206	0xbd616ba0	-0.05503428
207	0xbd93a5db	-0.07209369
208	0xbdb584c9	-0.088632174
209	0x3c6e8014	0.014556903
210	0x3da42f2c	0.0801681
211	0x3d960fef	0.07327258
212	0xbc22e732	-0.009942817
213	0xbccf5ff0	-0.025314301
214	0x3da676c8	0.081281245
215	0xbcec5a58	-0.028851673
216	0xbdcb3858	-0.09922856
217	0xbd4e05f1	-0.050298635
218	0x3bb93e4f	0.0056531797
219	0xbd42c7c5	-0.047553796
220	0xbd823adb	-0.06358882
221	0xbcd4ee3d	-0.025992507
222	0xbc6a4afc	-0.014300104
223	0xbd4f1905	-0.05056097
224	0x3cfbed76	0.030752879
225	0xbd40ec26	-0.04710021
226	0xbd97a734	-0.07404938
227	0xbc7936a4	-0.015210781
228	0x3ae10dbb	0.001717023
229	0xbd00a511	-0.03140742
230	0xbd1f675e	-0.038916938
231	0x3d1c3502	0.03813649
232	0xbc9d03dc	-0.01916688
233	0x3d2e8a57	0.0426124
234	0x3d4397be	0.047752135
235	0xbd9da1ae	-0.076968536
236	0x3bf62188	0.0075113215
237	0x3cc56973	0.024098134
238	0x3cb3dd7d	0.0219562
239	0xbd8fb8df	-0.07017683
240	0x3d24b4c7	0.040211465
241	0x3d2ed2a3	0.042681348
242	0xbcca7851	-0.024715574
243	0xbcb5b607	-0.022181524
244	0x3ce15996	0.027508538
245	0xbd3f0f94	-0.046645716
246	0x3b1b5006	0.002369882
247	0x3d4b11a4	0.04957737
248	0xbd3b82bd	-0.04577898
249	0xbd5f2dcb	-0.05448703
250	0x3d34a925	0.04410662
251	0xbd138c05	-0.036022205
252	0xbcf21e46	-0.029555451
253	0xbdae145f	-0.08499979
254	0x3ce9e6da	0.028552461
255	0xbb977ff8	-0.0046234094

nodes.0.callable.fc2_x1.bias f4 [140]
0	0xbd01b1cb	-0.031663697
1	0xbd1d65bb	-0.038427096
2	0x3cf2dfac	0.02964767
3	0x3da03834	0.0782322
4	0xbadedd1f	-0.0017003155
5	0xbd185e72	-0.037199445
6	0x3c9020c0	0.017593741
7	0xbdd43e0a	-0.103633955
8	0xbc8d638c	-0.017259382
9	0x3d0514f8	0.0324907
10	0xbdc9e905	-0.09858898
11	0x3e8a7e14	0.27049315
12	0xbd698ec1	-0.057020906
13	0x3cdc722d	0.026909912
14	0xbd1925ed	-0.037389684
15	0xbd9a9647	-0.075481944
16	0x3d92b783	0.07163908
17	0xbdc25b2f	-0.09490048
18	0x3d373c6e	0.044735365
19	0x3bffd444	0.0078072865
20	0xbc630ee2	-0.013858529
21	0xbda7def1	-0.081968196
22	0x3c247879	0.010038489
23	0xbd905ac5	-0.07048563
24	0x3d0ae27b	0.033907395
25	0xbd89bb6d	-0.06725202
26	0x3cc6a4ba	0.02424847
27	0xbd4404ed	-0.04785626
28	0xbdaf6780	-0.08564663
29	0xbd56fac5	-0.052485246
30	0xbd077a1a	-0.03307543
31	0x3d1b1bfc	0.037868485
32	0xb9538c12	-0.00020174708
33	0x3d536200	0.051607132
34	0x3d9d5acf	0.07683336
35	0x3ce39edd	0.027785713
36	0x3da8a929	0.0823539
37	0x3da3c62f	0.07996785
38	0x3dd5561f	0.10416817
39	0xbd17b242	-0.037035234
40	0x3dae8f51	0.08523429
41	0xbdb6f1fe	-0.08932875
42	0x3d7c776f	0.06163734
43	0xbd6de673	-0.0580811
44	0x3c869abe	0.016431209
45	0xbda0f8b8	-0.07859939
46	0x3c9d4820	0.019199431
47	0x3de5ef44	0.11227277
48	0x3dc35a6e	0.095387325
49	0x3dbee7e1	0.09321571
50	0xbd88b15d	-0.06674454
51	0xbca8defd	-0.020614142
52	0xbdb6dd2a	-0.089289024
53	0x3d1bff81	0.038085464
54	0x3d7d0585	0.061772842
55	0xbcec2a47	-0.028828753
56	0x3be922b8	0.0071147345
57	0x3d5befe6	0.05369558
58	0x3dba7921	0.09105135
59	0x3d208b4c	0.039195344
60	0xbdc53b0c	-0.09630403
61	0x3e0835ec	0.1330182
62	0x3c279ef3	0.010230768
63	0xbcb59887	-0.022167457
64	0xbd4122f6	-0.047152482
65	0xbd4d881b	-0.05017863
66	0xbdb0adcd	-0.086269
67	0x3d3fc99d	0.046823133
68	0x3f3bea44	0.73404336
69	0xbb623e03	-0.0034521825
70	0xbbb64f67	-0.0055636647
71	0x3d4bc61b	0.049749475
72	0xbd163f0f	-0.03668123
73	0xbc4fedcb	-0.012690972
74	0xbd6e1e8d	-0.058134604
75	0xbd776c83	-0.06040622
76	0x3e146e4e	0.14495203
77	0x3c2a7b36	0.010405352
78	0x3bab223a	0.005222586
79	0x3d4e59cf	0.050378617
80	0x3d6c627c	0.05771111
81	0xbdb85d54	-0.09002176
82	0x3de9a122	0.11407687
83	0xbd9aeb8e	-0.0756446
84	0x3d87948f	0.06620132
85	0xbd0f6ef7	-0.035017934
86	0x3d1d768c	0.038443133
87	0x3b32b5a9	0.0027268922
88	0xbd0375c0	-0.032094717
89	0x3d3042a9	0.043032322
90	0x3c0e4be6	0.008685088
91	0xbd9bafcb	-0.07601889
92	0xbbaf72a5	-0.005354243
93	0x3d1bbe9b	0.038023572
94	0xbc334cf6	-0.010943642
95	0x3c59620f	0.013268008
96	0x3d340cd6	0.043957554
97	0x3d9ffa6e	0.078114375
98	0xbda45980	-0.08024883
99	0x3da42d4f	0.080164544
100	0x3d5503b8	0.0520055
101	0xbccc67f6	-0.024951916
102	0x3c3fd780	0.011709094
103	0xbd0018e6	-0.031273745
104	0x3c7e8321	0.015534193
105	0x3b45ca08	0.0030180234
106	0xbc6edb97	-0.0145787215
107	0xbdd499f7	-0.10380929
108	0xbd139c62	-0.03603781
109	0xbd87e44e	-0.066353425
110	0x3b243dc3	0.0025061227
111	0xbdebf8c2	-0.11522056
112	0xbdc4447f	-0.09583377
113	0x3d93cfdf	0.07217383
114	0xbddb8a95	-0.10719792
115	0x3b2d8263	0.0026475422
116	0x3d5d939e	0.054095857
117	0x3d220998	0.03955993
118	0xbd8d5759	-0.06901426
119	0x3c74f617	0.0149512505
120	0xbc7c83d0	-0.015412286
121	0x3b43b448	0.0029862095
122	0xbd21b792	-0.039481707
123	0x3c05f8d9	0.008177006
124	0xbd9ceb51	-0.076620705
125	0x3ceb8993	0.028752124
126	0xbc197036	-0.009365132
127	0xbd66bee6	-0.0563344
128	0xbda7808e	-0.08178817
129	0x3d5f630d	0.05453782
130	0x3d08335f	0.033252116
131	0x3c480c49	0.01220996
132	0xbd19ba49	-0.03753117
133	0x3da2371d	0.07920668
134	0x3c2c3a8b	0.010512005
135	0xbdf5683c	-0.11982772
136	0x3b1d9437	0.0024044642
137	0x3bc9b932	0.00615611
138	0x3cc0e5ac	0.023547016
139	0xbdb289f6	-0.0871772

nodes.0.callable.fc_output_x1.weight f4 [2, 140]
0	0x3d6a7f70	0.05725044
1	0x3b54dbb4	0.0032479586
2	0x3aa8d857	0.0012881857
3	0x3c461286	0.012089377
4	0x3a163eb1	0.00057313876
5	0xbd48c0ab	-0.049011867
6	0x3cfff68e	0.031245496
7	0xbd890aec	-0.06691536
8	0x3acac0b6	0.0015468809
9	0xbd30795a	-0.04308448
10	0x3a2485d6	0.00062760466
11	0xb835564c	-4.3234133e-05
12	0xbdaacff1	-0.08340443
13	0xbd6f8aa2	-0.05848182
14	0xb9b9b437	-0.0003542022
15	0xbd8aa385	-0.0676947
16	0x3d309553	0.043111157
17	0xbd5845c9	-0.052800927
18	0x3a2f7512	0.0006693165
19	0x3a2a37bb	0.000649329
20	0x3a10a503	0.0005517753
21	0x3a3021c7	0.00067189004
22	0x3d23fac5	0.040034074
23	0xbd713153	-0.05888493
24	0x3ad588ae	0.0016291344
25	0x3a17bed5	0.0005788629
26	0x3d58d378	0.052936047
27	0xbcab4207	-0.020905508
28	0xbd8838c1	-0.0665145
29	0x3a1e4c4c	0.0006038591
30	0x3d0102b7	0.03149673
31	0xbd6702aa	-0.056399025
32	0xb8606045	-5.349542e-05
33	0xbdaac0e3	-0.083375715
34	0x3b41bde7	0.0029562654
35	0x3d99ab7b	0.075034104
36	0x3d825af7	0.063650064
37	0x3d88d6dc	0.06681606
38	0x3dc56515	0.096384205
39	0xbd821502	-0.06351663
40	0x3dc0f996	0.09422605
41	0x3a236a5c	0.00062338053
42	0x3d98f305	0.07468227
43	0xbd762ac6	-0.060099386
44	0x3d2a58fb	0.041588765
45	0x3aad6bdc	0.0013230997
46	0x3aa05962	0.0012233669
47	0x3c6ec38b	0.014572988
48	0x3d8a836c	0.06763348
49	0x3aa3be55	0.0012492636
50	0x3a915366	0.0011087477
51	0xbd6433a8	-0.055713326
52	0xbda74d92	-0.08169092
53	0x3db3077c	0.08741662
54	0xbd4115f3	-0.047140073
55	0x3ac34871	0.0014898909
56	0x3a56d285	0.0008194822
57	0x3d865738	0.065596044
58	0x3a2e0acc	0.0006639182
59	0x3a9d2e78	0.0011991998
60	0xbda13405	-0.0787125
61	0x3de6bc31	0.112663634
62	0x3cab9c08	0.020948425
63	0x3ab76801	0.0013992788
64	0x3a09c9b7	0.0005256193
65	0xbd80abe4	-0.062827855
66	0xbd17fb41	-0.03710485
67	0x3d2afe59	0.04174647
68	0xb84064b9	-4.5870172e-05
69	0x3d89a6b2	0.06721248
70	0xbd8efd01	-0.069818504
71	0x3d06f8f0	0.03295225
72	0x3b542ce7	0.0032375397
73	0x3a3d9450	0.0007231878
74	0xbd6a43bf	-0.057193514
75	0x3a861922	0.0010230879
76	0x3dc70dd5	0.09719435
77	0x3c5b1bcd	0.013373327
78	0x3a50f5b6	0.0007971184
79	0x3c9e6bb8	0.019338474
80	0xbd574ba6	-0.05256238
81	0x3a4b9682	0.0007766263
82	0x3c82536d	0.015908921
83	0x3b20b433	0.002452147
84	0x3c3135df	0.0108160665
85	0x3d57903a	0.05262778
86	0x3d99b8cb	0.075059496
87	0x3d0e8d07	0.034802463
88	0x3da305f6	0.07960121
89	0x3a530dcb	0.00080510665
90	0x3a277581	0.0006388054
91	0xbdaa7fa4	-0.08325127
92	0xbdb91895	-0.09037892
93	0x3a199554	0.00058587384
94	0xbdb0c33e	-0.086309895
95	0x3d446248	0.04794529
96	0xbd1a591e	-0.037682645
97	0x3d847919	0.0646841
98	0xba848020	-0.0010108985
99	0x3d461bcf	0.048366364
100	0x3d7012c8	0.05861166
101	0x3a042ee7	0.00050423894
102	0x3a471344	0.00075941184
103	0x3a66f864	0.0008810817
104	0xbd75c6fb	-0.060004216
105	0xbda07e6d	-0.07836614
106	0x3d16c08c	0.03680472
107	0x3aa6528c	0.0012689396
108	0xbd98b746	-0.07456832
109	0xbd6ff40e	-0.058582358
110	0x3a1834f2	0.00058062293
111	0x3a32edc6	0.0006825592
112	0x3a5120e4	0.00079776184
113	0x3b336187	0.0027371363
114	0x3a1f4f76	0.0006077209
115	0x3a208bfb	0.00061243743
116	0xbd2bfff2	-0.041992135
117	0x3d753294	0.05986269
118	0xbd443bb6	-0.047908507
119	0xbd8e0603	-0.069347404
120	0x3a3f02c2	0.0007286483
121	0x3da296d2	0.07938923
122	0xbd5fdddb	-0.054654937
123	0x3d133c30	0.03594607
124	0xba06d429	-0.00051433087
125	0x3d600b16	0.054698072
126	0x3c3477df	0.011014908
127	0xbd831c0c	-0.06401834
128	0x3ab5fc7b	0.0013884449
129	0x3d312ebe	0.043257467
130	0x3a3e65a8	0.0007263073
131	0x3d26ff53	0.04077084
132	0x3d095620	0.0335294
133	0x3da6bcd4	0.08141485
134	0xbd3a54ca	-0.045491017
135	0xbdb4d244	-0.088291675
136	0xbd9246f6	-0.07142441
137	0x3a14ebfc	0.00056809164
138	0x3aaf47d7	0.001337285
139	0x3a314d7e	0.00067635614
140	0xb8287e3a	-4.017188e-05
141	0x396b95dc	0.00022467173
142	0xb8da94b4	-0.00010422748
143	0xbd52a05b	-0.05142246
144	0x3a051cc4	0.0005077834
145	0xb9f42e1a	-0.00046573655
146	0xb705016c	-7.927749e-06
147	0xba127c4c	-0.00055879797
148	0xbd00abaf	-0.03141373
149	0xba1f9554	-0.000608762
150	0x3a080549	0.0005188776
151	0x3607758d	2.0184991e-06
152	0xba9161e4	-0.0011091796
153	0xba01284c	-0.0004926964
154	0xbe0be45f	-0.13661335
155	0xba4e571a	-0.00078712555
156	0xb739477d	-1.1043504e-05
157	0xb9e3bd28	-0.00043437746
158	0x3a05f6e6	0.0005110338
159	0x39ca05c9	0.00038532753
160	0x39e64d15	0.0004392645
161	0x3a167214	0.0005739045
162	0xb779c859	-1.4888204e-05
163	0xba09640b	-0.0005241043
164	0x3dd27ecf	0.10278093
165	0x39fa0b7a	0.00047692267
166	0xb880ae38	-6.1359664e-05
167	0xba92fd1e	-0.0011214351
168	0xba0071e4	-0.00048997835
169	0x3a19393e	0.00058450166
170	0xb8ff6018	-0.000121772464
171	0xba63bfcc	-0.0008687943
172	0xbdec9204	-0.11551288
173	0xbab0a8cc	-0.001347804
174	0xb9981fe6	-0.00029015465
175	0xb924d899	-0.00015720948
176	0x36b2d9df	5.330177e-06
177	0xb91734c1	-0.00014420135
178	0xb81f8b3e	-3.8038233e-05
179	0xb9d02f85	-0.00039708256
180	0x38ac7fdd	8.2254155e-05
181	0x39ff0b19	0.00048645659
182	0xb94ac150	-0.00019336236
183	0xb9e1764c	-0.00043003482
184	0xb9c8c003	-0.00038290033
185	0xb9350fa2	-0.00017267329
186	0xb9068d06	-0.00012831771
187	0xb8a042df	-7.64185e-05
188	0x38941511	7.061114e-05
189	0x3dc5eafe	0.09663962
190	0xb93582a2	-0.0001731017
191	0xb9ca0a86	-0.00038536283
192	0xba68c74c	-0.0008879795
193	0xb9920c2e	-0.00027856365
194	0xb9eb64c7	-0.00044897778
195	0x38691c63	5.5577966e-05
196	0x39a76452	0.00031927467
197	0xb936162d	-0.00017365134
198	0x3e4854dc	0.19563621
199	0xbd218947	-0.03943756
200	0xba56a359	-0.0008187793
201	0xb97b9eb6	-0.0002399635
202	0x39306853	0.00016823532
203	0x3de09636	0.109661505
204	0x39e7f5ab	0.0004424279
205	0xba0be25d	-0.000533616
206	0xb9f7b8ad	-0.00047249105
207	0xbbcac542	-0.0061880657
208	0xb6cc59f6	-6.0901466e-06
209	0xb8d21beb	-0.000100187804
210	0xba4cdd7a	-0.0007814985
211	0xb8043cd6	-3.152791e-05
212	0x38948da8	7.0835755e-05
213	0x3a0a584d	0.000527744
214	0xb9b984d3	-0.00035384911
215	0x3dba42b2	0.09094752
216	0x3827d75b	4.0016468e-05
217	0xbb8f4d54	-0.004373232
218	0x39b52bd8	0.00034555676
219	0xb790610b	-1.7211327e-05
220	0xba00ba96	-0.0004910616
221	0x39ccd857	0.00039071098
222	0x3c877a30	0.016537756
223	0xbb2ae04e	-0.0026073637
224	0xb5821526	-9.69191e-07
225	0x37edd77f	2.835295e-05
226	0xb6a3df24	-4.8837555e-06
227	0xb626bfa2	-2.4847473e-06
228	0xb90f8cc9	-0.0001368999
229	0x39fd59d2	0.00048322842
230	0x3a1da350	0.000601341
231	0xbac9d10e	-0.0015397386
232	0xba9c105d	-0.0011906732
233	0x39f89895	0.0004741593
234	0xba927080	-0.0011172444
235	0xb876dcdb	-5.8856658e-05
236	0xba107d7f	-0.00055118644
237	0x3839edae	4.4328794e-05
238	0xbd9fd533	-0.078043364
239	0xb9858b1a	-0.00025471376
240	0xb956be9f	-0.00020479642
241	0x3a0cdd65	0.00053735665
242	0x39e861a0	0.00044323225
243	0x39a90d76	0.0003224422
244	0xba2b32d3	-0.0006530706
245	0xbab6b9cc	-0.001394087
246	0xb8fcccc7	-0.00012054439
247	0xb962e6ff	-0.00021639092
248	0xba8d1e2e	-0.001076644
249	0xba6e29cb	-0.0009085207
250	0x3e0a05ba	0.13478747
251	0x39dc84b8	0.00042060553
252	0x39fb4668	0.00047926907
253	0x38c7ad0f	9.521294e-05
254	0x3a0a5045	0.00052762433
255	0x39ffee0b	0.00048814746

nodes.0.callable.fc_output_x1.bias f4 [2]
0	0x3d8d0540	0.06885767
1	0x3c891fa4	0.01673872

nodes.0.callable.fc1_x2.weight f4 [140, 140]
0	0x3d155d7f	0.036466118
1	0xbdcf5002	-0.10122682
2	0x3d192a5f	0.037393924
3	0x3d1e4f7f	0.038650032
4	0x3d8d7453	0.06906953
5	0xbc744749	-0.014909574
6	0xbcda51aa	-0.026650269
7	0x3d32987f	0.043602463
8	0xbca15ddc	-0.019698076
9	0xbd96db45	-0.07366041
10	0xbd0e511f	-0.03474533
11	0xbd1985c0	-0.03748107
12	0x3d1d3ab3	0.038386058
13	0x3b62032e	0.0034486759
14	0x3d2469c2	0.04013992
15	0x3baf378f	0.0053471993
16	0x3d55b549	0.05217484
17	0xbd3ff67e	-0.046865933
18	0x3d9eb7d3	0.077499054
19	0x3c0ebcda	0.008712018
20	0xbc972795	-0.018451491
21	0xbd83fc74	-0.06444636
22	0x3dbeeada	0.09322138
23	0x3d9974eb	0.074930035
24	0x3d1229e5	0.035684485
25	0xbd77d92d	-0.06050985
26	0x3c76ec1e	0.015070943
27	0x3ca8a99d	0.02058869
28	0x3ca8e568	0.020617202
29	0xbc9e30c6	-0.019310366
30	0x3d1ced4d	0.038312245
31	0x3c81ffa9	0.015868979
32	0xbda44c49	-0.08022363
33	0x3d76a9cb	0.06022052
34	0x3ce34cd7	0.027746601
35	0x3d448a35	0.047983367
36	0x3d93b1f7	0.072116785
37	0x3d70e17e	0.058808796
38	0x3d3244d6	0.04352268
39	0x3ca2657f	0.019823788
40	0xbc58e2a8	-0.013237633
41	0xbd95568f	-0.072919
42	0x3cbaaa53	0.022786295
43	0x3c98523d	0.018593902
44	0x3d4923d1	0.049106423
45	0xbcbb9ac2	-0.022900943
46	0xbce3c4ca	-0.027803797
47	0xbc429ea1	-0.01187864
48	0x3c8599b1	0.016308637
49	0x3d887db7	0.06664603
50	0x3d8659ae	0.06560074
51	0xbd7f3a2e	-0.062311344
52	0xbcf1f304	-0.029534824
53	0xbd6a47a4	-0.057197228
54	0xbcf3e760	-0.029773414
55	0x3d8e69a3	0.06953742
56	0xbd77c367	-0.060489085
57	0x3affcd10	0.001951607
58	0xba9f0333	-0.0012131691
59	0x3d632e89	0.0554643
60	0xbd9877eb	-0.074447475
61	0x3d72225b	0.059114795
62	0xbd3ee5f3	-0.046606015
63	0xbd89ff2f	-0.067381255
64	0xbd81b82f	-0.06333958
65	0x3d438eb9	0.047743533
66	0x3d53c85e	0.051704757
67	0x3cd9e691	0.0265992
68	0x3d94c49b	0.07264062
69	0xbdaa0b0f	-0.083028905
70	0x3d8b62f7	0.068059854
71	0xbc3c2e5f	-0.011485665
72	0xbdf8b857	-0.12144535
73	0xbbc297e0	-0.005938515
74	0x3d45151f	0.048115846
75	0xbc717d07	-0.0147392815
76	0x3ceab7b8	0.028652057
77	0x3c19c8de	0.009386269
78	0xb9912839	-0.00027686523
79	0xbcae67c8	-0.021289721
80	0x3d4e0c77	0.050304856
81	0x3d4b867a	0.049688794
82	0x3d65db6f	0.05611747
83	0xbd5b75e6	-0.053579234
84	0x3dc5b7d7	0.09654205
85	0xbd0f365a	-0.034963943
86	0x3d795bc7	0.06087854
87	0xbd153ea0	-0.036436677
88	0x3cdc01c1	0.026856305
89	0xbb3a98b6	-0.002847237
90	0xbd4cfe02	-0.05004693
91	0xbcef9cf7	-0.029249651
92	0x3d481243	0.04884554
93	0x3d2fcee3	0.042921912
94	0x3cf17723	0.029475754
95	0x3d2a48f0	0.041573465
96	0x3d2f9938	0.04287073
97	0x3d8bd3de	0.0682752
98	0xbd8a7b05	-0.06761745
99	0xbd76af94	-0.060226038
100	0xbc8e19f3	-0.017346358
101	0x3d09bb6c	0.033626005
102	0xbd9206f3	-0.07130232
103	0xbcfac0b6	-0.03060947
104	0xbc83763a	-0.016047586
105	0xbd9fc030	-0.07800329
106	0x3d1f1aed	0.038844038
107	0xbb8cc8b9	-0.004296389
108	0xbc2a1b18	-0.010382436
109	0xbd6f4af9	-0.05842111
110	0xbdb0d1dc	-0.086337775
111	0x3cd40011	0.025878938
112	0x3d994d1c	0.074854106
113	0x3ce9d934	0.028545953
114	0x3daaa34a	0.08331926
115	0xbd146ab4	-0.036234573
116	0x3c663888	0.014051564
117	0x3a2e2a51	0.0006643879
118	0x3cfa0053	0.030517733
119	0xbd72ecb0	-0.059307754
120	0xbd165713	-0.036704134
121	0x3d587ffa	0.052856423
122	0x3d3ecf9f	0.04658472
123	0x3c903af0	0.017606229
124	0xbd8748df	-0.06605696
125	0x3d43d5f4	0.047811463
126	0x3db16a4a	0.08662851
127	0x3d56787d	0.052361
128	0x3c0f0146	0.008728331
129	0x3cbeebc4	0.023305781
130	0x3af4f6e6	0.0018689304
131	0xbd98691d	-0.07441924
132	0x3d254be8	0.040355593
133	0x3c69980f	0.014257445
134	0x3d8b1d36	0.06792681
135	0x3dd9e95d	0.10640214
136	0xbd0b40b3	-0.03399725
137	0x3d09368f	0.033499297
138	0xbe20e058	-0.1571058
139	0xbd97db22	-0.07414843
140	0xbce83951	-0.028347643
141	0x3d08f60e	0.03343778
142	0xbd820356	-0.063482925
143	0x3d96d915	0.07365624
144	0x3d6d4470	0.057926595
145	0xbc622b6a	-0.013804296
146	0xbdb3cf21	-0.08779741
147	0x3d64e25a	0.05587993
148	0xbd9bc758	-0.07606381
149	0xbc693b63	-0.01423535
150	0x3d129125	0.03578295
151	0xbceaefc2	-0.028678779
152	0xbd64fa8e	-0.05590301
153	0x3d99ee81	0.07516194
154	0x3c6e22a7	0.014534629
155	0x3db72346	0.08942275
156	0x3daa1204	0.083042175
157	0xbaa8493f	-0.0012839212
158	0x3dbdbad1	0.09264148
159	0x3c2870fa	0.010280842
160	0xbd8d9aff	-0.06914329
161	0xbd6908d0	-0.05689317
162	0xbd489a48	-0.04897526
163	0x3d65b1d2	0.056077786
164	0x3d5e00c5	0.054199953
165	0xbb6c7502	-0.0036080484
166	0xbd957aac	-0.072987884
167	0xbd4d134c	-0.05006723
168	0xbc2e70e1	-0.01064703
169	0x3c8d3cae	0.017240848
170	0x3c587345	0.013211076
171	0xbbc3c5ea	-0.005974521
172	0x3d4c755a	0.049916603
173	0xbd586d49	-0.052838597
174	0x3d3916e3	0.045187842
175	0x3b97a39e	0.004627659
176	0xbd73be18	-0.05950746
177	0xbd7fa57b	-0.062413674
178	0x3c7d1261	0.015446276
179	0xbcdb8b1c	-0.026799731
180	0x3cd9472b	0.026523193
181	0x3d5eccde	0.054394595
182	0x3cff606f	0.031173913
183	0x3d1dfd6a	0.038571753
184	0xbd5c2a4f	-0.053751286
185	0xbd17f33a	-0.037097193
186	0xbd8e931a	-0.06961651
187	0x3cd4d44f	0.025980143
188	0x3d84b265	0.064793386
189	0xbc81ab48	-0.015828744
190	0x3d994d0a	0.07485397
191	0xbd6caac8	-0.057780057
192	0x3d6e7da2	0.05822528
193	0x3d135267	0.035967257
194	0xbc3e6802	-0.011621477
195	0x3d640aaa	0.055674233
196	0xbd6ed4df	-0.05830848
197	0xbc9821b9	-0.018570768
198	0x3d53d9ad	0.051721264
199	0x3d210dfa	0.03931997
200	0x3c9b838f	0.01898363
201	0xbcc71dd8	-0.024306223
202	0xbd37bb8a	-0.044856586
203	0xbd032072	-0.032013364
204	0x3d9f2d41	0.077723034
205	0xbd4b606d	-0.049652506
206	0x3d17dfd7	0.037078705
207	0xba7700ed	-0.000942244
208	0x3d203419	0.039112184
209	0xbdb6fa13	-0.089344166
210	0xbd766133	-0.06015129
211	0x3bd47c2b	0.0064845285
212	0xbbee0220	-0.007263437
213	0xbd5700a7	-0.052490856
214	0xbdad7c15	-0.084709324
215	0xbcb8e1eb	-0.022568664
216	0xbdaf915d	-0.08572648
217	0xbd237fe3	-0.039916884
218	0xbd983553	-0.07432046
219	0x3daa9367	0.08328896
220	0xbc5d7c75	-0.013518442
221	0x3d23e72e	0.040015392
222	0xbd9aa407	-0.07550817
223	0x3d478d5c	0.048718795
224	0x3d564c30	0.05231875
225	0x3d41fc98	0.047360033
226	0xbcf657fe	-0.030071255
227	0xbcab03ef	-0.0208759
228	0x3c08fc0e	0.008360876
229	0xbbf20c8f	-0.007386751
230	0x3ca01584	0.01954151
231	0x3d8a3836	0.06749003
232	0xbd69beb6	-0.05706664
233	0x3d81f919	0.0634634
234	0xbc8abf2b	-0.01693686
235	0xba97a766	-0.0011570274
236	0xbb94f06d	-0.0045452625
237	0x3c00059b	0.007813836
238	0xbd726784	-0.05918075
239	0x3da240ef	0.07922541
240	0x3d865ca3	0.06560638
241	0xbd910fb6	-0.07083075
242	0xbd555982	-0.052087314
243	0x3d77c887	0.060493972
244	0xbd627355	-0.05528577
245	0xbc25bffd	-0.010116574
246	0xbc8555c9	-0.016276257
247	0x3d64dc75	0.055874307
248	0x3d0ec817	0.03485879
249	0x3da36fca	0.079803064
250	0xbd1f8b17	-0.038951006
251	0x3d591077	0.052994218
252	0x3c5fdc02	0.013663294
253	0xbd6e53f1	-0.05818552
254	0xbd0776cf	-0.03307229
255	0xbcbb065b	-0.022830179

nodes.0.callable.fc1_x2.bias f4 [140]
0	0xbb48ccd4	-0.0030639665
1	0x3d79bac4	0.06096913
2	0xbda4471a	-0.08021374
3	0xbc6f93d7	-0.01462265
4	0xbd95e742	-0.073194996
5	0xbd97d9c8	-0.07414585
6	0xbd3081e3	-0.04309262
7	0xbbfac683	-0.007653059
8	0xbda6b2b7	-0.08139556
9	0x3d974807	0.07386785
10	0x3baef509	0.005339269
11	0x3d960b36	0.07326357
12	0xbb982acb	-0.004643773
13	0x3d728117	0.05920514
14	0xbd2c38eb	-0.04204647
15	0x3da8a62a	0.08234818
16	0x3d8c286a	0.06843646
17	0xbaac6ec2	-0.0013155567
18	0x3d7b0201	0.061281208
19	0xbda371d0	-0.079806924
20	0xbc01b33a	-0.007916266
21	0x3bb4b4dd	0.0055147246
22	0x3d33fba2	0.043941148
23	0x3d3100d3	0.043213677
24	0x3d7b76d9	0.06139264
25	0xbdbcefd1	-0.09225429
26	0x3d442589	0.04788736
27	0xbcd5ee7f	-0.0261147
28	0xbdbae3e5	-0.09125499
29	0xbcb758df	-0.022381244
30	0xbdadb8c5	-0.084825076
31	0x3db9fdca	0.090816095
32	0xbd62fd5d	-0.055417407
33	0xbc1827bd	-0.009286818
34	0xbcba1f1d	-0.022719914
35	0xbd4ff725	-0.050772805
36	0xbd36d7b5	-0.044639308
37	0x3d55a571	0.05215973
38	0x3d9b77a1	0.07591177
39	0xbd831bba	-0.06401773
40	0x3d79d11a	0.06099043
41	0xbd64a5d1	-0.055822197
42	0x3c25c951	0.010118798
43	0xbc7251ef	-0.014790042
44	0x3d16b06b	0.03678934
45	0xbd202ea6	-0.039106987
46	0x3cc0c9f1	0.023533793
47	0xbd99e2b6	-0.07513945
48	0xbd542ce1	-0.051800612
49	0x3cc22d13	0.023703134
50	0xbd55ab45	-0.05216529
51	0x3d2bf4bd	0.041981447
52	0x3d0d0624	0.034429684
53	0xbda4e0a4	-0.08050659
54	0xbda426e1	-0.08015228
55	0xbd0d5567	-0.034505274
56	0xbca5c5bb	-0.020235887
57	0x3c68fbd2	0.014220195
58	0x3d831933	0.06401291
59	0x3a79dd26	0.000953155
60	0x3d9d2d71	0.07674683
61	0x3d9ce480	0.076607704
62	0xbcbe15eb	-0.02320381
63	0x3d78cb5b	0.06074081
64	0xbc58419e	-0.013199238
65	0x3d8f894d	0.0700861
66	0xbdb035e0	-0.08604026
67	0x3d863072	0.06552209
68	0x3d90a8a9	0.07063419
69	0x3b7d2cb7	0.0038631388
70	0xbd7eab4d	-0.062175084
71	0xbd89e4af	-0.06733071
72	0x3d8d2592	0.068919316
73	0xbd7bf55c	-0.06151329
74	0x3cd6e392	0.02623156
75	0xbd880a2a	-0.06642564
76	0x3d735adf	0.059412833
77	0x3ce4c463	0.027925676
78	0xbb20eede	-0.0024556438
79	0xbd4cc0c2	-0.049988516
80	0xbacc4d47	-0.0015586995
81	0xbd319100	-0.043351173
82	0x3d8e4666	0.06947021
83	0xbba79019	-0.0051136133
84	0xbd622b69	-0.05521718
85	0xbb41c616	-0.0029567531
86	0xbc6da7b2	-0.014505314
87	0xbd992c4e	-0.074791536
88	0x3d1cf05c	0.038315162
89	0x3d75c8f0	0.060006082
90	0xbccc051b	-0.024904778
91	0x3d668f04	0.056288734
92	0x3cfd2d36	0.030905347
93	0xbc0a9e7d	-0.008460638
94	0x3d8504ec	0.064950794
95	0x3b193d8a	0.0023382627
96	0x3c5eb723	0.013593468
97	0x3d4dc76c	0.05023901
98	0x3cf9cc50	0.030492932
99	0x3d915cb9	0.070977636
100	0xbd098d4a	-0.03358201
101	0xbd545d8f	-0.051847037
102	0x3d621b7d	0.055201996
103	0x3da0a4fa	0.07843967
104	0x3c957b9a	0.018247414
105	0x3d52179a	0.05129204
106	0x3d4a2c91	0.049358908
107	0xbd578dfa	-0.052625634
108	0xbd90d9ef	-0.070728175
109	0x3d0d5b9f	0.034511205
110	0xba8e9f7c	-0.001088127
111	0x3d3a6392	0.045505114
112	0xbdb30606	-0.08741383
113	0xbd238b3c	-0.039927706
114	0x3d80ca04	0.062885314
115	0xbdb76fc2	-0.08956863
116	0x3ccea288	0.025223985
117	0x3ce47253	0.027886545
118	0x3d880ee7	0.066434674
119	0x3d951d3c	0.07280967
120	0x3d489aa1	0.04897559
121	0x3d4ee376	0.050509892
122	0x3cfd5357	0.030923529
123	0xbd80584d	-0.06266842
124	0xbd89fe7c	-0.06737992
125	0x3abcb06c	0.001439584
126	0xbd1640cf	-0.0366829
127	0x3d1381c9	0.036012445
128	0xbd3b080a	-0.045661964
129	0xbd8b181a	-0.067917064
130	0x3db0361d	0.08604071
131	0x3d2c8cf0	0.042126596
132	0x3d9a0664	0.0752075
133	0x3db705a1	0.089366205
134	0x3cfc5141	0.030800464
135	0xbd80d54a	-0.06290682
136	0x3d8f6bfc	0.07003018
137	0xbd686388	-0.056735545
138	0x3d5c9151	0.053849522
139	0xbd5b1635	-0.053487975
