5min_model/nsteps_20/threshold_model.pt (torch, 221816 bytes, 24 tensors)

nodes.0.callable.fc_input.weight f4 [80, 42]
0	0x3e5400c2	0.20703414
1	0xbd3daab1	-0.046305362
2	0xbd695995	-0.056970198
3	0xbdd601e3	-0.104495786
4	0x3e1a2f81	0.15057184
5	0x3dd619e4	0.10454157
6	0x3decb323	0.11557605
7	0x3daca3e6	0.08429699
8	0xbdc10243	-0.094242595
9	0x3d88d169	0.06680567
10	0x3d05f449	0.03270367
11	0xb9e6e468	-0.00044039194
12	0xb98d4224	-0.00026942894
13	0x3cb90b01	0.022588255
14	0xbc652936	-0.013986876
15	0xbd0d15ef	-0.034444746
16	0x3da5eefc	0.08102223
17	0xbde834d6	-0.11338203
18	0x3d930378	0.07178396
19	0xbd259c05	-0.040431995
20	0xbd655e3b	-0.05599807
21	0x3ce9f1ad	0.028557623
22	0x3d2483b9	0.040164683
23	0xbc9c425d	-0.019074613
24	0xbdcd55a2	-0.10026099
25	0x3c396b28	0.011317052
26	0x3d1587a2	0.036506303
27	0x3e063cf2	0.13109186
28	0x3e1411bf	0.14459895
29	0x3c8f4736	0.01749001
30	0xbd9d4327	-0.07678824
31	0xbce05254	-0.027383007
32	0x3dd4be58	0.10387868
33	0xbd2d7359	-0.042346332
34	0xbd55480f	-0.052070674
35	0x3cdffa8c	0.02734115
36	0x3d5375df	0.051626083
37	0xbc616682	-0.01375735
38	0xbd74f596	-0.05980452
39	0x3aa11b3d	0.0012291443
40	0x3ccfb9f7	0.02535723
41	0x3de4dfb6	0.11175482
42	0x3e1d7736	0.15377507
43	0x3ca3df5f	0.020003973
44	0xbdfc1903	-0.12309458
45	0x3d0d385a	0.03447757
46	0x3dbb1e4f	0.0913664
47	0xbbba5061	-0.0056858514
48	0xbdb21bf4	-0.08696738
49	0xbe0e1dde	-0.13878581
50	0x3e150aac	0.14554852
51	0xbd5a8f03	-0.053359043
52	0x3dee0f90	0.11624062
53	0x3db8ee0b	0.09029778
54	0x3d058f93	0.032607626
55	0xbde10a19	-0.10988254
56	0xbe069f6d	-0.13146754
57	0x3d60d918	0.054894537
58	0x3cf9631a	0.030442763
59	0x3de372f4	0.1110591
60	0x3b30c8b9	0.0026975109
61	0x3d7ce6a0	0.06174338
62	0x3d1e3b18	0.038630575
63	0xbdcdfe21	-0.10058237
64	0xbdad4891	-0.084611066
65	0xbc6f66b8	-0.014611892
66	0x3e104e3f	0.14092349
67	0x3d4a3770	0.049369276
68	0xbd91145f	-0.070839636
69	0x3dd58e66	0.10427551
70	0x3da2daf8	0.07951921
71	0xbc5dbc3e	-0.01353365
72	0xbd91e06e	-0.07122885
73	0x3d774766	0.060370825
74	0xbd95edf7	-0.07320779
75	0xbd92135d	-0.071325995
76	0x3da80315	0.08203713
77	0xbdb0e149	-0.0863672
78	0x3d352df6	0.044233285
79	0x3d76a09b	0.06021176
80	0x3d96d199	0.07364196
81	0xbce55a1c	-0.027997069
82	0x3d0493c7	0.032367494
83	0x3df1bc95	0.11803547
84	0x3d87bceb	0.0662783
85	0xbded9ed4	-0.1160256
86	0xbdfa2177	-0.12213414
87	0xbbb0570e	-0.0053814715
88	0xbcb2f996	-0.021847527
89	0xbd822a7d	-0.0635576
90	0xbb3c208d	-0.0028705925
91	0x3da7338b	0.08164128
92	0xbdf154b0	-0.11783731
93	0xbd2daf8f	-0.042403754
94	0xbdaa5282	-0.08316518
95	0x3d381652	0.04494316
96	0x3e0df724	0.13863808
97	0xbc4cdcf1	-0.012503848
98	0x3db72f0f	0.089445226
99	0x3cd4d632	0.025981043
100	0xbd3ef680	-0.0466218
101	0xbd576441	-0.052585844
102	0xbb6b6586	-0.0035918667
103	0x3daeae26	0.0852931
104	0xbd898ec5	-0.06716684
105	0x3d99fba4	0.075187
106	0x3caa6ad2	0.020802889
107	0x3da2398c	0.079211324
108	0x3de4ba87	0.1116839
109	0xbe0afecf	-0.13573764
110	0xbc9671a8	-0.018364742
111	0x3c0e9182	0.008701684
112	0x3dbf8d00	0.093530655
113	0xbd5703b5	-0.05249377
114	0xbd576f95	-0.052596647
115	0xbd90b6ee	-0.07066141
116	0x3e1a54ef	0.15071462
117	0x3de2d433	0.1107563
118	0xbe054bd7	-0.13017212
119	0xbd782e3e	-0.060590975
120	0x3e148ebe	0.14507577
121	0x3bcc94fc	0.0062433463
122	0xbdf8e37d	-0.12152765
123	0xbad9d227	-0.0016618416
124	0xbdd94725	-0.10609273
125	0x3de36fc8	0.11105305
126	0xbd2517ef	-0.040306028
127	0xbda8e926	-0.082475945
128	0xbcab7f91	-0.020934852
129	0xbd363f4c	-0.04449396
130	0xbd6504e2	-0.05591286
131	0x3e11d56e	0.14241573
132	0x3d987edc	0.074460715
133	0x3e156e4f	0.1459286
134	0xbd97fe4c	-0.0742155
135	0xbde793f1	-0.113075145
136	0xbc1f7e0e	-0.009734644
137	0x3b99e6d3	0.004696706
138	0x3d21a619	0.039465044
139	0xbd4bd03c	-0.049759135
140	0x3de223a7	0.110419564
141	0x3d219fe2	0.039459117
142	0xbd995108	-0.074861586
143	0x3d9f001b	0.07763692
144	0xbd9735f5	-0.07383338
145	0xbdd4f5f4	-0.10398474
146	0xbcb4f3f0	-0.022088975
147	0x3e094924	0.13406807
148	0x3df49ec6	0.11944346
149	0xbd356714	-0.044287756
150	0x3cec9049	0.028877394
151	0x3d2bbf16	0.04193028
152	0xbc85bef5	-0.016326407
153	0xbd7fddd3	-0.062467407
154	0xbc9debb3	-0.01927743
155	0xbd9d7bad	-0.07689605
156	0x3bf4e3d1	0.007473447
157	0xbc3b3931	-0.01142721
158	0x3e0a23e2	0.1349025
159	0x3cfc1584	0.030771978
160	0x3d322569	0.04349271
161	0x3de16840	0.11006212
162	0xbe147ae9	-0.14500012
163	0xbdf34340	-0.11878061
164	0x3dc552a1	0.09634901
165	0x3d9f0ad5	0.07765738
166	0xbdb06da5	-0.08614663
167	0x3ccc832a	0.024964888
168	0xbe1a32df	-0.15058468
169	0x3d35a7a3	0.044349324
170	0x3de0fd58	0.109858215
171	0xbbf6988e	-0.00752551
172	0x3e0f1f84	0.13976866
173	0x3dbb8fe0	0.09158301
174	0x3df5f54d	0.12009678
175	0xbd1d68ae	-0.03842991
176	0xbded6d44	-0.115931064
177	0x3df384b9	0.11890549
178	0x3d18c007	0.037292507
179	0x3cd2fb68	0.025754645
180	0xbdf06e15	-0.117397465
181	0x3dc9c4c5	0.09851984
182	0xbd855fb6	-0.06512396
183	0x3c6dacf2	0.014506565
184	0x3d9394e1	0.07206131
185	0xbc20aa53	-0.009806233
186	0xbd5f1991	-0.05446774
187	0x3d0c07f5	0.034187276
188	0x3d91f12c	0.07126078
189	0xbcc9851a	-0.0245996
190	0xbcf052a1	-0.029336276
191	0xbc2526d0	-0.010080054
192	0x3ce83758	0.028346702
193	0x3e02a79c	0.1275925
194	0xbcc15a58	-0.02360265
195	0x3c921b66	0.01783533
196	0x3d3de8a0	0.046364427
197	0xbdbe5834	-0.09294167
198	0x3d6b3229	0.057420883
199	0xbcf84d4b	-0.030310294
200	0x3ddec442	0.10877277
201	0xbb46e1b1	-0.0030346925
202	0x3deb34e2	0.11484696
203	0xbde01529	-0.10941536
204	0xbc9dd851	-0.019268187
205	0xbc458f96	-0.012058159
206	0xbb974fae	-0.004617653
207	0x3d566734	0.052344516
208	0x3d97cf7d	0.07412622
209	0x3e001a42	0.12510017
210	0x3dcd7e1c	0.10033819
211	0x3d8a9fdd	0.06768773
212	0xbc694c38	-0.014239363
213	0x3df215d2	0.11820568
214	0x3de44682	0.11146261
215	0xbd8de763	-0.06928899
216	0x3ccf7877	0.025325997
217	0x3d6b6c26	0.057476185
218	0x3d612e7b	0.054975968
219	0x3df028c1	0.11726523
220	0x3cfee0cd	0.031113053
221	0xbdad2fdc	-0.08456394
222	0xbd2b7b6c	-0.04186575
223	0x3d7ebb26	0.062190197
224	0x3bfe4f5a	0.0077609243
225	0x3d8a3134	0.06747666
226	0x3a019e7c	0.00049445755
227	0x3d887477	0.06662839
228	0x3d104436	0.0352213
229	0xbde57b14	-0.11205116
230	0xbde77a67	-0.11302643
231	0x3d10198c	0.035180613
232	0xbdc5010e	-0.09619342
233	0xbcde4cda	-0.027136255
234	0x3e10f4c6	0.14155874
235	0x3da8a3b7	0.08234351
236	0x3ba7945a	0.0051141204
237	0xbdce1225	-0.100620545
238	0x3d7a3605	0.061086673
239	0x3d1ad2c7	0.03779867
240	0x3d226fe8	0.039657503
241	0x3d6263d8	0.055271
242	0x3d5e64c4	0.054295316
243	0xbca6f35c	-0.020379715
244	0x3dcbd896	0.0995342
245	0xbcd8b71c	-0.0264545
246	0x3da0a2f5	0.078435816
247	0x3dd32946	0.10310607
248	0x3d423f8e	0.04742389
249	0xbce03a90	-0.027371675
250	0xbdda359b	-0.10654756
251	0x3d2ee36d	0.04269736
252	0xbdccd601	-0.100017555
253	0xbbd37a17	-0.006453763
254	0x3c7e64e0	0.01552698
255	0x3c5cf6e7	0.0134866005

nodes.0.callable.fc_input.bias f4 [80]
0	0xbe3188d7	-0.17337357
1	0x3d9e9224	0.07742718
2	0xbd00790d	-0.031365443
3	0x3d929456	0.07157199
4	0xbe0c7044	-0.13714701
5	0x3c299b5d	0.010351983
6	0xbdc61989	-0.09672839
7	0xbdbf9d34	-0.09356156
8	0x3de54e4a	0.11196573
9	0xbe43781e	-0.1908879
10	0x3debd6bc	0.11515567
11	0xbd6c9e2c	-0.057768032
12	0x3e3a16f0	0.18172812
13	0xbca8d989	-0.020611541
14	0x3e09cad3	0.13456278
15	0x3a802793	0.0009777419
16	0xbcc97b32	-0.024594877
17	0x3e0b2691	0.1358893
18	0x3e216886	0.15762529
19	0x3e00f5df	0.12593792
20	0xbdf31b3a	-0.118704274
21	0x3cbf551d	0.023356015
22	0xbc693187	-0.014233
23	0xbd8e7687	-0.06956201
24	0x3c8dcf77	0.017310841
25	0x3dcee686	0.101025626
26	0xbdd8ecbb	-0.10592028
27	0x3d25f491	0.04051644
28	0x3e205ff2	0.156616
29	0x3deb97ae	0.1150354
30	0xbe53d9ab	-0.20688502
31	0x3d8b6c7c	0.06807801
32	0x3e15eefd	0.14641948
33	0xbcc92931	-0.024555774
34	0x3e079e08	0.13243878
35	0xbd7f424a	-0.062319078
36	0x3d3152b4	0.043291762
37	0x3e41219a	0.18860474
38	0xbe06df6c	-0.13171166
39	0x3d1633de	0.03667056
40	0x3e8bb3a5	0.27285495
41	0xbcfb1eca	-0.03065433
42	0xbdb1c49a	-0.08680077
43	0x3e0f95bf	0.14021967
44	0x3df847b1	0.12123049
45	0xbe425c1a	-0.18980446
46	0xbd068095	-0.03283747
47	0x3dda6799	0.10664291
48	0xbe420a76	-0.18949303
49	0x3e09bdf9	0.13451375
50	0x3e3b097c	0.18265337
51	0xbb958001	-0.0045623784
52	0xbd31ea33	-0.04343624
53	0x3d8e83d4	0.06958738
54	0xbe06537d	-0.13117786
55	0x3d2b69f8	0.041849107
56	0xbcafe5bc	-0.02147185
57	0x3daac81d	0.0833895
58	0xbde4c386	-0.11170106
59	0x3dea2ea8	0.1143468
60	0x3ce50216	0.027955096
61	0x3e1a141d	0.15046735
62	0xbd94f4b2	-0.072732344
63	0xbd5bea09	-0.05368999
64	0xbce6da0c	-0.028180145
65	0x3d630dbd	0.055433024
66	0x3d863dad	0.065547325
67	0x3ce66c99	0.028127955
68	0x3dafb120	0.08578706
69	0xbe127f83	-0.14306454
70	0x3d6fd9c1	0.058557276
71	0x3de85a8b	0.11345395
72	0xbe2015fe	-0.1563339
73	0x3d766508	0.060154945
74	0x3cb0d3f7	0.021585448
75	0x3c761aad	0.015021008
76	0x3ce7bab6	0.028287273
77	0xbe0bbd2c	-0.13646382
78	0xbe19fca1	-0.15037777
79	0x3d1a4aa5	0.037668843

nodes.0.callable.fc1_x1.weight f4 [80, 80]
0	0xbd0c91a9	-0.0343186
1	0xbcdcaf57	-0.026939077
2	0x3db19cd7	0.08672493
3	0xbdc42ce0	-0.09578872
4	0xbbb019f9	-0.00537419
5	0xbd62dc59	-0.05538592
6	0x3c47618a	0.012169251
7	0xbd56bc77	-0.052425828
8	0x3d230eb1	0.039808933
9	0x3dc824c1	0.09772635
10	0x3db5b3e3	0.08872201
11	0x3cae3195	0.021263877
12	0xbd5980e5	-0.05310144
13	0x3c672fae	0.014110489
14	0xbca0be38	-0.019621953
15	0x3915be87	0.00014280724
16	0x3d3dedb2	0.046369262
17	0xbc96deb0	-0.018416733
18	0xbd18814c	-0.037232682
19	0x3db0e792	0.086379185
20	0x3da193a0	0.07889485
21	0xbd12ef35	-0.035872657
22	0xbca3c525	-0.019991467
23	0xbcd735bd	-0.026270742
24	0xbd5771cd	-0.052598763
25	0x3aeec7e9	0.0018217537
26	0xbdb83cc8	-0.08995968
27	0xbcdc5416	-0.026895564
28	0x3d3e4695	0.04645403
29	0x3dc96e3c	0.09835479
30	0x3d08cf60	0.033400893
31	0x3dbb0eff	0.0913372
32	0x3d544d15	0.051831324
33	0x3da67816	0.08128373
34	0x3d4fa06e	0.050690107
35	0x3d78f26d	0.06077807
36	0xbdcdfd19	-0.1005804
37	0xbc787faf	-0.015167161
38	0x3c37f1ea	0.01122711
39	0x3d317494	0.04332407
40	0xbd8f3121	-0.069917925
41	0xbd5c9550	-0.053853333
42	0x3b1f5a02	0.0024315123
43	0xbda6081d	-0.08107016
44	0x3dcb5ce0	0.09929824
45	0xbd7ed3f8	-0.062213868
46	0xbd542636	-0.051794253
47	0x3ca92d65	0.020651529
48	0xbdb70e6e	-0.08938299
49	0xbd8776cf	-0.06614458
50	0x3dcc1982	0.09965803
51	0xbc1ea2d5	-0.009682377
52	0xbd939f8a	-0.07208164
53	0xbe0f6030	-0.14001536
54	0xbc1b81cd	-0.009491396
55	0x3c67e61f	0.014153986
56	0x3cef6a69	0.029225545
57	0x3d40377b	0.04692791
58	0xbc8047c2	-0.015659217
59	0xbd9c7731	-0.076399215
60	0xbdacb70d	-0.08433352
61	0xbd1918e9	-0.03737727
62	0xbdd0c207	-0.10193258
63	0xbd24ed33	-0.040265273
64	0x3d00a218	0.031404585
65	0x3d3e90b5	0.046524722
66	0x3d4949c8	0.04914263
67	0x3d887c73	0.06664362
68	0xbcc7279c	-0.02431088
69	0x3c241186	0.010013944
70	0xbdbaf8e3	-0.091295026
71	0x3d56f940	0.052483797
72	0xbdb224b0	-0.08698404
73	0xbd00a552	-0.03140766
74	0xbd847911	-0.06468404
75	0xbb1abbd0	-0.002361048
76	0xbde871c7	-0.11349826
77	0x3d53bb78	0.051692456
78	0x3d32d228	0.043657452
79	0x3d75ea91	0.060038153
80	0x3cad39cf	0.02114573
81	0x3ccfdb17	0.025373025
82	0xbd3d1ea8	-0.046171814
83	0xbd94ff1a	-0.07275219
84	0xbd219f08	-0.039458305
85	0xbdb855ad	-0.09000716
86	0xbdb2abeb	-0.08724197
87	0x3d05f82b	0.032707375
88	0xbd785b43	-0.06063391
89	0xbda5b365	-0.080908574
90	0xbd9abd93	-0.0755569
91	0x3d8e8951	0.06959785
92	0xbd210760	-0.039313674
93	0x3d69f352	0.057116814
94	0x3cb318c2	0.021862391
95	0x3a0185e6	0.0004940912
96	0x3bf3d674	0.0074413363
97	0x3d136b70	0.035991132
98	0x3d0999a9	0.033593807
99	0x3d1e7195	0.03868254
100	0x3d776498	0.060398668
101	0x3d4ab88e	0.04949241
102	0xbda11afe	-0.078664765
103	0x3b3832e5	0.0028106507
104	0xbd36968f	-0.044577178
105	0xbd398463	-0.04529227
106	0x3cbf0f60	0.023322761
107	0x3d84dc27	0.06487303
108	0xbd65b265	-0.056078333
109	0x3d8b9d53	0.068171166
110	0x3d8aebda	0.06783266
111	0x3cdbfe2a	0.026854593
112	0xba87b17f	-0.001035258
113	0x3d86f2ca	0.06589277
114	0x3cc8cffa	0.024513233
115	0x3db9b444	0.09067586
116	0x3d57f5f2	0.052724786
117	0x3d926011	0.071472295
118	0xbd50d2b1	-0.05098218
119	0xbd91b29d	-0.07114146
120	0x3d913c56	0.07091586
121	0x3c7c7ceb	0.015410642
122	0xbd2a2a47	-0.041544225
123	0xbdd07c71	-0.10179985
124	0xbdb5b29a	-0.08871956
125	0x3c217275	0.009853949
126	0xbd7d915b	-0.0619062
127	0x3dc5afcb	0.096526705
128	0x3ce96866	0.028492164
129	0x3dcbfec8	0.09960705
130	0xbd4af2a7	-0.049547818
131	0xbce89195	-0.028389731
132	0x3c8fdc92	0.01756123
133	0xbd657cc5	-0.056027193
134	0x3db941d2	0.09045757
135	0xbc2cc807	-0.010545737
136	0xbdbb9c44	-0.09160665
137	0x3cc3cda8	0.023901775
138	0xbd0d4b26	-0.034495495
139	0x3d2d99ae	0.04238289
140	0xbc0c7f35	-0.00857525
141	0xbd86b564	-0.06577566
142	0x3dde3f4c	0.10851917
143	0x3d58129e	0.05275213
144	0xbd86a538	-0.06574482
145	0xbd36c4fc	-0.044621453
146	0xbdd84857	-0.10560673
147	0x3db0cc7e	0.08632754
148	0xbd2e9186	-0.04261925
149	0xbd72a36b	-0.05923788
150	0xbb756b9d	-0.0037448176
151	0xbdbdae31	-0.0926174
152	0xbda4e104	-0.08050731
153	0xbdbe1819	-0.0928194
154	0xbdb8a104	-0.09015086
155	0x3d088b03	0.033335697
156	0xbd5d6a8f	-0.0540567
157	0x3d29edbe	0.041486494
158	0x3ddf917b	0.1091642
159	0xbcb18acc	-0.021672629
160	0xbd7fbfd4	-0.0624388
161	0x3b306e20	0.0026921108
162	0x3d987cb7	0.074456625
163	0x3d798953	0.06092198
164	0x3cca06ed	0.024661506
165	0xbbdfc03b	-0.0068283356
166	0x3d0eeb24	0.034892216
167	0xbdc8756a	-0.0978802
168	0x3d1f78d4	0.03893359
169	0x3dc19797	0.094527416
170	0x3e01f65a	0.12691632
171	0x3d985e28	0.07439834
172	0x3c9bb1e1	0.019005718
173	0xbcff556b	-0.03116866
174	0xbc8d5f4c	-0.017257355
175	0xbd1e5456	-0.038654648
176	0xbd451529	-0.048115883
177	0x3dfc59a7	0.12321787
178	0x3d84601f	0.06463646
179	0x3e03ee1c	0.128838
180	0xbdca15ee	-0.09867464
181	0xbc9de9c6	-0.01927651
182	0xbb5b965c	-0.003350637
183	0xbdac9226	-0.08426313
184	0x3b80dadb	0.0039323396
185	0x3cc49900	0.023998737
186	0x3d29e853	0.041481327
187	0x3dd5a343	0.1043153
188	0xbdadbb42	-0.08482982
189	0x3d35b2c6	0.044359945
190	0xbb1b205f	-0.0023670418
191	0x3da2dd32	0.07952346
192	0xbd892f33	-0.06698456
193	0x3dc74202	0.09729387
194	0x3d6acfd9	0.057327125
195	0x3d88df45	0.0668321
196	0xbc2a816a	-0.010406831
197	0xbd4e6a1a	-0.050394155
198	0x3d7a482f	0.061103996
199	0x3d8d0807	0.06886297
200	0x3d7a725c	0.061144218
201	0x3d0f36f7	0.034964528
202	0xbbe90bb2	-0.00711199
203	0x3ce1a624	0.027545042
204	0xbd3041e0	-0.043031573
205	0x3c844784	0.016147383
206	0xbe0a4a2e	-0.1350486
207	0x3c9bae42	0.019003991
208	0xbd59ccf4	-0.053173974
209	0xbde9c32d	-0.1141418
210	0xbd1b1c83	-0.037868988
211	0x3c8e5daf	0.017378656
212	0x3de1d87f	0.110276215
213	0x3d027422	0.031849034
214	0x3d8f8954	0.07008615
215	0x3c60981a	0.013708139
216	0x3dfc7728	0.12327415
217	0xbb142d5e	-0.0022610049
218	0xbdaa641a	-0.08319874
219	0xbd8b0282	-0.06787588
220	0x393f1c46	0.00018225712
221	0xbda22d1c	-0.0791876
222	0xbd6fb5df	-0.058523055
223	0xbd140648	-0.036138803
224	0xbd67e5ac	-0.056615517
225	0xbd2cd3f5	-0.042194325
226	0x3d4f7a8c	0.05065398
227	0x3db380f5	0.08764831
228	0x3da85957	0.08220165
229	0x3d6805da	0.056646205
230	0xbdeb7ae9	-0.114980526
231	0xbdd4d549	-0.103922434
232	0xba5f24ce	-0.0008512259
233	0x3dba7132	0.091036215
234	0x3c92e49c	0.017931275
235	0xbd8af7a0	-0.06785512
236	0xbd136bf7	-0.035991635
237	0x3dbe8c91	0.09304155
238	0x3bdce11b	0.006740702
239	0xbdb79016	-0.08963029
240	0xbc338366	-0.010956621
241	0xbcac110e	-0.021004226
242	0x3ca3e27b	0.020005455
243	0x3d1572cf	0.036486443
244	0xbd021e8d	-0.031767417
245	0xbdc67ac6	-0.09691386
246	0x3b76c098	0.0037651416
247	0xbdb68128	-0.08911353
248	0xbd7141a3	-0.058900487
249	0xbc8400b3	-0.016113615
250	0xbd3460c3	-0.04403759
251	0xbd092839	-0.033485625
252	0xbd9ce601	-0.07661057
253	0xbdcd5207	-0.10025411
254	0xbd27fd31	-0.041012947
255	0x3d913fba	0.07092233

nodes.0.callable.fc1_x1.bias f4 [80]
0	0x3de6c4cb	0.11268004
1	0x3ce1f9f8	0.027585015
2	0x3b4c818d	0.0031205148
3	0xbd5c1bab	-0.053737324
4	0xbdc05462	-0.09391095
5	0xbd5e2ff4	-0.05424495
6	0x3d1c6801	0.038185123
7	0x3d59a452	0.053135224
8	0x3c02d679	0.007985705
9	0xbdcc4a0d	-0.099750616
10	0x3d7aea32	0.061258502
11	0xbdbb536b	-0.0914677
12	0xbb0f23ed	-0.0021841482
13	0xbde891ea	-0.11355956
14	0x3d0a5b04	0.033778206
15	0x3dba5ef6	0.091001436
16	0xbdd88b52	-0.10573448
17	0x374de82c	1.2273009e-05
18	0x3db12c3a	0.08651014
19	0xbcc6f51d	-0.024286801
20	0x3d807332	0.06271972
21	0x3d935972	0.07194795
22	0x3d9304e3	0.071786664
23	0xbdc7f14f	-0.09762823
24	0xbdb870a7	-0.09005862
25	0xbd6740d3	-0.056458306
26	0x3d4d7178	0.05015704
27	0x3d265756	0.040610634
28	0xbdcc5570	-0.099772334
29	0x3d1da4f7	0.0384874
30	0x3ca2dafe	0.019879814
31	0x3d6d4c12	0.057933874
32	0x3ca15da2	0.019697968
33	0xbd933528	-0.07187873
34	0xbdea57cd	-0.11442528
35	0x3c26a30c	0.010170709
36	0xbd2005a1	-0.03906787
37	0x3c104722	0.008806022
38	0xbddf67f4	-0.10908499
39	0xbdb39c86	-0.08770089
40	0xbd915c59	-0.07097692
41	0x3d9e5d26	0.077326104
42	0xbdd5497a	-0.10414405
43	0xbb6b9c2e	-0.0035951245
44	0x3d00be23	0.03143133
45	0xbdc2507f	-0.0948801
46	0xbdc915d6	-0.09818618
47	0xbd5d0454	-0.053959206
48	0x3d943e81	0.07238484
49	0xbccfa0ce	-0.025345232
50	0x3df5ffa3	0.120116495
51	0x3d433883	0.047661316
52	0xbd125c5b	-0.03573261
53	0xbcb7d537	-0.022440536
54	0x3d787d07	0.06066611
55	0xbd7dd66d	-0.06197207
56	0x3d8ea623	0.06965282
57	0x3d6ffef8	0.058592767
58	0xbd7f421f	-0.062318917
59	0xbc56247c	-0.013070222
60	0x3d3df0ab	0.046372097
61	0xbd8e3d8b	-0.06945332
62	0x3d6e19db	0.058130126
63	0xbd9ea98f	-0.077471845
64	0xbda0f0e3	-0.078584455
65	0x3cb67dc2	0.022276763
66	0xbd720121	-0.059083108
67	0x3dd408ea	0.10353263
68	0xbdb802a0	-0.08984876
69	0xbd8ff449	-0.070290156
70	0x3d1c7c93	0.03820474
71	0xbd5b7b74	-0.05358453
72	0x3d5fc949	0.05463532
73	0x3dcb8ead	0.099393226
74	0x3d645b3c	0.05575107
75	0xbdc42881	-0.09578038
76	0xbd3f29a2	-0.046670564
77	0x3da32957	0.07966869
78	0x3d9f24dd	0.07770703
79	0xbdcbda6b	-0.09953769

nodes.0.callable.fc2_x1.weight f4 [80, 80]
0	0xbdd204fe	-0.102548584
1	0xba1293ee	-0.0005591501
2	0xbd2188ae	-0.03943699
3	0x3d575145	0.05256774
4	0x3d942e3d	0.07235382
5	0xbd9c3f46	-0.07629256
6	0xbdc0f4d0	-0.09421694
7	0x3c292188	0.010322936
8	0xbd2a1099	-0.041519735
9	0xbbb3aa6a	-0.0054829614
10	0x3c76fd01	0.015074969
11	0x3d7f5290	0.062334597
12	0xbc9a3b66	-0.018827152
13	0x3db7da75	0.08977214
14	0xbd62844a	-0.055301942
15	0xbc9c713c	-0.019096963
16	0x3d542be3	0.051799666
17	0xbdd051cc	-0.101718515
18	0xbd0186c5	-0.031622667
19	0xbdd66416	-0.10468309
20	0xbd68fff0	-0.056884706
21	0xbcb16e71	-0.021659108
22	0x3c752e16	0.014964601
23	0xbd375187	-0.044755485
24	0x3aba8ebe	0.0014233214
25	0x3d6e8d2b	0.058240097
26	0x3c34b6c9	0.0110299075
27	0x3bd8b7a6	0.0066136895
28	0xbdaff485	-0.0859156
29	0xbc9b5f4e	-0.018966343
30	0xbc887ebd	-0.016661996
31	0x3dab6526	0.08368902
32	0x3cb2aa07	0.021809591
33	0x3d9c206d	0.07623372
34	0xbd747c9f	-0.05968916
35	0xbd499dcb	-0.04922275
36	0x3d5128f3	0.051064443
37	0xbdab7f2e	-0.08373867
38	0xbdb58e27	-0.08865004
39	0x3d3de9b2	0.046365447
40	0xbdad0e72	-0.08450021
41	0x3d37ec00	0.0449028
42	0x3c80e5f3	0.015734648
43	0x3b2a0263	0.0025941364
44	0x3c8c0ac9	0.017094987
45	0x3c9c5bec	0.0190868
46	0xbdc4f568	-0.0961712
47	0xbda96706	-0.08271603
48	0xbc69d2d6	-0.014271459
49	0x3d2eaf49	0.042647634
50	0x3d323819	0.04351053
51	0x3ce71abd	0.028210992
52	0xbdb1dcf7	-0.08684724
53	0x3d6e954e	0.058247857
54	0x396db8f3	0.0002267098
55	0xbd15ae30	-0.03654307
56	0x3ddc031f	0.10742783
57	0xbd935ecf	-0.07195818
58	0xbddc128d	-0.10745726
59	0x3b5e0bb1	0.003388148
60	0x3d87dbb9	0.06633706
61	0xbdb5541e	-0.08853935
62	0x3d371d5c	0.044705734
63	0xbc9a3e7a	-0.01882862
64	0xbda355fb	-0.07975384
65	0x3c980977	0.0185592
66	0xbdbc06fd	-0.091810204
67	0xbdae4e0c	-0.0851098
68	0xbd6c60fb	-0.057709675
69	0x3d141aab	0.036158245
70	0x3d298024	0.04138197
71	0xbb8cc922	-0.004296438
72	0x3dc46e1a	0.09591313
73	0x3d65bf37	0.05609056
74	0xbbd3ebc3	-0.006467314
75	0xbdb4e9dd	-0.088336684
76	0x3d832d48	0.06405121
77	0x3de49378	0.1116094
78	0x3c070732	0.008241462
79	0x3cd18b38	0.02557908
80	0x3caa5cf1	0.020796271
81	0x3da0df28	0.07855064
82	0x3dcdf580	0.10056591
83	0xbd1c5430	-0.038166225
84	0xbc08418f	-0.008316412
85	0x3d55b62a	0.05217568
86	0xbd8692b9	-0.06570954
87	0xbd5d9998	-0.054101557
88	0xbc50c140	-0.012741387
89	0xbc85b7fc	-0.016323082
90	0xbc2d5170	-0.010578498
91	0x3d82ccbe	0.06386708
92	0x3d182dad	0.037152935
93	0x3cb1b882	0.021694425
94	0xbdd854e6	-0.10563068
95	0xbd45a8fd	-0.048256863
96	0xbd93c532	-0.072153464
97	0xbd6b46b3	-0.05744047
98	0xbcd6532c	-0.026162706
99	0x3d722839	0.05912039
100	0x3ce0fc82	0.027464155
101	0xbdd59258	-0.104283035
102	0x3d9f72f5	0.07785598
103	0xbd0914b4	-0.03346701
104	0xbd383784	-0.04497482
105	0x3c214188	0.009842284
106	0xbd95fef4	-0.07324019
107	0x3c275c26	0.010214841
108	0xbbded8e7	-0.006800759
109	0x3d14184e	0.03615599
110	0xbd68fc75	-0.056881387
111	0xbdcf1659	-0.10111684
112	0x3dbf1a7a	0.09331222
113	0x3d949bbe	0.07256268
114	0xbd933049	-0.07186944
115	0xbd8265f4	-0.06367102
116	0xbdbd840a	-0.092537
117	0x3d75406a	0.059875883
118	0x3c1d393d	0.009596166
119	0xbd99b91f	-0.07506012
120	0x3cf5997e	0.029980417
121	0xbc8e7070	-0.017387599
122	0xbdeb48da	-0.11488505
123	0x3c109f65	0.008827065
124	0xbc6da2e4	-0.014504168
125	0xbc5b1d95	-0.013373752
126	0xbd753482	-0.05986453
127	0xbd133ed7	-0.0359486
128	0xbd7ba8b0	-0.06144017
129	0x3a13b504	0.00056345784
130	0x3cae49eb	0.021275481
131	0x3dce07b3	0.10060062
132	0xbce29c75	-0.027662495
133	0x3dcb63e6	0.099311635
134	0x3d8d7089	0.0690623
135	0x3d1bf4f1	0.03807539
136	0xbd810fc4	-0.06301835
137	0x3da91579	0.08256049
138	0x3a9f7b81	0.0012167544
139	0x3d92c493	0.071664
140	0xbda0f87c	-0.07859895
141	0x3db02f54	0.08602777
142	0x3d35b217	0.044359293
143	0xbd998635	-0.07496301
144	0x3dbd68f9	0.092485376
145	0xbd922edd	-0.07137845
146	0x3d7101ea	0.058839716
147	0x3d8157ba	0.06315561
148	0xbd586a0b	-0.052835505
149	0xbd036c60	-0.032085776
150	0x3d878620	0.06617379
151	0xbd91ae52	-0.07113327
152	0xbd1eb43f	-0.038746115
153	0x3c3198f7	0.010839692
154	0x3c99cdd8	0.018774912
155	0xbda98df3	-0.08279028
156	0xbdcdbb08	-0.10045439
157	0xbd527f41	-0.05139089
158	0x3d2b36d2	0.041800328
159	0x3d9c3962	0.076281324
160	0x3d30dd01	0.043179516
161	0x3cb040d1	0.021515282
162	0x3c839450	0.016061932
163	0x3d79f868	0.061027914
164	0xbddd6420	-0.10810113
165	0xbc1121e7	-0.008858181
166	0xbdd1da30	-0.10246694
167	0x3c370e30	0.011172816
168	0xbd8d713c	-0.06906363
169	0x3d9ae58e	0.07563315
170	0xbc9394dc	-0.018015318
171	0xbd39f71f	-0.04540169
172	0xbdf0b192	-0.11752619
173	0xbd20ba57	-0.039240208
174	0x3be19f47	0.0068854424
175	0xbd4c33dd	-0.04985415
176	0x3d781018	0.060562223
177	0x3cb8802e	0.022522058
178	0x3ce99220	0.02851206
179	0x3d7781a8	0.060426384
180	0x3d92e1f3	0.07172003
181	0x3d84deef	0.06487834
182	0xbd4d16af	-0.05007046
183	0xbdc67d1f	-0.09691834
184	0xbde56721	-0.11201311
185	0xbdd9b593	-0.10630336
186	0xbd8a1c27	-0.06743651
187	0x3bd42c7e	0.0064750304
188	0xbd1b0b14	-0.03785236
189	0x3d124add	0.035715926
190	0xbdf0d4a6	-0.117593095
191	0xbccd12d8	-0.0250334
192	0xbd930488	-0.07178599
193	0x3decd1ea	0.115634754
194	0xbd90632a	-0.07050164
195	0xbb1a7842	-0.0023570214
196	0xbd698fd0	-0.057021916
197	0x3d5e0207	0.054201152
198	0x3dd01bfa	0.10161586
199	0xbd9ffb15	-0.07811562
200	0xbdbcde52	-0.09222092
201	0x3c9e49f7	0.019322379
202	0x3d6c0646	0.05762317
203	0x3d80616a	0.0626858
204	0x3dd4f192	0.103976384
205	0xbd6e00b5	-0.058106143
206	0x3d4a30af	0.049362835
207	0xbd350520	-0.04419434
208	0xbce923fe	-0.028459545
209	0x3c9820e4	0.018570371
210	0x3b1136ff	0.0022158024
211	0x3dd82fa8	0.10555965
212	0x3d8b8768	0.06812936
213	0xbda9b1e8	-0.08285886
214	0x3d7db2da	0.061938144
215	0x3dee4306	0.116338775
216	0xbdb28573	-0.0871686
217	0xbdb05e6b	-0.08611759
218	0xbc754bbb	-0.014971669
219	0x3dab7016	0.08370988
220	0x3b3ad358	0.0028507318
221	0xbd1a5432	-0.03767795
222	0x3d9c357a	0.07627387
223	0xbc12df3f	-0.008964359
224	0x3db9873f	0.09058999
225	0xba33cfc8	-0.000685927
226	0xbd0e0515	-0.034672815
227	0x3c9b3731	0.018947216
228	0x3da9d036	0.08291666
229	0xbc4380ee	-0.011932595
230	0xbc06adeb	-0.008220176
231	0xbdb80e0d	-0.08987055
232	0xbd8cea8c	-0.06880674
233	0xbd9b3383	-0.075781845
234	0x3d79c48c	0.060978457
235	0xbd94ebd0	-0.0727154
236	0x3dd025e6	0.101634786
237	0x3dc5bfbb	0.0965571
238	0x3dadb658	0.08482045
239	0x3dc8e2bf	0.098088734
240	0xbcf4ff4a	-0.029906888
241	0x3dc141ba	0.094363645
242	0xbde78fa3	-0.113066934
243	0x3d83acc9	0.064294405
244	0x3c84f383	0.016229397
245	0xbd80a9f2	-0.062824145
246	0x3d0705e9	0.03296462
247	0xbd8be65d	-0.06831048
248	0xbcf803cd	-0.03027525
249	0x3ce4d69f	0.02793437
250	0x3d54744c	0.05186872
251	0x3d9aa7d0	0.07551539
252	0x3d11fc05	0.035640735
253	0x3dd088c3	0.10182335
254	0xb962bc38	-0.00021623156
255	0xbdd7c411	-0.105354436

nodes.0.callable.fc2_x1.bias f4 [80]
0	0x3c97c74b	0.018527647
1	0x3cd75e5a	0.026290108
2	0x3d3f75f0	0.046743333
3	0xbd964222	-0.073368326
4	0x3df5d2c0	0.12003088
5	0xbce38e28	-0.027777746
6	0xbd93f3bb	-0.07224222
7	0xbdaeb348	-0.08530289
8	0x3d38f257	0.04515299
9	0xbc05a013	-0.00815584
10	0xbc00c7ce	-0.007860137
11	0xbdddad21	-0.10824037
12	0xbd9a7c5b	-0.0754325
13	0x3d876069	0.06610186
14	0xbd0d3cc0	-0.034481764
15	0x3dbd88c2	0.092546
16	0xbd126107	-0.035737064
17	0xbd018949	-0.031625066
18	0xbd5fba48	-0.05462101
19	0xbdcc1653	-0.099651955
20	0xbd5f78db	-0.054558616
21	0xbb1dc9a2	-0.0024076481
22	0xbd09cc8b	-0.033642333
23	0xbd9ee84a	-0.077591494
24	0x3b09f565	0.0021050808
25	0x3deb0f5c	0.11477539
26	0xbd9b8157	-0.07593029
27	0x3d38ebc5	0.045146722
28	0x3d45efa3	0.04832424
29	0x3dd0b25c	0.10190269
30	0x3da9664a	0.08271463
31	0x3da62c73	0.08113947
32	0x3ac9ca61	0.0015395397
33	0xbdbfe9fb	-0.093708
34	0xbd910d3e	-0.07082604
35	0xbd3cdcb0	-0.0461089
36	0xbd7e6c81	-0.062115196
37	0x3d962145	0.073305644
38	0x3ddff22c	0.109348625
39	0xbd937f89	-0.0720206
40	0xbd1b8273	-0.037966203
41	0xbd331408	-0.043720275
42	0xbd954bf8	-0.072898805
43	0xbd40b290	-0.04704529
44	0x3d1e3a92	0.038630076
45	0x3d9e46e9	0.07728369
46	0x3d46bb9d	0.048518766
47	0x3da45b02	0.08025171
48	0x3db82302	0.08991052
49	0xbd9ae957	-0.07564037
50	0xbd4efa89	-0.050531898
51	0x3c2c4475	0.010514368
52	0xbd06264a	-0.03275136
53	0x3dc96333	0.09833374
54	0xbc808edd	-0.015693123
55	0xbd0efc98	-0.03490886
56	0x3c68eeed	0.014217121
57	0x3d456b53	0.048198055
58	0x3dd19c11	0.102348454
59	0xbd615d33	-0.055020522
60	0x3ea17697	0.3153579
61	0xbd4bb1d2	-0.04973013
62	0x3da3f4f8	0.080057085
63	0xbd2ac2e0	-0.041689754
64	0xbda952a4	-0.082677156
65	0x3c6c1065	0.014408206
66	0x3d883df5	0.06652442
67	0xbd0d1f68	-0.03445378
68	0xbdb04e0d	-0.08608637
69	0x3c1405e8	0.009034611
70	0xbdad6c80	-0.0846796
71	0xba94b5e5	-0.0011345713
72	0x3dd83d6d	0.10558591
73	0x3d4b6046	0.04965236
74	0x3ccb3429	0.024805145
75	0x3ddb6fba	0.107146695
76	0xbd2c6333	-0.04208679
77	0xbc897951	-0.016781481
78	0xbddc7c49	-0.10765893
79	0xbd7d0ba7	-0.06177869

nodes.0.callable.fc_output_x1.weight f4 [2, 80]
0	0x3d7b45b9	0.06134579
1	0xbd278ed1	-0.040907685
2	0xbd27a6fc	-0.040930733
3	0xbd3f013e	-0.046632044
4	0x3d326fbe	0.043563597
5	0x3d754128	0.05987659
6	0x39330890	0.0001707396
7	0x3d266018	0.040618986
8	0xbd3185cf	-0.0433405
9	0x3af76cc0	0.0018877015
10	0xbd76ce25	-0.06025519
11	0xbd912772	-0.07087602
12	0x3c200f00	0.009769201
13	0xbd5b6c00	-0.053569794
14	0xbd2f882b	-0.04285447
15	0x3b91f348	0.00445405
16	0x39df010e	0.0004253466
17	0xbced2186	-0.02894665
18	0xbd768cd0	-0.060192883
19	0xb9e01def	-0.00042746912
20	0xbd658087	-0.056030776
21	0xbc9f5385	-0.019449005
22	0xbc82c891	-0.015964778
23	0xb9a2f7ad	-0.0003108358
24	0x3d85220b	0.06500634
25	0x384f42d7	4.9414895e-05
26	0x3c92fbac	0.017942272
27	0xbd218253	-0.039430927
28	0x3d965192	0.07339777
29	0xbd102d86	-0.035199665
30	0xbce61249	-0.02808489
31	0xbda2cfc2	-0.07949783
32	0x3ca5b6ab	0.020228704
33	0x3d0852e1	0.033282164
34	0xb8d69afe	-0.00010233185
35	0xbd8b66eb	-0.068067394
36	0x3ca0a4b7	0.019609792
37	0x3d2e8a3a	0.042612292
38	0x3d53c0f4	0.051697686
39	0xbdc6583e	-0.096847996
40	0x3d6bd0dd	0.057572234
41	0x3d898477	0.06714719
42	0xb98030e5	-0.00024450492
43	0xbd2aeedd	-0.041731704
44	0xbc908fb8	-0.017646655
45	0x3d793da9	0.06084982
46	0xb9ab7c00	-0.0003270805
47	0xbd3bbcf4	-0.045834497
48	0x38218b89	3.8515343e-05
49	0xbd34efd9	-0.04417405
50	0x3b10645e	0.002203248
51	0xbd938f5c	-0.07205078
52	0x3bdc95ff	0.006731748
53	0x3daec224	0.08533123
54	0xbc8d775c	-0.017268829
55	0x3d09fa75	0.03368612
56	0x39394e99	0.00017672255
57	0x3d102016	0.03518685
58	0x3b123fb1	0.0022315795
59	0xba1c7cf9	-0.000596955
60	0xb7d6bea2	-2.5599558e-05
61	0xbda517cc	-0.080611795
62	0x3b8e4a65	0.0043423646
63	0x3d08280f	0.033241328
64	0x3d8408c7	0.06446987
65	0x3d124d22	0.03571809
66	0x3d23070e	0.03980165
67	0xbd5b87b3	-0.05359621
68	0xbd846fca	-0.064666346
69	0x3d1c166d	0.038107324
70	0x3b30cbd6	0.0026976964
71	0xbd47e59b	-0.048802953
72	0xbd32ac94	-0.043621615
73	0xbc78a058	-0.015174948
74	0xb9245e31	-0.00015675348
75	0x3d9a4a87	0.07533746
76	0xbd9ab7e0	-0.075546026
77	0xba0dc2df	-0.0005407761
78	0xb9de69ed	-0.0004242206
79	0x3d555718	0.052085012
80	0x3d6a9d4a	0.05727891
81	0xbca1fe52	-0.01977459
82	0xbc3d7a8d	-0.011564863
83	0xbcaad23f	-0.020852206
84	0x3cd93ad5	0.026517311
85	0x3c9b2152	0.018936787
86	0xba5fbec2	-0.00085352
87	0xbc318e81	-0.010837198
88	0x3cc9632a	0.024583418
89	0xbbcd611d	-0.0062676803
90	0xbd1b3fbe	-0.037902586
91	0x3ca1d24b	0.019753596
92	0x3ce1251f	0.027483521
93	0x3d9a4623	0.07532909
94	0x3d34fc2b	0.0441858
95	0x3c4553b7	0.012043885
96	0xbaeb3548	-0.0017944956
97	0xbd074397	-0.033023443
98	0x3ccfa103	0.025345331
99	0xba190466	-0.0005837142
100	0x3d093ef1	0.03350729
101	0x3d316097	0.043305006
102	0x3d3481a7	0.04406896
103	0xba1a89a6	-0.0005895145
104	0x3d0cf33b	0.03441165
105	0x3a167028	0.00057387585
106	0x3cfff5d2	0.031245146
107	0xbca80bf2	-0.020513508
108	0xbb99aab7	-0.0046895402
109	0x3d586654	0.052831963
110	0x3beb68fd	0.0071841464
111	0x3d347f9d	0.044067014
112	0xbbf69bb3	-0.007525885
113	0x3c48511b	0.012226368
114	0xba19130c	-0.0005839325
115	0xbce5755d	-0.028010065
116	0x3d1b61f5	0.037935216
117	0xbad65113	-0.0016351066
118	0x3d6e3b92	0.05816228
119	0x3c9d6d38	0.019217119
120	0x3ab3303b	0.001367099
121	0x3bf82c7b	0.007573662
122	0xbaa1e5de	-0.0012351831
123	0xbcc2a2cd	-0.02375927
124	0x3d08a08f	0.033356246
125	0xbc9c2c1d	-0.019064004
126	0xba3188ac	-0.000677238
127	0xbc776643	-0.015100065
128	0xba4920be	-0.00076724205
129	0x3c23ab50	0.009989575
130	0xbc491054	-0.012271959
131	0xbda658ba	-0.08122392
132	0x3a774441	0.0009432473
133	0xbd31de22	-0.043424733
134	0x3c18ed42	0.00933391
135	0x3d60a366	0.05484333
136	0xba77b637	-0.00094494544
137	0x3aa3b074	0.00124885
138	0x3bb3d750	0.0054883137
139	0xba2379e1	-0.0006236118
140	0x385a9a51	5.211897e-05
141	0x3c51da25	0.012808357
142	0x3d87f4f4	0.06638518
143	0xbca157e0	-0.019695222
144	0x3d2f3f9d	0.042785276
145	0x3cc5a242	0.024125222
146	0xbd473ac6	-0.048640035
147	0xbc617882	-0.013761641
148	0xbc02f739	-0.007993513
149	0x3c41b4a2	0.011822851
150	0xbb94cc7a	-0.004540977
151	0xbc8e694f	-0.0173842
152	0x3d10d026	0.035354756
153	0x3d83f28a	0.06442745
154	0xba3434d7	-0.0006874329
155	0x3cb61715	0.022227803
156	0x3d38233e	0.044955485
157	0xba19eb75	-0.00058715726
158	0xba9a97c2	-0.0011794495
159	0x3b1ebb63	0.0024220578

nodes.0.callable.fc_output_x1.bias f4 [2]
0	0x3d63f47e	0.055653088
1	0xbd56f10f	-0.052475985

nodes.0.callable.fc1_x2.weight f4 [80, 80]
0	0x3b38e5b1	0.0028213079
1	0xbd729f4f	-0.05923396
2	0xbda0259a	-0.07819672
3	0x3d4b9d39	0.049710486
4	0xbdaa099c	-0.08302614
5	0xbd85cff4	-0.065338045
6	0xbd457af1	-0.04821295
7	0xbdbab209	-0.09115989
8	0x3c1d7c62	0.009612175
9	0xbd353697	-0.044241514
10	0xbda1afa8	-0.07894832
11	0x3c8dce76	0.017310362
12	0x3d9e97ce	0.07743798
13	0xbd56bf5c	-0.05242859
14	0xbdd5504e	-0.104157075
15	0x3da0d7fc	0.07853696
16	0x3d7f8aff	0.062388416
17	0x3dcf8c91	0.10134233
18	0xbd576339	-0.05258486
19	0xbd5b74f6	-0.05357834
20	0x3dd9e0e8	0.106386006
21	0x3d54c583	0.051946174
22	0x3dc32894	0.09529224
23	0x3cb28a79	0.021794545
24	0x3d4d0ff9	0.05006406
25	0x3da5c226	0.080936715
26	0x3d385032	0.044998355
27	0x3dc09d3f	0.09404992
28	0x3d8a93e3	0.067664884
29	0x3dd0eda6	0.10201578
30	0xbd87a3de	-0.06623052
31	0xbd225e5f	-0.03964078
32	0x3c7178c3	0.0147382645
33	0x3d404ac6	0.04694631
34	0x3d8cdbde	0.06877874
35	0xbd9a9a58	-0.0754897
36	0xbbb0544d	-0.005381143
37	0x3d9f9d90	0.077937245
38	0x3dbffa23	0.09373882
39	0xbd289b2f	-0.04116362
40	0xbda2ab06	-0.079427764
41	0xbcaf9814	-0.021434821
42	0xbd8d2e1b	-0.068935595
43	0x3d9c8e31	0.07644308
44	0x3acbcfac	0.0015549562
45	0xbd9196ea	-0.07108863
46	0x3cd2d71a	0.025737334
47	0x3d455149	0.048173223
48	0xbddd7571	-0.10813416
49	0x3da2eb44	0.079550296
50	0x3dc3fdf6	0.095699236
51	0xbd35e220	-0.044405103
52	0xbdd31681	-0.10307027
53	0xbd91bf47	-0.071165614
54	0x3dbe372a	0.092878655
55	0x3da6200c	0.08111581
56	0x3c99c412	0.018770251
57	0x3bbdb4c3	0.0057893707
58	0xbdb70544	-0.08936551
59	0x3d0b85b9	0.034063075
60	0xbd1a20f8	-0.037629098
61	0x3c641f55	0.013923486
62	0x3bdbdac2	0.0067094276
63	0xbda4696f	-0.08027922
64	0xbc270e34	-0.010196257
65	0x3cf3ca01	0.029759409
66	0x3cda1c1f	0.026624737
67	0x3d140d2d	0.036145378
68	0xbb4c36b1	-0.0031160528
69	0xbd110956	-0.035409294
70	0xbdb33d01	-0.0875187
71	0x3d0ad603	0.033895504
72	0xbd66ac7d	-0.05631684
73	0x3da655dc	0.08121845
74	0xbd640f10	-0.055678427
75	0xbce71e4e	-0.028212693
76	0xbdc31028	-0.09524566
77	0xbdaad316	-0.08341043
78	0x3dad8ef9	0.084745355
79	0x3d857b1b	0.06517621
80	0x3ce58a24	0.028019972
81	0xbd967fcc	-0.07348594
82	0x3b403c33	0.0029332757
83	0x3cf845b4	0.030306675
84	0x3cbc8a39	0.023015128
85	0x3d699673	0.057028245
86	0xbc81ccb2	-0.015844677
87	0xbc9f6794	-0.01945857
88	0x3ccc3fd8	0.024932787
89	0xbd6e391d	-0.058159936
90	0x3bd3e41e	0.0064664027
91	0x3c47a074	0.012184251
92	0xbbadc21b	-0.00530268
93	0x3da0cd0f	0.07851612
94	0xbdcb041b	-0.099128924
95	0xbdfded9a	-0.123988345
96	0xbc095c41	-0.008383811
97	0xbe0e1220	-0.13874102
98	0x3d433dad	0.04766624
99	0xbb9a7104	-0.0047131795
100	0x3d90ef83	0.07076933
101	0x3dd16248	0.10223824
102	0x3d56bf21	0.05242837
103	0xbdceae16	-0.10091798
104	0x3e091e5c	0.13390487
105	0xbd116598	-0.035497278
106	0x3dda10e3	0.10647752
107	0x3ccc857e	0.024965998
108	0x3d3b557d	0.045735825
109	0x3d8020fd	0.06256292
110	0x3bac379b	0.005255652
111	0xbd89f96d	-0.06737027
112	0xbda25aad	-0.07927451
113	0x3da54e98	0.08071631
114	0xbd294e0f	-0.041334208
115	0x3da076ca	0.07835157
116	0x3d6caca7	0.05778184
117	0x3d07b499	0.033131216
118	0xbd34f8aa	-0.044182457
119	0x3be33e67	0.006934929
120	0xbd7c5e1b	-0.061613183
121	0xbd4253fd	-0.04744338
122	0x3cb3ba17	0.02193932
123	0x3cddaf4f	0.027061133
124	0x3d2a5424	0.04158415
125	0x3dc931e7	0.09823971
126	0x3d9cf8f3	0.07664671
127	0x3c82b0e3	0.015953487
128	0x3d601dd3	0.054715943
129	0xba62cf4e	-0.00086521066
130	0xbcdbd4a2	-0.02683479
131	0x3c934d76	0.017981272
132	0x3e0cbdf0	0.1374433
133	0xbd450bb1	-0.048106853
134	0xbd50e1a1	-0.050996426
135	0x3d34828e	0.04406982
136	0xbd7e8b16	-0.06214436
137	0x3d812439	0.06305737
138	0xbdaf9e04	-0.08575061
139	0xbbcef8bd	-0.006316273
140	0x3bd98dff	0.0066392417
141	0xbd997517	-0.07493036
142	0x3c5d7121	0.013515742
143	0x3d0e53b3	0.03474779
144	0xbd8e14b1	-0.0693754
145	0xbdd7660b	-0.1051751
146	0x3cd8376c	0.026393615
147	0xbd543126	-0.051804684
148	0xbd3a76e6	-0.045523547
149	0x3c9ea98a	0.019367952
150	0xbd9421f0	-0.072330356
151	0xbdd7e68f	-0.105420224
152	0x3d9a010a	0.075197294
153	0x3c3d2eb4	0.011546779
154	0xbcaf9b80	-0.021436453
155	0xbc77b77f	-0.0151194325
156	0x3d9d9528	0.07694465
157	0xbd82a8fd	-0.06379888
158	0xbdb65026	-0.08902006
159	0xbe101760	-0.14071417
160	0xbaa869f7	-0.0012848963
161	0x3d85601e	0.065124735
162	0x3d52f49f	0.05150282
163	0xbd705163	-0.058671366
164	0xbc2171a3	-0.009853753
165	0xbbbce4c2	-0.0057645747
166	0x3a3bb60e	0.0007160612
167	0x3d45101c	0.048111066
168	0x3dc3f4c3	0.09568169
169	0x3d87bfc0	0.0662837
170	0x3d7a2ebe	0.061079733
171	0x3de1ccbc	0.11025378
172	0xbe0669f7	-0.1312636
173	0xbd92e7da	-0.071731284
174	0x3d06a59d	0.032872785
175	0x3dc31fa0	0.09527516
176	0x3d5ad123	0.053422105
177	0xbb0d5883	-0.002156765
178	0x3df0b086	0.11752419
179	0x3d388fc4	0.04505898
180	0x3d93d92b	0.07219156
181	0x3d1eb2f8	0.038744897
182	0xbd8b7ce9	-0.06810934
183	0x3ce21e89	0.02760245
184	0x3c740e83	0.014896038
185	0x3d8a708d	0.067597486
186	0xbdfcbeaa	-0.12341054
187	0x3d429076	0.04750105
188	0xbc32f572	-0.010922777
189	0xbd064460	-0.03278005
190	0x3ddf3a77	0.10899823
191	0x3d733211	0.05937392
192	0x3d957ae0	0.07298827
193	0x3dade3ce	0.08490716
194	0xbd598fc5	-0.053115625
195	0x3cc9d00f	0.024635343
196	0xbdb05342	-0.0860963
197	0x3ca8ab53	0.020589506
198	0xbc75726d	-0.0149808945
199	0x3d9bb593	0.07602992
200	0x3d92ab0d	0.071615316
201	0x3cfa0e18	0.030524299
202	0xbd86339c	-0.065528125
203	0x3c81b0bc	0.015831344
204	0xbce8d8fb	-0.028423777
205	0x3e0016c0	0.12508678
206	0x3d372f50	0.044722855
207	0x3da54c6a	0.080712155
208	0x3d6ba1fe	0.057527535
209	0x3d0f2e22	0.034956105
210	0x3dbbdabb	0.09172579
211	0xbd15c59c	-0.036565408
212	0xbd9490ab	-0.07254156
213	0x3de4f2fd	0.11179159
214	0x3d2f2e8e	0.042769007
215	0xbe05f180	-0.13080406
216	0xbcf9a01f	-0.03047186
217	0x3c3aceca	0.011401841
218	0x3db2803c	0.08715865
219	0xbd020c6c	-0.031750128
220	0xbd8a72e8	-0.06760198
221	0xbdd0a0e3	-0.10186937
222	0x3dfffc34	0.12499276
223	0xbdef2362	-0.116766706
224	0x3b392cc7	0.002825545
225	0x3c9d7af0	0.01922366
226	0x3c6257dd	0.013814894
227	0xbdb5b4e4	-0.08872393
228	0x3dc20de9	0.094753094
229	0x3e0000b5	0.1250027
230	0xbcfa4718	-0.030551478
231	0xbda47739	-0.080305524
232	0xbde5faf0	-0.11229503
233	0x3da265c9	0.0792957
234	0xbccddbdf	-0.025129257
235	0x3d3a1284	0.045427814
236	0x3d71a41f	0.05899441
237	0xbd5896e8	-0.05287829
238	0x3cc960f0	0.024582356
239	0x3dee920f	0.11648952
240	0x3dc566a0	0.09638715
241	0xbd5d545e	-0.054035537
242	0xbd2b3f2c	-0.041808292
243	0x3ba09290	0.004900284
244	0xbd953968	-0.0728634
245	0x3dbb688c	0.091508
246	0xbdb1c93b	-0.0868096
247	0xbcdc50ca	-0.026893992
248	0x3dc74af2	0.097310916
249	0x3daa9309	0.08328826
250	0xbdc80333	-0.09766235
251	0xbd98e456	-0.074654266
252	0x3c683bd2	0.0141744185
253	0x3ccf58a3	0.02531082
254	0xbdaaef1a	-0.08346386
255	0xbd0d8c0e	-0.034557395

nodes.0.callable.fc1_x2.bias f4 [80]
0	0xbd69bf75	-0.057067353
1	0x3da21c60	0.07915568
2	0xbdf6988b	-0.12040814
3	0x3d936753	0.07197442
4	0xbdc37aa7	-0.095448785
5	0xbdbcd6c4	-0.09220651
6	0xbdf1db6a	-0.11809428
7	0x3cde2351	0.02711645
8	0xbd876ffd	-0.06613157
9	0xbd98f5c4	-0.07468751
10	0xbd580cb5	-0.052746493
11	0x3db0814c	0.086184114
12	0xbdee85eb	-0.116466366
13	0x3cfc4c27	0.030798031
14	0x3cbe8690	0.023257524
15	0xbd4c5baf	-0.049892124
16	0xbd114472	-0.035465665
17	0xbd6c9848	-0.057762414
18	0x3c149852	0.009069519
19	0xbdae82b1	-0.08521021
20	0x3dc54243	0.09631779
21	0xbcf8abde	-0.03035539
22	0x3ccea97e	0.025227305
23	0x3db47892	0.088120595
24	0xbd8ffff6	-0.070312425
25	0xbd81f420	-0.06345391
26	0xbd274cfe	-0.04084491
27	0xbd570ed0	-0.05250436
28	0xbde22d3c	-0.11043784
29	0x3b9c7e8d	0.004775828
30	0xbbd52d8b	-0.0065056733
31	0xbc9bde57	-0.019026918
32	0x3d91fb96	0.07128064
33	0xbc9532fc	-0.018212788
34	0xbd7dcfb5	-0.061965663
35	0x3d5abe13	0.053403925
36	0x3d88ff49	0.06689317
37	0xbdc8a41d	-0.09796927
38	0x3c922ab0	0.01784262
39	0xbd8698ab	-0.06572088
40	0xbd5ab7a4	-0.05339779
41	0xbcc077db	-0.023494652
42	0xbd8b7cf6	-0.06810944
43	0x3dcc3e99	0.09972877
44	0x3d9cdd55	0.07659403
45	0x3d8dbb19	0.06920452
46	0xbd796b39	-0.06089327
47	0xbd53c03e	-0.05169701
48	0xbd5cfab6	-0.053950034
49	0xbd7cb734	-0.061698154
50	0xbc1ec6c6	-0.009690946
51	0x3dbe3eb5	0.09289304
52	0xbcde7486	-0.027155172
53	0x3db1f7ba	0.08689828
54	0xbc3bbb16	-0.011458179
55	0xbd809e87	-0.06280237
56	0xbd95113e	-0.07278679
57	0x3b44fa3a	0.0030056373
58	0xbbc969f4	-0.006146664
59	0xbd0cc613	-0.034368586
60	0x3ce7958b	0.02826955
61	0x3d3e0375	0.046390016
62	0x3dac718d	0.084200956
63	0x3d5a8d96	0.053357683
64	0x3d419dc5	0.0472696
65	0xbd7377db	-0.059440475
66	0x3c00c6bf	0.007859885
67	0xbc300879	-0.010744208
68	0x3d88fd71	0.06688965
69	0x3dc583f9	0.096443124
70	0xbca6f4c3	-0.020380383
71	0xbd747e98	-0.05969104
72	0xbd89f751	-0.06736625
73	0x3c7ff7a0	0.015623003
74	0x3d9110e3	0.07083299
75	0xbd4142b2	-0.047182746
76	0xbda95bb6	-0.082694456
77	0x3c1c73d5	0.009549101
78	0x3dabbb63	0.083853506
79	0x3c689dd2	0.014197784

nodes.0.callable.fc2_x2.weight f4 [80, 80]
0	0xbc8c3052	-0.017112885
1	0x3dbaa94d	0.09114323
2	0x3e0b9081	0.13629343
3	0x3dbe4b0f	0.0929166
4	0x3ca46395	0.020067016
5	0xbdf7f2da	-0.12106867
6	0xbdb656fc	-0.0890331
7	0xbdaa53f6	-0.083167955
8	0xbd28e6fe	-0.041235916
9	0x3ca6fd4d	0.020384455
10	0x3c66bea0	0.0140835345
11	0x3d047b6f	0.032344278
12	0xbdda4158	-0.106569946
13	0x3cc221b6	0.023697715
14	0xbcc0ccc0	-0.023535132
15	0x3ded4c22	0.11586787
16	0x3d93fb29	0.072256394
17	0x3d82d039	0.063873716
18	0x3da05a38	0.07829708
19	0xbda273eb	-0.07932266
20	0x3d760f05	0.060072917
21	0x3d99a084	0.07501319
22	0xbd15b8db	-0.036553245
23	0x3dabaa6c	0.08382115
24	0x3b716796	0.0036835424
25	0xbd759311	-0.059954707
26	0xbd6b72ad	-0.05748241
27	0xbdee0088	-0.11621195
28	0xbc98ed08	-0.018667713
29	0x3c8ef492	0.017450605
30	0xbcae94ec	-0.021311246
31	0x3d5bf379	0.05369899
32	0x3c93c7e9	0.01803966
33	0x3dd317c4	0.10307267
34	0x3d1ed00c	0.038772628
35	0xbd804b97	-0.062644176
36	0x3db895f9	0.0901298
37	0xbdb0729b	-0.08615609
38	0xbd779e46	-0.060453676
39	0x3c0a9a07	0.008459575
40	0xbddb2b3f	-0.10701608
41	0xbd99e7dd	-0.075149275
42	0x3d8bfbfc	0.068351716
43	0x3bb64c11	0.005563267
44	0xbd90748d	-0.0705348
45	0xbdcc89b3	-0.099872015
46	0xbd6c8bf7	-0.05775067
47	0xbdf9ab8c	-0.12190923
48	0x3d51fc34	0.05126591
49	0x3d7fa590	0.062413752
50	0x3c996407	0.018724455
51	0x3d2f3990	0.042779505
52	0x3d8a8ef9	0.06765551
53	0xbdb9c76f	-0.09071242
54	0xbd87eb45	-0.06636671
55	0xbd4d0f16	-0.050063215
56	0xbbf57366	-0.007490563
57	0xbdd1f6b2	-0.102521315
58	0x3d03e9b5	0.032205302
59	0x3de8af5f	0.113615744
60	0x3ce8c0d6	0.028412264
61	0xbc25bc2c	-0.010115664
62	0x3d536930	0.051613986
63	0x3deec824	0.116592675
64	0xbcde4f3e	-0.027137395
65	0xbbce5900	-0.0062972307
66	0xbd697dcb	-0.05700473
67	0x3d0494f6	0.032368623
68	0x3cc23cb1	0.02371058
69	0xbd5a503d	-0.053299177
70	0xbdf2bc97	-0.11852377
71	0xbd33c5f1	-0.043889944
72	0xbd4798e9	-0.04872981
73	0x3d0f344d	0.034961987
74	0x3dd87e31	0.10570944
75	0xbd306b0e	-0.043070845
76	0xbcb93d29	-0.022612171
77	0x3d4992b0	0.049212158
78	0xbdc6c54a	-0.09705599
79	0xbd561a33	-0.05227108
80	0xbd53598a	-0.051599063
81	0xbd3049cd	-0.043039132
82	0xbdc08a01	-0.09401322
83	0xbcdaba64	-0.026700206
84	0x3d880543	0.066416286
85	0x3c1384cd	0.00900383
86	0x3da6693d	0.08125541
87	0x3d4aa0b7	0.049469676
88	0xbd539e27	-0.051664498
89	0xbcdb5b12	-0.026776824
90	0xbd40ec68	-0.047100455
91	0xbd844529	-0.06458504
92	0x3d7dfe5a	0.062010147
93	0xbd2f391d	-0.042779077
94	0xbde58ec8	-0.11208874
95	0xbdc9fa61	-0.09862209
96	0xbd921996	-0.071337864
97	0x3d3e6606	0.046484016
98	0x3cc6cd4f	0.02426782
99	0x3caef8ae	0.021358814
100	0xbcb2e0cf	-0.021835713
101	0x3cb7c597	0.022433085
102	0x3dbd8980	0.09254742
103	0x3cdaa21b	0.026688626
104	0xbd1bf20a	-0.038072623
105	0xbcdad8d6	-0.026714724
106	0x3dbb4bae	0.09145294
107	0x3d90085e	0.07032846
108	0x3d729f09	0.0592337
109	0x3cd400d3	0.0258793
110	0xbd8b2605	-0.06794361
111	0x3db464c5	0.08808283
112	0x3ce4f4e2	0.0279488
113	0xbdb636cb	-0.0889717
114	0x3d8e93a0	0.06961751
115	0x3db3a2ff	0.087713234
116	0xbc295d15	-0.010337134
117	0x3d309e3e	0.04311966
118	0x3d984e1a	0.07436772
119	0x3d89ee41	0.067348965
120	0x3dcdc564	0.10047415
121	0xbd8c95cd	-0.0686451
122	0xbd67745b	-0.05650745
123	0xbccbd617	-0.02488236
124	0x3b13454b	0.0022471722
125	0x3a369f6a	0.00069665036
126	0x3d330a57	0.043711033
127	0x3d91817c	0.07104775
128	0x3dbce19d	0.0922272
129	0x3d2c5a32	0.042078204
130	0x3ca0ebec	0.019643746
131	0xbc5affb3	-0.0133666275
132	0xbd9dd81d	-0.07707236
133	0x3dc51b66	0.096243665
134	0xbd529849	-0.05141476
135	0x3dd5931e	0.10428451
136	0x3de6185a	0.112351134
137	0x3df0494a	0.11732729
138	0xbd160055	-0.03662141
139	0x3d82cb2f	0.063864104
140	0x3cf57184	0.029961355
141	0x3bc490da	0.005998713
142	0x3d009b68	0.031398207
143	0x3db583af	0.08863007
144	0x3d5aed7b	0.053449135
145	0xbdaba6c2	-0.08381416
146	0x3d29e1ff	0.041475292
147	0x3db86895	0.090043224
148	0xbdd9b765	-0.10630683
149	0xbdbac3e1	-0.09119392
150	0xbdc4fa69	-0.096180744
151	0x3ce7185e	0.028209861
152	0x3cb43ac6	0.022000682
153	0x3d3d6465	0.04623832
154	0xbde28085	-0.110596694
155	0xbd15db64	-0.03658618
156	0x3cdfeb7b	0.027333966
157	0x3d272ba2	0.040813096
158	0xbdc8a2c4	-0.0979667
159	0xbd8ce783	-0.06880095
160	0xbc3f1b0e	-0.011664165
161	0x3ca9ae3d	0.020712966
162	0xbdaf32fc	-0.085546464
163	0x3d3ce2db	0.046114784
164	0xbdce5e12	-0.10076536
165	0x3d0e5c41	0.03475595
166	0x3e062497	0.13099895
167	0x3dda3901	0.10655404
168	0x3dbdb379	0.09262747
169	0xbdc3a757	-0.09553402
170	0x3dedc7ae	0.116103515
171	0xbda6b019	-0.08139057
172	0xbc5649fb	-0.013079162
173	0x3c0dade8	0.0086474195
174	0x3c87fb39	0.016599284
175	0x3da8a544	0.08234647
176	0xbd5557e5	-0.052085776
177	0x3daf58f4	0.08561888
178	0xbc53c5f5	-0.012925615
179	0x3c671a32	0.014105367
180	0x3d4b0bb7	0.04957172
181	0xbcd97251	-0.026543768
182	0xbd861846	-0.065475985
183	0xbdd0c803	-0.10194399
184	0x3d3a3f67	0.04547062
185	0x3c4a8e94	0.012363095
186	0x3d99a030	0.075012565
187	0xbc3a2da3	-0.01136342
188	0x3dbb2b60	0.091391325
189	0x3d5bc917	0.05365857
190	0xbc52083e	-0.012819348
191	0x3dd3d993	0.10344233
192	0x3d780b81	0.060557846
193	0xbc7a541d	-0.015278843
194	0xbd0c74ca	-0.034291066
195	0xbdcbfd68	-0.09960443
196	0x3ce9c86d	0.028537953
197	0x3d592e7c	0.053022847
198	0xbc607c73	-0.013701546
199	0xbe056e99	-0.13030471
200	0xbb8dafe8	-0.004323948
201	0x3ca46c84	0.020071276
202	0x3d0f775a	0.035025932
203	0xbb8366de	-0.0040100655
204	0xbdabbe72	-0.08385934
205	0x3dc6e75f	0.09712099
206	0xbd40e140	-0.047089815
207	0x3da29be5	0.07939891
208	0xbbe6c353	-0.0070423274
209	0x3d8428f0	0.06453121
210	0xbccf5ba1	-0.025312247
211	0x3d0e1e5b	0.034696918
212	0xbbd38e54	-0.006456176
213	0x3dd8d6eb	0.10587867
214	0xba73de09	-0.00093028
215	0x3dc9c9d7	0.09852951
216	0x3dbbf9fe	0.091785416
217	0x3d26d1da	0.040727474
218	0xbbd35751	-0.006449618
219	0x3d2f0892	0.042732783
220	0x3da750d4	0.081697136
221	0xbcf13e0a	-0.029448528
222	0xbcc7f034	-0.02440653
223	0xba88093f	-0.0010378732
224	0xbd07a540	-0.03311658
225	0x3c978b96	0.018499177
226	0x3d6d7ae0	0.05797851
227	0xbd65be78	-0.05608985
228	0xbc91b687	-0.017787231
229	0x3de7046e	0.11280142
230	0xbae0cb27	-0.0017150388
231	0x3c987d91	0.018614562
232	0x3dae4681	0.08509541
233	0x3d562415	0.052280504
234	0x3da0ec95	0.078576244
235	0x3dcd24f3	0.10016813
236	0x3c70d028	0.014698066
237	0x3d9f752c	0.07786021
238	0xbda0aa4e	-0.07844983
239	0xbd290f74	-0.041274503
240	0x3d3b3ca0	0.045712113
241	0x3d85eb84	0.06539062
242	0xbace34fb	-0.0015732342
243	0x3cc442ce	0.023957636
244	0x3dca800b	0.098877035
245	0xbc445c3c	-0.011984881
246	0xbd0c3286	-0.03422787
247	0x3c8b2206	0.016983997
248	0x3d900c9d	0.07033656
249	0x3b83cebc	0.0040224474
250	0x3ceb8b14	0.028752841
251	0xbda523cf	-0.080634706
252	0xbddaf920	-0.10692048
253	0xbd905cfe	-0.07048987
254	0xbd36b172	-0.04460282
255	0x3c494104	0.012283567

nodes.0.callable.fc2_x2.bias f4 [80]
0	0xbd1ce0d6	-0.038300358
1	0x3da1b47b	0.07895752
2	0x3a4448a4	0.0007487631
3	0xbc8987da	-0.016788412
4	0x3c8c224f	0.017106203
5	0xbd014cec	-0.0315675
6	0x3d563b55	0.052302677
7	0xbd9f99e1	-0.07793022
8	0xbcf758be	-0.030193683
9	0x3d60e5d0	0.054906666
10	0xbd2bed0c	-0.041974112
11	0xbc365e84	-0.011130933
12	0x3d3e7532	0.046498485
13	0x3dbc11a6	0.09183054
14	0xbc45e794	-0.012079138
15	0x3c116425	0.008873974
16	0xbdd6d2d0	-0.10489428
17	0xbd0d1011	-0.03443915
18	0x3d386595	0.04501875
19	0x3c9a79ae	0.01885685
20	0x3d5384fb	0.051640492
21	0xbd6fc8b8	-0.05854103
22	0xbd3756f9	-0.044760678
23	0xbd0bc3ae	-0.03412216
24	0x3d303726	0.043021344
25	0xbd855e65	-0.06512145
26	0x3c7a1bcd	0.015265417
27	0xbd05128f	-0.032488402
28	0xbaacd9e7	-0.0013187499
29	0x3d266f9e	0.04063379
30	0xbd003050	-0.031296074
31	0xbd0aa44d	-0.033848096
32	0xbca6dc21	-0.020368638
33	0xbd2faa59	-0.042887066
34	0x3dc62cf9	0.096765466
35	0xbd948a9a	-0.07252999
36	0xbdbc90ae	-0.09207283
37	0x3dcca044	0.09991506
38	0xbd87a08e	-0.0662242
39	0xbcb49cff	-0.022047518
40	0x3d5ac5e8	0.053411394
41	0x3d84dc2f	0.06487309
42	0xbc372b6f	-0.011179789
43	0xbe0dfd75	-0.13866217
44	0xbdc0ac42	-0.094078556
45	0x3c2277a5	0.009916221
46	0x3b41a891	0.0029549936
47	0x3d8733e4	0.06601694
48	0xbb790639	-0.0037998094
49	0xbd4bd0f2	-0.049759813
50	0xbd50e392	-0.050998278
51	0xbb94ae5f	-0.004537388
52	0xbc398eae	-0.011325521
53	0x3d52e785	0.051490325
54	0xbc99b724	-0.018764086
55	0xbc92397f	-0.017849682
56	0x3a1873a6	0.0005815573
57	0xbc28adbb	-0.010295327
58	0xbdde2bfc	-0.10848233
59	0x3de1b27e	0.11020373
60	0xbd8a8db3	-0.06765308
61	0xbc3151dc	-0.010822739
62	0x3c440291	0.0119635025
63	0xbd400bd4	-0.04688628
64	0x3d1e81fa	0.038698174
65	0x3cecddcd	0.028914357
66	0xbc008911	-0.007845179
67	0xbd0b5c08	-0.034023315
68	0x3c61e2e8	0.013787009
69	0x3b5e59ad	0.0033927963
70	0x3dad76cf	0.084699266
71	0xbd9fa83e	-0.077957615
72	0x3d4075a8	0.046987206
73	0xbdd42cd1	-0.103601106
74	0xbd4b8e08	-0.049696
75	0xbade6680	-0.0016967803
76	0x3d71e791	0.05905873
77	0xbd856157	-0.06512707
78	0x3de1ac35	0.11019174
79	0xbcb33349	-0.02187504
