5min_model/nsteps_10/softround_states_model.pt (torch, 429354 bytes, 17 tensors)

nodes.0.callable.fc_input.weight f4 [130, 22]
00000000: 5c36 c43e 6f66 58be 0d98 5dbd c7dc a9bd
00000010: 2fe4 003b 6bf0 ee3d 1fa8 6f3c 4669 7d3c
00000020: 1674 6abc 586f 443c 4b5e db3a e463 aabc
00000030: 36bd 843c a857 ad3c 0e77 de3b 0045 ebbb
00000040: 26a4 bcbc 3f70 863c ebb1 42bc d6d0 c23b
00000050: a31b d9bc 1842 1fba 8e9c 0d3d 8efc 7cbe
00000060: 8d1d e8bd daef 7bbd 534c a2bb 42c9 253e
00000070: 270c e03d ce87 de3b cdc7 81bd 58ae 9bbc
00000080: 4882 a13c 35f5 0bbe b8cd 6bbc d799 2abe
00000090: c15b 053d a421 bcbd 1d5d 03bd 9c24 45be
000000a0: 8b13 8f3b 4b22 a03d 03e5 9f3d cf85 ebbc
000000b0: 24e1 38be f091 0a3e 43a9 9e3d edd8 9e3d
000000c0: d2e4 88bd ac97 3cbe dc25 053e d13e 1fbd
000000d0: 4818 ab3d c1ec 293e 06b6 553c 79b6 2abe
000000e0: 2f51 11be 994c 8d3d 08bd 813b 9aa1 093e
000000f0: b58e b43c d879 b43d 7791 1aba 7196 dabd
00000100: 08f4 18bd 5947 5f3b ee24 e43d d7d6 fe3d
00000110: 643d babd 96e7 e53d 4933 913d 9f01 8bbd
00000120: f750 68bd 79fc cebd 00e7 90bd 6220 4dbe
00000130: da03 893d 56d0 f1bd 7868 4f3d 9d25 573d
00000140: 2626 823d f9a9 10be f397 333d 2bba b83d
00000150: fb27 533d 6acd 07be 2d1f 57bd d50f 4939
00000160: 8542 19bd 9cb4 21be 6c35 b63b 6062 f63d
00000170: 7f06 a0bd 9051 aabd d10c 85bd 8f38 bf3d
00000180: ce3a 063e e672 eb3b f231 a03d ab6e 483d
00000190: 4649 1cbd 5ad2 b0bd e229 05bd 398c ba3d
000001a0: fe9f f5bc ecf0 333c 3ae5 843b 9c88 e63c
000001b0: e702 433d d906 6abd 67b1 85bc 8eed d3bc
000001c0: a69b c83d 958a cbbd c4fb 3dbd 8d99 1fbe
000001d0: c849 003e a918 103e 2133 0ebe 84da c6bd
000001e0: e488 0b3e 2401 f8bb ccb1 12be 2159 b33b
000001f0: 7cd0 0bbe 42d0 903d 794a 88bd 9dd3 a1bd
00000200: 8d5f 69bd d945 88bd 65f6 24bd e621 6a3d
00000210: 6080 8c3d 1979 b33e 863e e3bc 9f4d bebd
00000220: 1f82 afbc 221b 113d 6a17 043d 729b 72bd
00000230: fd5c 263d 92d8 5e3a a49a 63bd 7868 d73c
00000240: 7906 81bd fe2b eabd 22a0 e0bc 8160 bb3d
00000250: 2fa9 e43c 9274 9fbd 94e4 94bb 8c9a 903c
00000260: 112c 82bc b599 87bc e1d1 eebc 2d5f 76be
00000270: 3135 353d fae5 c9bc 61db 043e f5f1 4c3c
00000280: b0b3 413d 700d 193e 48ed efbd d3e0 07be
00000290: ff47 8c3d 0f6d dd3d 27bf 94bd fe4e fbbc
000002a0: db7d d2bd 3c3d 0b3d 111c 3d3d 48a4 01bd
000002b0: 181a 333d 05a6 573d a29b 8b3c 397c f6bc
000002c0: f65d e9bd 40c7 3a3e c41c 043d 832f 993d
000002d0: ee2d d0bd 289d 443e 864f 72bd d135 063d
000002e0: 149c a8bb 0a46 9ebd ee0f c8bd 593b 5f3c
000002f0: 2345 123d 5b8f 25bd 81b1 6ebd da1a 343b
00000300: a682 083b 04af e33d 5544 44bd 58a9 4e3d
00000310: fd85 c63a 42b0 bbbd 5060 b63e 474c a0bd
00000320: 5167 2b3d 9ef0 d63d 005c af3c 3750 23bd
00000330: 6675 1abd e8ac 453c ac48 48bd ecb7 2f3d
00000340: a8d8 453f cd62 943e 8d42 533f 2a7d 1c3e
00000350: 17f3 c43e 3edd 0d3e 2aa7 e53e e43d 05be
00000360: 6095 d83e e36d cb3d dfc7 853e d925 653e
00000370: e38f e03b 8b32 46be 177e ccbc 96e5 0c3d
00000380: 5095 0ebd 2e96 433d fde5 06bc 6461 cc3d
00000390: f22f abbc 15f4 00be 53ae 95bd e349 b83d
000003a0: f1d2 afbd a776 c7bb 2356 a73d 7b25 a63d
000003b0: f268 5ebd aa12 68bd a122 87bb 133d 9e3c
000003c0: a796 8e3a 4513 423c 8276 cf3d ab61 60bd
000003d0: 48e3 d93d 3ea4 eebd 0de8 003e 5a3d 5e3e
000003e0: 173f 8c3d ad1b 2abd a7f3 b4bd de95 9b3d
000003f0: b598 ccbd 5124 4abc e7e4 ca3c 8401 863d
0.38322723 -0.21132825 -0.054100085 -0.08294063 0.0019667258 0.1166695 0.014627486 0.015466994
-0.014309904 0.011989437 0.0016736476 -0.020799585 0.016203504 0.021159962 0.006789095 -0.0071798563
-0.02302749 0.016410945 -0.011883239 0.0059453053 -0.026502436 -0.00060752174 0.03457313 -0.24705717
-0.11333761 -0.061508037 -0.004952946 0.16190055 0.10939818 0.0067910915 -0.06336937 -0.019004032
0.019715443 -0.13667758 -0.014392309 -0.16660248 0.032558206 -0.09186104 -0.03207122 -0.19252247
0.0043663434 0.07819041 0.078073524 -0.028750328 -0.18054634 0.13532233 0.07747128 0.07756219
-0.06684269 -0.18417233 0.13002723 -0.038878266 0.08354241 0.1659422 0.013043886 -0.1667117
-0.14191125 0.068993755 0.003959302 0.13440552 0.022040704 0.08812302 -0.000589631 -0.10673226
-0.0373421 0.0034069626 0.11139856 0.12443321 -0.090937406 0.11225812 0.0708986 -0.067874186
-0.05671784 -0.10106749 -0.0707531 -0.20031884 0.06690188 -0.11807315 0.05063674 0.052526105
0.063549325 -0.1412734 0.043846082 0.09019884 0.0515518 -0.13261953 -0.052519966 0.00019174752
-0.037416954 -0.15791553 0.0055605676 0.12030482 -0.07813739 -0.08316338 -0.06496585 0.093369596
0.1310837 0.007185328 0.07822026 0.048933666 -0.038155816 -0.086338714 -0.032510646 0.091087766
-0.029983517 0.010982733 0.0040556462 0.028141312 0.04761019 -0.057135437 -0.016319944 -0.02587011
0.097953126 -0.09938542 -0.04638268 -0.15585919 0.12528145 0.14071907 -0.13886692 -0.09709647
0.13626438 -0.0075684953 -0.14325637 0.0054732715 -0.13653749 0.07070972 -0.066548295 -0.0790169
-0.05697589 -0.066539474 -0.040274043 0.057161234 0.06860423 0.35053328 -0.027739774 -0.09292149
-0.021424351 0.035426266 0.032248892 -0.059230275 0.040616024 0.00085008994 -0.0555674 0.026294932
-0.06300063 -0.11434172 -0.027420107 0.09149266 0.027912704 -0.07785906 -0.00454385 0.017651819
-0.015890153 -0.016552785 -0.029152812 -0.24059744 0.04424018 -0.024645794 0.12974311 0.012508859
0.047290504 0.14946532 -0.1171518 -0.13269357 0.0684967 0.10811817 -0.07263022 -0.030677315
-0.10277911 0.033993945 0.046169344 -0.03165081 0.043726057 0.052648563 0.017041985 -0.03008853
-0.11394875 0.1824007 0.032253996 0.07479765 -0.101650104 0.19200575 -0.05915787 0.032766167
-0.005145559 -0.07728203 -0.09768663 0.013624989 0.035710465 -0.040419918 -0.05827475 0.0027481825
0.0020829826 0.11117366 -0.04791673 0.050454468 0.0015146133 -0.09164478 0.35620356 -0.07827049
0.041846577 0.10495113 0.021406174 -0.03987142 -0.037709616 0.01206515 -0.04889743 0.04290001
0.77283716 0.2898163 0.82523423 0.15282121 0.38466713 0.13853928 0.448541 -0.1301189
0.42301464 0.099330686 0.26129052 0.22377719 0.00685309 -0.19355218 -0.024962468 0.034398638
-0.034810364 0.047750644 -0.008233544 0.09979513 -0.020896886 -0.1259311 -0.0730864 0.08998468
-0.08585156 -0.0060871425 0.08170726 0.081126176 -0.054299302 -0.056658424 -0.004124001 0.019316232
0.0010878638 0.0118454145 0.101300254 -0.054780643 0.106390536 -0.116524205 0.1258852 0.21703091
0.06847971 -0.0415303 -0.088355355 0.07596944 -0.09990064 -0.01233776 0.024767352 0.06543258

nodes.0.callable.fc_input.bias f4 [130]
00000000: 5c1d c9be ecb8 d03d 58e3 2bbd 7752 b73d
00000010: 5799 68be 5c88 d93d fd2b d6bd 9e7b a6bd
00000020: 174c 503e d2cb 1dbe 83e8 1bbc 1c8f 9dbb
00000030: 2654 463e ed9a 6ebd 6dff eb3d 85a8 32bd
00000040: d006 1d3c de2e 843e 2a32 653e 66c6 723e
00000050: 1d3d 59be b5ef 263d 5ff6 8a3c 971c c6bd
00000060: f17f c5bd 33e0 3abd 764f 36be b9dc e23d
00000070: 37d0 933e 57e9 013e 2112 66be f148 ff3c
00000080: 2915 693e f45e 953c 2d97 613e dbdd 4abd
00000090: e1c0 043d 172c 1d3e 921b 40be 8502 243d
000000a0: 9f99 583e 38cf d63d 6a56 2dbe ebb5 5e3e
000000b0: 1ec6 823e 47f2 8ebe 3220 33bd 9e9f 7b3e
000000c0: 7a77 54be 80e8 353e 352b 753e 4843 49bd
000000d0: 8802 3c3d 81fe db3d 61d3 3fbe b59b b63c
000000e0: 2ace a5bc ef8f 153e 6efd d5bd 39f0 093e
000000f0: 7431 733e 1e63 923e 7470 34be a4db 623c
00000100: 512e 40bd 6d04 7c3c 0a47 6b3e 0e63 bf3d
00000110: d74b 533e ad45 84be 2177 9d3d ca27 4b3e
00000120: 5252 7bbe 9e2e bf3d 4dc9 ae3d dad1 0cbd
00000130: 3beb dc3d ec4b 9cbe 17fe 45be 6262 7b3d
00000140: 246a 36be 049f 21be 30bb 82ba 4c4c af3d
00000150: 66a6 793d 9005 a2bc ee7d b7bd b3e9 f6bd
00000160: e941 21be 5fe3 a33d 8591 633d a8fa aa3e
00000170: d466 823d 76f6 2abe 3a33 8bbe b29b 0bbd
00000180: 0728 9f3d 85a8 dd3d 0baa a3bc da3e 7fbe
00000190: 0f09 1cbe e312 8fbe 575d e63d 1bec 483e
000001a0: fb65 54be c608 18bd 4e05 dbbd c00d c9bd
000001b0: 93fb 5fbe 4930 3e3e 3b0f 993c 07b1 a9bd
000001c0: ea51 9d3d 4f96 823e 9246 33be 3cb9 2abe
000001d0: d5e1 70be bd77 673d 4e53 9f3e 0ea0 153d
000001e0: e737 03bc 754e 5abe 1282 7b3e 3a42 7f3d
000001f0: 90cf fa3d ee1e 873e 885f 07bd 551f ab3d
00000200: d2ff 8a3d 27be 103e
-0.39280212 0.10191521 -0.04196486 0.08951276 -0.22714745 0.106217116 -0.10457609 -0.08129047
0.20341526 -0.15409783 -0.009515884 -0.0048083197 0.19368038 -0.058253217 0.11523328 -0.043617744
0.009584144 0.25817007 0.22382417 0.23708495 -0.21214719 0.040755946 0.016963182 -0.09673422
-0.096435435 -0.04562397 -0.1780375 0.11077256 0.28869793 0.12686668 -0.22467853 0.03116271
0.22761978 0.018233754 0.22030325 -0.049527984 0.032410506 0.1534885 -0.18760517 0.040041465
0.21152352 0.104887426 -0.16927496 0.21749084 0.25541776 -0.27919218 -0.043731876 0.24572608
-0.20748702 0.17764473 0.23942263 -0.04913643 0.04590085 0.10741902 -0.18732978 0.022291044
-0.020239908 0.14605688 -0.104487285 0.13470544 0.23749334 0.28591245 -0.17621022 0.013846312
-0.04691917 0.015381915 0.22976318 0.09345065 0.206344 -0.25834408 0.07688738 0.19839397
-0.24543121 0.093350634 0.08534489 -0.034379818 0.10787054 -0.30526674 -0.19335209 0.061373122
-0.17813927 -0.15783316 -0.0009973999 0.08559474 0.060949706 -0.019778043 -0.08959566 -0.12056293
-0.15747799 0.08002352 0.0555587 0.3339436 0.06367269 -0.1669558 -0.2718752 -0.03408403
0.077713065 0.10823158 -0.019978544 -0.2492632 -0.1523783 -0.27944097 0.11248272 0.19621317
-0.20742027 -0.037117742 -0.10694371 -0.09817076 -0.21873312 0.18573107 0.01868402 -0.082857184
0.076816395 0.255053 -0.17507389 -0.16672224 -0.23523648 0.056510676 0.31118244 0.036529593
-0.008008934 -0.21318991 0.24561337 0.062319018 0.12246621 0.26390785 -0.03305009 0.083555855
0.06787075 0.14135037

nodes.0.callable.fc1_x1.weight f4 [130, 130]
00000000: d32c a9bd 541b 20be fff7 533c 7ceb c5bd
00000010: 4876 d2bd f930 2bbc 9be1 063e 88e2 f5bd
00000020: 345b d73d a911 823d d651 9ebc f81c 0b3d
00000030: 00ab e4bc 1972 07bd 5849 8abd 947c 26bd
00000040: 9f44 553c 0582 a93c 27a9 a2bd 02df 143d
00000050: a016 6f3d d598 ffbc e59d 7abb d165 a1bd
00000060: bdc7 3bbc 7c33 9bbd e3a0 c3bd 9f90 73bd
00000070: d689 013d 7851 87bd 8876 aa3b 6815 42bd
00000080: 1055 fb3c 4181 183e bb30 103d eb09 c13d
00000090: 6fc3 debc 4442 1abd 3b5e ab3c 7296 8c3d
000000a0: c134 b53c 1426 d23c a4dd f73c 6b8e 02be
000000b0: 92cb bb3d 680c 9cbd 38f6 14bd f008 a63d
000000c0: 1e13 9ebd fb82 37bd f6ae 233e b611 b43c
000000d0: 7bc9 46bd a601 ebbd ebe6 03be 4121 5fbd
000000e0: 5f8d 57bc 1f45 3a3d 1fa3 263c 7f0c 95bc
000000f0: a141 8abd 2801 22bd d104 52bd b139 d1bd
00000100: 1c2e 40bd 60e4 193d b524 193e ad25 253e
00000110: 3e11 b53d fe14 ff3d 9fec 82bd 7a12 be3a
00000120: 1425 fcbd 185d 3abd 61d6 2fbd e186 b83d
00000130: e61b d0bd c063 4a3d 0f15 3c3e 58f8 2a3d
00000140: 3ef9 80bc 5fa6 c13c 7e03 49bd ff4e b3bd
00000150: d74c 6c3c 8267 afbd 957b fabd 1650 26bd
00000160: bdb0 c9bd 7029 76bd 14b3 08be 3747 ef3d
00000170: c496 063c e2b8 793d bcef a03d 131f 223c
00000180: 7190 55bc 08c0 653d db49 1c3c f743 913d
00000190: b5ae a93b 1259 b23c 5108 a6bd ce78 183c
000001a0: c807 07be 6742 053d 24fc 973d 4d74 413d
000001b0: b5bc 80bd 0415 ca3d 4a6c dcba b3a5 f23b
000001c0: 9a1d d03b 05bc 563e cf16 a7bd b7e1 f1bb
000001d0: c2ae 263d 35a2 233d 50f2 753e 3f6d 19bd
000001e0: 8021 70ba 59ad 3dbc 3018 93bb b1fa a6bd
000001f0: 0a79 cdbd 7446 a53d 4388 e63c 2571 473d
00000200: d51c 823c 59fd 7c3d 7d09 93bd 6d3a 32bd
00000210: 2aa5 0fba 9d28 06bd ea22 9b3d 2d7f 8ebc
00000220: 64ae 83bd 2b31 613c 4efc 16bd 37fd 823d
00000230: f968 06bc 19eb 15bd 6bdd 9a3d 3cb1 813c
00000240: 5090 3bbd 2f33 febc c585 81bd 6e5f 893d
00000250: 23d1 b5bc e8f2 27bd 04f7 24bb bb39 a2bd
00000260: 4992 8cbd 0317 7ebd 55e3 9fbd fd97 c23c
00000270: 0382 38bd 9e62 143d 3f77 c03d 0186 1dbc
00000280: 44e9 113b 9b5e 953c af91 573d 38f6 b43c
00000290: 81cc c6bc 9f60 5b3c 25ba 90bc 9f78 47bd
000002a0: ec4c 453d e589 993d 33ac a63d 65ad 933d
000002b0: f477 86bb dd94 d7bc 8066 16bd c9dd 5bbd
000002c0: 2b7f babc c043 883d c862 363d 15aa e73d
000002d0: b4b2 a4bd 3788 21bb 4a22 c9bb e053 94bd
000002e0: fe24 36bc 6f70 143c b34b 903d ffcf 8f3d
000002f0: bd83 89bd ff72 043d 37e3 f5ba c866 4a3d
00000300: 85c9 2fbd cd36 2a3d e077 5f3d 9936 903d
00000310: 1087 313c 7afa 30bd b4bc 973d 6cf0 083d
00000320: 18ba 053d 404e 7f3c 9c8a 46bd bcb9 193d
00000330: b3ad 0dbd 90a2 07bc fee8 81bd 89e6 903b
00000340: 629f d83a 30f8 fabc f5bd 9abc 716f 0a3c
00000350: f836 0f3d 58c8 2cbc 3cb7 4a3d 5768 ed3c
00000360: 8727 8d3d 9d26 4a3a 955b e7bd 17fa 63bd
00000370: 7033 fabc 2de0 a3bd b2da 12bd 624f 9c3c
00000380: bc31 97bc 42b1 81bc d1ca 4c3d d6d5 463d
00000390: 5eb6 833d cdc9 613d c164 8dbd b7de b3bd
000003a0: fce1 f73c cbee 933d bdf6 2c3d 1d9b 6cbd
000003b0: 29e6 f0bb d835 4f3d f8ee 013d 2659 9fbd
000003c0: 7803 96bc 937f f2bc b773 873c f551 1e3d
000003d0: edca 43bd 5e3c 1dbd 4843 f73a f69d 96bd
000003e0: 0095 51bd dd4b 5fbc 37f6 e2bc 34f4 debc
000003f0: f94a b0bd ceff 16bd 51ca 91bc 10c6 7b3d
-0.08260503 -0.15635425 0.012937545 -0.09664056 -0.102764666 -0.010448688 0.13171999 -0.12006098
0.105154425 0.06351025 -0.019326132 0.033963174 -0.02791357 -0.033067796 -0.067522705 -0.04064615
0.013016849 0.020691881 -0.079424195 0.03634549 0.058371186 -0.031200806 -0.0038241085 -0.07880748
-0.011461196 -0.07578179 -0.09552171 -0.059464093 0.03162559 -0.06607336 0.0052021183 -0.047383696
0.03068021 0.14893056 0.035202723 0.0942572 -0.0271928 -0.037660852 0.020918956 0.06864633
0.022119882 0.025652923 0.030257054 -0.1274964 0.09169687 -0.07619554 -0.036367625 0.081071734
-0.0771849 -0.044802647 0.15984711 0.021981101 -0.04853199 -0.11474924 -0.12881057 -0.054475073
-0.013156264 0.045476075 0.010170727 -0.018194435 -0.06750799 -0.039551884 -0.051274125 -0.10216082
-0.046918973 0.03757131 0.14955409 0.16127653 0.08841179 0.12455176 -0.06392788 0.0014501356
-0.123117596 -0.045498937 -0.042929057 0.09010101 -0.10161571 0.049411535 0.18367408 0.041740745
-0.015743848 0.023638902 -0.049075596 -0.08755302 0.014422617 -0.085646644 -0.12230603 -0.04060372
-0.09848163 -0.06009811 -0.13349563 0.11683505 0.008214656 0.060967334 0.07858226 0.009895104
-0.013034926 0.05609134 0.009539093 0.070930414 0.0051782974 0.021770988 -0.08107055 0.009306146
-0.13186562 0.03253403 0.07421139 0.047230054 -0.06285993 0.0986729 -0.0016816941 0.007405007
0.006351185 0.20970161 -0.08158647 -0.0073816436 0.040694006 0.039949615 0.24018216 -0.0374577
-0.00091602653 -0.011576974 -0.0044889674 -0.08153284 -0.10032852 0.080700785 0.028141147 0.048691887
0.015882889 0.06176505 -0.07179544 -0.04351275 -0.00054796285 -0.032753576 0.07575019 -0.017394627
-0.06429747 0.013744633 -0.03686171 0.06395953 -0.008203738 -0.03660116 0.075617634 0.015831582
-0.045791924 -0.031030266 -0.06324343 0.06707655 -0.02219445 -0.041003138 -0.0025171647 -0.079211675
-0.06863839 -0.062033664 -0.07807032 0.023754114 -0.045045864 0.03622686 0.093977444 -0.009614469
0.0022264281 0.018233588 0.05262917 0.022090062 -0.024267437 0.0133897355 -0.017666886 -0.048699018
0.04816906 0.074970044 0.08138313 0.07210807 -0.004103655 -0.0263161 -0.036718845 -0.053678308
-0.022765717 0.06653547 0.0445278 0.113117374 -0.080418974 -0.002464784 -0.006138121 -0.072425604
-0.011117218 0.009060009 0.070456885 0.07022094 -0.0671458 0.03233623 -0.0018759732 0.049414426
-0.042916793 0.04155617 0.05455768 0.07041664 0.010835424 -0.043207623 0.07409039 0.03343241
0.032648176 0.015582621 -0.048472032 0.037530646 -0.03458948 -0.008278504 -0.06343268 0.004422013
0.0016526992 -0.030635923 -0.018889407 0.008449421 0.03496453 -0.010545813 0.049491152 0.028980417
0.06892305 0.00077114423 -0.11296765 -0.055658426 -0.030542105 -0.080017425 -0.035853095 0.019080821
-0.018456332 -0.015831593 0.04999811 0.048543774 0.06431268 0.055124093 -0.06903983 -0.08782714
0.030259125 0.072232805 0.042227495 -0.057765115 -0.007351656 0.05058846 0.03172204 -0.077806756
-0.0183122 -0.029601848 0.01653467 0.03865238 -0.047800947 -0.03838765 0.0018864656 -0.073543474
-0.051167488 -0.013628927 -0.027705295 -0.027216054 -0.0860805 -0.036865048 -0.017796667 0.061468184

nodes.0.callable.fc1_x1.bias f4 [130]
00000000: 3733 633d 3904 833d b6b2 303d 5567 bfbd
00000010: 1768 97bc 81ad 14bd b3f1 273d 5b14 753d
00000020: d004 473d 393c adbc 43fc 213c 09d9 bebd
00000030: 6acf ec3c 7279 c4bd 20e7 e93b 6d0c 973d
00000040: 3884 f1bd 4926 c4bc 4f16 c73d 36de 28bc
00000050: 8f63 953d 0d5f 673d 782f cc3d 1b68 f2bd
00000060: 17cf 293c 6f6c 7fbd da04 9c3d 00bb a33d
00000070: 4d57 c9bd 451d 13bc de28 7a3c a264 953d
00000080: 35e7 dbbb 744a 82bd 11f6 ecbd 2181 363d
00000090: 6618 07bd 9b42 423d f96e d2bd 7c68 55bd
000000a0: 40c1 a1bd 97a3 c43d b51c 17be da2a 90bd
000000b0: cf93 0a3e 0b56 afbd 4be7 1cbe 7163 913b
000000c0: 51d5 203c 155f 27bd 7587 25bc fe5b ac3d
000000d0: 7a06 f5bc 87c7 abbd ae44 bd3d 3782 8fbd
000000e0: f59d bd3d ec89 763d 683c ebbc f107 32bd
000000f0: 5788 0ebc fc48 0dbd a491 533c 2239 abbd
00000100: 39f4 86bd 8876 523d 3e0b d63a afd1 913d
00000110: f1ce 61bd d850 b1bb 0282 703c d766 50bd
00000120: e8cd 743d f9f4 be3d dd1b 8a3c 7e78 bbbd
00000130: 19b6 c4bc 5292 d73d aaf9 a73d e761 c5bb
00000140: 31fd f83c 145f b0bc d790 f73d 331d 653d
00000150: 3339 9c3d a48d 263c d3a3 8b3c 5ea6 983d
00000160: cbe0 4cbd b6da 963c e3ae f53a 18e3 923d
00000170: def4 923d 5621 03bd 726a 2cbd 6558 9e3d
00000180: 3d15 b23d cf0c e53d 3a16 d43c 98b6 ee3d
00000190: f6fd ad3d 508a 993d daf5 ad3c 91ea 1b3e
000001a0: 654d c43d 7500 a4bd 81a7 1ebc f560 ce3d
000001b0: d5c6 4bbb 4832 e93c abe7 a3bd 2308 ce3c
000001c0: 9820 72bd c664 273d b2c3 443d 773d 8e3d
000001d0: 421e e83d 90e6 5e3d 324c 38bd f9f8 9abd
000001e0: 202d 373d d463 ab3c ac73 0c3d d7dc 5e3c
000001f0: e495 e53d a6de c2bc 58d0 5ebb 05e1 f93b
00000200: b0d1 aa3d ea14 323d
0.055468764 0.0639729 0.043139182 -0.09345881 -0.018482251 -0.03629828 0.041001987 0.059833866
0.048588574 -0.02114688 0.009886804 -0.0931874 0.028907496 -0.09593476 0.007138148 0.07375417
-0.11792797 -0.023944037 0.09721052 -0.0103068855 0.0729438 0.056487132 0.099699914 -0.11836263
0.0103643155 -0.06235927 0.07618113 0.07994652 -0.098311044 -0.008979146 0.015268533 0.07294585
-0.0067109116 -0.06361857 -0.11570371 0.04455674 -0.032982253 0.0474268 -0.102750726 -0.052101597
-0.07898188 0.09601515 -0.14757045 -0.07039423 0.13532947 -0.08561333 -0.15322606 0.004436903
0.009816484 -0.04086216 -0.010103096 0.084159836 -0.029910315 -0.08387666 0.09241615 -0.070072584
0.092586435 0.060190126 -0.028715327 -0.043464605 -0.008699498 -0.03449343 0.012913141 -0.083605066
-0.065895505 0.05138257 0.0016330255 0.07120072 -0.055128995 -0.0054112487 0.014679434 -0.050879326
0.05976668 0.093240686 0.01685899 -0.091538414 -0.024012612 0.10525955 0.082019165 -0.0060236338
0.030394169 -0.021529712 0.12088173 0.05593605 0.076280974 0.010165606 0.01704589 0.07453607
-0.050019067 0.018414836 0.0018744137 0.07172221 0.07175611 -0.032014214 -0.0420937 0.07731704
0.08695457 0.11184084 0.025889505 0.11655921 0.08495705 0.07497084 0.021235395 0.15226199
0.09585074 -0.080079 -0.009683491 0.10077087 -0.0031093855 0.028466359 -0.080031715 0.025150364
-0.059113115 0.04086759 0.048038192 0.06945317 0.11333896 0.0544191 -0.04499454 -0.07567019
0.04472077 0.020921625 0.03429 0.013602457 0.1121023 -0.023787808 -0.0033998694 0.0076257014
0.08340776 0.043476976

nodes.0.callable.fc2_x1.weight f4 [130, 130]
00000000: fccd c1bc d381 d53c dc30 fbbb 108c a3bb
00000010: f758 0f3e b12e 91bd ed3c 5bbd ad90 0b3d
00000020: c588 bd3c e3f1 1f3d e3cc 0abd 45f9 49bb
00000030: 0c3c 253d bb4c 163d 6a16 36bd 7454 873b
00000040: d878 35bb b047 02be 10ca 513d 7603 96bd
00000050: d2bd 99bc 1a3e 67bd 3342 a93d 6f0c 23bd
00000060: 6312 a7bc 5ad5 e4bc 248f 1d3d c098 b93d
00000070: ffbb abbd de4c 7fbd b78c c3bc 7fc5 c13d
00000080: 595a dbbc 0098 3cbb 7af7 2ebc d4cb 433c
00000090: fc6c 9f3b 3fc4 36bc 65f9 54bd 36df 423d
000000a0: 0715 3dbd bf69 ac3c 5895 95bc 7193 13bd
000000b0: 478a 5f3c 3ce0 89bc b270 94bd 00d3 36bd
000000c0: c096 e6bc 17cb 8b3c 074a dbbc 4bae ab3b
000000d0: ec63 9dbd 902f 4cbc 256b 9b3b 65eb 4bbd
000000e0: ff59 543d bf2f d5bb 9716 833c 7545 f9bc
000000f0: 3cd0 983d a864 eb3c 426f dabb ea93 0fbd
00000100: 0d38 77bd d121 9e3d 7582 03bd fc0d 8dbd
00000110: 22da 26bc 6a34 8f3d 7e3a 03bd 8d2a 2bbd
00000120: aaa6 febc b27b d43b b51c e9bc 986b 95bd
00000130: a66a 263d 618d d93d ead4 80bc bc07 e63c
00000140: ba9a 56bc 8a55 833d d774 b43d f9e5 c8bd
00000150: 72c5 663c 5d41 bc3c ec9e c83b cc88 f3bc
00000160: c33d 043d 9bde 943c 85ba 17bd 5ee2 3b3d
00000170: 4cce cf3d 9925 04bd b752 b9bd e3b9 8c3c
00000180: 03f0 0abd 8359 333c ae5f 74bc 6352 1c3d
00000190: 85ff a1ba 2ae0 a0bb f4ba a33d 5284 f7bb
000001a0: 96ad e63b 5ab4 f9bc d411 24bd 2e1e 473d
000001b0: 80e6 babb 7785 e03c 3095 96bd 4df6 c2bd
000001c0: 6f53 143d fa8b b13d 516c 58bd 56fd 2dbe
000001d0: 26f5 92bd 8b6c 1a3d 956b a3bc a7be 75bd
000001e0: c4a1 b33d d89b 883c e260 8fbd 6cac 673d
000001f0: 3410 233d 7019 57bb b5a5 afbd 9484 34bd
00000200: 9196 d8bc 7aa2 df3c 68b2 c73c 52f7 cc3d
00000210: df22 5d3c 992d d63a 3148 b83d 83ef 3a3d
00000220: 187c 76bd 6f09 ad3d 6ebc af3c 6f24 cf3d
00000230: cd79 82bd cac4 ae3c 3576 4c3d 3417 46bd
00000240: 61d8 e13c 7e56 2abd 9fd8 093d e042 80bc
00000250: 578b aebc b163 16bc 56ca 593d bcdd 87bd
00000260: 7b9a 713d 4955 e4bc 5643 533b efd7 e5bd
00000270: b275 39bd ec67 a1bc 18af 823c 4a21 31bd
00000280: ae32 8a3c 3f01 663d c7f6 8abd 7de8 f13b
00000290: 2e8c b3bc 8a36 173d d201 8dbd 91fd 723d
000002a0: 6b7b edbc ef0d 4d3d 8b62 40bd 0dae bfbc
000002b0: f36f ffbd eb4c d5bc b86b 473b 82ce 4ebd
000002c0: 0289 26bc 1f39 2d3d 2b30 aebb 2ffb 653c
000002d0: 8ed5 c73c 4f1e 9fbc cade 3cbd c906 4cbd
000002e0: 6754 3abd 96fc b8bd dfbd 91bc bbf4 b9bb
000002f0: 305a c2bc e52e bebc ce86 4fbd 8501 153d
00000300: 4f1a 8fbd a927 523d e5e4 04bd 237e 243d
00000310: e786 653c 492d c53c 720a 793d ab2c 703c
00000320: cd1a babd abb4 9dbc 3f44 6bbb f3b6 f13c
00000330: 50fc a63d a532 00bd e899 1e3d 88ae 2ebc
00000340: 3428 fbbc 490e 1f3c 75d6 33bd da7f ae3d
00000350: bb5a 9b3d 9119 d5bd f9e3 e03c 935d b83d
00000360: d2f5 f2bc 8980 9dbc b78b 033c e1e8 a63d
00000370: 271c 3bbc c121 343b 08c1 5f3d c5f6 9cbd
00000380: a794 373d a2f6 1b3d f994 b93c 52bc 6a3d
00000390: 4fca 353d cfe5 cf3c e129 d23c 6c23 debc
000003a0: e6ef d6bc 346c c9bb 0340 c53d e444 cebd
000003b0: fe0a 5c3d 59a5 a03d 1961 973d c4f8 983d
000003c0: 544d 16bd 3226 3c3d 3d9d 07bd 6941 bf3d
000003d0: c690 e7bc 621c febd ea9e e43a bebd 31bd
000003e0: f608 13bd d342 c6bb 6518 6f3d f14a 8e3d
000003f0: baad 4d3d 4f19 cd3d 2681 643d 0d7c a3bd
-0.023657791 0.026062882 -0.0076657366 -0.004991062 0.13998781 -0.07088984 -0.0535249 0.03407352
0.023136506 0.03904904 -0.0338868 -0.0030818742 0.04034047 0.03669427 -0.04445497 0.0041299406
-0.0027690437 -0.12722659 0.051218092 -0.07324879 -0.018767271 -0.05645571 0.082645796 -0.03980678
-0.02039451 -0.027933765 0.038466588 0.09062338 -0.08385467 -0.062329166 -0.023870809 0.094614975
-0.02677648 -0.0028777122 -0.01067912 0.011950452 0.004865287 -0.011155187 -0.051995654 0.04757615
-0.04616263 0.021046517 -0.01825969 -0.036029283 0.013643808 -0.016830556 -0.072480574 -0.04463482
-0.028148055 0.017064614 -0.026768697 0.005239283 -0.07685074 -0.012462512 0.004742997 -0.049785037
0.05184364 -0.006505936 0.016001983 -0.030428628 0.074615926 0.02873452 -0.006666095 -0.03505317
-0.06035619 0.07721294 -0.032106835 -0.06887433 -0.010183843 0.06992419 -0.032038204 -0.041788626
-0.031085331 0.006484472 -0.028456071 -0.072959125 0.04062905 0.10622669 -0.015726525 0.02807986
-0.013098413 0.064128 0.08811348 -0.09809489 0.014085161 0.022980386 0.0061224606 -0.029728316
0.032285463 0.018172553 -0.037043113 0.045870177 0.1014677 -0.03226242 -0.0904898 0.017178481
-0.0339203 0.010946634 -0.01491539 0.038164508 -0.0012359476 -0.004909535 0.07994643 -0.0075536156
0.007039736 -0.030481506 -0.040056065 0.048612766 -0.0057037473 0.027407391 -0.07352674 -0.095196344
0.03621238 0.086692765 -0.052837674 -0.16991171 -0.071756646 0.03770117 -0.01994876 -0.059996273
0.08771089 0.016675875 -0.07000901 0.05656092 0.039810374 -0.0032821558 -0.08576528 -0.04407175
-0.026438983 0.027299155 0.024377063 0.1000811 0.013497083 0.0016340493 0.089981444 0.045638572
-0.06017694 0.08449065 0.021452155 0.10114371 -0.06370888 0.02133407 0.04991742 -0.048361972
0.027568998 -0.04158639 0.03365385 -0.015656888 -0.021306677 -0.009179042 0.05317148 -0.06634089
0.058985215 -0.027872698 0.003223618 -0.11222827 -0.04527826 -0.019702874 0.015952632 -0.043244638
0.01686987 0.056153532 -0.0678535 0.007382451 -0.021917429 0.036917247 -0.06885113 0.05932385
-0.028989514 0.050062116 -0.046968978 -0.023398424 -0.124725245 -0.026037654 0.0030429196 -0.05048991
-0.010164501 0.042290803 -0.0053158007 0.014036938 0.024393823 -0.019423632 -0.046110906 -0.04981116
-0.04549065 -0.09032552 -0.017790733 -0.005674926 -0.023724645 -0.02321572 -0.05066567 0.036378402
-0.0698744 0.051307354 -0.032444853 0.040159356 0.014009214 0.024069445 0.060800977 0.014659087
-0.09087143 -0.019251188 -0.0035898832 0.029506182 0.081535935 -0.0312983 0.038720995 -0.010661729
-0.030658819 0.009707996 -0.043905694 0.085204795 0.07585665 -0.10405267 0.027452456 0.09002223
-0.029658232 -0.01922633 0.008028916 0.08149887 -0.011420286 0.002748594 0.05462745 -0.07664255
0.0448195 0.038077004 0.022654044 0.057308502 0.04438239 0.025378136 0.025654735 -0.0271165
-0.02623744 -0.006146932 0.0963135 -0.100717336 0.05372142 0.078440376 0.07391567 0.07469323
-0.03669484 0.045934863 -0.03310894 0.09338648 -0.028267276 -0.12407757 0.001744238 -0.043393843
-0.035897218 -0.0060504465 0.058372874 0.06947888 0.050214507 0.10014593 0.055787228 -0.07982645

nodes.0.callable.fc2_x1.bias f4 [130]
00000000: 5891 1c3d 71ff 8e3d 92fc d23d c588 123d
00000010: c0a6 d43c 0819 2b3c 6816 e2bd 1618 10bc
00000020: 58cf 703d 6fca 933c 76b6 3fbc 7ffb bebd
00000030: f29f 0bbc 0df9 b23d 3663 abbc ab19 ad3d
00000040: d236 643c 818b 2fbd b0eb eabc e872 0abc
00000050: ac29 c13c b612 01bd 9957 25bb f187 423c
00000060: ad4b 993c 4d01 0b3e 61a7 9cbc cb59 f33d
00000070: 3623 0c3d e880 f73d 846f b13d 49d5 253e
00000080: f8ad 0c3d f1df 9cbb aafb 0d3c c219 4bbd
00000090: db77 b4bd 14cb b13d 6c94 1a3e 1110 63bd
000000a0: 15ea 943b 16ee 123c 41a2 cebd 310e c4bd
000000b0: 3e7b 9f3d 65ea 683d 6b02 0a3e 9b02 3c3e
000000c0: e553 f43d 2cbd 95bc 4db8 2f3d c338 ca3c
000000d0: f100 c0bd 9db8 803d 35b8 553d f793 d83a
000000e0: e0f4 193d d45e b53d 6e4d 953c 66ff 983b
000000f0: 9a9d 6a3d 913d 833c a6ce 023e 87d0 f2bb
00000100: 6108 e1bd bb77 8dbc c8b6 393d 48f6 82bd
00000110: 84a8 62bc 7f58 6a3b 2f4f 37bc 0a3a 7d3d
00000120: e3c4 913d d3d0 243d ac80 dc3c 35dc 1b3e
00000130: d550 76bc c8d4 643d 8367 2dbc df83 d53c
00000140: ccc1 013e 860f 8dbd fbfe 83bd 0723 b13d
00000150: 9e06 fa3d dff2 17be 47a4 703d b00f ab3c
00000160: a6cf f03b 7760 103d fa1b 3b3d 2fcf 03be
00000170: f7bd 473d eae0 90bd 4bd3 ffbb b48e 593d
00000180: 81ff bfbc 9cc8 eebd b14c 363e f1f1 f13d
00000190: 7108 df3d bde9 febc 6f28 a6bd c21b 043d
000001a0: 884a b53d 1c32 0e3e 6be1 ee3d 9273 81bd
000001b0: cdc4 b53d 6505 853d 51fe c4bc 3582 4fbc
000001c0: 5ca5 1a3d ecab 7fbd 317c 7fbd ff0a 0d3e
000001d0: 8f97 223d 5d25 153e 779b fb3d 047f 623d
000001e0: 47e5 3bbd 52b6 ec3d 246b fa3d f128 813d
000001f0: e1c8 73bc 17b0 803d e82e 0f3e 2885 16bd
00000200: 2da3 bb3d 062e 39bc
0.038224548 0.06982315 0.1030208 0.035774965 0.025958419 0.01044298 -0.1103943 -0.008794805
0.05879149 0.018040864 -0.011701217 -0.09325313 -0.008522021 0.08738909 -0.02092133 0.084521614
0.013929086 -0.04285765 -0.028676838 -0.008450247 0.023579441 -0.031511985 -0.0025229214 0.011873231
0.018712843 0.13574715 -0.019122781 0.11882361 0.034213267 0.12085134 0.08663848 0.16194643
0.034345597 -0.004787438 0.008665958 -0.04958511 -0.08811923 0.08681312 0.15095681 -0.055435244
0.0045445063 0.008967897 -0.10089541 -0.09573019 0.077871785 0.05686416 0.13477485 0.18360369
0.11930064 -0.01827868 0.042900372 0.02468527 -0.093751796 0.06285212 0.052177627 0.0016523589
0.037587047 0.08855978 0.018225398 0.0046691177 0.057279207 0.016020568 0.12774143 -0.0074101123
-0.10987926 -0.017269006 0.04534033 -0.06394631 -0.013834123 0.0035758314 -0.011188312 0.06182293
0.07117631 0.040238213 0.026916824 0.15220721 -0.01503392 0.055866987 -0.010583761 0.026063858
0.12671584 -0.068877265 -0.06445118 0.08649259 0.122082934 -0.14838742 0.058750417 0.020881504
0.0073489724 0.035248246 0.045680977 -0.12872003 0.04876515 -0.07074149 -0.0078071705 0.053114608
-0.023437263 -0.11659357 0.17802693 0.11813725 0.10890282 -0.031117314 -0.08113181 0.032253034
0.08852106 0.13886303 0.11664089 -0.063208714 0.088754274 0.064951696 -0.024047049 -0.012665321
0.037755355 -0.062419817 -0.062374298 0.13773726 0.03969532 0.14565034 0.12285512 0.055296913
-0.045872953 0.11558212 0.12227467 0.06306637 -0.014879436 0.062835865 0.13982737 -0.03674808
0.09161983 -0.011302477

nodes.0.callable.fc3_x1.weight f4 [130, 130]
00000000: 7b2e 373d d8e5 2cbd cc54 69bd 1b62 80bd
00000010: 3984 3b3d e64d 533d f5e2 063d 890a 873d
00000020: 60c3 41bd ac17 f83c 2d8e 7bbd 99eb b2bd
00000030: b170 783c ed02 57bd f64a 92bd d3eb 14bd
00000040: 0fee ab3c dc10 0bbd f2d1 83bd 0208 c93b
00000050: 5d45 65bd 0be2 a1bc 3504 5ebc 666b 21bc
00000060: 8848 8a3d 3e8e 0abb 48c6 1b3d b8bc 4dbd
00000070: 6f26 a13d 0aa4 67bd dcdd 64bd 48ad 9abd
00000080: 88fd 813d 7552 b03d 7bf3 48bd 7317 81bd
00000090: b759 1c3d d702 333d 014f 9a3d 31f0 b2bd
000000a0: af73 8a3d 9880 8a3d c152 17bc 3d5a 73bd
000000b0: 9e45 d1bc 2390 6f3d 480f 773c a266 57bd
000000c0: ddb0 d83a 7183 2ebd ee47 4b3c fb88 89bd
000000d0: c0de 0c3d 5db5 ab3d ca01 a6bc d761 6b3d
000000e0: 1fa3 debc 13f4 343d 14ca a6bc 2f10 92bb
000000f0: 7369 19bc d464 93bd 6594 0bba 684c 663d
00000100: 7b9c 893d 286a 253d 205f e73c b364 80bd
00000110: a7fe 95bd 1256 063d 07c9 3a3d 8953 62bd
00000120: d078 16bd 3521 9bbc fc27 643c 345b 973d
00000130: a308 83bd df4a 66bc 2372 2ebd e76f 693d
00000140: 5698 a63d 7410 e7bc ca40 01bd 3b9c 4fbd
00000150: b811 883d ba37 af3c 5458 11bd 6027 19bd
00000160: dddc 323d 42ff 1b3b 1319 6bbd 04d9 9a3d
00000170: 76d8 9c3d a54a ab3d c46d 903d 29aa 2abc
00000180: a87b 52bd ddc2 0dbd 7dec e93c 5f0b 483c
00000190: 7a22 293d 6e72 403d 2813 5c3d 600a 44bc
000001a0: 8b8c 6b3d 152e 84bc 7b8e 523d afbe 88bd
000001b0: 0463 c4bc 1e12 8f3d 377b da3b 2882 383d
000001c0: 369c a3bb 993e 3c3d a883 d5bc 094d 9dbd
000001d0: 8cf9 a03d 043c bf3c b804 9f3d 2fac bb3c
000001e0: b905 38bc 25d2 833c a52b 2fbd 7537 1dbd
000001f0: 9d65 613d f2b6 c8bc e05b f9bb 1a2f b9bc
00000200: 9b1d 20bd b7bc 1d3c 532e 0fbd 22cd b1bd
00000210: 57ae f43b 2568 51bd 07bc 583d 97b2 963d
00000220: a461 25bd f806 153b 96a9 8abc b260 513b
00000230: 6b1b 5f3b 248f a63c 00ae 883d 7afc a3bd
00000240: 301b 633d a26e 743d 1019 b0bd da9d c8bc
00000250: a0d9 12bd 8186 ad3c d198 69bc eed5 22bd
00000260: 153f 5f3d fe7e 813d e799 b83c 00f1 0a3d
00000270: b8eb 333d 013a bc3b b259 d2bb f996 d0ba
00000280: 076d 8ebd 3693 ca3b 4238 9bbd 972f d5bc
00000290: 8514 933d 1d7d 923c 29a4 94bc c645 263c
000002a0: 9655 f5bc 1b2f 193c bf40 02bd 0795 9d3d
000002b0: 738a 9abd 56d0 af3d 668d 70bb c2bb 833d
000002c0: 2e09 b23d b37a 633d d6f9 2cbd 5cb8 c8bc
000002d0: f46b 51bd c291 083d dfd5 ae3d 099c ebbc
000002e0: 556d 44bc 1eae 773d c256 a73c e51c 3cbd
000002f0: 462d 8d3d 10c5 9b3c df70 8cbd 8f33 71bc
00000300: e3bc da3c 02e0 a2bd 81ac 37bd c939 113c
00000310: 3290 9b3d d453 11bd 997d 85bb c257 35bd
00000320: b871 a33d 261a af3d b84f 803d fda7 d0bb
00000330: ef83 d6ba d4d4 b7bb 3a0c 39bc c61a c2bc
00000340: 5f5d d4bc 81c5 843c d02a 54bd 3968 803d
00000350: eff0 ad3a 83f3 ffbc 33c6 883d 54fd 9bbd
00000360: 9acd 5d3d 5123 aabd 7604 bc3c 18d2 0f3d
00000370: 6b3d 2dbd 7f8e b13d 04ab 72bd 3ce1 193c
00000380: ba4f 483d 3428 82bd 2967 06bc 14d5 75bc
00000390: f7c5 bdbc 1683 873c 9b3f 24bd 7cb1 0d3d
000003a0: 85f8 9f3d f4f8 d13b 215e 0abd 918c 7a3c
000003b0: 7f4b 0a3b 43f2 6c3d 3fdc 5dbd fe15 4c3c
000003c0: 50c2 3dbc ce77 aebd cb5c 883c 4a67 523b
000003d0: f034 9a3d f592 61bd cf83 96bd 1442 2bbd
000003e0: 3129 76bd c691 50bd c6a9 4b3d 0d8f 4dbd
000003f0: 967c 73bd 5760 273d 3c27 30bd 85c8 b03d
0.04472206 -0.042211384 -0.056965634 -0.06268712 0.045780394 0.05158796 0.032931287 0.06593806
-0.047305465 0.030284725 -0.061414886 -0.08736343 0.0151635865 -0.052493025 -0.07143204 -0.036357712
0.020987539 -0.033951625 -0.06436528 0.006134988 -0.055974353 -0.019761106 -0.013550808 -0.009852266
0.067521155 -0.0021141912 0.038030893 -0.050228804 0.07868659 -0.056552924 -0.055875644 -0.07552582
0.063471854 0.086094774 -0.049060326 -0.06303301 0.038171496 0.04370388 0.075346 -0.08737219
0.06760346 0.067628086 -0.009236039 -0.05941223 -0.025545891 0.05848707 0.015079327 -0.052588113
0.0016532202 -0.04260582 0.012407286 -0.0671558 0.03439212 0.08384202 -0.020264525 0.057466354
-0.027177392 0.04417808 -0.02036003 -0.0044574956 -0.00936352 -0.07196966 -0.00053245417 0.05622521
0.067192994 0.04038444 0.028243601 -0.06269207 -0.07323962 0.032796927 0.04560187 -0.055255447
-0.03673631 -0.018936733 0.013925549 0.073904425 -0.06398132 -0.014055937 -0.042589318 0.056991484
0.081345245 -0.028206088 -0.03155593 -0.050686102 0.066440046 0.021388877 -0.035484627 -0.037391067
0.043667663 0.0023803269 -0.05739696 0.07560924 0.07658474 0.08363847 0.07052186 -0.010416546
-0.05138746 -0.034609664 0.02855515 0.012209742 0.041292645 0.04698413 0.053729206 -0.011965364
0.05750708 -0.016135255 0.05140541 -0.06676995 -0.023972996 0.069858775 0.0066675204 0.045046
-0.004992987 0.045958135 -0.026063755 -0.07680709 0.07860097 0.023344047 0.07764572 0.022909252
-0.011231833 0.016091416 -0.042766232 -0.038382966 0.055028547 -0.024501298 -0.0076098293 -0.022605468
-0.039090734 0.009627513 -0.034956288 -0.08681704 0.007467072 -0.05112471 0.05291369 0.07358282
-0.04037632 0.002273975 -0.016926568 0.0031948504 0.0034043442 0.020331927 0.06673813 -0.080071405
0.05544585 0.05967582 -0.0859853 -0.024489332 -0.035852075 0.0211823 -0.014257626 -0.0397548
0.05450352 0.0632305 0.022534324 0.03392124 0.04392597 0.0057442193 -0.006419384 -0.0015914134
-0.06954389 0.0061820997 -0.0757909 -0.02602367 0.07181648 0.017881924 -0.018144684 0.010148471
-0.029948037 0.00934961 -0.031800028 0.0769444 -0.07545938 0.08584659 -0.0036705374 0.06432296
0.08693157 0.055536937 -0.04223045 -0.024501972 -0.051128343 0.03334213 0.085368864 -0.028760927
-0.011988957 0.060468785 0.020427112 -0.045925993 0.06893401 0.019014865 -0.06857466 -0.014721765
0.026701396 -0.07952882 -0.044842247 0.008863875 0.075958624 -0.035480335 -0.0040738103 -0.044273145
0.079806745 0.08549909 0.06265205 -0.006367682 -0.0016366224 -0.005610088 -0.011294419 -0.023694407
-0.025923429 0.016207458 -0.05179864 0.06269879 0.0013270656 -0.031244045 0.066784285 -0.07616678
0.054151155 -0.08307517 0.022951346 0.03511247 -0.0422949 0.08669757 -0.059245124 0.009392079
0.04890416 -0.063553244 -0.008203306 -0.015004415 -0.023165686 0.016541999 -0.04009972 0.03459309
0.07811073 0.0064078514 -0.033781175 0.015292303 0.0021102128 0.057848226 -0.05416512 0.012456415
-0.011581972 -0.08518945 0.01664581 0.0032105022 0.07529628 -0.05507179 -0.07349359 -0.041811064
-0.060097877 -0.05092027 0.049722455 -0.050185252 -0.059444986 0.04086336 -0.043006167 0.08631996

nodes.0.callable.fc3_x1.bias f4 [130]
00000000: 8e03 ea3c e85a 83bd 3693 1ebd 3c9c 103d
00000010: 99d5 37bd b3aa 62bd f612 d2bc 31df 4d3d
00000020: 20f6 3abd 97db 88bd 5223 8b3c 710c b23d
00000030: cc8c 623d 33da 7c3d cd51 a7bb ba7e a2bd
00000040: 6940 25bd d4dc 893d 9ec8 6bbd 52a3 553c
00000050: c9a7 0abc b966 323d 5c72 843b 908e 93bd
00000060: e7ca d73b e3f0 95bd 8105 84bd ba56 b2bb
00000070: b112 16bd 06cc 6dbc 651e 943d e408 3d3d
00000080: 3fb9 173d 3817 a43b 5f71 df3c 3edd 30bc
00000090: 42b3 9b3c 7d5d 1fbd 84bd 5cbd d8a3 aebc
000000a0: bed0 12bc 50c6 3d3d 405c 823d 905f 893d
000000b0: 7c7a 353d fa44 9a3c f9b4 3cbd 3cfa 94bd
000000c0: e250 52bd 83c2 353c 7bac 6b3d ef19 803d
000000d0: e029 a13d 7d56 9abd 840b 26bd 5925 8abc
000000e0: b69d 483a 84c5 acbd 9370 afbd b1ff 943b
000000f0: 5702 a23d 653a 2bbc 32f9 563c 612d 2abc
00000100: 8c0a af3d 1651 86bd 2370 9a3d 2c38 30bd
00000110: 1d02 a3bb e744 45bd d436 af3d d8a2 9e3d
00000120: e01d 513d 5331 62bd 0adf 873d 964f 79bd
00000130: 28a6 d93c d104 8bbd 34ba 55bd e84e 983c
00000140: 6617 873d 5faf e5ba 020e c5bb f7eb 9bbd
00000150: b2e5 8ebb c1c6 abbd f7ef fc3b fed9 0d3d
00000160: cde8 92bd 787a 4b3d e764 5d3d 23a7 893a
00000170: b275 8abc 42f6 5fbd 6f87 a73a a411 2abd
00000180: 7f8e 94bc 1de7 35bd 4bd9 883b aea6 273d
00000190: b047 39bd fe7c 2ebd ebab 7dbc 3570 1b3d
000001a0: 6344 a4bc 7259 02bd 807e 803b 3da7 8a3a
000001b0: 1aa8 3cbd 0afe 853d 5c1f 523d fd09 c7bc
000001c0: 7a43 8e3d 4a33 af3d 4bfc 2fbd 6847 0cbd
000001d0: 0750 c03c c10a 423d 2fd2 8fbd d6e3 9037
000001e0: 7a69 75bd 4c24 b73c f63b a23c cdf0 e53b
000001f0: 0e92 6a3d 84a9 e0bb bd35 5ebd 937f 95bd
00000200: a927 103c 0ffa 42bd
0.028566148 -0.06413823 -0.03871461 0.035305247 -0.044881437 -0.055338573 -0.025643807 0.05026168
-0.04564488 -0.066825084 0.016984615 0.08693779 0.055310056 0.06173153 -0.005106187 -0.079343274
-0.04034463 0.06731573 -0.05756437 0.013039427 -0.008462855 0.043554995 0.004041953 -0.07204926
0.006585467 -0.07321336 -0.06446362 -0.0054424675 -0.03663892 -0.014513975 0.0723236 0.046151057
0.0370419 0.0050076507 0.02727574 -0.010794936 0.019006375 -0.038907517 -0.053891674 -0.021318361
-0.008960901 0.046331704 0.063652515 0.0670768 0.044306263 0.018831719 -0.046071026 -0.07274291
-0.051346667 0.0110937385 0.057537537 0.062549464 0.07869315 -0.075360276 -0.040538326 -0.016863512
0.00076528953 -0.084361106 -0.08566394 0.0045470824 0.079106025 -0.010450934 0.013120936 -0.010386796
0.085469335 -0.06558435 0.0754092 -0.04302232 -0.004974617 -0.048161414 0.085553795 0.07745904
0.05105388 -0.05522282 0.06634338 -0.060866915 0.026568487 -0.06788028 -0.05217953 0.018592313
0.0659626 -0.0017523578 -0.0060136328 -0.07613366 -0.004360878 -0.08387519 0.0077190357 0.03463172
-0.071733095 0.049677342 0.054051306 0.0010502081 -0.016901825 -0.05467821 0.0012781451 -0.04152073
-0.018134354 -0.04440986 0.004176294 0.040930443 -0.045234382 -0.04259967 -0.015482883 0.037948806
-0.02005214 -0.031823583 0.00392133 0.0010578405 -0.04605875 0.06542595 0.051299438 -0.024296755
0.06946464 0.085547045 -0.042965215 -0.034247786 0.02347566 0.047373537 -0.07022511 1.7272232e-05
-0.059915043 0.022356175 0.019803982 0.007017231 0.057268195 -0.0068561453 -0.054250468 -0.072997235
0.008798518 -0.047601756

nodes.0.callable.fc_output_x1.weight f4 [2, 130]
00000000: 93b5 843b ef97 623b 25d6 95bc fd90 8d3b
00000010: d529 eebc 8c21 663b baf3 22ba 044f 803b
00000020: 1038 793b de84 6d3b bd0e 02ba a86d 42b9
00000030: 5996 7c3b 3b7e e4bd aded 3aba 8cab d23b
00000040: 6fc6 613b 2d2c 873c 2bbb 4a3b 623e 2c3b
00000050: 6b88 8d3b e661 393c 0099 6e3c 2c95 b83b
00000060: a6f2 463b f9fb 7b3b 3351 803b 1748 903b
00000070: 2b58 8b3b 07cd 943b 6e20 853b 68a0 803b
00000080: 7a04 7c3b af35 873b 7efe 883b b62b c5b9
00000090: b30c 5bba 5afc 823b cf0d 683c 0c29 cabd
000000a0: ce84 943b 11b2 763b dfee 62bd 5661 383b
000000b0: 8f7c 7f3b eeaf 20be 62a7 863b bb67 883b
000000c0: 7dd3 98bc 632c e9b9 55d3 723b 3bbc dcb9
000000d0: d320 1abc 016a 8db9 cf35 8b3b abd6 803b
000000e0: 2660 8a3b ab1c 823b 8103 8bbe c86e 683b
000000f0: 2757 0f3c 4839 883b cc85 763b 86fe fcbd
00000100: 3762 3aba f5d9 dcb9 d483 51b9 6e0d 96b9
00000110: c15f 883b 1b1c 1aba 8792 a0bc 2504 7b3b
00000120: 27fe 95b9 c52e 8bb9 ff43 733b 7b50 743b
00000130: 2f81 07b9 0ea5 593b 995b 723c 3a20 6f3b
00000140: 3f87 4f3c d6f0 e9bd 466e 753b 7ac1 173c
00000150: e3bf 713b 4377 213c 1d02 5aba 107b 7b3b
00000160: 4db3 6e3b 0a0b 823b e1b3 0eba e108 1fbc
00000170: 903d 053c c28f c9ba d648 5e3b 5750 8e3b
00000180: edc9 59ba 1a65 e03b 2fca d93c be50 1f3d
00000190: 1998 763b fb55 d93c 0df3 933b 7582 3fbe
000001a0: 1f19 7a3b f6a0 823b fa18 833b b017 7c3b
000001b0: 16dd b13b 25b8 853b c89d 533b 11be c4bd
000001c0: 3f23 743b 9346 8bb9 5ab9 923b 5ca0 2a3d
000001d0: 38bc 8b3b ff5c 863b 75f5 8d3b ac28 893b
000001e0: db40 d9bd d1b9 7e3b 90ba 853b 947b e4b9
000001f0: 2948 813b 4998 24b9 1ffd aa3c a4b5 833b
00000200: 0064 673b bc8d 1f3c 074a 2f3b 759c 733b
00000210: 6d41 c43d e59a b13a 8e81 73bd 3003 5a3b
00000220: f2c8 f1bd dc3b 363b 5224 243b 3d02 403b
00000230: fff6 1fba 2426 bbb9 c1b4 2a3b 2eb6 363a
00000240: bf94 24ba 9a70 e6bb 5107 353b 5b72 30be
00000250: d664 813b 4dbc 5b3a d285 3ebb 0444 b0bd
00000260: c101 733d d9df 6d3c 90cc 543b 36d1 ea3a
00000270: da37 403b 2d0c ecbb 1908 273b aa46 a439
00000280: da2d d63a 2948 4d3b a686 563b 8bfb 223b
00000290: a07d 2a3b 9bd4 01ba 9fde 75b9 89f0 2a3b
000002a0: 00fb 143e c664 c039 1de2 0b3c e310 3c3b
000002b0: cf33 70bd ee4c 79be 7eae 413b de2a 833b
000002c0: fe2d 283b 416d 173b 8168 ba3d 4345 c239
000002d0: 1d2d 843b e6b6 07ba 3fd5 64be 92e2 2aba
000002e0: b5a5 143b e93d 183b 3965 16bc d851 4a3b
000002f0: 1cfa 7d3a fde6 413b 95f3 3d3d 4b62 353b
00000300: 918d 763b 0cf9 3e35 dd7b eb38 0dfb 0cba
00000310: 5cc1 24ba bfae 46b9 0882 64ba 388b 3aba
00000320: e3cf 003e 07af 273b bf32 00b9 a84d 373a
00000330: 41cf 513b 6df7 913b deb4 4eb9 4bd9 0f3b
00000340: a747 b73d 8770 383b bb8c 103e f2cc f439
00000350: 2a06 783b 5d97 7a3d 5d3e 493b 127c 71be
00000360: d1d4 cab9 5ce3 263b fcd3 453b 68d4 043b
00000370: 5bd6 2dba f8fd 9bbd 6eff ee3d 5ca6 593b
00000380: d148 1d3b 41bc 1a3b 6eba 90b9 d2e4 86bd
00000390: a349 063e 531e 003e 8b21 423b 9518 17be
000003a0: 1912 47be ec54 0f3b 1c33 413b 2f2c 143b
000003b0: d5b7 323b 53a1 443b eb79 603c e2c1 7d3b
000003c0: bbf7 413b 1565 273b 1dc5 263b b2c2 db36
000003d0: 72f9 28be d739 4c3d 2555 d0bc 7cdd 1a3b
000003e0: c7a3 453b dcbc 463b a5fb 953a f5ea babb
000003f0: da3d 173b 2f01 41ba 8038 c13a 429d d5b9
0.0040499656 0.0034575423 -0.018290589 0.0043202625 -0.029072681 0.003511521 -0.00062161277 0.0039156694
0.00380278 0.0036242525 -0.00049613026 -0.00018542132 0.0038541763 -0.11156889 -0.00071307534 0.0064291414
0.003445055 0.016500557 0.0030934315 0.00262823 0.004319241 0.011314845 0.014562845 0.005633017
0.0030357032 0.0038449748 0.0039159297 0.004403125 0.004252454 0.0045410427 0.004062704 0.003925372
0.0038454817 0.0041262726 0.0041807285 -0.00037607335 -0.00083560793 0.003997368 0.0141634485 -0.0987111
0.004532433 0.0037642757 -0.055403586 0.0028134189 0.0038984155 -0.15692112 0.004109309 0.0041627563
-0.018655533 -0.00044474294 0.0037052233 -0.00042101913 -0.00940724 -0.00026972595 0.004248358 0.0039318404
0.0042228876 0.0039707026 -0.2715111 0.0035466421 0.008748806 0.004157219 0.003761637 -0.12353234
-0.0007109972 -0.0004212406 -0.00019980903 -0.00028620235 0.0041618054 -0.0005878822 -0.01960112 0.003830203
-0.00028608853 -0.00026546992 0.0037119386 0.0037279415 -0.00012922728 0.0033209953 0.014792346 0.0036487714
0.0126665225 -0.11422889 0.0037449761 0.009262437 0.0036888055 0.009855094 -0.0008316355 0.0038372912
0.003642279 0.003968601 -0.0005443674 -0.009706707 0.008132353 -0.0015377926 0.0033917925 0.0043430733
-0.00083079824 0.0068479897 0.026585666 0.03889536 0.0037627278 0.026530256 0.004515058 -0.18702109
0.0038161946 0.003986473 0.00400078 0.0038466267 0.005427967 0.0040807896 0.003229009 -0.09606565
0.0037252454 -0.00026564728 0.004477662 0.041656837 0.004264381 0.0041004415 0.0043322393 0.0041857567
-0.10608073 0.003886808 0.004081078 -0.00043579622 0.0039453697 -0.0001569699 0.02087265 0.004019456
0.0035307407 0.009738382 0.0026747005 0.0037172113 0.095827915 0.001355019 -0.059449725 0.003326606
-0.118059054 0.0027806675 0.0025046063 0.002929821 -0.0006102174 -0.00035695836 0.002604768 0.0006969896
-0.00062782684 -0.007032466 0.002762277 -0.17231123 0.003948788 0.0008382246 -0.0029071462 -0.08606723
0.059327845 0.0145187015 0.0032470562 0.0017915133 0.0029330165 -0.0072036 0.0025487004 0.00031333166
0.0016340569 0.0031323528 0.0032734065 0.002486917 0.002601482 -0.000495264 -0.00023447954 0.0026083312
0.14548874 0.00036696176 0.008537796 0.0028696589 -0.05864316 -0.24345753 0.0029553468 0.004002913
0.002566218 0.0023105892 0.09101964 0.00037054167 0.0040336982 -0.00051770953 -0.22346972 -0.0006518747
0.0022681777 0.002323026 -0.009179407 0.0030871537 0.0009688453 0.0029587143 0.046374876 0.0027676995
0.0037621001 7.1142927e-07 0.000112287446 -0.00053779857 -0.00062849163 -0.0001894785 -0.0008716886 -0.0007116082
0.12579302 0.0025586502 -0.00012225936 0.00069924677 0.0032014402 0.0044545443 -0.00019713069 0.0021949585
0.089492135 0.0028143243 0.14116184 0.00046692003 0.003784547 0.061179508 0.0030707337 -0.23582485
-0.00038687003 0.0025465107 0.0030186167 0.0020268206 -0.0006631368 -0.076168 0.11669813 0.003321073
0.00239997 0.0023610743 -0.0002760472 -0.06586613 0.13114028 0.12511568 0.0029622044 -0.14755471
-0.19440497 0.0021870686 0.0029479926 0.0022609343 0.0027270217 0.0030003383 0.0137009425 0.00387203
0.0029597122 0.0025542427 0.0025447079 6.549374e-06 -0.16501406 0.049859848 -0.025431225 0.002363055
0.0030157433 0.0030324971 0.0011442794 -0.0057042786 0.0023077638 -0.0007362542 0.001474157 -0.00040743692

nodes.0.callable.fc_output_x1.bias f4 [2]
00000000: af80 2c3e e8ed 533e
0.16845964 0.20696223
