5min_model/nsteps_10/threshold_model.pt (torch, 332152 bytes, 24 tensors)

nodes.0.callable.fc_input.weight f4 [103, 22]
00000000: 4b9d 483e 2752 cabd e987 d4bd 3dc0 43be
00000010: 6149 533e 80e8 053e a6c6 153e c7e5 c53d
00000020: 0dbc 30be b524 cd3d ab6f ba3c 4ed6 8dbc
00000030: 3ed3 f9bb aa75 01bd 8bac 3abd 922f 3bbe
00000040: ed71 b53d 100d 55be 0bc1 b23d a6c5 1cbe
00000050: f1b6 bbbd d15e 15bd 5ad8 ac3c 8eeb 24be
00000060: 33a0 38be 153e b1bd 510d e73c 566d 303e
00000070: 1cef 403e 6963 c6bb bd75 35be 380b b4bd
00000080: a5e8 fb3d 29d5 37be 5e47 00be 2dcf e8bd
00000090: f32d e53c a970 e6bd 6aba cebd 0064 29be
000000a0: b704 f83c 257f 463e 68c6 4e3e 8674 2dbb
000000b0: ff0b 3bbe 199e c43d e309 fc3d 20aa a63d
000000c0: dbb9 00be 3e43 3bbe d83f 543e 8e5d 23bd
000000d0: 872e 283e 6db6 383e 2a52 2f3d 25bc 34be
000000e0: 49b5 3abe 9824 b13d 0740 fe3c a8a0 2d3e
000000f0: 9c8e a23a 1467 d23d cccd 523d e995 04be
00000100: dbed ecbd dbfd 92bb de65 4e3e 4014 f33d
00000110: 26bf d6bd eea7 283e 4ad2 eb3d 8354 1cbd
00000120: b4b1 d9bd 484f 8abd 7418 dbbd af72 19be
00000130: dd55 df3d d851 d0bd c0af 163d 6185 7c3d
00000140: 4bc3 9a3d fb5a 11be 1e76 283d 2a53 163e
00000150: 612e d63d 0b61 18be 218f 2fbe afb5 5b3c
00000160: 0279 4fbd cf22 a9bd 13f6 64bc 1479 b03d
00000170: f006 2fbe eb32 f3bd 2cf9 fbbd ec66 9d3d
00000180: 0721 493e b0ad 1abd 7017 f63d c3e9 5f3d
00000190: dbff 79bd 0187 9cbd 5e46 84bb 15df 3e3e
000001a0: 0a68 bfbd 326d f33d 5a40 043d 646c 023e
000001b0: 8a4c 293e ec23 58be c026 febc 8aac 53bd
000001c0: 37fe 203e d7b4 03be 9095 7fbd e3f9 1fbe
000001d0: 84fa 4d3e 2004 3a3e 9f36 57be 1147 febd
000001e0: 343b 3d3e 7f2c f2b9 8e9a 58be a586 583b
000001f0: 0d2b 50be bd7f da3d d1eb 35bd f203 d6bd
00000200: 60dc 01bd 4ba8 9abd 44e9 aabd 6006 4a3e
00000210: ab75 e03d ef30 4b3e 3973 c5bd fccd 3abe
00000220: 03b9 aebc d29f 60bc 77e0 533d ccc2 a3bd
00000230: 7b5c 1d3e 21de 6a3d 6f78 d9bd b3a6 c53d
00000240: bcb5 e2bd 702f 26be aee3 14bd 6688 383e
00000250: 9cb3 2b3e da33 65bd bf3a 533d 5d21 7d3d
00000260: fd21 c0bc 9f20 cfbd 496d 27bd 309f 1abe
00000270: 0d07 673c 1e7d 4fbd 8326 583e 7f11 523c
00000280: 6161 993d e7ca 113e 2f43 4fbe 27de 45be
00000290: 93a0 123e c161 c13d d98c 1cbe 683b 8cbc
000002a0: 5fb9 21be 1e97 a03d 80c5 253e b34e c83b
000002b0: 2978 393e 7b49 013e 2a75 353e 6aea 4bbd
000002c0: da48 04be 6a24 3f3e d05e 563d 259c 063d
000002d0: 0d30 3cbe c993 173e 9ede bdbd 5c89 503c
000002e0: 9d21 9d3d 76c7 6ebd b34f f2bd 45bc ee3c
000002f0: 5831 ab3d feba 91bd acb9 41bc 7d42 c8bc
00000300: 47db 003d 30a2 273e f4cd 20bc 75bf 403c
00000310: 3bb1 933d 5c66 41be a779 1b3e 4d36 d1bd
00000320: 3547 193e baec 90bc 3974 2f3e a414 47be
00000330: d3a5 233c 0e95 72bd ad36 e2bc 4094 973d
00000340: 23b8 953d cd66 4e3e 2912 a13d 9d81 0c3d
00000350: 4607 c2bc 8efd 8c3d 998b 263e 2605 52be
00000360: 8bfd 9f3c 961d 843d ab58 1b3d e7c6 3a3e
00000370: 4172 083d bcc0 ebbd 4b87 5dbd 2939 ae3d
00000380: 90b5 61bb 08d7 a53d 4012 90bc 2a7b e53d
00000390: d463 2d3d b8ce 50be e0a3 3cbe 4f3a 4b3d
000003a0: cf06 18be 1d10 4bbd 6cb5 313e 6d39 1c3e
000003b0: 9c7b dc38 e23b fabd 84ee a13d d532 8f3d
000003c0: d21b b03c f1e0 853d fc67 973d 5a11 72bd
000003d0: 9787 1a3e 7881 1ebe e8ad 1a3e 02a5 463e
000003e0: 5430 cc3d d592 3bbd 2201 e9bd 98f9 923d
000003f0: 0f4c 01be 94fc b2ba df1b fa3c e73f 003d
0.19591253 -0.098789506 -0.10377485 -0.19116302 0.2063346 0.13076973 0.1462656 0.09662967
-0.17259236 0.10016767 0.022758326 -0.017314103 -0.007624059 -0.031606354 -0.045574706 -0.18279865
0.0885962 -0.20805764 0.08728226 -0.15309772 -0.09165753 -0.036467377 0.021099258 -0.16105482
-0.18029861 -0.08654419 0.028204592 0.17229208 0.18841213 -0.006054331 -0.17720695 -0.08791202
0.12300233 -0.17952408 -0.12527224 -0.11367641 0.027976012 -0.11251957 -0.100941494 -0.16542053
0.030275686 0.1938444 0.20192873 -0.0026467158 -0.18266295 0.09600467 0.12306573 0.081379175
-0.12570898 -0.1828737 0.2072748 -0.039884143 0.16423999 0.1803834 0.042802967 -0.17649896
-0.18233217 0.08649558 0.03103639 0.16955817 0.001240212 0.10273567 0.051465794 -0.12947811
-0.11568805 -0.0044858283 0.20156047 0.11869097 -0.104856774 0.1647031 0.11514719 -0.038166534
-0.10629597 -0.06753403 -0.106980234 -0.14985155 0.10905049 -0.101718605 0.036788702 0.061650638
0.075567804 -0.14194863 0.04112827 0.14680162 0.10458065 -0.14880769 -0.17144443 0.013410016
-0.05065251 -0.08258592 -0.013974684 0.08616844 -0.1709249 -0.11874946 -0.12303385 0.076856464
0.19641505 -0.037763298 0.12016189 0.054666292 -0.06103502 -0.076429375 -0.0040367087 0.18639787
-0.09346016 0.11886062 0.032287933 0.1273666 0.16533104 -0.21107453 -0.031024337 -0.051678218
0.15721975 -0.12861954 -0.062398493 -0.15622668 0.20115095 0.18165636 -0.2101693 -0.124158986
0.18479615 -0.0004619099 -0.21152708 0.0033039239 -0.20328923 0.106688954 -0.044414345 -0.10449971
-0.031704307 -0.075516306 -0.08345273 0.19728994 0.109599434 0.19842885 -0.096411176 -0.1824264
-0.021328455 -0.013709979 0.05172774 -0.07996139 0.1536731 0.057340745 -0.10618674 0.09650936
-0.11069819 -0.16229033 -0.036349945 0.18020782 0.16767734 -0.055957653 0.051569697 0.061799396
-0.023453707 -0.10113644 -0.040875707 -0.15099788 0.014100802 -0.05065643 0.21108441 0.012821554
0.07489277 0.14237557 -0.20240472 -0.19323026 0.14319067 0.09442473 -0.15288104 -0.01711817
-0.1579337 0.07841323 0.16188622 0.0061128973 0.18112244 0.12625687 0.17720476 -0.0497841
-0.12918416 0.18666235 0.052336514 0.032863755 -0.18377705 0.1480247 -0.092709765 0.0127280615
0.07672427 -0.05829569 -0.11831608 0.029142508 0.08359021 -0.07115744 -0.011824053 -0.024445767
0.03145912 0.16370463 -0.009814728 0.011764397 0.072115384 -0.18886703 0.15183125 -0.10215435
0.1496857 -0.017691005 0.17134179 -0.19441468 0.009988266 -0.05922418 -0.027613962 0.07401323
0.07310512 0.20156403 0.07864792 0.034303296 -0.023685109 0.06884299 0.1626419 -0.20509776
0.019530078 0.064509556 0.037926357 0.18239938 0.033312086 -0.115113705 -0.054084104 0.08506996
-0.0034440495 0.080976546 -0.017586827 0.11205132 0.04233153 -0.20391357 -0.18421888 0.049616154
-0.14846347 -0.049575914 0.17354363 0.15256281 0.000105134415 -0.12218453 0.07906821 0.06992117
0.02149764 0.06537045 0.0739288 -0.05909858 0.15090786 -0.15479076 0.15105402 0.19398883
0.09970155 -0.045794327 -0.11377169 0.071765125 -0.1262667 -0.0013655596 0.030530868 0.031310942

nodes.0.callable.fc_input.bias f4 [103]
00000000: c155 50be f92b de3d dd36 27bd d602 aa3d
00000010: 1745 35be a16a 9b3d 6d28 f7bd 7718 5bbd
00000020: fda4 0e3e 48d4 4bbe ff1e d03c d8ea e9bc
00000030: 865d 283e a803 99bc 8c01 003e 7039 eebc
00000040: 1fbe 4fbc 3c01 433e ba1b 5b3e 0469 1c3e
00000050: 6e6b 23be e0ad 343d c148 9f3b 3fe6 ddbd
00000060: a036 89bc 3a27 013b dbad d4bd 70ad 403d
00000070: 2a7c 4e3e e5e5 173e b9a3 3abe 3c1c 8e3d
00000080: e7d0 323e eed1 99bc b004 203e 0af0 63bd
00000090: ff48 ec3c 0b35 3a3e 6324 2ebe 0b23 2d3d
000000a0: aeaa 3b3e 2ffd 67bd b004 0fbe 04a8 263e
000000b0: 04c4 163e 44b6 59be 1184 50bc f811 363e
000000c0: bc64 2cbe 167d 203e 25e7 553e 3282 febc
000000d0: b46d 5cbd 0c9c 873d e070 44be 3946 c53c
000000e0: 6a75 a5bc 33a5 033e ab53 cebd 5329 c03d
000000f0: c59e 923d 8beb 173e de89 1fbe 420f 84bb
00000100: d428 80bc b31c da3c 9a70 a83d 6b10 773d
00000110: 3aaa 0c3e ca95 52be ba71 a13d 7d8c 163e
00000120: 3cce 24be 033e 603d 593d 953c 774b 71bd
00000130: ca8d b63d 0f66 57be 9085 28be 70b1 923d
00000140: 5c9c fabd 184a 1dbe 956e 85bc c6c2 913d
00000150: b106 863d 24bf 8d3c d7ee 74bd 3728 d9bd
00000160: fcc7 09be 2ce7 4b3d b77f a73d 5469 523e
00000170: b9b4 793d f0c0 1abe e5c0 45be 96b7 953d
00000180: 7788 143d 04b6 af3d 807d a43c 765d 0fbe
00000190: 0f8d 08be 2c41 4fbe 9557 cbbc
-0.20345213 0.10848231 -0.040823806 0.08301322 -0.17702137 0.07588697 -0.120682575 -0.05349013
0.13930126 -0.19905198 0.025405405 -0.028554365 0.16441926 -0.018678501 0.1250059 -0.029080123
-0.012679606 0.1904344 0.21397296 0.15274435 -0.1595895 0.044111133 0.004860968 -0.108349316
-0.01674968 0.0019707219 -0.10384723 0.047040403 0.20164552 0.14833792 -0.18226518 0.06938979
0.17462502 -0.01877686 0.15626788 -0.05564884 0.028843401 0.18184297 -0.17006068 0.042269748
0.18326828 -0.05663794 -0.13966632 0.1627503 0.14723212 -0.21260935 -0.0127268 0.17780292
-0.16835302 0.15672716 0.20888956 -0.031067941 -0.05381556 0.066215605 -0.19183683 0.024081336
-0.020197589 0.12855987 -0.10074552 0.09382882 0.07159189 0.14835946 -0.15579936 -0.004030139
-0.015644468 0.026625013 0.08224602 0.06031839 0.13736811 -0.20564952 0.0788302 0.1470203
-0.16094297 0.05474664 0.01821773 -0.05890986 0.08913763 -0.21035026 -0.164572 0.0716275
-0.122368544 -0.15360296 -0.016288081 0.07117228 0.06544245 0.017303057 -0.059798088 -0.106033735
-0.13455194 0.04978101 0.081786565 0.20547992 0.060963366 -0.15112662 -0.19311865 0.07310407
0.036262956 0.085796386 0.020079374 -0.14000496 -0.1333506 -0.20239705 -0.024822036

nodes.0.callable.fc1_x1.weight f4 [103, 103]
00000000: c765 a9bd 8392 cfbc 0d8e 913d c8ab b2bd
00000010: 5762 38bc 313f 79bd 962c 793c 7fa1 5dbd
00000020: 0d0d 0e3d 6bb5 b33d 4c46 a23d ded8 873c
00000030: 9fdc 60bd a209 4d3c 54dc b8bb 62b2 c63c
00000040: e586 0a3d 0d04 edbc cf1d 3abd 649f 923d
00000050: 2279 a53d 7249 cdbc 8a7d 37bc 5ad1 7ebc
00000060: 0154 17bd dd72 d2b9 fbf7 bdbd 21c6 05bd
00000070: cc16 053d e12a b23d 17ad 303d 7bfc 933d
00000080: 0aa6 473d 0595 b63d 2a77 4b3d a832 8c3d
00000090: 3502 bebd 419c 2abc 61a5 993c afa2 6b3d
000000a0: 3600 85bd 0184 51bd 3cb5 7339 8bbb 6ebd
000000b0: f157 ae3d 5780 b5bd 6166 42bd a67a 1e3c
000000c0: 9a10 b2bd 806b 89bd 1b8d ab3d e394 c1ba
000000d0: 253f 7dbd b1f4 c1bd f0c4 55bb 50ba 863c
000000e0: 7cc8 b73c eef4 2a3d 95f1 c5bc d486 9abd
000000f0: bc3c 90bd acd3 3bbd ac05 bbbd 34f7 36bd
00000100: 2574 d53c 0712 4e3d 629d 213d 2c30 843d
00000110: 4f45 84bc 6921 b23c 620c 99bd 59b4 353d
00000120: 4ec7 b9bd f86c f7bc 23c2 63bd 75e8 df39
00000130: 9a8c bdbd 9572 483d f58a 2c3d 678f 2f3d
00000140: c0df 1ebb 6b1a 963c 0e07 33bd ef91 70bd
00000150: c05f f8bc c435 a7bd 8fb8 9abd b817 ed3c
00000160: 853f 7abd 6e27 97bd f09a 90bd a3fc 633d
00000170: cd1f 04bd 2b07 693d cfc6 f43c fdbc 543c
00000180: e4a2 e63a df3f 193d 2547 ed3c 7138 393d
00000190: 95a1 603d 182c 423d fae2 92bd 4b48 6e3b
000001a0: 662f 1abd 8688 34bd 1fee 233c fb6d 713d
000001b0: 564f 70bd fe86 7b3d fe6e 743d 2209 c33c
000001c0: 1a8b edba 8985 873d dc95 bb3c 85bc a83d
000001d0: 65e3 3c3d b323 a23d d696 71bd e6a2 37bd
000001e0: 718c 8d3d 6277 843c 8c19 0bbd 53c4 bdbd
000001f0: e44d a8bd 5063 efbb f2d4 83bd bee8 af3d
00000200: 5997 d13b 712f b03d 9d57 29bd bf49 a1bc
00000210: f17f 683c 9009 bfbc 0fa8 b23d 91f8 32bc
00000220: e281 a4bd 693e 553c 94ab f4bc 9b2e 293d
00000230: 8114 fabb cb70 5bbd 2677 c43d 9e91 123d
00000240: badf 81bd c53f 05bd c944 cebd b76c ab3d
00000250: 4667 20bd 59f5 3dbd ca09 27bc 860a a6bd
00000260: 90d9 bfbd 69cd 9fbd 31a4 b7bd fda7 ee3c
00000270: b451 41bd dfd5 343d 2798 b43d 1702 e0bc
00000280: bc14 9fbb 3951 b93c f49e 9b3d bd76 e93c
00000290: f6bd 123b f6f2 153c 86b0 403c e2b1 aabd
000002a0: 1777 4a3d 0e13 9d3d 532c c93d 55da bd3d
000002b0: 5466 9f3c ea91 d8bc 5668 ebbc 4172 95bd
000002c0: 4ec2 55bd 57ee c03d 9b55 8a3d f64c b13d
000002d0: 976c b8bd 6027 81bc 1e3e c0bc 6841 abbd
000002e0: b0e4 1bbc 4d73 9639 0fc3 8b3d ef8e c63d
000002f0: b6b9 8bbd 458b 573d f412 b6bc b652 953d
00000300: 1bc7 50bd efa1 9d3d 279a 3e3d eceb 4e3d
00000310: 4468 2a3c 0276 56bd b0d7 a53d 29e1 c73c
00000320: bb33 103d ff3e 3a3c 311a 89bc 7f81 b03c
00000330: 4b1a cebc e373 583c c1a3 b7bd 7887 793c
00000340: 71e9 acbc 6765 9ebd 8dc7 0abd f634 8bbb
00000350: 7fcd ad3d 05ec f9b9 782c 4f3d a04b 073d
00000360: e528 ae3d 2464 043d 5bd2 90bd 427c 72bd
00000370: 3579 38bc 6720 96bd 8263 47bd a9ce 04bc
00000380: 25d8 2ebd ceb2 58bd 36f4 4c3d aabb 9a3d
00000390: 9de4 b33d 269a 453d 55ba b2bd 470d b9bd
000003a0: faf3 e73c 8cf4 a13d e811 333d bbac a4bd
000003b0: efe5 20bd f83e 773d 472d 373d b31b 87bd
000003c0: 6567 efbb 4c0d d0bc 8c1f 7a3c a790 1c3d
000003d0: 0f01 64bc 9ddb b3bd f6c5 433c 0e34 a4bd
000003e0: 748e 75bd 8ccd 03bc 98ad fcbc 7d07 07bd
000003f0: c0a6 abbd b696 bdbd 8457 31bd 8d06 9b3d
-0.082713656 -0.025338417 0.07107172 -0.08724171 -0.011253915 -0.06085128 0.015208384 -0.054109093
0.034680415 0.08774837 0.07923564 0.016582903 -0.0548979 0.012514504 -0.0056414995 0.024254981
0.03382005 -0.028932596 -0.045438584 0.071593076 0.08079745 -0.025059436 -0.011199364 -0.015552843
-0.036945347 -0.000401399 -0.09275814 -0.032659654 0.032492444 0.08699585 0.04313382 0.07225891
0.04874233 0.08915142 0.04967419 0.068455994 -0.09277765 -0.01041323 0.018755617 0.057528194
-0.06494181 -0.05115128 0.00023241801 -0.058284324 0.08512867 -0.088623695 -0.047460917 0.009672796
-0.08694573 -0.06709957 0.08376523 -0.0014769103 -0.061827797 -0.09470499 -0.0032618605 0.016446263
0.022434466 0.04173749 -0.024163047 -0.07545248 -0.07042834 -0.045856163 -0.09131941 -0.044669345
0.026056359 0.05031016 0.039456733 0.064545006 -0.01614633 0.021744447 -0.07473065 0.044361446
-0.090712175 -0.030203328 -0.055605065 0.00042707068 -0.09255333 0.0489374 0.042124707 0.04286137
-0.0024242252 0.018323144 -0.0437079 -0.058732923 -0.030319095 -0.08164552 -0.07554733 0.028941974
-0.061095733 -0.073805675 -0.07060802 0.055660855 -0.03225689 0.0568916 0.029879956 0.012984511
0.0017596153 0.037414428 0.028964588 0.045219842 0.054841597 0.047405332 -0.071721986 0.0036359008
-0.03764286 -0.04407551 0.010005503 0.058942776 -0.05866941 0.061408035 0.059676163 0.023808066
-0.001812312 0.06617267 0.022898607 0.08239082 0.046115298 0.07916965 -0.05898174 -0.044833086
0.06911553 0.016170207 -0.03395991 -0.092659615 -0.082179815 -0.00730554 -0.064371005 0.08589314
0.006396216 0.08602799 -0.04134332 -0.019688485 0.01419066 -0.02331999 0.08723461 -0.010923521
-0.08032586 0.013015368 -0.029866971 0.041304212 -0.007631839 -0.053574365 0.09593038 0.035783403
-0.063415006 -0.03253152 -0.100717135 0.08370345 -0.03916099 -0.04637656 -0.010195205 -0.08107476
-0.09367669 -0.07802851 -0.08966864 0.029132837 -0.04719706 0.044149276 0.08818083 -0.027344747
-0.0048547667 0.022621738 0.07598677 0.028499002 0.0022391058 0.009152165 0.0117608365 -0.0833471
0.04942998 0.0766965 0.09822907 0.09270159 0.019457974 -0.026436765 -0.028736275 -0.07297183
-0.052187257 0.0942046 0.06754609 0.08657257 -0.09005087 -0.015765846 -0.02346712 -0.083620846
-0.009514973 0.00028696135 0.06824314 0.09695231 -0.06822531 0.052623052 -0.022225834 0.072911665
-0.05097113 0.07696902 0.04653373 0.05051796 0.010400835 -0.052358635 0.0809778 0.024399357
0.035205584 0.0113675585 -0.016736122 0.021546124 -0.025159022 0.013211223 -0.089667805 0.015230052
-0.021107407 -0.07734185 -0.033881713 -0.004248257 0.08486461 -0.0004766883 0.050579518 0.033031106
0.08503894 0.032322064 -0.07071372 -0.059200533 -0.011259367 -0.07330399 -0.048678882 -0.008105912
-0.0426866 -0.052904896 0.050037585 0.07555325 0.08783839 0.04824271 -0.08726946 -0.090357356
0.02831458 0.07907972 0.04371825 -0.08040758 -0.03928178 0.060362786 0.044720914 -0.0659708
-0.0073060268 -0.025396965 0.01526631 0.03822389 -0.013916268 -0.08782122 0.011949053 -0.08017741
-0.059950307 -0.008044612 -0.030844495 -0.032966126 -0.083814144 -0.092572615 -0.043296352 0.07569609

nodes.0.callable.fc1_x1.bias f4 [103]
00000000: 7460 c03d abf3 e03c e472 463c 471e 55bd
00000010: c74b c3bd 204e 32bd ae0b 343d a8ed 303d
00000020: 3c1f da3b 2337 c5bd 24bb 133d 0e09 9abd
00000030: b2bb a6bb 0121 aebd 5783 c53c 7271 a63d
00000040: 22c9 c4bd 1576 4bbc 9473 2f3d 4990 75bc
00000050: ae9a a13d dadf 973d fccc 8b3d 4181 bebd
00000060: ccfa 8fbd 3fa9 74bd b364 513d 5c0b f23c
00000070: 8e72 bebd d292 f43c 9a52 a53c a3b6 4f3d
00000080: 402b a33c ae43 96bd 2156 b5bd 26de ef3b
00000090: 5dd2 eabc ec76 643c 7734 bebd 002b 8cbd
000000a0: d4cc 70bd 7013 813d ad9c a7bd 05b6 dfbc
000000b0: f661 003d a9e1 a1bd 18d1 b9bd ce4b 6dbd
000000c0: 7018 753d e309 17bd b7c0 ad3d fcc7 6c3d
000000d0: 2627 0dbd afed c7bc 650b 693d 5095 84bd
000000e0: aaf7 5e3d 4ca8 2f3d 2e7a 68bd 24de 01bc
000000f0: 2b2b da3c 7978 81bd c624 0e3d 8bf3 c6bd
00000100: f659 a5bd 5e06 cb3c a69e 88bd 67cd c13d
00000110: e15f 60bd b2cb 64bd ac36 1e3d b6ee 5abd
00000120: 0554 213d c8b1 b83d e035 693d 0079 a2bd
00000130: a496 4abd 763a 963d 061e 513d def5 9abd
00000140: aafa 4e3d a982 44bd 6e19 223c 50b1 8b3d
00000150: ea8a 683d 03fc 32bc 21a6 14bd 6744 b43c
00000160: 1dd5 52bd 0e5b f2bc e004 2e3d 38ee c73d
00000170: 7afb d43c eca3 aabc 97f7 263c e641 c13c
00000180: 9042 513d 991f 6a3d 25b8 5a3c 3045 c73d
00000190: 5f1a 573d 2854 613b c44c 29bc
0.09393397 0.02745994 0.012112353 -0.052030828 -0.09535938 -0.043531537 0.04395645 0.043195397
0.0066565555 -0.09629657 0.036067143 -0.07521258 -0.005088293 -0.08502389 0.02411048 0.08127107
-0.096086755 -0.01241829 0.042834833 -0.014988014 0.07890831 0.07415743 0.06826207 -0.09301997
-0.070302576 -0.05973172 0.051121425 0.029546432 -0.09299193 0.029855166 0.020180989 0.050711285
0.019918084 -0.073371276 -0.088543184 0.0073201833 -0.028664762 0.013944369 -0.092873506 -0.06844139
-0.05878909 0.063025355 -0.081841804 -0.027308473 0.031343423 -0.079043694 -0.090730846 -0.05793362
0.05983776 -0.036874663 0.08484023 0.057807907 -0.034461163 -0.024405329 0.056895632 -0.064737916
0.05443541 0.04288511 -0.056757145 -0.007926498 0.026631912 -0.063218065 0.03470304 -0.09714421
-0.08073799 0.02478331 -0.06670885 0.094630055 -0.054778937 -0.05585832 0.038626358 -0.05345031
0.039386768 0.09018284 0.056936145 -0.07933235 -0.04946007 0.07335369 0.051054023 -0.07566427
0.05053202 -0.04797617 0.009893758 0.06820929 0.056773104 -0.010924342 -0.036291245 0.022005273
-0.051472772 -0.029584434 0.042485118 0.097622335 0.02599882 -0.020830117 0.010190866 0.023590993
0.05108887 0.05715904 0.013349568 0.09729993 0.052515384 0.0034382436 -0.010333244

nodes.0.callable.fc2_x1.weight f4 [103, 103]
00000000: 9487 cbbd 7074 a2bc 73e1 04bd 7221 5d3d
00000010: 1199 983d 7059 94bd c809 bcbd e66f b53c
00000020: c0bb b9bc 487d d3ba 77e7 12bc d4ee 663d
00000030: e830 a63c 46ad a93d 4bbf 43bd c50d b3bc
00000040: 23a3 6a3d 3e2b bbbd 0644 2fbd 5941 c1bd
00000050: 806d 70bd 1b7a a4bc a748 dc3b 885d 1dbd
00000060: 4fdf f4bb a7df 663d 94f0 d43b 9d9f a73c
00000070: 4b7f 87bd 00fa a7bc 8b14 77bc f736 9e3d
00000080: d636 813c b676 9a3d ec1a 5cbd 8eac 09bd
00000090: 15da aa3c c0ef b7bd d03e b0bd 3009 593d
000000a0: ea19 9bbd e42e 523d 6552 cf3b 78fb 81bc
000000b0: 627b e13b c2c8 8b3c b459 a7bd bcc4 90bd
000000c0: fdba 40bc d255 013d ecbc 083d 89f4 ca3c
000000d0: 4e6b 8cbd d74b 793d d197 5fbb 3eb1 eabc
000000e0: 112f c83d 2d04 89bd 0eb6 b1bd b20d 713c
000000f0: eeb4 893d 0182 9bbd bf09 2f3d 486a 02bd
00000100: c1af 98bd 2026 923c 6913 b0bd b843 9dbd
00000110: 1e3c 5bbd 4ee1 d83c e05a c93c 6795 813b
00000120: 02ac a43d 4ea9 3b3d a0ca 97bc 30e6 a8bd
00000130: b455 813d f536 af3d 5ec2 723b c089 cf3c
00000140: fe59 cf3c 23f8 993d 2b82 ca3d 6ef9 23bd
00000150: d7ca 07bb 118b 323d 1d76 80bd b9d3 75bd
00000160: 1916 c7ba fc95 58bc 7caa b1bc 27a3 523d
00000170: b554 353d 97de 973c c44e c6bd a9f5 14bd
00000180: 77cd 88bd 61f5 5ebd 222f 89bc 4da0 223d
00000190: f5dd 2f3c 542d c0bd 5af7 8f3d e271 e9bc
000001a0: 211c 43bd 5271 8d3b 5691 74bd 5668 333c
000001b0: a5ea 66bc 3ae1 0e3d 17d9 84bd 5bf7 c1bd
000001c0: 24ea b63d 96a7 843d 788c 99bd ddf6 7abd
000001d0: d25e a2bd a3f0 5e3d 2e4b a33c 79b6 5dbd
000001e0: a1cf d03c 858f 16bc fba2 bcbd 6680 fe3b
000001f0: 5fbe bcbc 7608 87bb 0d91 67bd 74d6 11bd
00000200: 1cfd 58bd d504 483b 1819 023d d0e6 b33d
00000210: cfbb 90bc e5d1 a63d 1d0a 933d 8dfb d93c
00000220: 6eb8 47bd 4e37 a23d ff2c 0abb 7139 923d
00000230: 9f0e 8dbd a07f 9d3d 41ff 423d 717e a9bd
00000240: ae92 b13d c979 92bd 015e 6b3d ca3e 4d3d
00000250: 7991 48bd b258 eabc 8ce9 843d 05e6 a7bd
00000260: 8661 e3bc df56 873c 9606 c83c 1692 a6bd
00000270: c09e afbd 91ef 9dbd 6d20 0c3d 6577 783d
00000280: d799 3f3d ede0 e83c f3b4 d23c 2294 443d
00000290: c71b b9bd 410d a1bc a4c2 b6bd 9541 c13a
000002a0: bf7b 56bd c114 9d3d 8a8c 8dbd d088 36bd
000002b0: de93 bbbd 9211 15bd 0269 083c 272e 0cbd
000002c0: 297d 8a3d 3c1b 893c dec7 aa3b 08ef 4a3d
000002d0: 0f67 943d 859f 803d 9efb 35bd 4d65 a2bd
000002e0: 9a30 c5bd 7193 c5bd dae5 70bd 88ed f73b
000002f0: f636 17bd 761e 063d 070d c3bd 5162 aabc
00000300: d9c3 74bd ada9 cc3d b71c 87bd 965c 263a
00000310: b23a 5ebd 867f 4a3d 64f2 bf3d aa61 57bd
00000320: 071d 9cbd 7f34 003d 5e2c 803d 3ce8 303d
00000330: 2036 ac3d ed99 41bd 1c98 223d 3af4 4dbd
00000340: 1b46 cdbc 6498 693c 8354 da3b d9d7 be3d
00000350: d4be a83d 8228 afbd e5f0 6f3d 4dd0 c73d
00000360: dffc 93bd 5470 a4bd 966b 8ebb 9e12 c33d
00000370: 3201 9539 874f 0abd 5253 863d 925a 53bd
00000380: b142 a63d 71fc 5dbb 6f79 f6bc 9176 153c
00000390: 4037 a03d 2192 89bb a91f 003c bc04 c7bd
000003a0: 9930 79bd f9fd 4ebd 5086 7e3d d004 8fbd
000003b0: d6f2 b83d fd54 a23d 0e09 a33d 4b31 a53d
000003c0: 25bc 9ebc 8d36 c03d c491 c3bd a2c4 613d
000003d0: 87a7 733c e969 66bd 0690 f73c 53ea 92bd
000003e0: 245c 03bd 5a03 ca3c f411 643d 7229 7f3d
000003f0: f506 db3c 33ce ba3d 7d46 0ebb 13eb b2bd
-0.09937969 -0.019830912 -0.032441568 0.053986974 0.0745107 -0.07243621 -0.09181553 0.022148084
-0.022672534 -0.0016135359 -0.008966318 0.056380108 0.020286992 0.082850024 -0.047789853 -0.021857152
0.057284486 -0.09139107 -0.04278948 -0.09436292 -0.058698177 -0.020077756 0.006722528 -0.038419276
-0.0074729095 0.056365635 0.0064984057 0.020461852 -0.06616076 -0.020504951 -0.015080581 0.077253275
0.015773218 0.075421736 -0.053736612 -0.033611827 0.020855943 -0.089812756 -0.086057305 0.052987278
-0.07573302 0.05131425 0.006326961 -0.01586698 0.0068811635 0.017063502 -0.081714064 -0.07068774
-0.0117633315 0.031575985 0.033383295 0.024774807 -0.06856404 0.060863342 -0.003411759 -0.028648969
0.09774602 -0.066902496 -0.08677302 0.014712738 0.06723963 -0.07593156 0.042733904 -0.03183964
-0.074553974 0.017840445 -0.08597452 -0.07678932 -0.05352413 0.026474621 0.024579465 0.0039545777
0.080406204 0.04581576 -0.018529236 -0.0824703 0.06315175 0.08555404 0.0037042121 0.025334239
0.025311466 0.075180314 0.09888109 -0.040032797 -0.0020720267 0.043589655 -0.06272528 -0.060016368
-0.0015189081 -0.013219353 -0.021687739 0.051425125 0.044270236 0.018538756 -0.09682992 -0.036367092
-0.06679814 -0.05443323 -0.016746107 0.039703656 0.010734071 -0.09383646 0.070296004 -0.028496686
-0.047634248 0.0043164873 -0.059708916 0.010950169 -0.01409403 0.03488276 -0.06486719 -0.094710074
0.089313775 0.06477277 -0.074974954 -0.061270583 -0.07928242 0.054428708 0.01993331 -0.054129098
0.02548963 -0.009189491 -0.092107736 0.007766771 -0.023039995 -0.0041208817 -0.056534816 -0.03560491
-0.05297576 0.0030520458 0.031762213 0.08784258 -0.01766768 0.08145503 0.07179663 0.026609207
-0.04875987 0.07920705 -0.0021083949 0.07139862 -0.068875544 0.07690358 0.04760671 -0.0827607
0.08670555 -0.07152135 0.057462696 0.05010871 -0.04896686 -0.028606746 0.06489858 -0.081981696
-0.027756464 0.016520916 0.024417203 -0.081333324 -0.08575201 -0.07711709 0.03421061 0.06066074
0.046777572 0.028427565 0.025721049 0.047992833 -0.09038501 -0.01965964 -0.089238435 0.0014744276
-0.052364107 0.07669974 -0.06911571 -0.04456407 -0.09159063 -0.03639371 0.008325817 -0.0342237
0.06762154 0.01673662 0.0052118143 0.049544364 0.07246219 0.06280426 -0.044429414 -0.07929478
-0.09628411 -0.09647263 -0.058812954 0.0075661577 -0.03691765 0.032743894 -0.09523969 -0.020798834
-0.059757087 0.099933006 -0.06597274 0.0006346194 -0.054255195 0.049438022 0.09372404 -0.052583374
-0.07622724 0.031300064 0.06258462 0.043190226 0.08408761 -0.047265936 0.039695844 -0.05028174
-0.025057843 0.014257524 0.0066629066 0.093185134 0.082395226 -0.08552648 0.058579344 0.09756527
-0.07225966 -0.080292374 -0.0043463213 0.09525035 0.00028420385 -0.03376725 0.06558861 -0.051600046
0.08118189 -0.003387239 -0.0300872 0.009122507 0.07823038 -0.004198328 0.007820048 -0.097177
-0.060837362 -0.050535176 0.06213981 -0.0698334 0.09030692 0.079263665 0.079607114 0.080660425
-0.019376824 0.09385405 -0.09549287 0.055119164 0.014871485 -0.056253348 0.030220043 -0.071736
-0.032070294 0.024659801 0.055681184 0.062295385 0.026736716 0.09121361 -0.0021709495 -0.08736243

nodes.0.callable.fc2_x1.bias f4 [103]
00000000: ed28 163b 8ceb 183d 0071 4b3d 4c67 54bd
00000010: a489 bc3d e9af 3abd a390 52bd 6564 bebd
00000020: 09ef 603d 39d4 82bc 6267 953b 53c2 a1bd
00000030: a0f3 99bd bba6 813d ec36 ffbc ce90 b73d
00000040: e9af b9bc 2c76 68bc 4f47 e7bc abe0 94bd
00000050: 5433 0abd f6b3 5fbc db52 55bd 1c7b 49bd
00000060: 4d82 3ebc c7cb b63d b5ee a0bd 59f5 3c3d
00000070: 08ba a93c 7ff3 be3d eb51 ae3d c06e b73d
00000080: 58b5 6bbc 297b cbbd d77b 51bd 6e58 f3bc
00000090: 8543 7fbd 86c8 5f3d a616 a93d 8d63 63bd
000000a0: 89c6 58bd dae3 6ebd e671 65bd 1c13 fabc
000000b0: e808 c73c 7308 283d ae47 a03d 81a9 ae3d
000000c0: 0781 bb3d 175b 42bd 7ccd 12bd 2fad a63c
000000d0: 9d88 25bd c654 9b3d dc19 5cbc 7a39 35bd
000000e0: 043a af3c 4bd2 be3c de59 bd3d 036a 49bc
000000f0: 7362 0c3c a981 08bd 3ad8 643d 9922 43bd
00000100: 496f b8bd 9db5 a83b e3b4 843d 7cef 95bc
00000110: 5e26 7ebd c960 05bc b99e a5bd 9389 653c
00000120: 49d5 ca3d 9cad 293d 3c92 8c3c 2b1e a43d
00000130: c4df a8bc 1ff5 083c d764 a8bd f863 8fbd
00000140: 637b 613d 3e60 9ebd ff9a b7bd b6b8 e53c
00000150: 2604 b03d db6a b8bd 9fe8 883d 80a0 e7bc
00000160: 0b53 32bd 5b28 093d fd7f 853d 38a7 a9bd
00000170: 7aec 9fbc ddca 9dbd 8ba9 dbbc ea44 00bd
00000180: 1d37 e4bc 405b b5bd 7cf6 cb3d 2238 343d
00000190: 6113 853d 3ce8 1abd 65f4 bfbc
0.0022912577 0.03733401 0.049668312 -0.051856324 0.0920594 -0.045577917 -0.051407468 -0.092964925
0.05491546 -0.015970336 0.0045594433 -0.078983925 -0.07517171 0.063306294 -0.031154118 0.08963166
-0.022666888 -0.014188331 -0.028232245 -0.072694145 -0.033740357 -0.013653746 -0.05208097 -0.049189672
-0.011627746 0.08925586 -0.0785803 0.04613242 0.02071859 0.09323787 0.08511718 0.08956671
-0.014386497 -0.099356 -0.051143494 -0.029705252 -0.06232025 0.054634593 0.08256273 -0.05551486
-0.052923713 -0.058322765 -0.056016825 -0.03052669 0.024296239 0.041023683 0.07826172 0.08528424
0.091554694 -0.04745015 -0.035840496 0.020346252 -0.040413488 0.075845286 -0.0134339 -0.044244267
0.021389969 0.023293635 0.092456564 -0.012293342 0.008568394 -0.03332678 0.055870272 -0.047640417
-0.09005601 0.005148603 0.06479814 -0.018302672 -0.06204831 -0.008140751 -0.080869146 0.014009851
0.09903962 0.041425332 0.017159574 0.080135666 -0.020614512 0.008359223 -0.08222359 -0.070014894
0.05504931 -0.077332005 -0.0896511 0.028042179 0.08594541 -0.09004756 0.06684994 -0.028274775
-0.043536227 0.03348575 0.065185525 -0.082838476 -0.01952194 -0.07704709 -0.026814243 -0.03131572
-0.027858311 -0.08855295 0.099591225 0.043998845 0.06497837 -0.037819132 -0.023431966

nodes.0.callable.fc_output_x1.weight f4 [2, 103]
00000000: 3c32 1cbb 4de3 44bd e73a 81bd e1d9 753d
00000010: cc2e 9dbd f629 87bd bd0d 43bd 30ae a3bd
00000020: d675 193b 2f53 3bbd f6b9 8dbd ad49 ff3c
00000030: da4d a73d 3ae5 3abd 07fa b4bd 7ec9 8a3d
00000040: 250f 243d 8077 9a3d f024 7abd 34d0 8dbd
00000050: 78b0 bc3d 063e 333d d96a a43d 76e1 0a3d
00000060: a94a 433d 1b4f 713d 027e 3f3d db24 b23d
00000070: b180 5d3d 4ccd b03d 3a3d 8dbd 28f2 2ebd
00000080: cdb5 7b3c 447b 543d b2c5 873d 174b 77bd
00000090: ffd6 d53b 7ae0 783d 2d04 5a3d dde8 81bd
000000a0: a848 1bbd 5f7c fbbc 5351 b6bd ded5 2c3d
000000b0: 8d23 623c 5125 a9bd a708 f53c dc11 093d
000000c0: 4811 acbd 7cf2 383d 0510 b13d 1a70 22bd
000000d0: 6864 9fbd 47d1 a1bd 0309 ad3d d440 953d
000000e0: de17 153c 5f15 213c 0d46 96bd 84b9 dd3c
000000f0: 6ad1 f4bc 626c 733d 01cc 84bb e930 65bd
00000100: 47b2 243c 5670 e93c ad3f 853c 5a5c e63c
00000110: b647 923c 701a b1bc b50f 63bd 1a21 e73c
00000120: d0c1 1bbd 65fa a83d a945 33bd 1b21 a2bc
00000130: c7f9 97bd d5f8 89bd 0d27 b23d 03c3 1f3d
00000140: b9c2 c33a 7cfa 9bbd cfdf c43d fae9 00bc
00000150: a662 463d 5b14 353d d682 83bd ebf0 9dbc
00000160: faf3 193c 1700 a7bd 22e8 133d 1fa2 7bbc
00000170: 85b5 123d 7e3a 9a3d a21d a3bd adb7 2f3b
00000180: 0c72 bc3b f6d0 cdbc b934 a03d b0f9 193d
00000190: 6d39 9e3d 3f26 c23d 0dcf 89bc d881 8bbd
000001a0: fd31 22bd 18ad 49bb 762f 433d fe2a e73c
000001b0: 384d 703d c7c1 bb3d 0c27 f7bc 2180 5cbd
000001c0: 1012 00bd c514 3dbc 92f0 80bc f541 c73d
000001d0: 254c 733d bbae b43d 4c03 f13c e83c 9a3d
000001e0: 1f06 75bd 7edc a83c f8ba ea3c 00ce 8a3c
000001f0: 9add bb3c 7e1c 893d 3605 993d 3ef2 b43c
00000200: d7ed 903d 2516 083d e77e f7bc 45c1 af3c
00000210: 3fa9 913d c42b 3cbd 9bee 89bd 9103 883d
00000220: b768 9fbd f540 bb3d 7c83 bdbd b343 fa3a
00000230: fb08 3fbd a42f 89bd 78e8 e5bc 218b bfbb
00000240: 0ce5 2dbd d88b 87bd a7cc 593b 2c84 9abd
00000250: 43be a3bd b565 723d 50c5 49bd aeea bebd
00000260: ad0a b83d d203 ba3d 3f77 7a3c cd86 50bd
00000270: 61b0 d63c e3e5 98bd fbeb 90bd f57b 8bbd
00000280: 781b b33b 8a45 823d 2ac2 793d 6df7 f3bc
00000290: 34ad ccbb 16d4 6abc 0cb5 dbb9 484c 353d
000002a0: cebd b93d 4f0a 3a3d 4620 a03d cf8d bb3d
000002b0: 63d6 adbd 9089 a6bd 42bb 3e3d 065a a03d
000002c0: 7736 433d 1655 bbbc 62e2 c73d b65c 613c
000002d0: 234b 3e3d 2618 d73c 774a 8bbd a5fa 323d
000002e0: 9b94 24bc 87c2 0e3d 0f19 a9bd 2f4f 3b3d
000002f0: cece 9ebc 7ba0 5fbd 20aa b63d d50a 1f3d
00000300: f570 bf3d 7e68 9c3d 48a0 09bd 2a43 c23c
00000310: 7649 92bd 39d5 6dbc e701 23bd 274e 243d
00000320: 681f c33d 8955 c33c de70 81bd 906a b4bc
00000330: 63f0 a2bc ed5f bf3d
-0.0023833653 -0.048068333 -0.06310063 0.06002224 -0.076749414 -0.065998 -0.047620524 -0.07992208
0.0023416183 -0.045733627 -0.06920235 0.031163061 0.08169146 -0.045628764 -0.088367514 0.06776713
0.040053505 0.07542324 -0.061070383 -0.06924477 0.09213346 0.043760322 0.08028192 0.033906423
0.047678623 0.05891333 0.04675103 0.08698436 0.054077808 0.08632907 -0.06896444 -0.042711407
0.015363169 0.051875368 0.06629504 -0.060374346 0.0065258737 0.060760953 0.05322664 -0.06343243
-0.037911087 -0.030698953 -0.0890223 0.042196147 0.013802421 -0.08259071 0.029911352 0.033464298
-0.08401734 0.045153126 0.086456336 -0.03965769 -0.07782823 -0.079012446 0.084489845 0.072877556
0.009099929 0.009831755 -0.0733758 0.027066 -0.029885013 0.059429534 -0.0040526395 -0.055954847
0.01005227 0.028495949 0.016265715 0.028120209 0.01785646 -0.021619052 -0.0554349 0.028214026
-0.03802663 0.08250884 -0.043767605 -0.019791177 -0.07420688 -0.06736914 0.086988546 0.039004337
0.0014935351 -0.076161355 0.096130006 -0.007868284 0.048433922 0.044208866 -0.06421439 -0.019279918
0.009396547 -0.08154314 0.03611005 -0.015358477 0.03581764 0.07530688 -0.079646364 0.002681236
0.0057509 -0.025124054 0.07822556 0.037591636 0.07725797 0.09479951 -0.016822362 -0.06811875
-0.039598454 -0.0030773338 0.047652684 0.028218742 0.05866739 0.091678195 -0.030169986 -0.05383313
-0.031267226 -0.011540596 -0.015739713 0.09729377 0.05939879 0.0882239 0.029420517 0.07531148
-0.05982029 0.020612951 0.028653607 0.016943932 0.022932816 0.066948876 0.07471697 0.022088166
0.07076614 0.033224244 -0.030211879 0.021454463 0.07112359 -0.045940176 -0.067349635 0.06641305
-0.07783645 0.09143249 -0.09253594 0.0019093662 -0.046639424 -0.0669854 -0.028064951 -0.005845443
-0.042454764 -0.0661847 0.0033233555 -0.07544741 -0.07995274 0.059179027 -0.049260437 -0.09322105
0.08986411 0.0908276 0.01528722 -0.050909806 0.02620715 -0.074657224 -0.0707626 -0.06810752
0.005465921 0.0636092 0.060976185 -0.029781068 -0.0062462334 -0.014332792 -0.00041905825 0.0442622
0.090694055 0.045419987 0.07818656 0.09157907 -0.08488157 -0.08131707 0.0465653 0.078296706
0.047659364 -0.02286772 0.09759976 0.013755014 0.046458375 0.026256632 -0.068013124 0.043696065
-0.010045196 0.034853484 -0.08256733 0.045729812 -0.019385722 -0.054596405 0.089191675 0.03882869
0.09347717 0.07637118 -0.03360012 0.023713667 -0.07142918 -0.014516168 -0.039796736 0.040113594
0.09527475 0.023844497 -0.06320356 -0.02202347 -0.019890016 0.09344468

nodes.0.callable.fc_output_x1.bias f4 [2]
00000000: 8b74 1fbd 3899 7c3d
-0.038929503 0.06166956

nodes.0.callable.fc1_x2.weight f4 [103, 103]
00000000: 2113 c2bc 2012 843d 0c10 d43d 165b a13d
00000010: 33c9 2e3c 2ca9 87bd 983d 47bd d676 94bd
00000020: 0e8c 07bd 9ca5 f93c efde b73c 2355 d23c
00000030: 12e1 b4bd 460f 363d 643c 21bc e916 bb3d
00000040: 0bb2 843d 921c 293d 9fe1 c33d 11e1 7fbd
00000050: 3074 3c3d fb91 403d 9616 34bc 3cda 793d
00000060: 9425 90bc ce03 8abd 8bee 95bd 15db 99bd
00000070: 21dc b13b c828 113a 22dd c0bc 6b8f 343d
00000080: 91be de3c 1c21 cd3d 6b2f ba3c 27a3 b0bd
00000090: 70bf cb3d a10f a1bd 155d 50bd 8b25 6ebc
000000a0: 5105 c6bd f9fa 89bd f6c8 8e3d 509a 693c
000000b0: fba9 56bd 2178 bebd cbd6 4cbd bcc5 cabd
000000c0: dba9 653d edf0 173d b256 dfbc 99c6 0b3d
000000d0: b188 7c3d f4cb 95bd 8ac1 89bd e7db 34bd
000000e0: 1b4b 4ebc 75cf b9bd 5d6d 333d d61f c33d
000000f0: 3c0c 193c 6095 df3b f3db 0c3d 31bb a73d
00000100: 1142 0cbc 7da5 e23c 3ad0 67bd c9ec a13c
00000110: be2d ebbc 3c23 cdbc 4c39 b4bd 137d debc
00000120: 20a8 1ebd 46ab 1d3d b69d be3d 4141 ccbc
00000130: 8723 01bd 7567 2b3d 3740 8abd 062e 70bd
00000140: 0260 29bd 590f 41bd 43d9 babd faf2 f6bc
00000150: 5a0c 773d 06ac 8f3b 37e0 d03d f608 2a3d
00000160: f984 65bd b7c6 76bc 141d 31bd d412 28bd
00000170: 08c8 673d 3424 c5bc 76f1 c5bd b326 b1bd
00000180: c814 9dbd e762 2a3d fb9d 033d d104 0fbb
00000190: f8bf 07bd 9de4 0dbc 0fdf b53d 0127 063d
000001a0: d81b 0abd 6789 05bd aaba 8d3d 21df 8e3d
000001b0: b89f 073d 2e5d 483d b6eb 9fbd 0729 933d
000001c0: da72 263d cda6 7dbd 1d7b 913d 39b5 7b3d
000001d0: 99bf e43b 07d2 263d dba9 9c3d 80a1 963d
000001e0: 997d b53d 2dd7 5cbd 7df7 7fbd 4c59 15bc
000001f0: 5624 9f3c 85f9 88bb fafd 313d 483f 843d
00000200: 5356 b83d 5d35 1e3d 4ae1 b1bc 7f44 a5bb
00000210: f579 9fbd 8d36 b83d 29f5 6fbd a17d b43d
00000220: 84a9 bf3d bf0b bf3d f35c cabc 555d 513d
00000230: 32aa 103d 7567 64bb 1774 cd3c 1280 963d
00000240: 500e 3f3d 3f7b 96bd 0949 4b3d ef3d 913d
00000250: 33c7 b1bd 36a6 63bd fce9 bbbd 5d27 ea3c
00000260: 1f9f 943c c553 243d 4358 abbd 9f41 14bd
00000270: 77b5 5c3c 5bd3 0c3d a0a6 adbd 9550 9fbd
00000280: d6db 07bc 269c d23c 1a37 8cbd 2946 3e3d
00000290: 5889 9fbd a8f4 b53c 4709 c03d a292 cc3d
000002a0: 2e84 a63d 0baf 5bbd 2c64 b93d 8ac6 96bd
000002b0: 1c6d dfbc 6145 d7ba c02e 983c 984e 993d
000002c0: f882 42bd 0cbd bd3d 2807 c1bc d824 373c
000002d0: 95e7 2a3d 0c04 66bc fcb8 87bd 7d4f b8bd
000002e0: 0062 653d 1392 ea3c 89ce b63d 9d60 17bd
000002f0: e2ee a93d edc1 783d 336d 91bc 6c18 d03d
00000300: 7ec1 653d 45c2 5bbd e245 c3bc 9c52 a7bd
00000310: e703 043c 2ac3 423d 9303 86bc 142a c8bd
00000320: 7237 75bb 093b 903c 65f9 2e3d f7d6 dbbb
00000330: bbc6 c4bd c3d3 b93d c89a 45bd 3b15 8a3d
00000340: c4d0 5fbc d608 8d3d 4078 963c 73c2 7d3c
00000350: b23a f43b ed0f bb3d fcf0 50bc 7113 b93d
00000360: a5d2 a93d e5ac 063d e00e 8abc ad9f 123d
00000370: a312 ad3d da43 1dbd 7cbf 1abc 4a53 af3b
00000380: c297 15bd 5810 b53b f7c7 823d 9001 32bd
00000390: 50c5 923b 18d8 ad3d de29 b2bc a37a 8c3b
000003a0: be84 823d 8336 243d d1b6 983d 8f2b af3d
000003b0: 3747 803c 2f3a 903d f8dc b0bd 72ab c0bc
000003c0: e552 9e3d cb6d 853d 919f b63c 0f25 4a3d
000003d0: 6513 b83d 6456 d03c eba7 d53c 7618 7a3c
000003e0: a98d 943d b5c7 dabb 6ae4 073d 5daf 8ebd
000003f0: 0216 a3bd 5dc6 8fbd ec28 28bd 283e 0bbc
-0.023690762 0.064487696 0.10354623 0.078787014 0.010668087 -0.06624064 -0.048642725 -0.07249229
-0.03309255 0.030474477 0.02244517 0.025675362 -0.08831991 0.04444816 -0.009841058 0.09135229
0.064792715 0.041287012 0.09564518 -0.0624705 0.046009243 0.047014218 -0.010991713 0.06099914
-0.017596044 -0.06739007 -0.07320889 -0.0751249 0.0054278527 0.0005537388 -0.023542944 0.044082087
0.027190479 0.10016081 0.022727689 -0.08624869 0.09948623 -0.07864309 -0.05087002 -0.014535318
-0.09668983 -0.06737322 0.06971924 0.014257982 -0.0524082 -0.093002565 -0.05000953 -0.09900996
0.05607019 0.037095 -0.02726302 0.034124944 0.061653797 -0.073142916 -0.06726368 -0.044155028
-0.012591149 -0.090727724 0.04380547 0.095275566 0.009341296 0.006823227 0.034389447 0.08190001
-0.008560673 0.027666802 -0.056595065 0.019766228 -0.028708335 -0.025041215 -0.08799991 -0.02715925
-0.038734555 0.038493417 0.09307425 -0.02493346 -0.031528022 0.04184671 -0.06750529 -0.05863764
-0.041351326 -0.047133777 -0.09123471 -0.030145157 0.060314514 0.0043845205 0.101990156 0.041512452
-0.056035016 -0.015062026 -0.04324062 -0.04103358 0.05658725 -0.024065115 -0.09665196 -0.086499594
-0.07669979 0.041598227 0.032133084 -0.002182294 -0.03314206 -0.008660463 0.08880436 0.03275204
-0.03371796 -0.03260174 0.06920369 0.06976152 0.033111304 0.048916988 -0.0780863 0.0718556
0.040636875 -0.06192665 0.0710356 0.061452124 0.006980848 0.04072764 0.07649585 0.073550224
0.088618465 -0.053916145 -0.062491883 -0.009115528 0.019426506 -0.0041801357 0.0434551 0.064573824
0.0900084 0.03862511 -0.021713872 -0.0050435658 -0.07786933 0.0899478 -0.058583412 0.08813024
0.093585044 0.09328412 -0.024702525 0.0511144 0.03531856 -0.0034851704 0.02507977 0.07348646
0.04664451 -0.07347726 0.0496302 0.07091891 -0.08680572 -0.055578433 -0.09175488 0.028583223
0.018142281 0.04011895 -0.08366444 -0.036195394 0.013470999 0.03438125 -0.08479047 -0.07779042
-0.008292159 0.025709223 -0.06846447 0.04645363 -0.07789868 0.022211388 0.093767695 0.099889055
0.0813068 -0.05363373 0.090523094 -0.07362087 -0.027273707 -0.0016423875 0.01857698 0.07485694
-0.047488183 0.092645735 -0.023562983 0.011178218 0.04172476 -0.014039051 -0.0662708 -0.08999536
0.056001663 0.028634107 0.08926112 -0.036957372 0.082975164 0.060731817 -0.017752266 0.10160908
0.05609273 -0.053652067 -0.023837034 -0.08170053 0.008057571 0.047549404 -0.016359126 -0.09773651
-0.0037417081 0.017606275 0.04271831 -0.0067089754 -0.09608217 0.090735935 -0.048243314 0.06742331
-0.013660613 0.06886451 0.018367887 0.015488255 0.007453286 0.09133897 -0.012752768 0.09036911
0.082921304 0.03287973 -0.016852796 0.03579681 0.0845082 -0.038394786 -0.0094450675 0.005350505
-0.03652168 0.00552563 0.063857965 -0.04345852 0.004479088 0.08488482 -0.02174848 0.0042870804
0.06372975 0.04009105 0.074567445 0.0855323 0.015658958 0.07042348 -0.086358964 -0.023519251
0.077306546 0.06515082 0.022292884 0.049351748 0.08988074 0.02543182 0.026081046 0.015264621
0.07253582 -0.006676639 0.033176817 -0.06967042 -0.07963182 -0.07020257 -0.04105465 -0.008498706

nodes.0.callable.fc1_x2.bias f4 [103]
00000000: beda c7bc ce1f b63d d5e8 adbb 1656 95bc
00000010: 0489 a13c 48fb c5bc de55 393d 1be0 94bd
00000020: cf24 14bd 8c1c 3a3d 0912 12bd d0c1 7cbc
00000030: b745 133d 1821 a53d b840 6c3c d33f ba3a
00000040: 810b b3bd 19a7 c0bc 25f4 483d 43ca 323c
00000050: 1fd6 503d a5f2 23bd 2944 0abd 1b58 47bd
00000060: 3714 043d b74f 20bd 4b78 e73c 3eee 8bbc
00000070: 81cd 993c 7db3 433d 526d f1bc 8030 53bd
00000080: fb3f 3bbc 5ddc 03bc 412c b13d 2e95 8fbd
00000090: 79a4 99bd d975 8f3d 02de 8ebd 3b97 d2bc
000000a0: a60f 783d 4136 4c3d 7b23 8bbc 11da b2bd
000000b0: 4164 acbd 5ff1 093c 5fa8 5f3c bec9 153d
000000c0: 760d 09bc e20b 25bd 9a77 1fbd 2625 06bc
000000d0: 202a 21bc 8c87 103d 1444 34bc 6372 06bc
000000e0: 20fd e03b e99a bb3a b692 b5bd 1e43 b93d
000000f0: 7363 82bd 0ee6 f8bc df0b ab3c 6cf4 53bd
00000100: 5fa8 073d 3d99 c83c 2fec f5bb 82d7 d7bc
00000110: 9142 8f3a 2ae3 1a3c a163 b03d 8e8b 9dbd
00000120: 18a1 443d d4f7 b8bd f8cf 24bd 84c8 353c
00000130: d83e 873d 0912 47bd 2871 b93d 62f7 0ebd
00000140: c906 bdbd 248f b33d efdb 8d3a 555e 2fbd
00000150: d08e 1c3d c097 b83d aa27 64bd 65f8 3a3d
00000160: 99da ac3c d27a b4bd de91 87bc 4b36 8c3d
00000170: fa87 073c 18bd c5bd 1173 b83d 76c8 2e3d
00000180: 025d 73bc d50e af3b ebf5 0d3a 6f89 0d3d
00000190: 82f4 653c a3e8 91bd 7f97 333d
-0.024396297 0.08892785 -0.0053072968 -0.018229526 0.019718654 -0.024167672 0.045247905 -0.07269307
-0.036167916 0.04543738 -0.03566173 -0.015427068 0.035955157 0.08062953 0.014419727 0.0014209695
-0.087424286 -0.023517178 0.04906096 0.010912481 0.05098545 -0.040026326 -0.03375641 -0.04866801
0.03224584 -0.039138522 0.028255602 -0.017081376 0.01877475 0.047778595 -0.029471073 -0.051559925
-0.011428828 -0.008048144 0.08651019 -0.07010876 -0.07502074 0.070048995 -0.069759384 -0.025706878
0.0605618 0.049856428 -0.016984692 -0.08732999 -0.084175594 0.008419364 0.013650983 0.03656935
-0.008365026 -0.040294535 -0.03893242 -0.008187568 -0.009836704 0.035285518 -0.011002559 -0.008205983
0.0068661124 0.0014313135 -0.088658735 0.09046005 -0.06366625 -0.030383136 0.020879684 -0.05174677
0.033119556 0.024487132 -0.007504962 -0.02634788 0.0010929873 0.009453574 0.08612753 -0.076926336
0.048005193 -0.090316445 -0.040237397 0.01109517 0.06603783 -0.048601184 0.09054786 -0.03490389
-0.0922981 0.08767536 0.0010822992 -0.04281457 0.038222134 0.09013319 -0.05570189 0.045647044
0.02110033 -0.088124886 -0.016549047 0.06846293 0.008272165 -0.096552074 0.09006322 0.042671643
-0.014853718 0.0053423443 0.0005415368 0.034554895 0.014035346 -0.0712445 0.04384565

nodes.0.callable.fc2_x2.weight f4 [103, 103]
00000000: ab82 a3bd c513 10bd 6655 a03d 7a97 11bc
00000010: 6f7a 2bbd ddbd 913d a38e 9c3d 3dd1 ba3d
00000020: cf88 1d3d 86a8 c23c 1958 0fbb 78b1 2e3d
00000030: 2297 c43d b0e5 52bd 67f4 edbb f31f b43c
00000040: d85d a6bd a867 87bd 55c2 1fbd 0b32 71bb
00000050: 6316 84bd 7a54 54bd 95e8 4fbd c0f8 f73b
00000060: fe16 69bd 1d91 18bd 254b 8fbd 9326 a73b
00000070: 9cde afbc 27b0 8abd 8b72 413d 6394 a63c
00000080: 9d7f b2bd afc9 6cbc 56d9 c9bd 41fc 203c
00000090: d8cb 25bd c19a 92bb f3fe 9f3d 934b 9c3d
000000a0: 4989 193d 78f7 543d f80b 453d c220 9c3a
000000b0: 2259 613d 300e c63d c5a0 55bd b383 f73a
000000c0: 9014 57bd fbec 7ebd e693 653c ec2e 493d
000000d0: df72 6b3d 9b4f 9c3d 5cd8 a2bd 680a d13c
000000e0: 8041 04bd 0872 a2bd d1e5 6bbd b148 4a3d
000000f0: e16c c8bc 9046 803d f984 78bd badc 80bc
00000100: 52a0 5f3d 06d2 833c d563 8fbd 836d ba3c
00000110: 850e 903d 1adf e4bc 374e 66bd d92c 1b3d
00000120: da7d 0b3c 33a7 85bc 49d6 a1bc 30e6 babc
00000130: fbf3 853c 73bd c2bd d0ec cb3d 1dfe 8e3d
00000140: 70a2 2b3d e2ae 943d f64e e8bc 25b3 a7bc
00000150: 2738 893d 396d 48bd 3688 09bd ee42 95bd
00000160: 9e84 553c 4b77 703d 5cfd 853d 15c0 bd3d
00000170: 1b15 18bd fd3d 6dbd 1a22 88bd b2ac 56bc
00000180: b09d 8bbd af55 39bd ce71 25bd d37b 1e3c
00000190: 9759 9c3d 8c04 6abd f795 533d 0b30 ca3c
000001a0: e594 19bd 9693 603d 89ea e5bc 54e6 a4bd
000001b0: be39 2abd 8ea0 eebc 4d68 bfbc 0ae9 bdbd
000001c0: fd4c 12bd 9256 c8bd d60e 7bbc 49bd 263d
000001d0: a895 943d 1ee0 ecbc 528a 873b 6efd 94bd
000001e0: 759e 993d ed76 97bd f56b 543d cab7 4cbd
000001f0: 2214 813d 8bc3 b53c 248b cb3c 5bd7 01bc
00000200: 002e bc3d 6b95 e8bb 5fb1 73bd 79a7 4abc
00000210: cdd2 be3d 32b0 833c e43e 863d cfe2 853d
00000220: 39df 3a3d e5a0 373d 1aab 873d 3911 6a3d
00000230: 6bf1 12bd b31b 88bd 7dff 91bd bddd 893d
00000240: 57b9 a5bd 76d1 8c3d b4c6 edbc 5b0c 933d
00000250: 9376 b13d c3b8 48bd e844 2cbc 981e 993d
00000260: d609 c1bd e33d 7bbd 026b 1a3d 5285 aebd
00000270: dcc7 c03c 600d 23bc 5286 c43d d3b3 1bbc
00000280: b431 a4bd b140 aabc 6865 a23d 87ab c0bd
00000290: 3126 3fbd 9e1e 933d 145f 9fbb 4757 6e3d
000002a0: 1588 c0bd 05d5 203d 9f9e 5dbd f63f 58bd
000002b0: 8a95 e23c ab21 4abd 0152 bbbd 5ce8 a53d
000002c0: 1d81 323c 4a93 9cbd de6f 593d f815 b7bd
000002d0: 5292 b8bd 1091 adbc 8bc3 f6bb 842f 0f3d
000002e0: 72d9 103d 43ec a2bd a232 a33d 893c 9d3c
000002f0: 22c0 66bc 286a d1bc 056b 023c de6e 883d
00000300: fabe bbbb 9066 9c3d aa06 c13d 89dc 91bd
00000310: 6665 843d e570 b9bd ef8a 5ebd 5659 7c3d
00000320: c42d f03c 7fd4 70bd 435b a33d c465 8a3d
00000330: ed15 c7bd 468a bdbd db98 d03b 4130 bd3d
00000340: b946 893d 87e0 26bd 94b0 edbc 3cf6 9e3d
00000350: ded4 80bd d507 ad3d 611c c7bd fbc6 923c
00000360: 0026 2bbd f4e9 8a3d 93f0 b2bd 75dc 9e3d
00000370: a49b cf3d 7252 a13d a45d 523d ce1a c2bb
00000380: 2e08 563d 924f ac3d 8a59 96bd 3799 95bd
00000390: bc55 ba3d a08e 8bbd 9aea d8bc 7c38 72bd
000003a0: 4e16 033d 2ba1 a7bd 7228 c1bd d416 1a3d
000003b0: 487c cf3b 837f 31bd a2ad 0b3b 44e3 cf3d
000003c0: 569b adbd 96ea 89bb c8b9 543c 1a54 f2bc
000003d0: 2e05 51bd 4ca0 88bd 0c9f 3abd 48c8 6fbd
000003e0: 55f1 4ebc fded ca3c 568c bc3d 648a 3fbd
000003f0: f514 b2bd 987a b5bd b702 ca3d 34d7 68bc
-0.07983907 -0.035175104 0.078287885 -0.0088862125 -0.04186481 0.07116292 0.07644393 0.0912194
0.03846055 0.023761999 -0.0021872579 0.042649716 0.09599139 -0.05148858 -0.007261801 0.02198789
-0.08123368 -0.06611568 -0.03900369 -0.003680351 -0.064495824 -0.051838376 -0.050758917 0.007567495
-0.056906693 -0.037247766 -0.069967546 0.005101034 -0.021468453 -0.0677188 0.047228377 0.020334428
-0.087157466 -0.014452382 -0.09855907 0.009825767 -0.040477604 -0.0044740145 0.078122996 0.07631602
0.03748444 0.051993817 0.048107117 0.0011911618 0.055016644 0.09670675 -0.052155275 0.0018883854
-0.052509844 -0.06223772 0.0140123125 0.049117014 0.057482596 0.07632371 -0.079514235 0.025517657
-0.03228903 -0.07931906 -0.057592217 0.04938573 -0.02446598 0.06263459 -0.060673688 -0.01573025
0.054596253 0.016091358 -0.07001463 0.022757297 0.070340194 -0.027938414 -0.056226935 0.037884567
0.008513892 -0.016315078 -0.0197555 -0.02281484 0.01635169 -0.09508791 0.09957278 0.06982062
0.04190296 0.07259919 -0.028357964 -0.020471165 0.06700163 -0.048932288 -0.033577166 -0.072881564
0.013032107 0.058707517 0.06542465 0.09265152 -0.037129503 -0.057920445 -0.06647129 -0.013102697
-0.06817186 -0.04524773 -0.040391736 0.009673077 0.076342754 -0.057133242 0.05165669 0.024681112
-0.037495513 0.05482825 -0.028065937 -0.08051744 -0.041558973 -0.029129293 -0.023365164 -0.09272964
-0.035717953 -0.09782137 -0.015323361 0.04070786 0.07255107 -0.028915461 0.004136362 -0.072749004
0.075009264 -0.0739573 0.05186077 -0.049979962 0.06302668 0.022187969 0.02484662 -0.00792488
0.09188461 -0.00709789 -0.059495326 -0.01236903 0.09317551 0.016075227 0.06554964 0.06537401
0.045623038 0.044831175 0.06624432 0.05714533 -0.035874765 -0.06645908 -0.07128809 0.06731746
-0.080919914 0.06875889 -0.029025413 0.07180091 0.08665194 -0.049004328 -0.010514475 0.074765384
-0.09425704 -0.061338317 0.037699707 -0.085215226 0.0235328 -0.009951919 0.09595932 -0.009503323
-0.080172926 -0.0207828 0.07929498 -0.09407716 -0.04666728 0.07183574 -0.004863629 0.058188703
-0.094009556 0.03926565 -0.05410635 -0.052795373 0.027659196 -0.049348515 -0.091465004 0.0810096
0.010895041 -0.07645281 0.0530852 -0.08939737 -0.090122834 -0.021187335 -0.0075306348 0.034957424
0.035363622 -0.079552196 0.07968642 0.019193904 -0.014083894 -0.025563315 0.007960086 0.06661771
-0.0057295533 0.0763675 0.09425099 -0.07122142 0.06464653 -0.09054736 -0.054331716 0.061608635
0.029318698 -0.058796402 0.07976391 0.067576915 -0.09720979 -0.09254889 0.006365878 0.09237719
0.067029424 -0.04074147 -0.029014863 0.07761809 -0.06290601 0.084487595 -0.0972221 0.017917147
-0.041784286 0.06782904 -0.08737292 0.077568926 0.10137108 0.07877053 0.051358834 -0.0059236055
0.052253895 0.08413614 -0.07341297 -0.07304614 0.09098384 -0.06814313 -0.026479054 -0.0591359
0.032003693 -0.08185037 -0.094315425 0.037619427 0.006331954 -0.043334495 0.002131321 0.10150769
-0.084768936 -0.004208873 0.012983747 -0.029581118 -0.05103033 -0.06671199 -0.045561835 -0.058540612
-0.01263078 0.024771685 0.092064545 -0.04676284 -0.086954035 -0.088612735 0.09863799 -0.014211465

nodes.0.callable.fc2_x2.bias f4 [103]
00000000: b1ea ca3d 255d 6e3d 8251 863d 8f4e 353d
00000010: 95ad 22bd 300a 96bd 79b6 84bc 86c2 8ebd
00000020: e866 c73a 2540 9a3c 1d42 913d 2971 b83d
00000030: e2aa 433d 7d58 3cbd 7b9e 15bc f7ac 89bd
00000040: 6f5c d9bc d74d 15bd 5d20 c43d a418 6e3d
00000050: 5c45 953d 5814 bcbd c9bb 403a 65dd b5bd
00000060: 73a8 423d 492d 813d c32f 9c3d 7202 d43c
00000070: b1c1 4f3d d7d8 9d3d 2c58 4c3d 4a37 963d
00000080: cad9 a7bc 1f92 ac3d ac30 093d a0bc 9f3d
00000090: 252d 2abb 93d8 8c3c bae8 c2bc 625f c73d
000000a0: 5b63 9c3d 26fc 0cbd 1481 a6bd b28e 29bd
000000b0: 77a3 723d 9df4 833d e92d 4f3c 43d5 04bc
000000c0: 2ef7 40bb aee6 95bd bfe4 93bd 3f0b 2c3d
000000d0: afb9 f9bc 02be 9dbd 78b9 ebbc 16f4 c7bd
000000e0: 6743 813c 7af1 e2bc 699e 31bd 4e17 bc3d
000000f0: b8d3 03bc 9ec4 4f3c 9dae b83d 4dec 6ebd
00000100: fcab 53bd 7369 54bd 3777 11bd abed cfbb
00000110: 06c2 86bd 8f8b 18bd b24d a2bd eee5 9cbc
00000120: cf9f 9d3c 5fab 9a3d ea95 e3bc 3645 923c
00000130: d150 b8bd 4d47 f1b9 1da1 89bd c185 5c3b
00000140: 093b 433d d3db a2bb ee0c 67bb 6502 603d
00000150: 90f4 63bc 9856 afbd 4c46 9cbd c9b0 c0bc
00000160: 48b6 97bd 0238 b7bc bf6a 9b3c 4ecf 4c3d
00000170: 2a15 063d 6745 c2bd 0cd7 b33d 0b3e 09bc
00000180: 1cdb bebd 140f fe3c 7db4 873d 3278 1f3d
00000190: 2932 9fbd b46d febc 84fb babd
0.09908045 0.0581943 0.06558515 0.044264372 -0.039716322 -0.07326162 -0.016200291 -0.06970696
0.0015213164 0.018829415 0.07092688 0.090059586 0.04777039 -0.045982827 -0.009132023 -0.067224436
-0.026533334 -0.036451187 0.09576485 0.058128968 0.0728862 -0.09183568 0.0007352201 -0.08880118
0.047523927 0.063074656 0.07626297 0.025880072 0.050721828 0.077073745 0.049888775 0.07334764
-0.020489592 0.08426308 0.033493683 0.07799649 -0.002596685 0.017193114 -0.023792613 0.0973499
0.07636138 -0.034420155 -0.081300884 -0.04139585 0.059237923 0.06443141 0.012645223 -0.008107486
-0.0029444206 -0.07319389 -0.07221364 0.042002913 -0.030484049 -0.07702257 -0.028774962 -0.097633526
0.01577921 -0.027703036 -0.043363962 0.091841325 -0.008046083 0.0126811545 0.0901768 -0.058330823
-0.05167769 -0.051858377 -0.035514083 -0.006345471 -0.06579976 -0.03724247 -0.079249755 -0.019152608
0.019241242 0.07552218 -0.027781446 0.017855268 -0.089997895 -0.00046020225 -0.06720183 0.003364906
0.047663722 -0.0049700527 -0.003525551 0.054689784 -0.013913289 -0.08561438 -0.076305956 -0.023521798
-0.07407814 -0.022365574 0.018971799 0.05000239 0.032735027 -0.09485894 0.08781251 -0.008376609
-0.093191355 0.03101305 0.06626222 0.038932987 -0.07773239 -0.03105817 -0.09130004
