5min_model/authdata_nsteps_20/log_threshold_N20/best_model_state_dict.pth (torch, 347650 bytes, 26 tensors)

nodes.0.nodes.0.callable.fc_input.weight f4 [95, 42]
00000000: 356d 203e 0063 d9bd 558a c7bc 00a4 27be
00000010: 2b9a d73d d90e 8f3d bb8e d63d 903e 343d
00000020: efbb 8539 c5e9 083d bc95 a63d 484f 0abd
00000030: 557b 453d 59cb bbbc 51ae b53c 9bd2 d6bd
00000040: 782a ec3d 9ad2 49be f3a6 743d 7b45 17be
00000050: 5b33 07bd 1c95 c2bc fc15 3cbc 426f 28bd
00000060: 3169 62bd 46c8 573d 836a 913c 6b62 823e
00000070: d3b2 2f3d 297f 8c3d da22 b1bd ffda 89bb
00000080: 187a 763d f88e 9cbc 7618 1abd a2c5 f63c
00000090: b67e bd3c 66c6 1dbd 76b4 86bd 1185 f4bc
000000a0: 6c7b b03c bbf7 673d be5d 933e 2ab1 b8bb
000000b0: 532e c0bd 1fbc 063e 84d7 263d 7e56 c93d
000000c0: 677b cabd 8d33 04be bfbb e33d 18da 0cbd
000000d0: 24f8 a03d c2dc e33d 3814 0d3d bbc5 03be
000000e0: b9e6 ecbd dd19 423d 51a4 8a3c 93c8 cd3d
000000f0: 87cc 3d3d 3bef 633d aa24 dc3c a473 1cbe
00000100: ba4b bfbd 32e5 53bd a402 ca3d 5444 6c3c
00000110: 4c62 5ebd f809 de3d ed1d 543d fec3 25bc
00000120: c189 9ebd 73be 59bd 5cad 2ebd bd35 50bd
00000130: 0420 aa3c 85a5 ebbc 5993 12bc 8505 0c3e
00000140: 7faf 66bb 396f c4bd 130d 82bd dfa2 1c3d
00000150: 73a2 3f3d a7b4 97be 3714 c0bc 156a 3b3d
00000160: 1e92 8cbc fd34 a0bc d9ea d43c 22c4 813d
00000170: a123 1dbd a341 1abd 146e 8cbc c963 933d
00000180: b453 f43c 2691 30bc 0515 263d 8a7d 213d
00000190: cd7b 463a f7d8 66bd 8854 3dbc a956 063d
000001a0: 812a 5dbb 01cd 1d3d 6857 88ba a24f a73d
000001b0: da25 a03c 9732 ddbd 8830 b8bc 905d 723a
000001c0: 803c 943c 7d9e c3bc 5f03 05bd 5987 5fbd
000001d0: f921 063d bced 1d3e 0116 3ebd 57ac 9cbd
000001e0: 8847 03bc 843e d43c f543 15bd 8538 b1bc
000001f0: 0a96 05bb 642f ed3c b2dc 60bd db6f 5dbe
00000200: a64f b93b 85b0 82bd 1868 b3bc de3a f23d
00000210: 8ecc d23b d8f7 d03d 38a6 08bd 7bfe bbbd
00000220: 1630 d53b 393f 763c 642f df3c 32a7 2cbd
00000230: 07a7 9f3d 0cd1 253d cfee 7abc 034b 933d
00000240: 8d36 abbc 602b f7bd a0c9 acbc 050a f13d
00000250: 9ff8 393d 6faa 09bd 5ce8 fcbc b2a5 503d
00000260: 6579 38bc e7ba 24bd 9547 2dbd 2f5c 16bd
00000270: 29f6 a43c d9d8 d9bb 5012 323c 57a4 113b
00000280: 4549 c03c 9ceb 823d 436d 97bc 4d7f 69bd
00000290: 6c25 95ba 06af 073d 4b14 b43a 8937 0bbb
000002a0: f1b8 fcbd 5184 e03d fa8d 8c3d fe48 05bd
000002b0: 4367 803d d729 8b3d b597 963d faeb 35bd
000002c0: 36eb 61bd b26a 3b3e 73a4 923d dba0 233d
000002d0: 3edd 46bd f930 6f3d ccba e9bb 950b db3c
000002e0: 28e8 d03d 58c5 74bb f92a 84bc 054d 903d
000002f0: 9b22 4d3d cf6f 0f3d cd62 20bb 7452 8c3c
00000300: 89d6 fc38 5b65 113e 769d 3cbd ca97 393d
00000310: 76d6 6a3d 2c66 93bc 5b3f c93c 3b47 3abc
00000320: 62ae 003d 17df 913c 0d9f 9c3d 6049 b1bd
00000330: b3da 153d 8b16 113e 8e49 f9bc 2bb5 8e3c
00000340: cd59 813d 2703 343d 986c bc3d 9c8f b53c
00000350: 7226 27bc 67aa 963d c8c0 9b3d 0b29 1cbe
00000360: dae4 c53a 5488 0e3d 372c a6bc 07f5 f73d
00000370: 46a3 b1bb 4fc0 d4bd 30b7 68bd d066 fa3c
00000380: 1917 33bc 80b5 fb3c 44a7 9bbc 5cdc 673d
00000390: afef 173d 500a 14be d647 88bd 17a9 343d
000003a0: e953 b8bd 91d5 29bd b1b7 a43d 79c9 9a3d
000003b0: ab99 583d 3543 cabd 13e9 acbb 3055 edbc
000003c0: fb5f 00bd 896b ac3c 2048 ec3c 095d 8abc
000003d0: 3134 9dbc d43e 99bd 3874 853c 33e6 12bd
000003e0: 72d2 dcbb 5e8e 7cbd 099d d9bd da08 fb3c
000003f0: bf67 16be e183 133d 9b91 faba aaa7 e13c
0.15666659 -0.10614586 -0.024357954 -0.16371155 0.10527452 0.06985254 0.104764424 0.044004977
0.00025507758 0.033426065 0.08134028 -0.033767015 0.04821332 -0.022924112 0.022177847 -0.104893886
0.11531538 -0.19709244 0.059729528 -0.14772598 -0.03300796 -0.023752742 -0.011479851 -0.04112173
-0.0552761 0.05268123 0.017750984 0.25465712 0.04289515 0.068601914 -0.086492255 -0.0042070146
0.06017503 -0.019111142 -0.037620984 0.030123536 0.02313171 -0.038519286 -0.06577389 -0.029848607
0.021543227 0.05663274 0.28782457 -0.005636354 -0.09383836 0.131577 0.040732875 0.0983095
-0.098868184 -0.1291029 0.11119794 -0.034387678 0.07859829 0.111260906 0.03444311 -0.12868397
-0.11567444 0.047387946 0.016924055 0.10048022 0.04633763 0.05564807 0.026872952 -0.15278488
-0.093406156 -0.05173225 0.09863785 0.014420588 -0.054292962 0.10841745 0.051786352 -0.010117529
-0.07741118 -0.053160142 -0.042645797 -0.0508325 0.02076722 -0.02876545 -0.008946263 0.1367398
-0.0035199819 -0.095915265 -0.0635015 0.038241263 0.046785783 -0.29630014 -0.02344714 0.045755465
-0.017159518 -0.019556517 0.02599089 0.063362375 -0.038364056 -0.037660252 -0.017142333 0.07196767
0.029825069 -0.010776794 0.04054739 0.039426364 0.00075715483 -0.056359258 -0.011555798 0.03279749
-0.0033747258 0.038525585 -0.0010402026 0.08169486 0.019549299 -0.10800665 -0.022484079 0.0009245509
0.018095255 -0.023879284 -0.032473918 -0.054572437 0.032747243 0.1542272 -0.046407703 -0.07650059
-0.00801266 0.025908716 -0.036441762 -0.021633396 -0.002038362 0.028953262 -0.05489797 -0.216247
0.005655247 -0.06381325 -0.021900222 0.11827634 0.006433076 0.102035224 -0.033361644 -0.09179398
0.0065059764 0.015029722 0.027244277 -0.042151637 0.0779553 0.040482566 -0.0153157255 0.07192042
-0.020900035 -0.1206882 -0.021092236 0.11769489 0.04540312 -0.033609804 -0.030872516 0.05093927
-0.011259411 -0.040217306 -0.042304594 -0.036709007 0.02013691 -0.0066481647 0.010868624 0.0022223198
0.023472438 0.06392595 -0.018484717 -0.05700617 -0.001137895 0.0331259 0.0013738958 -0.0021242818
-0.12339962 0.10962737 0.068630174 -0.032540314 0.062696956 0.0679509 0.073531546 -0.044414498
-0.055155955 0.1830242 0.071602724 0.039948326 -0.048550837 0.058396313 -0.0071328636 0.026738921
0.1020053 -0.0037349071 -0.016133772 0.0704594 0.05008183 0.03501874 -0.0024472952 0.01712916
0.00012056257 0.1419882 -0.046048604 0.045310773 0.057333432 -0.017993055 0.024566343 -0.011369522
0.031416304 0.017806573 0.07647524 -0.08656573 0.03658552 0.14168756 -0.030430581 0.017420372
0.06315956 0.04394832 0.092004 0.022163205 -0.010202037 0.073567204 0.076051295 -0.15250032
0.001509811 0.03479798 -0.020284755 0.12107282 -0.005421075 -0.103882425 -0.056815326 0.030566603
-0.0109308 0.030726194 -0.019000657 0.056606635 0.037093814 -0.14457059 -0.066543266 0.04410657
-0.090003796 -0.04146344 0.08042849 0.07557959 0.052880924 -0.098761 -0.005276808 -0.028971285
-0.031341534 0.02104737 0.028842986 -0.016890066 -0.019189926 -0.07482687 0.016290769 -0.035864066
-0.006738954 -0.06165921 -0.10625655 0.03064387 -0.14688013 0.03601444 -0.001911688 0.027545769

nodes.0.nodes.0.callable.fc_input.bias f4 [95]
00000000: 8aa6 81be e8d2 2b3e 365f 453d 6f02 093e
00000010: fe11 34be d8e9 0c3c 412c 45be 6d85 cebd
00000020: fae4 f93d 26d3 9bbe 5ba7 053e f342 debd
00000030: 044a 493e 3bcb 47bd 5020 c63d ca7c e7bd
00000040: 7eba d6bd e39c 253e f6d4 373e dd7d 573e
00000050: 2e24 bdbd 04a7 17be 22e9 a73d 22a3 0cbe
00000060: 62d7 78bd dddd d83d eb60 66be 029c 6d3d
00000070: faaf 013e 61c3 3c3e 02ec 30be 0ad5 173e
00000080: ce29 5a3e 8df0 b53d 606a 503e 4b62 30be
00000090: b2d4 893d 8bb0 1e3e 35a1 81be 6538 053d
000000a0: 4e40 883e d731 1b3d 4f78 20be cff9 103e
000000b0: 55c9 6f3e 50a6 a5be 126c 213d 1eb8 113e
000000c0: 6146 44be a783 343e ef10 023e 4ae3 763c
000000d0: cb8b 1cbe 185b bd3d 8ed2 22be 787f 8d3d
000000e0: 1aa2 62bd 3317 fe3d 40e2 83bd 15f2 823d
000000f0: 4c74 a8be f63b f13d b148 a3bd cc54 e0bc
00000100: 6565 3fbd 059c ae3d 8b2e 763e 4ca6 4d3c
00000110: 383b 753e 5e6f 9dbe 6eb8 dd3d 0936 123e
00000120: d7d7 5abe b2cd 733d 4278 01bd 4337 1dbd
00000130: 5372 153e abc7 6abe 82d0 5dbe ca32 0f38
00000140: acab 0dbe bdaa e5bd 6a78 613b df65 4e3e
00000150: 6c21 b13d c4ad a73d d11e 623d 6fc2 d3bd
00000160: 0466 03be c4e4 993c 39f0 153e f368 833e
00000170: 041b a63d 1f7a 41be b63f 78be
-0.25322372 0.16779673 0.048186503 0.13379835 -0.17584988 0.008600675 -0.19255163 -0.10084043
0.12201877 -0.3043453 0.13052122 -0.10852613 0.19657141 -0.0487778 0.09674132 -0.113030985
-0.10484789 0.16173129 0.17952332 0.21044107 -0.09235416 -0.14809805 0.081987634 -0.13734105
-0.06075228 0.10589192 -0.22497909 0.05801011 0.12664786 0.18433906 -0.1727753 0.14827362
0.2130501 0.08883772 0.20353079 -0.17224996 0.067300215 0.15497033 -0.25318304 0.032524485
0.2661156 0.037889328 -0.15670894 0.14157794 0.23416646 -0.3235345 0.039409705 0.14230391
-0.19167472 0.17628346 0.12701772 0.015068838 -0.15287702 0.092458904 -0.15900633 0.06909078
-0.055330373 0.12406769 -0.06439638 0.0639383 -0.32901227 0.11779015 -0.07972849 -0.027384184
-0.046727557 0.08525852 0.24041192 0.012551855 0.23948371 -0.3074903 0.10826193 0.14278425
-0.21371399 0.05952234 -0.031608827 -0.03838278 0.14594392 -0.2292773 -0.2166157 3.4141158e-05
-0.13835019 -0.11214206 0.0034404048 0.20156048 0.08648953 0.0818744 0.05520517 -0.1033982
-0.12831885 0.018785842 0.14642419 0.25666007 0.081106216 -0.18894242 -0.24243054

nodes.0.nodes.0.callable.fc1_x1.weight f4 [95, 95]
00000000: fd8c 9cbd 1a53 dfbc 531e 723c dcad 19be
00000010: c27f a8bb 7115 14bd 5c80 36bc 5a9a 08bd
00000020: b5c3 3f3d 32b0 d33d 6057 c9bc 015e a33c
00000030: 8381 9ebd 70dd ebba e590 9ebd 7fcd eb3c
00000040: 0911 983d c132 9c3c 0846 5abb e650 c73d
00000050: ef51 d63d 6cad 1bbd 357d 383d 7cc9 3abd
00000060: ce48 2fbd 3aaf 343c f337 12be ff2c d3bc
00000070: 852a 883d 8149 d43d 2e41 493d e45a b43d
00000080: b685 e03c bf1f 953d 3801 773d 9370 0c3d
00000090: bd29 94bd 91c2 85bb 8633 143d 2871 423d
000000a0: 4cc4 85bd c48b 46bc 244f 7bb9 7b97 25bd
000000b0: 92e0 cb3d 3037 91bd 98cd 3bbd f002 1b3d
000000c0: 77b6 c6bd 83d6 98bc de49 b83d cfde 04bd
000000d0: a8d9 93bd ec45 bfbd 37ee 40bd 5b90 0fbc
000000e0: 5742 2f3d 0270 483d 191d 44bd 524a abbd
000000f0: 0de5 9fbd 6f66 48bd ffb6 c7bd c92c 3cbd
00000100: 9ddf 2a3c 1179 803d 53c5 4e3d 52f6 2c3d
00000110: 89c6 ad3b 1193 593d fb7a a8bd 66ae 7b3d
00000120: 9f4e 08be 32db 12bd d695 4abd 55a2 2fba
00000130: 2777 bdbd c57c ab3c c802 6cbb aaf0 813d
00000140: c1e1 39bd 18c7 4f3d 13a6 a2bd ac59 71bd
00000150: 43a8 24bd a43c bfbd 34fb 83bd ae79 433d
00000160: 2f24 fbbb 2c0c e5bd 5942 d9bc 296d 77bb
00000170: 7917 73bc 58c2 103d d2f0 693a 1e79 0f3c
00000180: cfb4 84bc 57b7 7fbc 0360 783d 2b11 5d3c
00000190: c95d 9c3c a1cc b03d 2af4 8bbd 5b9f 8bbb
000001a0: 8f20 84bd 7382 193c d0a0 84bc e43c 573d
000001b0: 6a27 9cbd 96ae 923d 3008 9f3c 6277 b4bc
000001c0: a173 863c d259 993d 736c df3d 1ff0 943d
000001d0: fb21 073d bd9a d83d c32f 22bd 0def 35bd
000001e0: 94e1 c33d 40d8 963c 6d24 cabc b914 d4bd
000001f0: f84f d5bd 21eb b9bc bfbc 7dbd 87b5 d33d
00000200: d8c8 3d3d aad5 e53d dbc3 76bd d372 75bd
00000210: cbd2 953d 31fe 9abd 28db af3d 567d 053d
00000220: 4dfd dbbc bab4 3d3d e787 70bb c1be d23c
00000230: bb77 02bc eed0 b5bd be55 b93d 3473 c0bc
00000240: 5367 bcbd 0bde 64bc 7da6 89bd 6e89 983d
00000250: 50f3 65bd dac8 d9bc e5c0 35bb 940b 64bd
00000260: 5ab6 1abe 29b0 a5bd 85ec 80bd 6031 3d3c
00000270: f308 88bd b946 ff3c b8c6 a73d 1ac8 1bbd
00000280: 259c b43b c8c3 113d 2d0f a83d 859d 053c
00000290: e57f 64bc e699 493c 02cb cf39 5d93 00be
000002a0: 36d8 a53c a8e3 8f3d 5098 2a3e 4df5 d03d
000002b0: 1060 0a3d c085 c53b 724c 40bd aa32 9fbd
000002c0: dee1 38bd 8705 bf3d a813 993d 9410 d33d
000002d0: 4378 c6bd 77b1 eabc 77bd 183d 427c bdbd
000002e0: 5c20 50bd 084c 5cbc bec3 ea3d c80e e73d
000002f0: ee73 b7bd 4678 0b3d ed47 733c adfc a63d
00000300: 40d7 87bc 7659 d53d b4d3 113d c893 a13d
00000310: f779 6a3c 839c 59bd 227b 253d e563 913c
00000320: 7f02 e83d 3e9f dc39 2297 8f3b 1b51 3a3d
00000330: 7e6e 983c 07e3 8dbc a2c0 ffbd 9925 5ebc
00000340: b30c 4fbd 8c27 e4bd bc7c 10bd 07e6 633c
00000350: 11ae 093c ed46 27bc a914 693d eef7 383d
00000360: c734 033e 5667 eb3b 53be cbbd 9cf8 58bd
00000370: ead8 bfbc 124c b2bd 10e6 17bd 2f0d 583d
00000380: 057c 82bd ac97 12bd 7ae8 483d a917 ba3d
00000390: 764f 9f3d b96d 353c b643 48bd c800 04be
000003a0: 1d4b 103d 8993 8b3d 76eb 343d 3f38 bfbd
000003b0: ba77 06bd a550 093d 8edd 273d 1cf9 d0bd
000003c0: 1af4 f3bc 6d18 82bc 3c77 003d 47f8 803c
000003d0: 1e01 fabb 451b f8bd a01a f63b a4bb d4bd
000003e0: 0999 0abd b07f 58bc d41d d5bc e099 b43b
000003f0: 4b62 93bd 2f64 71bd 88ef e4bc 0039 783d
-0.07644079 -0.027261306 0.014777738 -0.15007728 -0.005142183 -0.03615326 -0.011139002 -0.033350326
0.0468175 0.10336341 -0.024577796 0.019942285 -0.07739546 -0.0017995071 -0.0774248 0.028784512
0.07425124 0.01906717 -0.0033305902 0.09732227 0.10464846 -0.038007185 0.04504128 -0.045602307
-0.04279404 0.011028105 -0.14279155 -0.025778292 0.06648735 0.10365582 0.049134426 0.088063985
0.027407508 0.07281446 0.060303897 0.034287047 -0.072345234 -0.004082032 0.03618195 0.047471195
-0.06531581 -0.012118284 -0.00023966708 -0.040427666 0.09954943 -0.07090604 -0.045850366 0.0378446
-0.09702771 -0.018656975 0.08998464 -0.03243905 -0.07219249 -0.093395084 -0.04710218 -0.008762444
0.042787876 0.048934944 -0.047879312 -0.08363785 -0.0780736 -0.048925813 -0.097517006 -0.045941148
0.01042929 0.062730916 0.05048115 0.042227097 0.0053032083 0.05311877 -0.08226582 0.061445616
-0.13311242 -0.035853572 -0.0494593 -0.00066999096 -0.09251242 0.020933518 -0.00360124 0.06344731
-0.04538131 0.05072698 -0.079418324 -0.05892341 -0.04019953 -0.09337738 -0.064443976 0.047723465
-0.0076642255 -0.11183962 -0.026520895 -0.0037754274 -0.014837139 0.03534159 0.00089241297 0.008756904
-0.016199498 -0.0156076765 0.06063844 0.013492863 0.019087689 0.0863278 -0.0683368 -0.00426094
-0.064515226 0.00936948 -0.016189963 0.052548304 -0.07624705 0.07162206 0.019413084 -0.022029582
0.016412558 0.07487835 0.10909357 0.07272362 0.03299139 0.10576389 -0.03959633 -0.04441743
0.0956451 0.018413663 -0.024675572 -0.10355515 -0.104156435 -0.022695126 -0.06194758 0.10337358
0.046334118 0.11222394 -0.060245376 -0.059923958 0.07315596 -0.075680144 0.085867226 0.032590233
-0.026854182 0.046314932 -0.0036702098 0.025725724 -0.007963116 -0.08877741 0.09049557 -0.023492433
-0.09199395 -0.013968955 -0.06721208 0.07448088 -0.056140244 -0.026585031 -0.0027733382 -0.055675104
-0.15108624 -0.080902405 -0.062951125 0.011547416 -0.06642332 0.031161653 0.081921995 -0.03803263
0.005511778 0.035587102 0.082060196 0.008155231 -0.013946508 0.012304759 0.0003963337 -0.12556215
0.020244699 0.07025844 0.16659665 0.102030374 0.03378302 0.006027907 -0.046947904 -0.07773335
-0.04513728 0.09327226 0.07474452 0.103058964 -0.09690907 -0.028649075 0.037290063 -0.09252216
-0.05081211 -0.013445862 0.11463116 0.11282116 -0.08957659 0.03405025 0.014848691 0.08153663
-0.016582131 0.10417454 0.035602286 0.07889515 0.014311305 -0.053127777 0.04040063 0.017747829
0.11328601 0.00042080315 0.00438203 0.045487504 0.018607374 -0.01732017 -0.12487914 -0.013558769
-0.05054922 -0.111403555 -0.035275206 0.013909823 0.008403317 -0.010209781 0.05690447 0.04515832
0.12813102 0.0071839495 -0.09948411 -0.052971467 -0.023418862 -0.087059155 -0.03708464 0.052746948
-0.06371311 -0.035789177 0.049049832 0.09086544 0.07778828 0.011073523 -0.0488927 -0.12890923
0.035227884 0.068152495 0.044169866 -0.093369 -0.032829024 0.033524174 0.040982775 -0.10203764
-0.029779483 -0.015880788 0.03136371 0.015743388 -0.0076295277 -0.12114576 0.007510498 -0.10387352
-0.033837352 -0.013214037 -0.0260152 0.0055115074 -0.07196482 -0.058933433 -0.027946249 0.060601234

nodes.0.nodes.0.callable.fc1_x1.bias f4 [95]
00000000: ba4c b33d 24c7 393d d31d 973c 9b5d 8abd
00000010: 5a7d e8bd 8d06 7bbd 4a51 6d3d d83e ac3c
00000020: 62d3 f9bc f732 edbd bd9b 493d b6ac 8abd
00000030: ab1f 5b3b 0d29 a9bd 9652 b03c d2ae ac3d
00000040: b98a c7bd 1225 6c3c 83c4 463d 366e 433a
00000050: 2be3 933d cf27 9a3d a642 a03d 1364 9bbd
00000060: e737 8dbd aa4c 82bd 91c6 933d 99b1 0a3d
00000070: 341e adbd 97e6 d93c 8cfc 5a3d 3d6a ae3d
00000080: 20b0 873b 2969 95bd bb2f b4bd a2e4 9b3c
00000090: 6ec7 5dbd 47c0 973b b492 babd 95cc 8ebd
000000a0: a2a0 8abd 17b9 c33d 9914 a4bd cbe3 c9bc
000000b0: 32e6 c83c 1f60 88bd 30fa a6bd 7b69 57bd
000000c0: 53b6 463d cb38 49bd 503e 953d 969d 833d
000000d0: b131 fabc f197 3dbd 95e3 833d 2800 89bd
000000e0: 3518 5d3d f068 7f3d efc0 66bd fa72 00bd
000000f0: efb8 093d cd8b 61bd ee8c 143d b261 dbbd
00000100: 1f90 f4bd a8bf 433d 1d2b 7dbd 0afa ab3d
00000110: 81f3 65bd 1ce1 b0bd de99 d63c c96d 0ebd
00000120: c738 1b3d 6f55 db3d b167 303d 61dc bcbd
00000130: 37f2 57bd 6e23 b93d 303f 383d 211c b4bd
00000140: 79f6 873d 6531 0cbd 30f3 f53b aa4d 433d
00000150: 74b7 5c3d 3452 2cbc 2e88 1abd e274 093d
00000160: e778 8cbd b06e 05bd fda4 6d3d c147 c93d
00000170: 8447 593d 081c 02bd 38df 7b3b
0.08754869 0.04535593 0.018446838 -0.06756135 -0.11352034 -0.061285544 0.05793885 0.02102606
-0.030496303 -0.115819864 0.04922079 -0.06771223 0.0033435624 -0.08259783 0.021523755 0.08431782
-0.09743256 0.014413135 0.048527252 0.00074550824 0.07221063 0.07527124 0.07825212 -0.07587447
-0.06895428 -0.06362279 0.07215608 0.033860777 -0.084530264 0.026599212 0.053463504 0.08516357
0.004140869 -0.07295448 -0.08798166 0.019029919 -0.05414527 0.0046310755 -0.09110013 -0.06972615
-0.067689195 0.095567875 -0.08011741 -0.024644753 0.024523828 -0.06658959 -0.08153188 -0.05259083
0.04851372 -0.049126428 0.07287276 0.064265415 -0.030541273 -0.04628748 0.06439892 -0.06689483
0.053978164 0.062355936 -0.05633634 -0.03135965 0.033623632 -0.055064965 0.036267214 -0.10711993
-0.119415514 0.0477902 -0.061808694 0.083973005 -0.056140427 -0.08636686 0.026196416 -0.034772668
0.037895944 0.107096545 0.043067638 -0.092217214 -0.05272123 0.09039961 0.044982135 -0.08794428
0.06638808 -0.034226794 0.007505797 0.047681488 0.053885892 -0.010517646 -0.037727527 0.033558734
-0.06858998 -0.032576263 0.058018673 0.09828139 0.05304672 -0.031765014 0.003843261

nodes.0.nodes.0.callable.fc2_x1.weight f4 [95, 95]
00000000: ecd5 afbd 4fcd 533d 715f 47bd a558 d93c
00000010: 3803 863c 2bab 3ebe d089 39bd c4a0 243c
00000020: e0d4 82bd 97bf 0cbd 56b9 503d 8a46 273e
00000030: d53b 5bbc 0a4e 133e 16b3 4cbd 4da3 f43c
00000040: dee2 563b 373d 943b bbfc 10be e08e f5bc
00000050: 4ba1 edbd 9ec6 843c 98e9 0f3d 65ae 2bb9
00000060: 3419 a2bd 78ea a83d cb9a c93d 3181 18bd
00000070: be81 d4bd fc20 16be eeac 023d 51d1 ce3d
00000080: c28e 3dbd 2fa6 f43d 1915 f6bc cc13 05bc
00000090: 82da c63c 9efe d0bd 28a3 da3b 0263 09bd
000000a0: d4b4 debc 8791 1f3e cfbb 023e c624 2c3c
000000b0: 2c71 97bd 5fea 693c f898 b2bc 3f9c eebc
000000c0: 81c2 28bd b11a a73b 0769 333c f4c7 dabb
000000d0: 224f 29be dfc0 183d 60de bfbd e78c 80bd
000000e0: 3517 bc3d b93b 7ebc a878 83bd d439 a3bb
000000f0: 721f 413e 6e80 203e 25ca 693d 85c7 e8bc
00000100: 58e7 efbd be02 123d f1e1 b2bb 41db 1cbe
00000110: 90bf 773d 34de 273d ab44 21bc d2ba 1fbd
00000120: 6c22 a33d ba8c 9f3d 1efe 033d 62c3 3fbd
00000130: 8687 43bc 17d3 453e b17a 0f3d 1254 de39
00000140: 6a6f e23d ba14 b13d 2519 973d 159b 27be
00000150: c096 c0bd 47f6 333d fd31 9e3b e2fe cfbd
00000160: b6c0 8d3c 173e 19be 8549 373d 0653 843c
00000170: 1ffa 223d 6569 c53c 9567 d3bd 1fcf 14bd
00000180: 061c e6bd 8d32 5abd 3db7 5a3c 93e4 963d
00000190: 8d7f 693d dab4 c3bd 8b8d 943d 6079 3ebc
000001a0: b076 16bd a2db 22bd 419c 0fbe b9e0 a73b
000001b0: 8f6b 42bd ca6c 0d3d 696f cdbd 834a 9cbd
000001c0: 8ba4 873d a54b bd3d 9b52 dbbd 14e8 adbc
000001d0: 2276 b5bd d5d3 3d3d 07d2 783b 5c73 47bd
000001e0: 43f4 c33c 0abf b6bb d88e 87bd c4ee 8e3b
000001f0: 493e 733c 93cf 5ebd 6b3a 9bbd bdfb 25bd
00000200: ad00 7cbd d220 9bbb 985e a63c 4c9c d93d
00000210: fb09 6f3c 412a 473d d3cf 803d dc3d 1f3d
00000220: 3522 a4bd b705 823d c0b9 983b 1a77 9d3d
00000230: e3a4 98bd aa6e 523d 8699 003d 1d4c b0bd
00000240: 5da0 dc3d 28f4 74bd 54a2 6e3d ce52 f83d
00000250: 72dd 57bd ca04 c0bb 34e7 953d e754 a8bd
00000260: a085 37bd ceb1 4c3d 6f22 b63d 2880 e7bd
00000270: cc9d 0bbe 7172 bcbd ab20 223d 54e6 8b3d
00000280: 61f0 a53b e643 be3c 49f6 883d 3ae5 cb3b
00000290: 7b95 31bd 444f ecbc 1c0d aabd 24a6 a43b
000002a0: a548 6cbd ceb7 3c3d b0be 55bd 2dbc 0bbd
000002b0: 4412 fabd f711 eebc ef09 a13c c972 7cbd
000002c0: 8176 753d eaf5 9c3c 2819 693d da92 823d
000002d0: bf14 993d d1c8 4e3d ed52 22bd 7527 bcbd
000002e0: 5ee3 56bd d919 77be 16b4 19bd d053 80bd
000002f0: 66e2 16bd 4466 4a3d 2787 c3bd fa1b 2ebd
00000300: 6a95 96bd 7130 ea3d 6ea9 c4bc 1aa7 9a3c
00000310: 3e8d 87bd 4b6a 533d 0bdb e63d d242 10bd
00000320: 0384 d8bd 0e8a 513c 6319 8e3d 394a 3f3c
00000330: f6e3 b43d b17f 58bd fc86 5a3d 89f3 66bd
00000340: 9eaf 80bc c419 88bc d516 813c 9d21 be3d
00000350: c36f b43d 816b e2bd a20f 533d 5222 ef3d
00000360: b96e acbd 4dae a6bd a888 30bc 1349 cc3d
00000370: 5a69 a0bc 6ac0 3bbd 71ad 833d a99b 42bd
00000380: b630 823d c938 8fbb 8ec1 47bb 11f9 003d
00000390: ccb7 a83d 24fb 423c 6862 fa3c 791a eebd
000003a0: 6721 9ebd 4367 5cbd 969c 893d 7943 95bd
000003b0: 83a4 cc3d 99d4 853d b79e 9a3d e4a1 b83d
000003c0: 06f7 33bc 2670 8a3d 9a22 9fbd e2e0 663d
000003d0: 45ba 363c ee95 46bd 071f 2f3c 0ccf c0bd
000003e0: 717d 2abc b4c9 5f3d 103b 4a3d 46b2 353d
000003f0: d30c a03c 71aa de3d 5fa1 1e3a 2ca8 c7bd
-0.08585724 0.05170947 -0.048675004 0.026531527 0.016358957 -0.18619983 -0.045297444 0.010048095
-0.06388259 -0.0343624 0.050958 0.16335502 -0.013380964 0.14385238 -0.049975477 0.029863024
0.0032789032 0.004523899 -0.14158909 -0.029975355 -0.1160303 0.01620799 0.03513488 -0.00016372798
-0.07914963 0.08247846 0.098439775 -0.03723258 -0.10376309 -0.1466102 0.0319032 0.10098518
-0.046278723 0.119457595 -0.030039357 -0.008122396 0.024274115 -0.102048144 0.006672282 -0.033541687
-0.027185835 0.15582858 0.12766956 0.010506814 -0.07394633 0.01427707 -0.021801457 -0.029127238
-0.04120112 0.0050996174 0.010950333 -0.0066766683 -0.16534093 0.03729331 -0.093685865 -0.06276875
0.09184114 -0.015517169 -0.06419498 -0.004981259 0.18859652 0.15673992 0.057077546 -0.02841545
-0.11714047 0.035647146 -0.005459063 -0.15318014 0.060485423 0.040983394 -0.009843032 -0.038996525
0.0796555 0.07790513 0.032224767 -0.04681719 -0.011934167 0.19318806 0.035029117 0.00042405777
0.11056407 0.086465314 0.07377843 -0.16367753 -0.09403753 0.04393604 0.0048277364 -0.10156037
0.017303806 -0.14965092 0.044747848 0.01615287 0.039789315 0.024098108 -0.10322491 -0.03633034
-0.11235814 -0.053270865 0.0133493515 0.07367816 0.057006408 -0.09555979 0.0725356 -0.011625618
-0.036734283 -0.03976024 -0.1402445 0.0051232246 -0.047465857 0.034527577 -0.100310154 -0.076313995
0.06623181 0.09242944 -0.10709115 -0.021228828 -0.08860423 0.046344597 0.0037966983 -0.048694
0.023920184 -0.005576973 -0.06619042 0.004361959 0.014846393 -0.054397177 -0.07579502 -0.04052328
-0.061524082 -0.004734137 0.020308778 0.106255144 0.014589782 0.04862428 0.06289639 0.038877353
-0.08014337 0.06348746 0.004660815 0.076887324 -0.07453325 0.05137507 0.03139641 -0.086082675
0.10772774 -0.059803158 0.058260277 0.12125169 -0.05270142 -0.005859946 0.07319489 -0.08219319
-0.04480517 0.049974255 0.088932864 -0.11303741 -0.13634413 -0.092015155 0.039581936 0.06831041
0.005064056 0.023225736 0.066876 0.0062223943 -0.043355446 -0.02884639 -0.08303282 0.0050246883
-0.057686467 0.046073727 -0.052183807 -0.034115005 -0.12210515 -0.0290613 0.019658057 -0.061632905
0.059927467 0.01916023 0.056908756 0.06375666 0.0747466 0.050484482 -0.039629865 -0.09187213
-0.052462928 -0.24130954 -0.03752526 -0.06265986 -0.036837004 0.049413934 -0.09547263 -0.04250715
-0.07352717 0.11435021 -0.024006572 0.018878508 -0.06618737 0.05161504 0.11272248 -0.035219975
-0.10572054 0.012789262 0.06938436 0.011675411 0.088325426 -0.05285615 0.053351387 -0.056384597
-0.01570874 -0.016613849 0.015757957 0.09283755 0.08810379 -0.11055661 0.05152858 0.11676468
-0.08419556 -0.08138714 -0.010774769 0.09974875 -0.019581486 -0.045837797 0.06429566 -0.04751173
0.06356947 -0.004370783 -0.0030480358 0.03148753 0.082381815 0.011900697 0.030564502 -0.11626143
-0.07721215 -0.053809416 0.067193195 -0.0728826 0.099923156 0.065346904 0.07549804 0.09015253
-0.010984188 0.06759672 -0.077702716 0.05636681 0.011152809 -0.048482828 0.01068855 -0.09414491
-0.010405884 0.05463572 0.049372733 0.044359468 0.019537365 0.10872353 0.0006051268 -0.09748873

nodes.0.nodes.0.callable.fc2_x1.bias f4 [95]
00000000: 1044 87bd ca6f 213d 0569 273d 7a9a 2dbd
00000010: 6a75 ba3d cfba 28bd 10b7 e1bc 60b4 cfbd
00000020: 5139 3e3d 704d 29bd 0ad7 2abb e5fb 31bd
00000030: 917b a1bd e6f2 b83d 798d 05bd 2eb2 b93d
00000040: 948c 81bc 66b2 a9bc c8cc 25bd ade3 87bd
00000050: a190 47bc 1690 4a3b 2504 3fbd 7bd4 16bd
00000060: cbe4 873b f873 873d 7536 cbbd e527 173d
00000070: 244d ae3c 3f9b bb3d 9d23 da3d 27cd ec3d
00000080: e683 c239 39a4 98bd a139 55bd 7dc7 0ebd
00000090: 8c06 7ebd ddf5 853d 7381 5f3d ab24 aabd
000000a0: 64ed 44bd cde5 cabd 1142 2abd 8fd5 9cbd
000000b0: ab55 713b c29f 0b3d 65b9 313d 7c79 ac3d
000000c0: 73c8 c93d 3779 1dbd 4383 52bd 2d5a a13c
000000d0: 6ba7 76bd 21a0 933d df42 c3bb b93d a9bd
000000e0: 6226 97bc 798a 993d 471d fa3d 698a 833c
000000f0: 41a7 dbbb 77c4 85bd 7e0c 123d 22d3 92bd
00000100: a139 13be 2c44 173c bc69 793d 1b19 3839
00000110: fa97 b4bd fcb3 07bd b122 b3bd 67aa 243c
00000120: 4dab fa3d e333 623d 78ec 133d ad16 c63d
00000130: edf3 7e3c 736c fb3a d4de d1bd 0bbd 38bd
00000140: 9fd7 c53d b3fa 95bd fd8d f6bd 0fea f13c
00000150: 6d17 c33d 079a a7bd 61cc 823d 9c55 33bd
00000160: 32c8 15bd 1fa2 0b3d 3ab3 c43d bce5 f7bd
00000170: ca57 dbbb 9e31 bcbd 34aa 35bd
-0.06604779 0.03941325 0.04087164 -0.04238365 0.09104426 -0.04119378 -0.027553111 -0.10141826
0.04644138 -0.041333616 -0.0026068115 -0.043453116 -0.078848965 0.09030704 -0.032605622 0.09067188
-0.015814103 -0.02071495 -0.040478498 -0.066352226 -0.012180478 0.0030908636 -0.046634812 -0.03682373
0.0041471473 0.06613916 -0.09922496 0.03690328 0.021277018 0.0916047 0.10651324 0.11562567
0.00037100835 -0.07453198 -0.052056912 -0.034858216 -0.062017962 0.06541035 0.05456681 -0.08307775
-0.048077956 -0.09907112 -0.041566912 -0.076579206 0.0036824744 0.034087904 0.043389697 0.08421609
0.09852686 -0.038445678 -0.051394712 0.01969632 -0.060218256 0.072082765 -0.0059588994 -0.08263726
-0.01845092 0.07497115 0.122126155 0.01605721 -0.006703288 -0.06531613 0.035656445 -0.07169177
-0.14377452 0.009232562 0.06089185 0.0001755696 -0.0881805 -0.03313063 -0.08746851 0.010050393
0.12239704 0.055225264 0.036114186 0.09672294 0.015561086 0.0019182101 -0.10247579 -0.04510216
0.09660267 -0.07323208 -0.12038801 0.029530553 0.095259525 -0.08183675 0.063866384 -0.043782815
-0.036567874 0.034090158 0.09604497 -0.12104365 -0.006693815 -0.09189151 -0.04435177

nodes.0.nodes.0.callable.fc_output_x1.weight f4 [2, 95]
00000000: 34eb 80ba ee50 51bd 2f7a 23bd 2b78 f13c
00000010: 83ea 8fbd 3897 1cbd f760 bfbc 74b4 6bbd
00000020: b730 0d3c 746c 31bd e420 90bd eec0 8a3c
00000030: dff9 283d 698a dbbc 7976 6fbd 088f 7a3d
00000040: 552d 0b3d eb6f 263d fac8 62bd db0b 57bd
00000050: efbf 013d 761f f03c 59e8 203d a7d0 1b3d
00000060: f9af 073d 06ee b13c 872e f63c 0ba1 853d
00000070: 9acd 7d3d e8ee 143d 51f2 76bd 005a 0cbd
00000080: 9274 a13b b781 043d d26c 423d 63f2 19bd
00000090: 0e16 1fbd 148c 093d a6da 023d ce5a 59bd
000000a0: b53c d6bc 52ea 1cbc 2b95 43bd b5d9 5e3d
000000b0: c0b2 233d 76bb 97bd 2745 213d 4322 763c
000000c0: 1a85 a3bd 3cb6 2e3d ca8b 1d3d e6a7 edbc
000000d0: 0433 21bd 32f6 1ebd 69e6 3e3d 2d12 813d
000000e0: 68e4 903c b405 09bc d9a5 59bd 54bd 8d3c
000000f0: de84 bcbc 625f 233d 9d53 72bb b3f0 a0bc
00000100: bdd8 693c 4931 063c e2ca cbbb 7532 363d
00000110: 848a 823c a296 e6bc 12bb 79bd 8404 123d
00000120: 9090 08bd d16f 443d 5663 ddbc 817d ecbc
00000130: 43d8 7dbd f359 21bd 99a3 a83d e7c6 773d
00000140: e6bd 5fbc b6ef 03bd 3f5f a93d 23ee 87bc
00000150: 5146 9a3c 0bac 543d 3bf3 25bd 4294 c2bb
00000160: ba77 4c3c d8cc 85bd 692f 013d 013c 66bc
00000170: 97d8 b93c d503 233d 20ba 1ebd 7b37 1b3b
00000180: aca7 9b3a 9307 13bc 3442 fb3c 836d 3e3c
00000190: 98b9 393d 8de3 583d dae6 4ebb 6b6e 23bd
000001a0: c2ea 6fbc b3be 0f3c 1278 b13c 2f4e 3bbb
000001b0: fca6 4a3d a24b 703d d976 99bb 2e92 33bd
000001c0: bdc3 29bd 945b a4bb 55ff 313b 98a2 d13c
000001d0: 0f75 9d3c 8461 d83c 1f99 223b 1da0 8f3c
000001e0: f667 3dbd 510b 01bd 8242 1d39 bfa0 acbb
000001f0: 1542 e1bc 7a2f 7c3d 3e75 763d 8da0 24bc
00000200: 1bdb e43c cb87 573c 5812 813a 53ed 6d3d
00000210: 34cd 963c 744e 46bd 6ddf 8bbc 0711 acba
00000220: 817d e9bc 5a71 623d 6dc2 50bd 7300 35bb
00000230: 1d9a 163b 2bab 07bc ba2f 0fbd 7105 333c
00000240: e7ac 45bd 3cc1 4fbd 35dd 0b3d 0433 adbc
00000250: 6ea2 ac3b ffb3 4a3c 1c6e 3abd 081f 59bd
00000260: 04dc 503d 1978 883d 5f0e e03c 9756 6bbc
00000270: 7368 ddbc 216a 12bd 022c fcbc 8908 48bd
00000280: cd1c 9abc 67b8 1b3d 493c 0d3c 9ee5 12bd
00000290: ebf8 543c f1a4 6fb8 fba3 29bd 073d 383d
000002a0: b715 ba3c d179 463d 4513 3b3d 60c8 8b3d
000002b0: 6b5b 42bc 06e9 49bd bd1f 8f3b b1df 503d
000002c0: 5fe2 073d 7a58 1fbd c965 2e3d 3c7c 50bc
000002d0: 9d5e 913b 1829 1aba 91f9 fabc e00c 243c
000002e0: 653e 093c d127 a93c 7fa1 d4bc a5f8 a33c
000002f0: af73 17bd 5b5c 80bc
-0.0009835721 -0.05110257 -0.039911445 0.029476246 -0.070271514 -0.03823015 -0.023361666 -0.05754514
0.008617572 -0.04331632 -0.070375234 0.0169377 0.04125392 -0.026799398 -0.058462594 0.06117156
0.03397878 0.040634077 -0.055367447 -0.05250154 0.031677183 0.029311877 0.039284084 0.038040783
0.033126805 0.021719944 0.030051483 0.06524857 0.061963655 0.03636065 -0.060289685 -0.03426552
0.0049272263 0.03235027 0.04746706 -0.037584674 -0.038839392 0.033580855 0.0319468 -0.053065114
-0.026151994 -0.009577351 -0.04774968 0.05440684 0.03996539 -0.07408802 0.03937259 0.015022817
-0.079843715 0.04265426 0.03846339 -0.029010724 -0.039355293 -0.03880901 0.046606455 0.06302295
0.017687038 -0.008363176 -0.05313668 0.017302193 -0.023012575 0.039885886 -0.0036976107 -0.019646024
0.014272866 0.008190461 -0.006219254 0.044481713 0.01593519 -0.028148 -0.06096942 0.035648838
-0.03334099 0.0479582 -0.027024906 -0.028868439 -0.06197382 -0.039392423 0.08234329 0.060492422
-0.013656115 -0.032211028 0.0827012 -0.016593045 0.018832358 0.051921885 -0.040515166 -0.005938084
0.012479717 -0.065332115 0.031539354 -0.014052392 0.022686286 0.039798576 -0.03875172 0.0023684192
0.0011875532 -0.008973974 0.030671217 0.011622789 0.04534301 0.052951384 -0.0031570704 -0.039900225
-0.014643373 0.008773494 0.0216637 -0.0028580537 0.049475655 0.05866588 -0.004683357 -0.04384058
-0.041446436 -0.0050158 0.0027160246 0.025590226 0.019220857 0.026413687 0.0024810506 0.017532403
-0.046241723 -0.031504933 0.00014997463 -0.005268186 -0.02749733 0.061568715 0.060170405 -0.010048044
0.027936509 0.013154934 0.0009847386 0.058087658 0.018408395 -0.048414662 -0.017074311 -0.0013127633
-0.028502228 0.05528388 -0.05096667 -0.0027618676 0.0022980042 -0.008280556 -0.034957625 0.01092659
-0.048260596 -0.050721392 0.034146506 -0.02114249 0.0052683866 0.012372016 -0.045515165 -0.05300811
0.050991073 0.06663532 0.027350603 -0.014363906 -0.027027344 -0.035745744 -0.030782703 -0.048836265
-0.018812561 0.038017657 0.00862033 -0.03586351 0.0129988 -5.7135654e-05 -0.04141615 0.044980075
0.022715433 0.048456017 0.045672674 0.06825328 -0.011862616 -0.049294494 0.004367797 0.05099458
0.03317487 -0.038902737 0.04257754 -0.012724932 0.0044363276 -0.0005880757 -0.03063658 0.010012835
0.008376692 0.020648869 -0.025955914 0.020016024 -0.03697556 -0.015669039

nodes.0.nodes.0.callable.fc_output_x1.bias f4 [2]
00000000: 2fe8 aabd 5e0b 0c3e
-0.08345067 0.13676211

nodes.0.nodes.0.callable.fc1_x2.weight f4 [95, 95]
00000000: 7102 103d eb7a 523d 9c40 4b3e dda2 2f3e
00000010: f89c e53c 0fb9 8fbd 7eed 07bd a348 c5bd
00000020: 6a05 a9bc 06bc 913c e011 0d3e 13e6 713c
00000030: 7858 9dbb c8dd 6abc 3e3b aa3d 2e2a bb3d
00000040: f873 053c 0000 1bbc 5efb 6e3d 692d b7bd
00000050: 3b7a 4a3d bd61 b0bc 5174 56bd 84b3 893d
00000060: 5b7a 46bd ca89 91bd c2b2 af3a 4b1e e2bc
00000070: 9cf8 76bd cea0 24bd 9aa3 2abc 912d 843d
00000080: 26d5 983c 42fb e13d 4780 fc3d 99b8 93bd
00000090: 455b 863d b50e c3bd c0ec 0ebd 71fb 8abd
000000a0: fbd6 1bbd 2ced 9fbd 0c42 c13d abd1 7abc
000000b0: 5304 cbbd f309 36be ddc6 6bbd fc11 00be
000000c0: 690d 913d ec68 81bb 4ca2 383c fd84 643d
000000d0: 1cca 8a3d 1cce e2bd 994e e8bc 415a 7dbc
000000e0: b844 cebc 88e0 cfbd 7971 2d3d afb2 123e
000000f0: d082 e2bc 8f1f 39bc dd1b 0ebd fb36 a23d
00000100: c579 a2bc 2c4b b53d 350d 55bd fff1 6d3c
00000110: fe3a 57bc 6fad d8bd 0186 78bd 76a8 a1bd
00000120: c5e2 3fbd 0951 c63d 6dbc 653d a684 8c3b
00000130: b8c3 a0bc 9401 653d a2b5 f5bc f33e 8dbd
00000140: 2f25 4cbd 4079 76bd 36f1 0cbd 3d54 f9bc
00000150: cc47 3b3d e448 e2bc fddd b63d 0bef 99bc
00000160: 8863 1fbd fc9c 04b9 4df9 93bd 020a 87bd
00000170: 8676 e5bb 1581 e83c 1d04 94bd 115f b6bd
00000180: 9acf a2bd a126 5a3d 4084 043d ba1b abbc
00000190: d99b a1bc 3dec 163b 209f cc3d 3656 383d
000001a0: b682 afbc 51a7 0bbc 21ac 973d 1948 b63d
000001b0: bbe5 023d 394a 5d3d 5771 b8bd e0be 973d
000001c0: 25f9 f33c 4615 8abd b9e5 8d3d 4043 a23d
000001d0: 15b9 833c 27c9 f13c 353f b73d 48ea 5b3d
000001e0: 55fd a03d a5cc e2bc 7dc9 abbd 6313 a2bb
000001f0: 8fc7 c33b 3ae3 c2bc f693 0b3d 2985 a53d
00000200: 62a2 dc3d 519d c93c 7297 13bd 50fc e33c
00000210: 493f 87bd 6e34 8c3d 70c6 bfbc 4ff1 c93d
00000220: bf1f c23d 10cc cc3d 9a2b d5bc b6cd 223d
00000230: a331 0a3d 21f8 ab3b b898 0b3b 0658 a43d
00000240: 977e 203d c19f babd 1fd8 253d dc4c bf3d
00000250: b83f d8bd 91bb 7bbd 89fc 9bbd ddbd 0c3d
00000260: d740 c43c 5d34 573d 8d81 a8bd 8fe1 aebc
00000270: a297 1c3b d4ba 503d ab86 b4bd f7d8 83bd
00000280: d3d6 cbbc 0bcd 903a 961f 68bd bebe 2b3d
00000290: 7c1c d7bd 4655 8e3c d7b0 ba3d 495d bc3d
000002a0: de76 a43d 7b28 92bd 2a9a cf3d e64d a5bd
000002b0: f359 ffbc 04d0 cabb 1392 e33c b131 c43d
000002c0: 112b 30bd 109a bc3d 6102 c4bc 25f2 113c
000002d0: e958 633d 7e1f 1cbd 79f6 94bd 8db7 b2bd
000002e0: 083f 863d 3e25 993c 1c3f da3d 666b 30bd
000002f0: 55b0 c43d 5c01 7f3d aaf2 303d 402a a83d
00000300: b0c7 033d b2e1 c7bd 0e6b f5bb 9f10 3abd
00000310: 0075 0b3d 3ff2 2c3d 0630 95bc 0fa4 41bd
00000320: 5951 abbd c9ec 8b3c c80d 23bc 819d 89bc
00000330: c2d6 febd a996 373d 4597 c5bc 1d6a 8d3d
00000340: 83e9 8dbc 609c 893d 2671 013a e4e6 203d
00000350: 335d 4a3d 7de4 b83d e9c9 173c 391c c03d
00000360: 474a 553d f0ae e73c 0b89 43bc 8be1 83bc
00000370: 9701 9b3d c1aa 67bd daf0 06bd 0fbb 15bd
00000380: e626 c6bd a5c7 e8bb 869d 9b3c c13f 82bd
00000390: 86b4 083d aaa3 6a3d 4aee a4bd 5443 553c
000003a0: baf1 da3d c1b5 d43c 6d8c 593d dd4b 283e
000003b0: eaf8 fa3b e656 883d 2d58 81bb 5d87 5abc
000003c0: 85b9 4f3d e452 3b3d 08d9 643d f2a4 593c
000003d0: c317 e23d ed65 e93c 7e5e 583d 5b09 043c
000003e0: 21a1 8c3d e84d d7bb e6a5 133e 881a d5bd
000003f0: 38f9 80bd 255a 7abd 4446 f7bc f079 c6bb
0.03515858 0.051386755 0.19848865 0.17151971 0.02802895 -0.07017719 -0.033185475 -0.09632995
-0.020632464 0.017789852 0.1377635 0.014764327 -0.004801806 -0.014335103 0.08312081 0.091389045
0.008145325 -0.009460449 0.05834519 -0.08944208 0.049432974 -0.02153098 -0.05235702 0.06723693
-0.04845653 -0.07106359 0.0013404714 -0.027602335 -0.060295686 -0.040192418 -0.010414982 0.064540036
0.018656325 0.11034252 0.123291545 -0.072129436 0.06560377 -0.095242895 -0.03489375 -0.0678624
-0.03804682 -0.07808909 0.094364256 -0.015308778 -0.09912934 -0.17777233 -0.057562698 -0.1250686
0.07082636 -0.0039492752 0.011269163 0.05579089 0.067768306 -0.110744685 -0.02835779 -0.015463413
-0.025179252 -0.10150248 0.042344544 0.14325975 -0.027650267 -0.011299028 -0.03469454 0.07920643
-0.019833455 0.088522285 -0.05201455 0.014523028 -0.013136623 -0.10579955 -0.06067467 -0.078934595
-0.046847124 0.09683425 0.0560879 0.004288274 -0.019624576 0.05590971 -0.029993836 -0.06896772
-0.04984015 -0.060174227 -0.034409724 -0.030435676 0.045722768 -0.027622648 0.0892906 -0.018790742
-0.03891328 -0.00012646982 -0.07225285 -0.06593706 -0.0070026545 0.028381864 -0.07227347 -0.08904851
-0.07949753 0.053259496 0.032352686 -0.020887244 -0.019727634 0.0023028993 0.09991288 0.045004092
-0.021424633 -0.008523778 0.07405878 0.0890047 0.03195737 0.054025862 -0.09005993 0.074094534
0.029781887 -0.06742339 0.06928582 0.07922983 0.016079465 0.029514862 0.08947603 0.053690225
0.07860819 -0.027685473 -0.0838804 -0.0049461587 0.005974717 -0.02378999 0.034076653 0.08082039
0.107731596 0.024611147 -0.0360331 0.027830273 -0.066038676 0.06845938 -0.023410052 0.09860479
0.09478711 0.09999859 -0.026021767 0.039746962 0.033738744 0.005248085 0.0021300744 0.08024602
0.039183225 -0.09112502 0.040489312 0.09340832 -0.105590284 -0.061458174 -0.07616527 0.034360755
0.0239567 0.052540172 -0.08227835 -0.02134779 0.002389409 0.050959423 -0.088147484 -0.06437867
-0.02488271 0.0011047436 -0.056670748 0.041929953 -0.1050348 0.017374646 0.09115761 0.0919748
0.080304846 -0.07136627 0.10136826 -0.080714986 -0.03117082 -0.006189348 0.027779615 0.095797904
-0.04300982 0.092090726 -0.023926916 0.008907829 0.055504713 -0.03811597 -0.072735734 -0.08726416
0.06554991 0.018694516 0.106565684 -0.043071173 0.09603945 0.062257156 0.043200172 0.082111835
0.03217286 -0.09759845 -0.0074895686 -0.045426007 0.034047127 0.04222321 -0.018211376 -0.0472756
-0.08365125 0.017080681 -0.009952016 -0.016798737 -0.124433056 0.044821415 -0.024119982 0.06905005
-0.017323261 0.06719279 0.000493782 0.039282694 0.049405288 0.09027956 0.009264448 0.09380383
0.05207279 0.028281659 -0.011934529 -0.016098758 0.075686626 -0.056559328 -0.032944538 -0.036555346
-0.09675388 -0.0071038776 0.018996011 -0.06359816 0.033375286 0.05728499 -0.080532625 0.013016541
0.10690637 0.025965573 0.053112436 0.1643519 0.0076590674 0.066571996 -0.003947279 -0.013337937
0.050714035 0.045733348 0.05587104 0.013283955 0.110396884 0.028490985 0.05282449 0.008058871
0.068666704 -0.0065705664 0.14418754 -0.10405451 -0.06297535 -0.061121125 -0.030184872 -0.0060570166

nodes.0.nodes.0.callable.fc1_x2.bias f4 [95]
00000000: eed6 29bd 0da0 a73d 36de ca3a 634f 44bd
00000010: 56a8 23bc 8150 65bc 94f9 bc3d f098 2dbd
00000020: ac7b ba3a f8e0 a93b 8658 30bd e92a cbbc
00000030: fdb8 583d 3817 ac3d 01d4 58bc d203 363b
00000040: a777 a6bd c6c9 16bd 73dd 483d 0344 ee39
00000050: fdcf 143d d0fd 0dbd 5840 01bd 2af8 9ebd
00000060: d3fc 123d e5b0 20bd 17ef fe3c fa8f cbbc
00000070: a3cb f83c 8884 413d 74dd 11bd 12f7 4ebd
00000080: 8b83 a3bc 38ce 82bc 200f 873d a739 c4bd
00000090: 241d 99bd 9743 ae3d bcd9 97bd 928f 08bd
000000a0: 0e26 9a3d ec69 813d fabb b1bc 20d4 95bd
000000b0: ad36 bfbd 5e1e ac39 1adb 043b b9dd 603d
000000c0: 3f8f f7bb 406e c0bc 7c2a 4fbd f02c c83b
000000d0: 3a13 9fbc 1060 ed3c bc43 2fbc 5ab1 84bb
000000e0: 2a91 e4ba 686b 823b 38d1 cebd e224 d23d
000000f0: 23fe a4bd cb01 17bd 8a39 7d3c 650d 94bd
00000100: 0ec7 9f3c f2ec d63c 088d 4d3c fbee 7ebc
00000110: dfb7 083c 12b8 d93c d24b de3d f668 49bd
00000120: 2539 203d 4776 c7bd edc4 00bd 493d c63c
00000130: 9554 5e3d a1fc 48bd c22a b73d 3769 73bd
00000140: 4d4a 02be e9d2 9f3d d949 66bc 4557 69bc
00000150: eabb c03b 8cae e83d 7ff4 87bd 5ce2 4f3d
00000160: 503c 20bb bc3d a2bd eafe 34bd 2ad0 b93d
00000170: f56b 643b db6e d9bd 0db8 b73d
-0.04146474 0.08184824 0.0015477601 -0.04792727 -0.009988865 -0.013996244 0.09227291 -0.04238218
0.0014227531 0.005184289 -0.043053173 -0.024800735 0.052910794 0.08402866 -0.013234139 0.0027773273
-0.081282906 -0.03681352 0.049039315 0.0004544557 0.036331166 -0.034665883 -0.031555504 -0.07762177
0.035885643 -0.0392312 0.031119866 -0.024848927 0.030370539 0.047245532 -0.035611585 -0.050528593
-0.019960186 -0.015967473 0.06594682 -0.09581309 -0.07476261 0.085089855 -0.074145764 -0.033340044
0.075267896 0.06319031 -0.02169608 -0.0731585 -0.093366005 0.00032829022 0.0020272196 0.05489895
-0.007554918 -0.023490071 -0.050577626 0.0061088726 -0.019418348 0.02897647 -0.0106973015 -0.0040494623
-0.0017438282 0.003980089 -0.10098499 0.10260941 -0.08056285 -0.036866944 0.015455613 -0.07229117
0.019504096 0.026236031 0.0125458315 -0.015559907 0.00834462 0.02657703 0.10854305 -0.049172364
0.039116997 -0.097393565 -0.031437803 0.024199145 0.054279882 -0.04906905 0.08943702 -0.059426513
-0.12723656 0.078039 -0.014055693 -0.014241998 0.005881776 0.11361417 -0.06638431 0.050752982
-0.0024450012 -0.07921931 -0.044188417 0.09072907 0.0034854386 -0.10616847 0.08970652

nodes.0.nodes.0.callable.fc2_x2.weight f4 [95, 95]
00000000: 0f28 79bd e37c 71bd 33ca 4a3d 9107 fa3b
00000010: 2aa5 b4bc 2256 fc3c 34f4 af3c 0e0d 823d
00000020: 834a e23c 57d6 943c 8080 1d3d 21fc 903d
00000030: 5130 953d 7801 88bb c410 d93c eba4 343c
00000040: 1512 81bd 6f91 05bd 63f2 ecbc 8ed2 c03c
00000050: 367b f9bc 7b60 71bd f8f3 b0bd 0b9d a73c
00000060: 7f44 8fbd d01b e4bc 99f9 bcbd a0f6 53bc
00000070: a2c4 7ebd 3070 c0bd b858 903d ccec 2e3d
00000080: 87b9 86bd 95c4 21bd b668 bdbd ec17 6cbc
00000090: f762 6bbd f826 cabc 49dd 023e d70a a83d
000000a0: b6d0 c63c 4b36 153d 838e 3e3d bec1 b1bc
000000b0: 0b84 653d 95f2 f33d 5c9b 43bd 0205 5ebd
000000c0: 03bb 83bd db71 d0bd 5218 823c 8eb6 533d
000000d0: 7241 233d 3c99 ae3d 0e5b c4bd 10d3 fb3c
000000e0: fd84 d7bc 9161 82bd 4694 7ebd 190a d83c
000000f0: 94c3 f2bc 58a7 1c3d 2598 13bd 9a4d 453d
00000100: dc77 1c3d e1f3 3e3c eb8b 87bd 5cb0 5abc
00000110: 3ce6 843d 81dd a63c ee47 bcbd 3fe4 5cbb
00000120: 257a 7f3d cd01 96bc 25cf 70bd 92e7 7bbd
00000130: 9880 0c3d 8d4b 8ebd 6062 d83d 140c b13d
00000140: 495e d13d fdf9 d93d da33 a53b 3b28 10bd
00000150: 4d50 8e3d 331f 80bd 5cca 0a3c 9873 bfbd
00000160: d47e 3d3d b011 5e3d 3fc3 ba3d 60e2 1e3d
00000170: d0de 4cbc 63a0 64bd 4bfb 97bd 6289 fcbc
00000180: 135a 9dbd 1b56 f1bc 25ee 27bd 64a8 853b
00000190: f24a a93d 3733 163c c1a5 993d da04 0d3d
000001a0: 49f9 b9bc fb33 763d 46b8 60bd ae52 b7bd
000001b0: f945 49bd 18d3 5dbd a1a2 25bc 29c8 afbd
000001c0: cc43 6dbd 895f d2bd 1f8a 92bb 7b62 173d
000001d0: e6ad bf3d de9c ebbc ca00 113c c7c5 6ebd
000001e0: c5da c03d c61d b5bd d297 523d 96f3 24bd
000001f0: ce8c a83d c0cd 4c3c 1780 cd3c 272a b4bc
00000200: 603e a93d 70c2 b6bb 2c98 7ebd ba0e 15bd
00000210: 9c4d d53d 4de0 073d 2735 993d 4397 8c3d
00000220: e1c2 343d 2926 023d a9dc 663d 29c0 533d
00000230: 320d c7bc 5bed 7ebd 6b26 85bd 81af 593d
00000240: 34d7 afbd 1f13 6d3d bb76 a3bc 109c 823d
00000250: b212 a13d 3d44 2bbd 593e 893b 5c3e aa3d
00000260: 1ac4 b9bd e217 76bd d90a 393d c458 b5bd
00000270: 8177 b23c d706 39bc c9d1 b13d 6b2f 74bc
00000280: 0e7c c5bd 1283 7a3b b7ca a53d d916 c2bd
00000290: 94d1 61bd 0b60 ea3d a49a bf3c 0c10 2d3d
000002a0: dce3 b4bd b5be 583d 33ef 2bbd 14a8 27bd
000002b0: 2fac 2e3c cbaa 8cbd 1137 dbbd 8db1 f13c
000002c0: 9476 003c ebb2 76bd 29ab 463d a117 c5bd
000002d0: 8035 a7bd 229a f4bc 1c70 d83b bd00 283d
000002e0: 8029 2f3d d8ba c2bd dfd1 1e3e 819d 473c
000002f0: 9929 ddbc 8900 1abd 238c bd3d c7b1 a53d
00000300: 05f9 fa37 748f cd3d dcb2 123e 7be7 6fbd
00000310: ca4a b63d 3c5a 03be b4a2 9abc 19d1 b93c
00000320: e203 d53c 9381 4cbd efd7 ad3d b5a8 453d
00000330: f4b1 c8bd a7f5 d7bd 43d3 233a b618 bd3d
00000340: d881 d63d be76 373c 2643 69bc d5c4 673d
00000350: 10fd 1dbd 1454 bb3d 4fe2 c7bd f644 df3b
00000360: 5c37 0bbd 2be4 a83d 218c 54bd da33 a83d
00000370: b158 ce3d accf 923d 3285 933d 5eea 5bbd
00000380: b81b 683d 39c4 ba3d d120 32bd 58f2 bebd
00000390: eaf4 533d e6e9 b3bd 19d3 83bd 5a5d 9ebd
000003a0: ac61 3d3d a265 d5bd 21cb c8bd 7dcc bc3c
000003b0: 0943 393d 7be2 c2ba 2680 673c 087a c63d
000003c0: 5d21 60bd b038 a73c 985e 6c3c 18fb 35bd
000003d0: 24d3 84bd a635 b0bd ef72 61bd 6496 84bd
000003e0: 2baf aebc 5014 103c a4d9 c23d 6899 3abd
000003f0: 53ee e8bd 361a d2bd 813c 913d ee8d 663b
-0.06082922 -0.058956992 0.04950924 0.0076302965 -0.022051413 0.03080279 0.02147875 0.06350146
0.02762342 0.018168611 0.038452625 0.0707934 0.07284606 -0.0041505657 0.026497252 0.011025648
-0.06302277 -0.0326094 -0.028924173 0.0235379 -0.03045426 -0.0589299 -0.08640283 0.020460626
-0.069954865 -0.027845293 -0.092272945 -0.012937218 -0.062199242 -0.09396398 0.07048172 0.042706296
-0.06578355 -0.039494116 -0.09248488 -0.01441 -0.057467427 -0.024676785 0.12779726 0.082051925
0.024269443 0.03642873 0.04652263 -0.021698829 0.05603413 0.11911503 -0.047755584 -0.054203995
-0.06432154 -0.10177966 0.015880737 0.05168777 0.039857335 0.08525321 -0.0958768 0.03074029
-0.026308531 -0.063662656 -0.062153123 0.026372002 -0.029634275 0.03824553 -0.03603377 0.04816971
0.038200244 0.011654825 -0.06618484 -0.013347711 0.06489226 0.020369293 -0.09193407 -0.0033705381
0.062372345 -0.018311406 -0.0587913 -0.06150014 0.034302324 -0.06948004 0.105656385 0.08644882
0.102230616 0.106433846 0.0050415816 -0.035194617 0.0694891 -0.06255951 0.008471098 -0.0934822
0.04626353 0.054216087 0.091192715 0.038790107 -0.0125042945 -0.05581702 -0.07420977 -0.030827228
-0.07683196 -0.029460004 -0.040998597 0.0040789116 0.08266248 0.009167484 0.07502318 0.034428455
-0.022701876 0.060108166 -0.054863237 -0.08951317 -0.049138997 -0.054156393 -0.0101095745 -0.085830994
-0.057925984 -0.10272128 -0.0044720317 0.036959153 0.0935934 -0.028761324 0.008850286 -0.058294084
0.09416727 -0.088435695 0.05141432 -0.040271364 0.08229981 0.0125002265 0.025085492 -0.021992756
0.0826385 -0.005577378 -0.06215684 -0.036390997 0.104151934 0.033172894 0.07480841 0.068647884
0.044131164 0.031774674 0.05636278 0.05169693 -0.024298284 -0.06223808 -0.06501468 0.05314589
-0.085859686 0.057879563 -0.019954076 0.06377423 0.07864894 -0.041813124 0.0041883406 0.08312675
-0.090706065 -0.06008137 0.04517636 -0.08854821 0.0217855 -0.011293135 0.086825915 -0.014903883
-0.09642802 0.0038225097 0.080953054 -0.09477014 -0.05513151 0.114441 0.023389168 0.04225163
-0.08832523 0.052916247 -0.041976165 -0.040931776 0.010661169 -0.06868514 -0.107038625 0.029503608
0.007840771 -0.060229223 0.048503075 -0.096236475 -0.08164501 -0.029858653 0.0066051614 0.04101633
0.042764187 -0.09508294 0.15509747 0.012183548 -0.026997374 -0.037598167 0.092552446 0.08090549
2.9918281e-05 0.10037127 0.14326042 -0.058570366 0.08900984 -0.1282739 -0.018876411 0.022682713
0.026002828 -0.04992826 0.08488452 0.048256595 -0.09799567 -0.10544901 0.0006249437 0.09233229
0.104739845 0.011197744 -0.014237201 0.056584198 -0.038571417 0.09146896 -0.09759962 0.0068136407
-0.03398834 0.082466446 -0.05189145 0.08213015 0.1007551 0.071685165 0.07203139 -0.053690307
0.05666706 0.09119458 -0.043488327 -0.09323567 0.05174724 -0.08784847 -0.06436748 -0.07732649
0.046235725 -0.104197755 -0.09804369 0.023046726 0.045229945 -0.0014868522 0.014129674 0.09691244
-0.054719318 0.020412773 0.01442685 -0.044428915 -0.064855844 -0.086039826 -0.05504125 -0.06473997
-0.021323761 0.008793905 0.09514168 -0.045556456 -0.11373582 -0.102589056 0.07091618 0.0035179812

nodes.0.nodes.0.callable.fc2_x2.bias f4 [95]
00000000: c31a 183e 809e 2f3d 500f 9c3d 7adf b53c
00000010: 9079 d7bc 23d7 90bd c785 3cbd c9b7 eabd
00000020: 3617 383c 9bb6 723b 0363 693d b03f 913d
00000030: bf4b be3c bacd 99bd 9962 b4bc 9b81 b6bd
00000040: 0947 1fbd 7736 3dbd 3c0b fa3d e1db b93d
00000050: 9916 033d 6349 debd ba29 dd3c 8840 e7bd
00000060: 57cb 4a3d f3fd 9f3d 11b6 823d 9d7c 483d
00000070: ca1c af3c 959b 863d 1027 4f3c 72eb 033e
00000080: 8ff3 68bc 85bb e83d fe6a 88bc f001 553d
00000090: 0336 75bd c737 5dbd e02d f53c 167f f73d
000000a0: 2b9e d13d 1578 a1bb e02f 85bd 712d a0bd
000000b0: 2593 223d 7a32 c03d e285 44bc 7052 11bc
000000c0: a9df c23c ce95 dcbd 7726 c9bd d619 823d
000000d0: 565b 9d39 d991 64bd 5c6a 043a 9f4e b7bd
000000e0: c87e 2f3d 2803 7abd c54f 17bc 3c1f 613d
000000f0: 6801 8c3c bc6d a73c b58b af3d 943c b6bd
00000100: b1fd 4c3d 6383 87bd 8a03 67bd dd19 f93b
00000110: a3ff 82bd 64a4 693b 34bf a0bd 7ed8 bfbc
00000120: 239c 8bbc 10ba 913d f957 adbd 4f8a 493d
00000130: 29a3 fdbd f15d ba3c b4d0 3dbd ff40 f1bc
00000140: ac29 0e3d 74b3 0a3d ec6d c43c ac31 a73d
00000150: b24e 4c3c e6dd 95bd fc47 e9bd 71ab 463c
00000160: 9e91 c3bd 307c b2ba 2629 563d fdd1 9e3d
00000170: e703 793d e10e 82bd 9ccf 5f3d
0.14853959 0.042875767 0.07620108 0.022201288 -0.026303083 -0.07072284 -0.046026018 -0.114608355
0.011236003 0.003703511 0.05697919 0.070922256 0.023229478 -0.07509942 -0.022019671 -0.08911439
-0.038886104 -0.04619452 0.12209174 0.09075142 0.032003973 -0.10853841 0.026997436 -0.11291605
0.049510326 0.07812109 0.06382383 0.048946965 0.021376032 0.06572644 0.012643591 0.12882784
-0.014218225 0.113638915 -0.01665258 0.0520038 -0.059865963 -0.05400827 0.029929101 0.120847866
0.10235246 -0.004927645 -0.06503272 -0.07821167 0.03969111 0.09384628 -0.011994811 -0.008869752
0.02378829 -0.107707605 -0.0982179 0.06352584 0.00030013424 -0.055803154 0.0005051249 -0.08950543
0.042845517 -0.061038166 -0.009235327 0.054961428 0.017090514 0.020438068 0.08571569 -0.08898273
0.050046626 -0.06616857 -0.05639986 0.00760196 -0.06396415 0.0035650963 -0.07848969 -0.023418661
-0.017042225 0.07115567 -0.08464045 0.049204167 -0.12384636 0.022749873 -0.046341613 -0.029449938
0.03470771 0.033862546 0.023978196 0.08163771 0.012469934 -0.073177144 -0.11390683 0.012125836
-0.09549259 -0.0013617333 0.052285336 0.07754896 0.060794737 -0.06350494 0.05464135
