5min_model/nsteps_30/log_gumbel_N30/best_model_state_dict.pth (torch, 416296 bytes, 14 tensors)

nodes.0.nodes.0.callable.fc_input.weight f4 [150, 62]
0	0xbde940ea	-0.113893345
1	0x3d6527be	0.055946104
2	0x3daaaaf2	0.083333865
3	0x3ca039be	0.019558784
4	0x3d39304c	0.045212075
5	0xbcd55c0b	-0.026044866
6	0xbde31a20	-0.11088967
7	0xbc70f6b0	-0.014707252
8	0xbd71f0f6	-0.05906769
9	0x3c3b8fd1	0.011447863
10	0x3c1d6a71	0.009607897
11	0x3b414adc	0.0029494083
12	0x3dbdf62b	0.092754684
13	0x3d098ca7	0.033581402
14	0x3d3ed56a	0.046590246
15	0x3d0573d5	0.03258117
16	0x3d94b8fa	0.07261844
17	0xbdb72911	-0.0894338
18	0xbdee59da	-0.116382316
19	0x3c0cde77	0.008597962
20	0xbd6d101e	-0.0578767
21	0x3b02951e	0.0019925307
22	0xbe8ece86	-0.2789194
23	0xbe4df01b	-0.20111124
24	0xbe173515	-0.14766343
25	0xbd4f94d5	-0.050679047
26	0xbe03d60a	-0.12874618
27	0xbe2d1874	-0.1690386
28	0xbe2eae5d	-0.17058702
29	0xbd5553b4	-0.05208178
30	0xbdff890e	-0.12477313
31	0xbcef34b1	-0.02919993
32	0xbd53b6d8	-0.051688045
33	0xbe0fad65	-0.14030989
34	0xbe06b6d0	-0.13155675
35	0xbe0c5cb4	-0.13707238
36	0xbdf6a615	-0.120433964
37	0xbbdd2237	-0.0067484635
38	0x3c104efb	0.008807893
39	0x3b6b67ca	0.0035920017
40	0xbe1f5398	-0.15559232
41	0xbccabf96	-0.024749558
42	0xbd60ce9b	-0.054884534
43	0xbdac68a6	-0.084183976
44	0xbcc2a4c7	-0.023760213
45	0xbd7d52ab	-0.061846416
46	0xbe03a309	-0.12855162
47	0x3d21a1ef	0.039461073
48	0xbe0aeb39	-0.13566293
49	0xbc452570	-0.012032852
50	0x3ccdfe6e	0.025145736
51	0xbe00605a	-0.12536755
52	0xbce626a6	-0.0280946
53	0xbd80334f	-0.06259786
54	0x3d689bcf	0.056789216
55	0x3c3af205	0.011410241
56	0xbc629c64	-0.013831232
57	0xbcd0222e	-0.025406923
58	0x3d27f48a	0.041004695
59	0xbe12fd99	-0.14354552
60	0xbcbddbe2	-0.023176137
61	0xbdbd0163	-0.0922878
62	0xbdd431a3	-0.1036103
63	0xbe10b896	-0.14132914
64	0xbd0b903f	-0.03407311
65	0x3d5e0dc3	0.054212343
66	0x3dcc34a1	0.09970976
67	0x3bdd5ab7	0.006755199
68	0xbc4a1cb5	-0.012335946
69	0x3ca09709	0.01960327
70	0x3dba83bc	0.091071576
71	0xbd172e39	-0.036909316
72	0xbd65dcdb	-0.056118827
73	0x3d004812	0.03131873
74	0x3d901e4d	0.070370294
75	0xbe01089b	-0.12600939
76	0xbda67546	-0.08127837
77	0xbdee5a88	-0.11638361
78	0xbdbac4f6	-0.091195986
79	0xbd251533	-0.04030342
80	0xbe10d516	-0.14143786
81	0xbd9e3163	-0.077242635
82	0x3cb03560	0.021509826
83	0x3c7b730e	0.015347255
84	0x3ce3d6f5	0.02781246
85	0xbdf08db0	-0.11745775
86	0x3b8962d1	0.004192688
87	0xbb7105c2	-0.0036777114
88	0xbdbd7460	-0.092507124
89	0xbe1f5bd5	-0.15562375
90	0x3c7bf4f2	0.015378224
91	0x39984f12	0.0002905061
92	0xbe09e033	-0.13464431
93	0xbdceb78d	-0.10093603
94	0xbe01ba5e	-0.1266875
95	0xbe026ac3	-0.12736039
96	0xbe0537d4	-0.13009578
97	0xbdf3ce30	-0.119045615
98	0xbe0ef5f0	-0.13961005
99	0xbc07a7fe	-0.008279799
100	0xbd64bc94	-0.055843905
101	0xbe1511fc	-0.14557642
102	0x3d3523fc	0.04422377
103	0x3d432e18	0.04765138
104	0xbe214fba	-0.1575307
105	0x3d16f5be	0.03685545
106	0xbda57dad	-0.080806114
107	0x3b0d36af	0.0021547487
108	0x3b5bc354	0.0033533173
109	0xbdfbd64a	-0.12296732
110	0x3d9f628b	0.077824675
111	0x3c8338f7	0.016018374
112	0x3dfb2286	0.12262444
113	0xbde87bb6	-0.11351721
114	0x3d603a1e	0.054742925
115	0x3db6a74c	0.08918628
116	0x3d3661f7	0.04452702
117	0xbd80b75a	-0.062849715
118	0xbe75c626	-0.24001369
119	0xbe4763cf	-0.19471668
120	0x3be56fff	0.0070018764
121	0xbd9f7a99	-0.077870555
122	0xbd80f190	-0.062960744
123	0xbd6d31d9	-0.057908867
124	0xbe17186e	-0.14755413
125	0x3d9a6c1f	0.07540154
126	0xbd5f9673	-0.05458684
127	0xbd4b4c7a	-0.04963348
128	0x3d56fdab	0.05248801
129	0x3dacf155	0.08444468
130	0x3c29ffce	0.01037593
131	0x3d0ba77c	0.034095272
132	0xbdeedce2	-0.11663224
133	0xbca452a9	-0.020058947
134	0x3c3b5bd4	0.011435468
135	0xbd9e3263	-0.07724454
136	0xbd80c12a	-0.06286843
137	0xbd9889fc	-0.074481934
138	0xbdff4d24	-0.12465885
139	0xbdfa52ac	-0.122228
140	0xbd018107	-0.03161719
141	0x3d37bbf7	0.04485699
142	0xbc035a25	-0.008017098
143	0x3d16a0ad	0.036774326
144	0xbe141c27	-0.14463864
145	0xbdbdca48	-0.09267098
146	0xbe08a794	-0.13345176
147	0xba1c2420	-0.0005956311
148	0xbd95063b	-0.07276579
149	0x3cb75082	0.022377256
150	0xbdb6a0c5	-0.08917383
151	0xbd687701	-0.056754116
152	0xbdcab953	-0.09898629
153	0xbc0b994c	-0.008520436
154	0xbe026aa4	-0.12735993
155	0xbd2dca02	-0.042428978
156	0x3c72f5b3	0.014829087
157	0xbde472cd	-0.11154709
158	0x3d359d30	0.04433936
159	0xbd6bd901	-0.057579998
160	0xbd620161	-0.055177096
161	0x3cc97563	0.024592107
162	0x3d3b1e28	0.045683056
163	0xbe144a43	-0.14481454
164	0xbc87faf1	-0.01659915
165	0x3bb61857	0.0055571008
166	0x3cc46579	0.023974167
167	0xbe0286c0	-0.12746716
168	0x3cdc748d	0.026911044
169	0x3ccea640	0.025225759
170	0x3d095bfb	0.033534985
171	0xbe25b0fe	-0.16180798
172	0xbdb43a3a	-0.08800168
173	0xbddf3dd8	-0.10900468
174	0xbdfbc669	-0.12293703
175	0xbbb5955e	-0.0055414876
176	0x3c9808fa	0.018558968
177	0xbe16592f	-0.14682458
178	0xbc58f77d	-0.0132426
179	0xbbd8b135	-0.0066129216
180	0xbd4f1b6a	-0.050563253
181	0x3d7e31c4	0.06205918
182	0xbcbd2d0f	-0.023092775
183	0xbdca5e0c	-0.09881219
184	0xbd5270b7	-0.051377025
185	0xbdcbf114	-0.099580914
186	0x3e10319f	0.14081429
187	0xbc145bc8	-0.0090550855
188	0x3d37e9e9	0.04490081
189	0xbbfb9bfb	-0.0076785064
190	0x3cd20e3c	0.025641553
191	0xbc42014d	-0.01184113
192	0x3cde9752	0.027171765
193	0x3bcd4b0b	0.0062650493
194	0x3d04e8cf	0.032448586
195	0x3c29aafc	0.010355707
196	0x3d56537c	0.05232571
197	0x3d2fa63f	0.042883154
198	0xbc9859f3	-0.018597579
199	0xbbba1489	-0.0056787175
200	0xbe00c56f	-0.12575315
201	0xbd814623	-0.06312206
202	0xbeba45d9	-0.36381415
203	0xbe4b8f13	-0.19878797
204	0xbef5fa07	-0.48042318
205	0xbe665796	-0.22494349
206	0xbee54a3b	-0.44783196
207	0xbe758f51	-0.23980452
208	0xbea74349	-0.32668522
209	0xbe1ffe7e	-0.15624425
210	0xbe8589e9	-0.2608178
211	0xbe0bd341	-0.13654806
212	0xbe5a5c15	-0.21324189
213	0xbdfe2360	-0.12409091
214	0xbe256099	-0.1615013
215	0xbe099e12	-0.13439205
216	0xbdf30b86	-0.11867432
217	0xbe03dada	-0.12876454
218	0xbdc841b8	-0.0977816
219	0xbdb3ec96	-0.087853596
220	0xbda451f5	-0.080234446
221	0xbddcc447	-0.107796244
222	0xbda3710f	-0.079805486
223	0xbda0e700	-0.0785656
224	0xbd09ac50	-0.033611596
225	0xbdbf1cea	-0.09331687
226	0xbd1b52d3	-0.037920784
227	0xbd7f48ed	-0.062325407
228	0xbd746d0a	-0.0596743
229	0xbda14452	-0.07874359
230	0xbca3683f	-0.01994717
231	0xbd7a8d2b	-0.061169785
232	0xbd0414de	-0.032246463
233	0xbd5e70e3	-0.054306876
234	0x3cc5b027	0.024131848
235	0xbcb2794f	-0.02178636
236	0x395ebdaa	0.00021242225
237	0xbbbacb11	-0.005700477
238	0xbcc75e1c	-0.024336867
239	0xbce3cfe3	-0.027809089
240	0x3c81da10	0.01585105
241	0xbd0930c7	-0.033493783
242	0xbc9ca38a	-0.01912095
243	0xbd4a421d	-0.049379457
244	0xbcb89aef	-0.022534816
245	0xbcb3680a	-0.021900196
246	0x3cc825c4	0.02443207
247	0xbd4be33e	-0.049777262
248	0x3dfbb83d	0.12291
249	0xbf21c10c	-0.6318519
250	0x3c9b68e5	0.018970916
251	0x3dbb9abc	0.091603726
252	0x3c15cc7c	0.009142991
253	0x3d4c9e00	0.049955368
254	0x3a0b7933	0.0005320489
255	0x3d5b4a2d	0.053537536

nodes.0.nodes.0.callable.fc_input.bias f4 [150]
0	0x3d0c3296	0.03422793
1	0xbdb9a93d	-0.09065483
2	0xbc05579f	-0.008138566
3	0xbe15351c	-0.14571041
4	0x3f02afef	0.51049703
5	0x3d9bc395	0.07605664
6	0x3dbcfa10	0.09227383
7	0xbd863132	-0.06552352
8	0xbe2a4576	-0.1662806
9	0xbda308c7	-0.079606585
10	0x3d9e1425	0.07718686
11	0xbe0abdd2	-0.13548973
12	0x3d795eeb	0.060881536
13	0xbd73fe1a	-0.059568502
14	0xbddc82e7	-0.10767155
15	0xbe2d39ec	-0.16916627
16	0x3e47b619	0.19503058
17	0xbea1bf53	-0.3159128
18	0xbd5b69c4	-0.053567663
19	0xbe9cdb3b	-0.3063601
20	0xbd621c91	-0.055203024
21	0xbdb5783a	-0.08860822
22	0x3e0f807c	0.14013857
23	0x3e71a7cb	0.23599164
24	0xbe8a3394	-0.26992476
25	0x3e0da6d5	0.13833173
26	0xbe2a67d2	-0.16641167
27	0x3efad1ca	0.4898818
28	0x3ca513ba	0.020151008
29	0x3c017cb5	0.007903268
30	0x3c77db86	0.015128022
31	0x3d6c38ea	0.057671465
32	0x3e004881	0.12527658
33	0x3de834f9	0.11338229
34	0xbdb393f9	-0.08768458
35	0x3ec9cc0b	0.39413485
36	0xbe906546	-0.28202266
37	0xbede7eaa	-0.43456012
38	0xbe0be6bf	-0.13662241
39	0xbdc744cd	-0.097299196
40	0xbe821009	-0.2540286
41	0x3e07d80a	0.13266006
42	0x3c2d3436	0.01057153
43	0x3efc393c	0.49262416
44	0xbdffbc93	-0.124871396
45	0x3d913198	0.070895374
46	0xbf049c4d	-0.51800996
47	0xbc18dbff	-0.009329795
48	0xbe3b0cae	-0.18266556
49	0xbdf647eb	-0.12025436
50	0x3c870ca0	0.016485512
51	0xbe0e098b	-0.13870828
52	0x3da56f19	0.08077831
53	0x3eb72af4	0.35774958
54	0xbc0f61e8	-0.00875137
55	0x3dfcf2c9	0.12350995
56	0xbdc230e8	-0.094819844
57	0x3b7c9ef1	0.0038546885
58	0xbdca7bd9	-0.09886903
59	0xbdc22f41	-0.09481669
60	0x3b8ec7fd	0.0043573366
61	0x3cd1cac5	0.025609383
62	0x3c636a8e	0.013880385
63	0xbdf8c2b3	-0.12146511
64	0x3dc6fb54	0.09715906
65	0x3dbcf2b1	0.09225977
66	0x3cf70a70	0.030156344
67	0xbc29dea7	-0.010368026
68	0x3e23376b	0.15939109
69	0x3c8a4abe	0.016881343
70	0xbd597191	-0.05308682
71	0xbc81a074	-0.01582358
72	0x3debf4d2	0.11521305
73	0x3e5404bc	0.20704931
74	0xbd84d496	-0.0648586
75	0xbe0b0d93	-0.13579397
76	0x3e05e257	0.13074623
77	0xbb9af7eb	-0.004729261
78	0xbd4a5393	-0.04939611
79	0x3d226938	0.039651126
80	0xbd887e75	-0.06664745
81	0xbd82738f	-0.06369697
82	0xbd63e0eb	-0.05563442
83	0xbe94f7f3	-0.2909542
84	0xbe5738fd	-0.21017833
85	0xbd3f35d4	-0.046682194
86	0x3dbdb128	0.092623055
87	0xbd508913	-0.050911974
88	0xbd97dd92	-0.07415308
89	0xbd854189	-0.065066405
90	0xbd1f99f8	-0.038965195
91	0xbe02c7d8	-0.12771547
92	0x3dd45ea6	0.10369615
93	0xbdfeb7e4	-0.12437418
94	0xbb89b519	-0.0042024967
95	0x3df4595f	0.11931109
96	0x3d4abbd2	0.049495526
97	0xbce3e863	-0.027820772
98	0x3d76069f	0.060064908
99	0xbd8f2e9c	-0.06991312
100	0xbd10b79b	-0.03533135
101	0xbc8d0c53	-0.01721779
102	0x3d90b0a6	0.07064943
103	0x3e06f6c4	0.13180071
104	0x3e035cb7	0.12828337
105	0xbc2d89d0	-0.010591939
106	0x3e3653f1	0.17805459
107	0xbec615fe	-0.38688654
108	0x3e1309b9	0.14359178
109	0xbe28f799	-0.16500701
110	0xbd41da32	-0.047327228
111	0x3d250ebe	0.040297262
112	0xbe072f7f	-0.13201712
113	0xbd24bdcf	-0.040220078
114	0x3c5d83ab	0.013520162
115	0xbc842dc6	-0.016135108
116	0x3eaf01f5	0.3418118
117	0xbdc7ae36	-0.09750025
118	0x3e69910b	0.22809236
119	0x3ef69455	0.48160043
120	0x3e090285	0.13379867
121	0x3ed89de5	0.42307964
122	0xbda2e0a9	-0.07953007
123	0x3ce27a98	0.027646348
124	0x3e94a898	0.29034877
125	0x3e322823	0.17398123
126	0x3c9115fe	0.017710682
127	0xbdc0be71	-0.09411324
128	0x3f6930ca	0.9109007
129	0xbea044b5	-0.3130242
130	0x3d467171	0.04844803
131	0x3e040a0f	0.12894462
132	0xbcabdad0	-0.020978361
133	0xbccd35a5	-0.025049994
134	0xbd8d2520	-0.06891847
135	0xbe909075	-0.28235212
136	0x3df8962a	0.121380165
137	0x3c83e70e	0.016101386
138	0x3da5323e	0.080662236
139	0x3ceb5d94	0.028731145
140	0x3c4e86e2	0.012605401
141	0xbc67f130	-0.014156625
142	0x3d5d0ac2	0.053965338
143	0xbe23fbb6	-0.16013989
144	0x3e5dce42	0.21660712
145	0x3dc4ab9d	0.09603045
146	0xbcfa50fb	-0.030556193
147	0x3e9d8262	0.30763537
148	0x3d83f0ea	0.06442435
149	0xbcc5cf79	-0.024146782

nodes.0.nodes.0.callable.fc1_x1.weight f4 [150, 150]
0	0xbd93b08b	-0.07211407
1	0x3c3d41ad	0.011551303
2	0x3ceb1288	0.02869536
3	0xbdab13f0	-0.08353412
4	0x3d6c60fe	0.057709686
5	0xbd15817e	-0.036500446
6	0xbd23f112	-0.040024824
7	0x3d23acfd	0.039959896
8	0x3cd49432	0.025949571
9	0xbcda5a3e	-0.026654359
10	0xbc73f2cf	-0.014889433
11	0x3d41fe3e	0.047361605
12	0x3d671f52	0.056426354
13	0x3d0e745e	0.034778945
14	0x3a66da4c	0.00088063325
15	0x3dad61cb	0.08465918
16	0xbd435ccc	-0.04769592
17	0xbc2b169c	-0.010442402
18	0x3d1ecbad	0.03876846
19	0xbd0c3328	-0.034228474
20	0x3d0e11da	0.034684993
21	0x3cd3aa86	0.025838148
22	0x3cc60c75	0.024175862
23	0x3d407938	0.046990603
24	0x3ce9d82d	0.028545463
25	0x3d178295	0.036989767
26	0x3cc2699f	0.023732005
27	0x3da6d4ea	0.08146079
28	0x3b92327e	0.0044615855
29	0x3d5adfc8	0.05343607
30	0xbc12c161	-0.008957238
31	0x3d9077f8	0.07054132
32	0xbc85c2e0	-0.016328275
33	0x3d83ce83	0.06435873
34	0x3ccfea83	0.025380379
35	0x3daf0b5d	0.08547089
36	0xbda70699	-0.08155555
37	0xbd9d4ad9	-0.07680292
38	0x3c519790	0.012792483
39	0xbd292fee	-0.041305475
40	0xbcf79680	-0.030223131
41	0x3c8f9dc6	0.017531287
42	0x3da18219	0.07886142
43	0xbdab2234	-0.08356133
44	0xbc2c1e62	-0.010505291
45	0xbd06715e	-0.03282296
46	0xbdcceab5	-0.10005704
47	0xbd1b2b10	-0.037882864
48	0xbc955fd2	-0.018234167
49	0xbaa84cb7	-0.0012840246
50	0xbcbfc609	-0.02340986
51	0x3d818bd8	0.06325501
52	0xbb044a2c	-0.0020185811
53	0xbd87ffaf	-0.06640565
54	0xbd98deaa	-0.07464345
55	0x3c77cf6d	0.015125138
56	0x3daa0847	0.0830236
57	0x3c99c96a	0.0187728
58	0x3d24b023	0.04020704
59	0x3d6d631a	0.05795584
60	0xbc9ed79e	-0.019389924
61	0xbd6f93f2	-0.0584907
62	0xbce880a7	-0.028381659
63	0xbd643b57	-0.055720653
64	0xbd12bc32	-0.03582401
65	0xbccce2ed	-0.02501055
66	0x3ccedfd8	0.025253221
67	0x3bd39957	0.0064574885
68	0x3b317ec1	0.0027083608
69	0x3bc0e61e	0.005886807
70	0x3c387085	0.0112572955
71	0x3d32f40b	0.04368977
72	0x3c79ee9b	0.015254642
73	0x3c2aa48c	0.010415208
74	0xbd6da03b	-0.058014136
75	0xbcd7f900	-0.02636385
76	0x3d753f95	0.05987509
77	0x3d5fe145	0.054658193
78	0x3d9c55d9	0.07633562
79	0xbadba597	-0.0016757724
80	0x3d8db361	0.069189794
81	0xbd6f7b74	-0.058467343
82	0x3d7e85fc	0.062139496
83	0xbd4ffafc	-0.050776467
84	0x3ccc41b3	0.024933672
85	0x3da74863	0.081681035
86	0xbd5897c7	-0.05287912
87	0xbd8477d9	-0.064681716
88	0x3c9febe0	0.019521654
89	0xbd84a41c	-0.06476614
90	0xbd99cab0	-0.07509363
91	0x3d6974be	0.0569961
92	0xbd41093e	-0.047127955
93	0x3d0aa9b0	0.033853233
94	0x3ce32445	0.027727256
95	0x3d746a8b	0.05967192
96	0xbc9229d4	-0.01784221
97	0x3d4803b7	0.048831668
98	0x3d89b588	0.067240775
99	0x3a8046bf	0.0009786709
100	0x3d974eb5	0.07388059
101	0x3d17fed7	0.03710827
102	0x3d7a32cf	0.06108361
103	0xbd0aa19b	-0.033845525
104	0x3c7c9e5e	0.015418617
105	0x388ba177	6.658112e-05
106	0x3d8bc3e3	0.06824472
107	0xbd7e1864	-0.06203498
108	0xbc5d8c51	-0.013522224
109	0x3d138872	0.036018796
110	0xbd20f498	-0.039295763
111	0x3c8bd09a	0.017067242
112	0xbd41d8b2	-0.047325797
113	0xbd7c5ccf	-0.061611947
114	0xbca2ce3f	-0.019873736
115	0x3d459119	0.04823408
116	0xbd8d9217	-0.0691263
117	0x3d040c5f	0.03223836
118	0x3d181d7f	0.037137505
119	0xbd51e1e0	-0.0512408
120	0xbd6dc927	-0.058053162
121	0xbd91c70c	-0.07118043
122	0xbc37f551	-0.011227922
123	0xbc8ed9af	-0.017437784
124	0x3c8b151b	0.016977837
125	0xbcb893e2	-0.022531454
126	0x3c45bdc3	0.0120691685
127	0xbd591bce	-0.053005032
128	0x3dca74c1	0.0988555
129	0x3ca15342	0.01969302
130	0xbb7717cc	-0.0037703393
131	0x3d24772c	0.040152714
132	0x3d1cd81d	0.03829204
133	0x3cc3610e	0.02384999
134	0xbce143d0	-0.027498156
135	0x3db005f6	0.08594887
136	0x3d6918d6	0.05690845
137	0x3d6a5bf0	0.057216585
138	0x3cc2c474	0.023775317
139	0x3d7a1d24	0.061062947
140	0x3d476b62	0.048686393
141	0x3da35578	0.07975286
142	0x3ceb1ca8	0.028700188
143	0xbd4843f2	-0.048892923
144	0x3cd0cf67	0.025489522
145	0xbc8836a0	-0.01662761
146	0x3d7454de	0.05965125
147	0x3df39f76	0.11895649
148	0xbd88f140	-0.0668664
149	0x3d2c235e	0.042025916
150	0x3d98a4a4	0.07453278
151	0xbd881643	-0.06644871
152	0x3ccad552	0.024759922
153	0x3d97fc32	0.07421149
154	0x3db95317	0.09049051
155	0xbd857a39	-0.06517453
156	0xbd554448	-0.05206707
157	0x3b14cc5c	0.0022704815
158	0xbc5ffdd0	-0.013671353
159	0x3d2d57fc	0.042320237
160	0xbd759279	-0.05995414
161	0x3cae2f23	0.02126271
162	0xbd59e534	-0.0531971
163	0x3b22d511	0.0024846236
164	0x3cb48a7a	0.022038687
165	0x3d0d47bc	0.03449224
166	0xbbc231c6	-0.0059263436
167	0xbc37a0a2	-0.011207731
168	0x3d8b2a75	0.067952074
169	0xbcace0e9	-0.02110334
170	0xbd768b05	-0.060191173
171	0xbd7c1c39	-0.061550353
172	0x3b9f7fd9	0.0048675356
173	0xbd2f093a	-0.04273341
174	0x3c4af42e	0.012387319
175	0xbcd9ee0d	-0.02660277
176	0x3d2b2203	0.041780483
177	0xbd2f93a6	-0.042865418
178	0x3c1470d4	0.009060103
179	0x3d55484a	0.052070893
180	0x3d504bce	0.050853543
181	0x3d16bbd3	0.036800217
182	0x3d5df2b8	0.054186553
183	0x3ce8cc49	0.028417723
184	0x3d819e22	0.063289896
185	0xbc967eb3	-0.018370962
186	0x3d208343	0.03918768
187	0x3dd0f227	0.10202437
188	0x3ccd6bd8	0.025075838
189	0xbcc6a157	-0.024246855
190	0xbc8c8cd7	-0.017157001
191	0x3d8ba4da	0.06818552
192	0x3984ddd5	0.0002534228
193	0x3d179fb4	0.03701754
194	0xbd962792	-0.07331766
195	0xbc4b4f96	-0.0124091115
196	0xbd6f2f24	-0.058394566
197	0x3d951a47	0.07280403
198	0xbcd0d309	-0.025491254
199	0x3ccef1b2	0.025261734
200	0x3cc915c3	0.02454651
201	0x3d69d139	0.057084296
202	0x3d7a8a59	0.061167095
203	0xbb00e9bf	-0.0019670574
204	0x3d698ea5	0.057020802
205	0x3cca94c6	0.024729144
206	0x3cc77b2d	0.024350727
207	0x3d1b3d6d	0.037900377
208	0xbbef0ad4	-0.007294992
209	0xbd5fe768	-0.054664046
210	0x3d240c47	0.04005077
211	0xbd76b3b2	-0.060229965
212	0xbc941717	-0.018077416
213	0x3d80284f	0.06257688
214	0xbd500308	-0.05078414
215	0x3cb1a483	0.02168489
216	0x3b90fbaa	0.004424532
217	0x3d6c06bc	0.05762361
218	0xbd5d58bc	-0.0540397
219	0x3c4a6116	0.012352249
220	0x3c239cb5	0.009986092
221	0xbd92f32a	-0.07175286
222	0x3bbc7a7d	0.0057519064
223	0xbd870ac6	-0.06593852
224	0x3d578c62	0.052624114
225	0xbd1953d7	-0.03743347
226	0xbd4d6b0b	-0.050150912
227	0x3d59f043	0.053207647
228	0xbd6c7ec6	-0.057738088
229	0xbd270a1c	-0.040781125
230	0xbb684b16	-0.0035445145
231	0xbd41cc44	-0.047313944
232	0x3ca936ea	0.020656068
233	0x3c754ef9	0.014972442
234	0xbbcd83d1	-0.0062718173
235	0x3d623e81	0.05523539
236	0x3d5e28ec	0.054238245
237	0xbd221ea4	-0.039580002
238	0xbd3992eb	-0.045306128
239	0xbd27c3af	-0.040958103
240	0x3d844b1a	0.06459637
241	0x3db22cf8	0.08699983
242	0x3d4e5b24	0.050379887
243	0x3d00d9b7	0.03145763
244	0xbd25db54	-0.04049237
245	0x3d2456c6	0.040121816
246	0xbd9c26e7	-0.076246075
247	0xbd1fc413	-0.03900535
248	0xbd0cad66	-0.034345053
249	0xbda36f1e	-0.07980178
250	0xbda2b94a	-0.07945497
251	0x3d526636	0.051367007
252	0xba785b8f	-0.00094740925
253	0x3d839893	0.064255856
254	0x3cc613bb	0.02417933
255	0xbbdfc989	-0.006829445

nodes.0.nodes.0.callable.fc1_x1.bias f4 [150]
0	0x3d6d9ada	0.058009006
1	0x3cc622d8	0.024186537
2	0x3d2b862f	0.041876014
3	0xbd359fba	-0.04434178
4	0x3d8e9f5b	0.069639884
5	0xbd8871d2	-0.066623345
6	0x3bd29cf9	0.006427404
7	0x3c91c914	0.017796077
8	0x3db66782	0.08906461
9	0x3cf4d75e	0.029887851
10	0x3d8c4f92	0.06851114
11	0xbd96b3ff	-0.0735855
12	0xbd2847b5	-0.04108401
13	0xbc5ca824	-0.013467822
14	0x3d5fcebe	0.054640524
15	0xbd9cc90f	-0.076555364
16	0x3c45d18d	0.012073887
17	0xbb79f56e	-0.0038140672
18	0xbd991053	-0.07473817
19	0x3d15a1d5	0.03653129
20	0xbcb3606b	-0.021896562
21	0xbcd6cb1e	-0.0262199
22	0xbd1627eb	-0.036659162
23	0x3cad5bea	0.021161992
24	0xbd8aa009	-0.067688055
25	0x3d888d43	0.066675685
26	0xbb92d13e	-0.00448051
27	0xbc9ca8df	-0.019123493
28	0xbd4f91d2	-0.050676174
29	0x3d147263	0.0362419
30	0x3db12d3a	0.086512044
31	0x3c7a40f8	0.015274279
32	0xbd48f102	-0.049057968
33	0x3d9d6c92	0.07686724
34	0xbbc3d89d	-0.00597675
35	0xbcd9fce4	-0.026609845
36	0xbdb89fc0	-0.09014845
37	0x3bfc2d4c	0.0076958295
38	0xbd8097f1	-0.062789805
39	0xbcb88e5d	-0.022528822
40	0x3d236478	0.039890736
41	0x3c918475	0.017763356
42	0xbd6773a3	-0.056506764
43	0xbda4b779	-0.08042807
44	0xbd896a04	-0.06709674
45	0xbd688d4b	-0.056775372
46	0xbd90a2d6	-0.070623085
47	0x3b8a0f71	0.0042132665
48	0xbd68aa39	-0.056802962
49	0xbdb48975	-0.0881528
50	0xbd1841c8	-0.03717211
51	0xbd30218b	-0.04300074
52	0xbc94dd33	-0.018171882
53	0x3d83d4fe	0.064371094
54	0x3d7ecdfb	0.062208157
55	0xbd8a3f5c	-0.06750366
56	0x3d221154	0.039567307
57	0xbd4dbf11	-0.050231043
58	0x3d13dc69	0.03609887
59	0x3d038dc8	0.032117635
60	0x3d4242b0	0.04742688
61	0x3db96136	0.09051745
62	0x3d682dc7	0.05668428
63	0x3d10077e	0.035163395
64	0x3d885956	0.066576645
65	0xbc3feafd	-0.01171374
66	0x3c4dd8c9	0.012563893
67	0x3d9720a8	0.073792756
68	0x3d865bde	0.06560491
69	0x3d8a2026	0.06744413
70	0xbb88ae91	-0.0041712006
71	0xbd614d4f	-0.055005368
72	0xbcc777e2	-0.024349157
73	0x3d933b08	0.07188994
74	0xbd0dd915	-0.034630854
75	0x3cd037ed	0.025417292
76	0xbd51ba5c	-0.051203117
77	0xbda13f10	-0.07873356
78	0x3d57f2c2	0.052721746
79	0xbce6c9df	-0.028172432
80	0xbd8aba41	-0.06773806
81	0x3c9a1b8f	0.01881197
82	0x3d647f72	0.055785604
83	0xbc9430fd	-0.018089766
84	0xbd6c6d53	-0.057721447
85	0x3d8d73e2	0.069068685
86	0x3dc3b81d	0.09556601
87	0x3dab7609	0.08372123
88	0x3d58f387	0.05296662
89	0x3d01efef	0.03172296
90	0x3ce84397	0.028352542
91	0xbd2a4a65	-0.041574854
92	0xbd50f560	-0.051015258
93	0x3c0cece8	0.008601405
94	0x3dcb95cf	0.09940683
95	0x3da5f3ed	0.08103166
96	0x3cc80a8b	0.02441909
97	0xbd800c82	-0.06252386
98	0xbcbc4f0c	-0.022986911
99	0xbd9c9f21	-0.07647539
100	0xbc58bf26	-0.013229167
101	0xbd9940b0	-0.07483041
102	0x3c31c47e	0.01085007
103	0x3d730784	0.05933334
104	0x3d5e8141	0.054322485
105	0xbc9b0dae	-0.018927421
106	0xbcee7fc0	-0.02911365
107	0xbd57d83b	-0.052696448
108	0xbd2212a0	-0.039568543
109	0x3c800460	0.015627086
110	0x3a1284e6	0.00055892614
111	0x3cd02805	0.025409708
112	0xbd25cdc9	-0.040479455
113	0x3cdcd70e	0.026958015
114	0xbc1341c1	-0.008987845
115	0x3c86d766	0.016460132
116	0x3d51c36f	0.05121177
117	0xbd3aa26e	-0.04556506
118	0x3d960d75	0.073267855
119	0xbbd64167	-0.0065385583
120	0xbd5b0798	-0.05347404
121	0xbd4346b3	-0.047674846
122	0xbd2a37a1	-0.041556958
123	0xbc883ac7	-0.01662959
124	0x3d3b3648	0.045706064
125	0xbd817db6	-0.063228056
126	0xbc945c82	-0.018110517
127	0x3da7e63e	0.08198212
128	0xbd88820e	-0.06665431
129	0xbd22eca1	-0.03977645
130	0xbd6ffdd6	-0.058591686
131	0x3d636b49	0.055522237
132	0x3d0b86e3	0.034064185
133	0x3d04ee6d	0.032453943
134	0x3c716cb0	0.014735386
135	0xbd90130a	-0.070348814
136	0xbb83c846	-0.004021677
137	0xbb933219	-0.004492056
138	0x3d8d2d65	0.06893424
139	0xbd8f70bf	-0.070039265
140	0xbd844123	-0.06457736
141	0x3cbd3ba9	0.023099737
142	0x3caeaf25	0.02132375
143	0xbd8a752d	-0.06760631
144	0x3d35a910	0.044350684
145	0xbacac45c	-0.0015469897
146	0x3d895fda	0.06707735
147	0xbd8f24ca	-0.06989439
148	0x3cb8cdb9	0.022559034
149	0xba91a27f	-0.001111105

nodes.0.nodes.0.callable.fc2_x1.weight f4 [150, 150]
0	0x3d88dc26	0.06682615
1	0xbbc5e761	-0.0060395454
2	0x3d60b994	0.05486448
3	0xbc4b6e6e	-0.012416465
4	0x3b2186b8	0.002464695
5	0x3db686ba	0.08912416
6	0xbd04638b	-0.032321494
7	0xbccfe170	-0.025376052
8	0x3c83daea	0.016095597
9	0xbd8200a9	-0.06347782
10	0xbcae861c	-0.021304183
11	0xbd8aa84d	-0.06770382
12	0x3aac836a	0.0013161723
13	0xbd81bedb	-0.06335231
14	0xbc0f7f85	-0.00875843
15	0x3c64c9d9	0.01396414
16	0x3d61158a	0.054952182
17	0xbd7d6b1b	-0.06186972
18	0xbe22b044	-0.15887552
19	0xbd3bbc92	-0.04583413
20	0x3ca33366	0.01992197
21	0x3995e384	0.00028589007
22	0x3d7aa6de	0.061194293
23	0x3c16490c	0.009172689
24	0xbc8f5279	-0.01749538
25	0x3c985fdb	0.018600395
26	0xbc9b4963	-0.018955892
27	0x3d5e5b71	0.054286424
28	0x3d36b62c	0.044607326
29	0x3d3a0c76	0.04542204
30	0x3db6958c	0.089152426
31	0xbc7e12ab	-0.0155073805
32	0x3c1f45d5	0.009721239
33	0x3c18b109	0.009319552
34	0x3d6efcfe	0.05834674
35	0xbd1bdbbe	-0.03805136
36	0x3d502f99	0.050826643
37	0xbc67d4e5	-0.014149879
38	0x3d3d5a0a	0.046228446
39	0xbd2c50ed	-0.042069364
40	0xbbc0e6d3	-0.0058868914
41	0x3ca97b99	0.020688819
42	0xbd9bdabe	-0.07610081
43	0xbc12211a	-0.008919025
44	0x3d688236	0.056764804
45	0xbd047391	-0.032336775
46	0xbdea0c9f	-0.114281885
47	0x3c34c3fb	0.0110330535
48	0x3d3d4eed	0.046217848
49	0xbd5264b5	-0.051365573
50	0xbd08c2f2	-0.03338904
51	0xbc894bec	-0.016759835
52	0xbc95f862	-0.018306915
53	0x3d2459b7	0.04012462
54	0xbd0638d7	-0.03276905
55	0xbd5a5c15	-0.053310473
56	0xbca00032	-0.019531343
57	0x3d34d943	0.04415251
58	0x3d0147e7	0.031562712
59	0xbc659cd6	-0.014014443
60	0xbc925328	-0.017861918
61	0xbb932fc4	-0.004491778
62	0xbbabf5cc	-0.005247807
63	0x3d197984	0.037469402
64	0xbca62663	-0.020281976
65	0x3cb1ec32	0.021719072
66	0xbd31103c	-0.043228373
67	0x3a69e846	0.0008922856
68	0xbd9b9ce7	-0.07598286
69	0xbd2f867e	-0.04285287
70	0x3c639266	0.013889885
71	0x3d025e4d	0.031828213
72	0xbd761370	-0.06007713
73	0x3cd7bc87	0.026335014
74	0xbd8f7a43	-0.070057414
75	0x3ac0a040	0.0014696196
76	0x3c25b1e4	0.010113213
77	0xbb085126	-0.0020800321
78	0xbcbe76cb	-0.023250004
79	0x3ca8f522	0.020624701
80	0x3d008e16	0.031385504
81	0x3caf5153	0.021401083
82	0x3d8445bf	0.064586155
83	0x3d49782f	0.04918688
84	0x3d5612c6	0.052263997
85	0xbdd4e096	-0.10394399
86	0x3d7cb937	0.061700072
87	0xbc7069f7	-0.0146737015
88	0xbdbaf0bd	-0.091279484
89	0x3caac5e2	0.020846311
90	0xbc30e6a7	-0.010797179
91	0xbc9b8536	-0.018984418
92	0x3d7b200f	0.06130987
93	0xbce43afa	-0.027860153
94	0x3dc15acf	0.094411485
95	0x3d43cadd	0.047800887
96	0x3db07597	0.086161785
97	0xbb42774d	-0.002967316
98	0x3cc9c27f	0.024628876
99	0x3d88891b	0.06666776
100	0x3bb161d2	0.0054132724
101	0xbce22d00	-0.027609348
102	0xbc150abd	-0.0090967985
103	0xbc6045ec	-0.013688546
104	0xbd585ac7	-0.052820947
105	0x3d1241b4	0.03570719
106	0x3b02ff0f	0.0019988453
107	0xbd86ba7f	-0.0657854
108	0xbd83bf37	-0.06432956
109	0xbd2fb137	-0.042893615
110	0xbd6d37f7	-0.0579147
111	0xbcd31aa1	-0.025769534
112	0x3d553077	0.052048173
113	0xbc756068	-0.014976598
114	0xbcf0ba45	-0.029385695
115	0xbdcd8d6b	-0.10036739
116	0xbd20404f	-0.03912383
117	0xbbd439e9	-0.00647663
118	0x3d4b3869	0.049614344
119	0xbc4c3b30	-0.012465283
120	0xbd124b3e	-0.035716288
121	0x3d845a28	0.064625084
122	0xbd817477	-0.06321042
123	0xbc206830	-0.009790465
124	0xbb982083	-0.0046425476
125	0xbd22ed43	-0.03977705
126	0x3d5a4494	0.053288057
127	0xb9bc4df3	-0.0003591623
128	0x3d8133a9	0.063086815
129	0x3cd12bb7	0.02553354
130	0xbde847b9	-0.11341805
131	0xbc0f509f	-0.008747249
132	0xbd05ac21	-0.032634858
133	0x3d226883	0.03965045
134	0xbc9aefec	-0.018913232
135	0x3d3fd90b	0.046837848
136	0xbd8111c6	-0.06302218
137	0xbcde90a4	-0.02716858
138	0x3c2c263d	0.010507164
139	0xbd1f4526	-0.038884304
140	0xbce07278	-0.027398333
141	0x3c889037	0.01667033
142	0x3d759eb1	0.059965793
143	0x3d55e9e5	0.052225012
144	0x3d92be0f	0.07165157
145	0x3d1257f1	0.0357284
146	0xbc90fb4e	-0.017697956
147	0xbd8a08f7	-0.06739991
148	0xbcff607f	-0.031173943
149	0xbd602271	-0.054720346
150	0xbd498a5f	-0.049204227
151	0xbd897ff8	-0.06713861
152	0xbd44f8ec	-0.048088953
153	0xbd473e5c	-0.048643455
154	0xbd52b0b2	-0.05143804
155	0x3aa2015f	0.0012360028
156	0xbd879cbc	-0.066216916
157	0xbd64a4d9	-0.055821273
158	0x3c31a161	0.010841698
159	0xbc2c5d0e	-0.010520233
160	0xbc9f1ec7	-0.019423855
161	0xbcdd1ee7	-0.026992274
162	0x3c0fb270	0.00877057
163	0x3d0180e7	0.03161707
164	0x3c921ae9	0.017835097
165	0x3da81029	0.08206207
166	0xbd836700	-0.0641613
167	0x3cc91aaf	0.024548857
168	0x3e267893	0.16256933
169	0xbcc2ff9a	-0.023803521
170	0x3dbaea99	0.09126777
171	0xbca18627	-0.01971729
172	0xbd3b6794	-0.045753077
173	0xbd762b87	-0.060100105
174	0xbcb66fc0	-0.022270083
175	0xbd502244	-0.05081393
176	0xbd2c02fd	-0.041995037
177	0xbbe52e2c	-0.0069940295
178	0x38599101	5.1871877e-05
179	0xbda7f221	-0.08200479
180	0xbd9dfc59	-0.07714147
181	0x3d230ce7	0.039807227
182	0xbd7e5572	-0.062093206
183	0xbc5ac7bf	-0.013353287
184	0xbd2c42f1	-0.042056028
185	0xbd11ae00	-0.03556633
186	0x3d790a78	0.060801
187	0x3dbb2f76	0.09139912
188	0x3aaf387b	0.0013368273
189	0xbd718262	-0.058962233
190	0xbd63c4f1	-0.05560774
191	0x3d27236c	0.040805265
192	0x3d6bc469	0.05756036
193	0xbd0e0d82	-0.03468085
194	0xbcc7a589	-0.024370926
195	0xbd73fb30	-0.059565723
196	0x3b359571	0.0027707482
197	0xbc915ecb	-0.017745396
198	0xba921d78	-0.0011147698
199	0x3d9d3de4	0.0767782
200	0xbd50b74e	-0.050956063
201	0x3d469911	0.04848582
202	0x3d4ed485	0.050495643
203	0x3d2b521d	0.041826356
204	0xbd4a777e	-0.049430363
205	0xbdb56f91	-0.0885917
206	0xbcd39732	-0.025828931
207	0xbd9bb274	-0.076023966
208	0xbdb7aa2f	-0.08968007
209	0x3cfa15ab	0.03052791
210	0x3d5aee92	0.053450175
211	0x3cd7cf95	0.0263441
212	0xbb0544ca	-0.002033519
213	0xbaeb9220	-0.0017972626
214	0x3dbb1a61	0.09135891
215	0xbc90c1a9	-0.01767047
216	0xbd24e75d	-0.040259708
217	0xbd0ec08c	-0.034851596
218	0xbca5f7cb	-0.020259758
219	0x3cc2620d	0.023728395
220	0xbd3296bc	-0.043600783
221	0xbce74b36	-0.028234106
222	0x3cbc315e	0.022972759
223	0xbd827f62	-0.063719526
224	0x3d8c1616	0.0684015
225	0xbd1dd7a7	-0.03853574
226	0xbd8775fa	-0.06614299
227	0xbcd152b5	-0.025552133
228	0xbc1bac34	-0.009501506
229	0xbcccd878	-0.025005564
230	0xbd7033c4	-0.058643118
231	0xb9842a63	-0.00025208583
232	0xbd85d824	-0.06535366
233	0x3d42e44a	0.047580995
234	0x3ceeb1e9	0.029137569
235	0xbd58e707	-0.0529547
236	0xbc63a8b5	-0.013895203
237	0x3c0a0558	0.008424126
238	0x3cc31d0a	0.023817558
239	0xbd7036a5	-0.058645863
240	0x3c97afe6	0.018516492
241	0x3d924ac5	0.071431674
242	0xbc87f864	-0.016597934
243	0x3cb943c6	0.022615325
244	0xb8c5a17e	-9.423772e-05
245	0xbd00662c	-0.03134744
246	0x3d99866e	0.074963436
247	0x3d8b2243	0.06793644
248	0xbc14fe9c	-0.009093907
249	0xbd0e4ab6	-0.03473922
250	0x3d5b9c2c	0.053615734
251	0xbd35d68a	-0.044394054
252	0xbd7cd979	-0.061730836
253	0xbdc40b77	-0.09572499
254	0x3d871c52	0.065971985
255	0x3cfaec83	0.030630356

nodes.0.nodes.0.callable.fc2_x1.bias f4 [150]
0	0xbd5eb0b8	-0.05436775
1	0xbd80081c	-0.06251547
2	0xbbb8d9aa	-0.005641182
3	0x3d9c7866	0.07640152
4	0x3c184850	0.009294584
5	0xbce31262	-0.027718727
6	0xbcc353b6	-0.023843627
7	0xbdc3a955	-0.09553782
8	0xbccb90d7	-0.024849338
9	0x3d020542	0.031743295
10	0xbdc08bf7	-0.09401696
11	0xbb84ad65	-0.0040489906
12	0xbd4b932d	-0.049700905
13	0x3d0310f2	0.031998582
14	0xbc27b17d	-0.010235188
15	0xbd5d542a	-0.054035343
16	0x3c88b56f	0.016688077
17	0xbdfcfd10	-0.12352955
18	0x3dd19d6c	0.10235104
19	0x3c77addb	0.015117134
20	0xbb0b10c1	-0.0021219703
21	0x3cc7459b	0.024325183
22	0xbc10ddb4	-0.008841921
23	0xbd6d3c4d	-0.057918835
24	0xbbfba4a9	-0.007679541
25	0xbd4794e0	-0.048725963
26	0x3b0d38f4	0.002154884
27	0xbd464962	-0.048409827
28	0xbdbc4215	-0.09192292
29	0xbd19c100	-0.037537575
30	0xbdcc5100	-0.09976387
31	0x3d214f0f	0.039382037
32	0xbc1d4059	-0.009597861
33	0x3d6d6abb	0.057963114
34	0x3dc716f1	0.097211726
35	0x3cb1a525	0.021685192
36	0x3d9c4a0a	0.07631309
37	0x3d91fc18	0.07128161
38	0x3dc00890	0.09376633
39	0xbcff99ab	-0.031201204
40	0x3d862385	0.065497436
41	0xbdb6fd53	-0.089350365
42	0x3d1cf42c	0.038318798
43	0xbd488775	-0.048957307
44	0x3c32b2fa	0.010906929
45	0xbd081f5e	-0.03323304
46	0x3d8cec34	0.0688099
47	0x3dd3d132	0.10342635
48	0x3db7a2b9	0.08966584
49	0x3c51c8f6	0.0128042605
50	0xbc7b66f0	-0.015344366
51	0xbc2ca412	-0.010537164
52	0xbd997083	-0.07492163
53	0x3d21cb49	0.03950051
54	0x3d697f8c	0.057006404
55	0xbd00c326	-0.031436108
56	0x3c256a34	0.010096122
57	0x3ce3230e	0.027726676
58	0x3cc46632	0.023974512
59	0xbb867cae	-0.0041042184
60	0xbdaac48c	-0.083382696
61	0x3dcca331	0.09992064
62	0x3be4767c	0.0069721323
63	0xbd9cee58	-0.07662648
64	0x3d0e5fc7	0.03475931
65	0xbd609144	-0.054826036
66	0xbda4ce53	-0.08047166
67	0x3cba27e9	0.022724109
68	0x3d8d08fe	0.06886481
69	0xba0b99f2	-0.0005325369
70	0x3c3c98bd	0.011511025
71	0x3d5b53a1	0.05354655
72	0x3d3336ba	0.043753363
73	0x3cb82720	0.022479594
74	0xbd81f3d8	-0.06345338
75	0xbdb9feb9	-0.090817876
76	0x3dcfc7f9	0.10145564
77	0xba6603c2	-0.00087743637
78	0x3e45e14e	0.19324228
79	0x3d2a33a1	0.041553143
80	0x3d813ca5	0.06310395
81	0xbd83d3e5	-0.064369
82	0x3df7b059	0.120941825
83	0xbdb1c9b6	-0.086810514
84	0x3d9edebf	0.07757329
85	0xbd17ebad	-0.037089992
86	0xbcc1ca80	-0.02365613
87	0x3c7bd0d1	0.01536961
88	0xbd1b29f6	-0.037881814
89	0x3d2ef65c	0.042715415
90	0x3db649a4	0.089007646
91	0xbd9684e3	-0.07349565
92	0xbba02d12	-0.0048881853
93	0x3cdf9685	0.027293453
94	0x3aaca986	0.001317308
95	0x3b5810a1	0.0032968896
96	0x3d1ae0ba	0.037811972
97	0x3d970000	0.07373047
98	0x3dae4cc2	0.08510734
99	0x3d2d404e	0.042297654
100	0x3d481f9e	0.048858277
101	0xbd15577e	-0.036460392
102	0x3cba363d	0.022730941
103	0x3c79ec18	0.015254043
104	0x3cc8dbeb	0.024518928
105	0x3b868978	0.004105743
106	0xbd41cad6	-0.04731258
107	0x3ede641c	0.43435752
108	0xbcb04d5e	-0.021521267
109	0xbd8561c6	-0.065127894
110	0xbd7bee6c	-0.061506674
111	0xbddb7029	-0.10714752
112	0xbdaa7bbd	-0.083243825
113	0x3d19caeb	0.037547033
114	0xbdb61a96	-0.088917896
115	0x3d34b847	0.044121053
116	0x3d73b4ba	0.059498526
117	0x3ccd5eeb	0.025069674
118	0xbd63cf04	-0.055617347
119	0x3cd214b7	0.025644643
120	0xbc4e8d71	-0.012606964
121	0xb98157de	-0.00024670264
122	0xbd35af60	-0.044356704
123	0xb9e7a2b1	-0.00044180968
124	0xbdd1665f	-0.10224604
125	0xbc86a399	-0.016435431
126	0xbc98a39c	-0.018632703
127	0xbd33f211	-0.043932024
128	0xbd54dccd	-0.051968385
129	0x3d53b5fa	0.05168722
130	0x3d757aa7	0.059931424
131	0xbd2d4c1c	-0.04230891
132	0xbda5f772	-0.08103837
133	0x3d8aab17	0.06770914
134	0x3c9a2ed0	0.01882115
135	0xbdb4aa24	-0.08821514
136	0x3cabb4de	0.020960268
137	0x3cf56757	0.029956503
138	0x3d81d14a	0.06338747
139	0xbda72cdf	-0.08162855
140	0x3d4ca211	0.049959246
141	0x3d08f687	0.03343823
142	0xbc387520	-0.0112583935
143	0xbcc90aa9	-0.024541216
144	0xbd61c7e0	-0.055122256
145	0x3da358d9	0.07975931
146	0xbd80dad6	-0.0629174
147	0xbdb21800	-0.08695984
148	0x3b7e458b	0.0038798775
149	0x3b1c14fa	0.0023816214

nodes.0.nodes.0.callable.fc_output_x1.weight f4 [2, 150]
0	0x3cfd2e66	0.030905914
1	0x3a228638	0.000619981
2	0x39fd9691	0.000483681
3	0x3d656eee	0.056013994
4	0xbd559575	-0.052144486
5	0xbd8694c1	-0.06571341
6	0x3a3dedba	0.0007245202
7	0xbdb87c6e	-0.09008108
8	0x39ea3b85	0.00044676304
9	0x3a77ade6	0.0009448215
10	0x3a00c540	0.0004912205
11	0x38e41f41	0.00010877709
12	0x3a16b454	0.0005748917
13	0xbd96cb8d	-0.07363043
14	0x3b8ae32d	0.0042385072
15	0x3a2740a1	0.0006380175
16	0x3a9d58fd	0.001200467
17	0x3ad05614	0.0015894794
18	0x3ac7b1e6	0.0015235513
19	0x393345ff	0.00017096846
20	0x3a035d85	0.0005011189
21	0x39b79ebb	0.00035022743
22	0x3cb01476	0.021494132
23	0xbdc222c3	-0.094792865
24	0x39d1867a	0.0003996378
25	0x3913cc65	0.00014095155
26	0x3d148b4c	0.036265656
27	0x3a160ef9	0.0005724277
28	0xbdb7fb47	-0.08983474
29	0xbd5b65cd	-0.05356388
30	0x3a53a971	0.000807426
31	0xbd500282	-0.05078364
32	0x3970b891	0.0002295694
33	0xbd90ec68	-0.07076341
34	0x3b5b3f16	0.003345435
35	0x3d7ec0d2	0.062195607
36	0x3d87ff01	0.06640435
37	0x3dae8da5	0.0852311
38	0x3da6249f	0.08112454
39	0xbdca6599	-0.098826595
40	0x3daf3807	0.08555608
41	0xbd79bc1e	-0.06097042
42	0x3d9f6208	0.0778237
43	0xbd813fc0	-0.063109875
44	0x3d83343b	0.064064465
45	0x3d0521b5	0.03250285
46	0x3a9f1547	0.0012137078
47	0x3d6304c2	0.05542446
48	0x3d09c098	0.033630937
49	0x3b538914	0.003227775
50	0x3c9451a9	0.018105345
51	0xbd7f2b6a	-0.062297262
52	0xbd8c73f9	-0.068580575
53	0x3d4dc128	0.050233036
54	0xbd826995	-0.063677944
55	0x3d20b22a	0.03923241
56	0x3a8f97f3	0.0010955319
57	0x3cd39053	0.025825655
58	0x39807cb5	0.00024506976
59	0x3a911259	0.001106809
60	0xbdfe2e1f	-0.12411141
61	0x3d50822b	0.050905388
62	0x3d71ecfa	0.05906389
63	0x39536494	0.00020159996
64	0x3a5fd04f	0.00085378153
65	0xbda22dfd	-0.07918928
66	0x3ab047d1	0.0013449137
67	0x3da974b7	0.08274215
68	0x3a14f194	0.000568175
69	0x3d94f7a8	0.07273799
70	0xbd5167ae	-0.051124267
71	0x3d9faff3	0.077972315
72	0x3ac5462a	0.0015050818
73	0xbac474d0	-0.0014988426
74	0xbd8e63fe	-0.06952666
75	0x39d5df68	0.00040792977
76	0x3d738ce3	0.059460532
77	0x3d0c1377	0.03419825
78	0xb8864ee1	-6.40431e-05
79	0x3d2fc431	0.042911712
80	0x3a1f0ab8	0.0006066966
81	0xbab00e96	-0.0013432081
82	0x3d7e01d7	0.062013473
83	0x3a20697b	0.00061192334
84	0x3bc81cf1	0.0061069657
85	0x3d709601	0.058736805
86	0x3a88d2e1	0.0010438823
87	0x3c8d92e4	0.017281957
88	0x3d755ba6	0.059901856
89	0x39b70f17	0.00034915723
90	0x3bb8cc9a	0.005639625
91	0xbd895243	-0.06705143
92	0xbd804600	-0.062633514
93	0x3a917cb7	0.001109979
94	0xbd5af40d	-0.0534554
95	0x3d957b81	0.07298947
96	0xbd9cba3b	-0.07652708
97	0x3dd188b2	0.10231151
98	0xb7d59bbc	-2.5464098e-05
99	0x3a84b84f	0.0010125729
100	0x3d5b14c1	0.05348659
101	0x3a13f8ab	0.00056446594
102	0x3a00b537	0.00049098156
103	0x3d8b80ae	0.06811653
104	0xbd840342	-0.06445934
105	0xbd8cc414	-0.068733364
106	0x39c4369b	0.00037424717
107	0xb818be30	-3.641675e-05
108	0x3a046def	0.0005051782
109	0xbdc1ca64	-0.09462431
110	0x3a7d34f4	0.0009659075
111	0xbdcf72bd	-0.101293065
112	0x398b033c	0.00026514556
113	0x3adc776c	0.0016820258
114	0xbb98197b	-0.0046417094
115	0xba9ff85c	-0.0012204754
116	0xbda845a7	-0.0821641
117	0x3d0e83e3	0.034793746
118	0xbd9fe2f2	-0.07806958
119	0xbc2d6cca	-0.010585019
120	0x3955a3a9	0.00020374231
121	0x3db92e80	0.09042072
122	0xbd9e7bf9	-0.0773849
123	0x3d4c46ac	0.049872085
124	0x39b4b1d2	0.00034464762
125	0x3a49fc59	0.0007705144
126	0x3be7a850	0.007069625
127	0x3a02e318	0.0004992946
128	0x3c81217f	0.015763042
129	0x3d98a440	0.07453203
130	0x3ced9a4c	0.029004239
131	0x3a72dd05	0.0009264502
132	0xb9e6d8e2	-0.0004403061
133	0x3dbf7acd	0.09349594
134	0x39f72acc	0.00047143397
135	0x39ee8021	0.0004549036
136	0xbbd974bc	-0.0066362303
137	0x393afc5f	0.00017832358
138	0x3d81f713	0.06345954
139	0x39a567b4	0.00031548517
140	0xbd8473ff	-0.06467437
141	0x3b2c3286	0.0026275232
142	0x3d2cd8f7	0.0421991
143	0xbd7f9820	-0.062400937
144	0x3a4ab130	0.00077320915
145	0x3d470d53	0.04859669
146	0x3906462f	0.00012805381
147	0x38f68907	0.000117557174
148	0xbde07f10	-0.10961735
149	0xbdabd205	-0.083896674
150	0x3905bb4b	0.0001275364
151	0xb96bc10e	-0.00022483265
152	0x3887a6b7	6.468355e-05
153	0x3983ba3f	0.0002512503
154	0xba0fc4d1	-0.0005484345
155	0xb9f6ffb4	-0.0004711129
156	0xb7c42b0a	-2.3385062e-05
157	0xb8bbd513	-8.956543e-05
158	0x388471fe	6.315483e-05
159	0xba1d4797	-0.00059997424
160	0x384f1b37	4.937799e-05
161	0x39220daf	0.00015454621
162	0x38a75ce2	7.980481e-05
163	0x387a49ba	5.9673308e-05
164	0x3b885947	0.0041610333
165	0xb84dad30	-4.9037102e-05
166	0xba1d62a1	-0.00060037716
167	0xb971392b	-0.00023004848
168	0x3def2b00	0.116781235
169	0x3966b0fb	0.0002200044
170	0x37bf7d5a	2.2827346e-05
171	0x3e1f9fad	0.15588255
172	0xbd8b79c8	-0.06810337
173	0x399b7c36	0.00029656448
174	0x397c173e	0.00024041251
175	0x391ecc57	0.00015144177
176	0x3915f047	0.00014299258
177	0x39546bb6	0.00020258021
178	0xba5a7b79	-0.0008334439
179	0xba053a06	-0.00050821935
180	0xba0b07d0	-0.00053035934
181	0x39d30e92	0.00040255912
182	0x39277e0a	0.00015973314
183	0xb9f8dc27	-0.00047466272
184	0x3d9e711a	0.07736416
185	0x3b5e93b0	0.003396254
186	0x3998af98	0.00029122527
187	0x3a15d5b8	0.00057157455
188	0x3984f063	0.00025356104
189	0xb88e7d79	-6.794459e-05
190	0x395fe626	0.00021352674
191	0xb9fe4cde	-0.00048503926
192	0x396a96f2	0.0002237221
193	0xb946f414	-0.00018973678
194	0x3917f8fc	0.00014493236
195	0x394b27f4	0.00019374472
196	0xba195672	-0.0005849368
197	0x3964694c	0.00021783
198	0x3d6609a8	0.056161553
199	0x3948c4ca	0.00019146796
200	0x3bc49610	0.005999334
201	0xb9eb6dc0	-0.00044904463
202	0xb9a54f56	-0.00031530362
203	0x3c5ff7fc	0.013669964
204	0xb9e42a39	-0.00043519007
205	0xbd1d9d76	-0.038480245
206	0xba0a7559	-0.00052817684
207	0xbd2ccf48	-0.042189866
208	0x39302dd1	0.00016801736
209	0xb9c2c079	-0.00037145967
210	0xba39cb63	-0.0007087497
211	0x39a5e879	0.00031644458
212	0x399f49f7	0.0003038195
213	0x39802610	0.0002444242
214	0xb9b5bc1a	-0.00034663157
215	0xb94ee2d5	-0.00019730192
216	0x38b7b0ae	8.759029e-05
217	0x39cf2346	0.00039508397
218	0x38625b06	5.396737e-05
219	0x39abbc37	0.00032755893
220	0x3b6cbcd7	0.00361233
221	0x38450abc	4.6978457e-05
222	0x39860ad7	0.00025566548
223	0xbd6655ce	-0.056234173
224	0xb93d3126	-0.00018042754
225	0x392218a6	0.00015458706
226	0x391058cd	0.00013765991
227	0x397e3ea0	0.00024246657
228	0x37867fa4	1.6033482e-05
229	0x3959a036	0.00020754416
230	0xb7764d78	-1.468078e-05
231	0xbd6bc0bc	-0.057556853
232	0x398cd9b4	0.00026865082
233	0xb89185ba	-6.939047e-05
234	0x3d9da870	0.076981425
235	0x39a42647	0.00031309036
236	0xba18f432	-0.0005834728
237	0x3d6b4295	0.057436544
238	0x3982a96e	0.00024921767
239	0x393bd435	0.00017912763
240	0x3c815010	0.015785247
241	0xb9e2d0fb	-0.00043261782
242	0x396c656d	0.00022544498
243	0xb9d4297e	-0.00040466705
244	0xb9f3ddf4	-0.0004651394
245	0x3a049a60	0.0005058404
246	0x391bbde2	0.00014852689
247	0x3986550d	0.0002562184
248	0xb91c6843	-0.0001491616
249	0xbd98de5f	-0.07464289
250	0x3b8e4ec3	0.004342885
251	0x388693b5	6.4171305e-05
252	0xbd110cb0	-0.03541249
253	0x39780921	0.00023654524
254	0xb9cd391c	-0.00039143197
255	0x37ef83e7	2.8552442e-05

nodes.0.nodes.0.callable.fc_output_x1.bias f4 [2]
0	0x3d798a80	0.0609231
1	0x3c5510f4	0.01300453

nodes.0.nodes.0.callable.fc1_x2.weight f4 [150, 150]
0	0x3d446f2a	0.047957577
1	0xbd9919ed	-0.07475648
2	0x3d1393ab	0.0360295
3	0x3d4c6bcc	0.04990749
4	0x3ca9d730	0.020732492
5	0x3c8738ac	0.016506515
6	0xbca96f4f	-0.020682959
7	0x3d1a5b86	0.03768494
8	0xbd1a23c4	-0.037631765
9	0xbd89fb6c	-0.06737408
10	0xbc9212dd	-0.01783126
11	0xbd687f98	-0.056762308
12	0x3d193ed0	0.03741342
13	0xbb449fb5	-0.003000242
14	0x3d4efe85	0.050535697
15	0xbc966ff6	-0.018363934
16	0x3d74d910	0.05977732
17	0xbd7e13d7	-0.06203064
18	0xbd48d33b	-0.04902957
19	0xbd4ffd14	-0.050778463
20	0xbd507368	-0.05089131
21	0xbd31050b	-0.0432177
22	0x3d818739	0.0632462
23	0x3d413242	0.04716707
24	0x3d5666d0	0.052344143
25	0xbd8aeb9d	-0.06783221
26	0x3d24b7bd	0.04021429
27	0x3c15eb8c	0.009150397
28	0x3d3566a8	0.044287354
29	0xbc28545c	-0.010274019
30	0x3d7969ed	0.060892034
31	0x3b2b06a6	0.0026096492
32	0xbd929190	-0.0715667
33	0x3c691f2d	0.014228624
34	0x3d16b0f8	0.036789864
35	0x3d3bc250	0.045839608
36	0x3d64c4ed	0.055851866
37	0x3d16e9d5	0.036844093
38	0x3d1412ba	0.03615067
39	0x3d2ca123	0.04214586
40	0xbc74bd38	-0.014937691
41	0xbd9e1250	-0.077183366
42	0x3cde3c48	0.027128354
43	0x3cd3ceb8	0.025855407
44	0x3d6bf5f9	0.057607625
45	0xbd4f5421	-0.05061734
46	0xbd02224b	-0.031770986
47	0x3cc635f3	0.024195647
48	0x3b3517a6	0.0027632504
49	0x3d9704a3	0.07373931
50	0x3d9571db	0.07297107
51	0xbd905faa	-0.070494965
52	0xbc459516	-0.012059471
53	0xbd778a96	-0.0604349
54	0xbd130405	-0.035892505
55	0x3d38691e	0.045022123
56	0xbd9cb42a	-0.07651551
57	0x3cf1b81f	0.029506741
58	0x3b85568f	0.0040691565
59	0x3d7655f6	0.060140572
60	0xbdd3f3a6	-0.103492066
61	0x3ccec817	0.025241895
62	0xbcc58b80	-0.02411437
63	0xbd114a7e	-0.035471432
64	0xbd5f2f13	-0.054488253
65	0x3d2b5c8a	0.0418363
66	0x3d67a3eb	0.05655281
67	0x3cd3b6d3	0.025844013
68	0x3dbaeb23	0.0912688
69	0xbd56df77	-0.052459206
70	0x3d75d47b	0.06001709
71	0xbd31d4f5	-0.043415982
72	0xbd880631	-0.06641806
73	0xbc722b10	-0.014780775
74	0x3da465c1	0.080272205
75	0xbbee8707	-0.00727928
76	0x3c96ae28	0.018393591
77	0x3cccac24	0.024984427
78	0x3c00ec3b	0.007868822
79	0xbc9bd8df	-0.01902431
80	0x3d90e457	0.07074802
81	0x3d139d18	0.03603849
82	0x3d8c3d20	0.06847596
83	0xbbf6b34c	-0.007528698
84	0x3d4fcb4c	0.05073099
85	0xbc5c9204	-0.013462547
86	0x3d4e0d2f	0.05030554
87	0xbce48a27	-0.027897907
88	0x3cbbc386	0.022920381
89	0xbc1d28ab	-0.0095922155
90	0xbd44c771	-0.048041765
91	0xbd892477	-0.06696408
92	0x3d1fe1d8	0.03903374
93	0x3d38e2ec	0.045138285
94	0x3c9246a4	0.01785595
95	0x3bd19845	0.006396326
96	0x3d5b29c1	0.053506617
97	0x3d5c230c	0.05374436
98	0xbd873cbc	-0.06603381
99	0xbd8f9e83	-0.070126556
100	0x3ba1ccf6	0.0049377633
101	0x3d47d149	0.048783574
102	0xbd6c67bd	-0.05771612
103	0xbc6bc132	-0.014389323
104	0xbd0909e1	-0.033456687
105	0xbc978f1b	-0.018500855
106	0x3d96db35	0.07366029
107	0x3c90366c	0.017604075
108	0xbb31bb3e	-0.0027119662
109	0xbd72b392	-0.059253283
110	0xbdbbeaac	-0.091756195
111	0x3ca2dadf	0.019879756
112	0x3db89463	0.090126775
113	0x3d16462f	0.036688026
114	0x3db8b9f0	0.0901984
115	0xbd1ec7a0	-0.038764596
116	0x3b14c1a9	0.0022698438
117	0x3c3cc77b	0.011522169
118	0x3d22a5c1	0.039708856
119	0xbd518957	-0.051156368
120	0xbd9eed87	-0.077601485
121	0x3d443300	0.0479002
122	0x3d640233	0.05566616
123	0x39962557	0.0002863805
124	0xbd858690	-0.065198064
125	0x3d507d14	0.050900534
126	0x3d8a0a83	0.06740286
127	0x3d8db09c	0.06918451
128	0x3b814590	0.00394506
129	0x3d415984	0.04720451
130	0xbbf6fb74	-0.0075372998
131	0xbd3a7c64	-0.045528784
132	0x3d133ad2	0.035944767
133	0x3d1a6c88	0.03770116
134	0x3da7c026	0.08190946
135	0x3d9609f1	0.07326115
136	0x3c07f83e	0.008298932
137	0x3d35aeae	0.04435604
138	0xbd811c73	-0.063042544
139	0xbd554d4e	-0.052075677
140	0xbcb757af	-0.022380678
141	0x3d00aa2f	0.0314123
142	0xbd733a66	-0.059381865
143	0x3d55bd7e	0.052182667
144	0x3d2d633c	0.042330965
145	0xbd2250dd	-0.0396279
146	0xbd9ec4f4	-0.077524096
147	0x3d13aa61	0.036051158
148	0xbd841a0c	-0.064502805
149	0xbcad80f2	-0.02117965
150	0x3d15d598	0.036580652
151	0xbcbc7227	-0.02300365
152	0xbd85f32a	-0.065405205
153	0x3da0fe8a	0.078610495
154	0x3cc4731e	0.023980673
155	0x3daa4c44	0.08315328
156	0x3d9f2aa0	0.07771802
157	0x3b9537ff	0.0045537944
158	0x3d077790	0.033073008
159	0x3bbca4cc	0.00575695
160	0xbcd55df1	-0.026045771
161	0xbd976324	-0.073919564
162	0xbd4e295e	-0.05033242
163	0x3d0a9a35	0.03383847
164	0x3d290e5f	0.04127347
165	0x39b48c9a	0.00034437032
166	0xbd8f22ce	-0.0698906
167	0xbd83da6d	-0.06438146
168	0x3c4d930e	0.012547268
169	0x3cd3edf3	0.025870299
170	0x3c7fedbb	0.015620644
171	0xbc8d07c1	-0.017215611
172	0x3d4af2ce	0.049547963
173	0xbd7a7872	-0.06115002
174	0x3d322795	0.04349478
175	0x3bd966e6	0.006634581
176	0xbd70da47	-0.058801915
177	0xbd08271c	-0.033240423
178	0x3c01381d	0.007886914
179	0xbc480fda	-0.012210811
180	0x3cc6c524	0.024263926
181	0x3d3c37ae	0.045951538
182	0x3cd010b9	0.025398599
183	0x3d478b0b	0.048716586
184	0xbd8345a2	-0.06409766
185	0xbc6f77cd	-0.014615965
186	0xbd4ce86c	-0.050026342
187	0x3d376ac3	0.04477955
188	0x3d6d5cb7	0.057949748
189	0xbc321003	-0.010868075
190	0x3dae6998	0.08516234
191	0xbd7ac590	-0.061223567
192	0x3d756980	0.059915066
193	0x3d045b9d	0.03231393
194	0xbc3df7fb	-0.011594768
195	0x3d458469	0.04822198
196	0xbd91bbfb	-0.071159326
197	0xbca10b7b	-0.019658795
198	0x3d670aeb	0.056406897
199	0x3d4923a7	0.049106266
200	0x3c642952	0.013925867
201	0xbc0a06d4	-0.0084244795
202	0xbd2bc7f1	-0.041938726
203	0xbcdd2f3d	-0.027000064
204	0x3da3a314	0.07990089
205	0xbd4a6885	-0.049416084
206	0x3d137daa	0.036008514
207	0x3bf3dfca	0.007442449
208	0x3d1d1969	0.03835431
209	0xbd9f2646	-0.07770972
210	0xbd3ac454	-0.04559739
211	0x3ca338b2	0.019924495
212	0x3c5aefa8	0.013362803
213	0xbd606374	-0.054782346
214	0xbd7b9c39	-0.061428282
215	0xbc844899	-0.016147899
216	0xbda3562f	-0.079754226
217	0xbc9a1083	-0.018806702
218	0xbd8b2b54	-0.067953736
219	0x3d91e799	0.07124252
220	0xbc86d956	-0.016461056
221	0x3d2ea4ee	0.042637758
222	0xbd97fd90	-0.0742141
223	0x3d9853d0	0.07437861
224	0x3d7c6458	0.061619133
225	0x3d3b279f	0.045692082
226	0xbc6c69ff	-0.014429568
227	0xbd318972	-0.04334397
228	0xbd1d5fac	-0.038421318
229	0xbb192710	-0.002336923
230	0x3cee4ebc	0.029090278
231	0x3d68f463	0.05687369
232	0xbd9e763f	-0.077373974
233	0x3ceb5fa1	0.028732123
234	0xbc93b9d9	-0.018032955
235	0xbbfd8f32	-0.0077380175
236	0xbaf2bcac	-0.0018519363
237	0x3c29c70e	0.0103624
238	0xbd8b9ca7	-0.068169884
239	0x3d968707	0.07349973
240	0x3d7019d6	0.05861839
241	0xbd7e2121	-0.062043313
242	0xbd88c6f8	-0.06678575
243	0x3d760865	0.0600666
244	0xbd85b35d	-0.065283515
245	0xbcd8abd0	-0.026449114
246	0xbba8ca9f	-0.0051511074
247	0x3d7b02c7	0.061281946
248	0x3c9b87c2	0.018985633
249	0x3da85cac	0.08220801
250	0xbd2029ff	-0.03910255
251	0x3d38bdb1	0.04510278
252	0x3d023403	0.031787883
253	0xbd61c3b3	-0.055118274
254	0xbcd491b3	-0.025948381
255	0xbcb747ea	-0.022373158
