training_outputs/softmax/models/model_softmax_N35.pt (torch, 372353 bytes, 14 tensors)

weight f4 [140, 72]
0.2271935 -0.16214637 -0.013038032 -0.07236853 0.0199605 0.068382494 0.00093965995 0.05355947
-0.019684575 0.026082624 -0.024378853 -0.040409386 -0.011909833 -0.036068756 -0.019684467 -0.10191681
-0.006691342 -0.13639653 -0.034181878 -0.02198951 -0.025454199 0.03311721 -0.007531099 -0.07908098
-0.049321625 -0.052736677 -0.003975533 0.061331447 -0.00026750998 -0.029517712 -0.017210258 -0.03236157
-0.012033725 -0.0027647843 -0.023695197 0.023875216 -0.0054298495 -0.0019635956 -0.017380826 -0.034723066
-0.011504274 0.03771228 -0.013291655 -0.060275637 -0.020734496 0.02162805 -0.003460728 0.033962164
-0.0040858677 -0.04625412 -0.011618228 -0.019147454 -0.0009807548 0.057206906 -0.0010897557 -0.053377975
-0.015442354 0.024605485 0.000729653 0.0009543748 -0.001980469 0.012713297 0.008944941 -0.036601104
-0.0025975045 0.019355573 0.006584391 -0.0007767103 -0.0025455628 0.02511732 -0.008627145 -0.011985307
-0.11832281 -0.039402243 -0.018311739 -0.12329929 0.024758555 -0.0640283 0.011472306 0.0021118154
0.022349896 -0.043258246 0.0015325487 0.055501185 0.03918219 -0.03914731 -0.040092587 0.012757756
-0.016140014 -0.0074717607 -0.015987094 0.0395266 -0.02360447 -0.032235835 -0.014313361 0.0372366
0.043207802 -0.044637375 0.018797273 0.0021233598 -0.016541513 -0.040148903 -0.0017229186 0.039092917
-0.019108273 -0.0152049 -0.0039453865 0.030864503 0.026749786 -0.060306992 -0.0032827128 0.011348399
0.0352184 0.004099339 -0.0031091927 -0.04137871 0.027472394 0.052922305 -0.01584785 -0.026504435
0.02906811 -0.006088238 -0.041434918 0.0005352771 -0.009149007 0.023793623 0.0067361644 -0.03208468
-0.0015762968 -0.013978605 -0.017439924 0.037003066 0.0036617017 0.019148955 -0.029945692 -0.04618756
-0.004813416 0.018400457 -0.00679687 -0.008927972 0.0046441723 0.0073954756 -0.040493578 -0.02276424
-0.055688124 -0.20023564 -0.03545837 0.086742476 0.060665637 -0.058300007 0.004140536 -0.019161707
0.009044719 -0.12247874 -0.0032386063 -0.15246831 0.005525045 -0.04480265 0.06580021 -0.0060227825
0.0258838 0.07605003 -0.053589594 -0.08825928 0.061547745 0.063360274 -0.02428969 -0.011837552
-0.027463146 0.04372178 0.045907546 0.016429493 0.03945299 0.09285886 0.033216506 -0.040743567
-0.044891577 0.050252996 -0.018909352 -0.023928244 -0.065193124 0.023316797 0.011230909 -0.012266538
0.024370937 -0.062033202 -0.01969545 -0.03379249 0.02759 -0.07623641 0.014401351 -0.025620427
-0.026920553 0.08240329 0.017000817 0.013459851 0.013797733 -0.07699889 0.016789902 -0.019237923
0.006569276 0.040027656 0.025340742 -0.0050297994 -0.024534449 0.036976773 -0.017495235 -0.014379406
-0.043041177 0.034617107 -0.031597584 -0.032101475 -0.04928595 -0.0068027717 -0.029298555 -0.08088884
0.07735942 0.049805675 0.013622784 0.1422703 0.024189308 -0.02665031 -0.009113961 0.02524812
-0.0038859183 0.029623723 0.011564635 0.06830453 0.020999543 -0.08085652 -0.054516453 0.045665063
-0.032005675 -0.02296943 0.05599928 0.061525546 -0.002665418 -0.06368279 0.023460126 0.021181848
0.009328688 0.020380186 0.030077824 -0.025798863 0.04455771 -0.053491324 0.058121804 0.07569036
0.028068062 -0.02346566 -0.02763175 -0.004229483 -0.025687978 -0.0049149003 -0.006782931 0.03271796
00000000: 6aa5 683e b309 26be 789d 55bc f435 94bd
00000010: 3484 a33c 1f0c 8c3d 8353 763a 2d61 5b3d
00000020: 8c41 a1bc 3aab d53c 29b6 c7bc 5084 25bd
00000030: 7621 43bc d5bc 13bd 5241 a1bc c3b9 d0bd
00000040: 0c43 dbbb 88ab 0bbe 4c02 0cbd 5823 b4bc
00000050: 5385 d0bc e9a5 073d 70c7 f6bb 35f5 a1bd
00000060: 7905 4abd 6a02 58bd 3045 82bb af36 7b3d
00000070: 9540 8cb9 21cf f1bc 87fc 8cbc 918d 04bd
00000080: 1a29 45bc 6231 35bb 6e1c c2bc f595 c33c
00000090: e1ec b1bb abaf 00bb 3c62 8ebc c639 0ebd
000000a0: 6c7c 3cbc 3178 1a3d 3ec5 59bc 96e3 76bd
000000b0: 64db a9bc 4f2d b13c 62cd 62bb e91b 0b3d
000000c0: bee2 85bb f674 3dbd 615a 3ebc 1fdb 9cbc
000000d0: ac8c 80ba ca51 6a3d 22d6 8eba dda2 5abd
000000e0: ed01 7dbc 7191 c93c 2f46 3f3a 022f 7a3a
000000f0: c2ca 01bb 6f4b 503c cd8d 123c 0aeb 15bd
00000100: e53a 2abb 948f 9e3c e0c1 d73b 259c 4bba
00000110: 75d3 26bb d6c2 cd3c de58 0dbc 055e 44bc
00000120: 3b53 f2bd 3f64 21bd 8002 96bc 5784 fcbd
00000130: 74d2 ca3c 4521 83bd 57f6 3b3c 6266 0a3b
00000140: 2117 b73c 8f2f 31bd cddf c83a 3655 633d
00000150: 817d 203d ee58 20bd 2038 24bd e805 513c
00000160: 1038 84bc acd5 f4bb 5ef7 82bc a5e6 213d
00000170: 295e c1bc b909 04bd 9682 6abc 6885 183d
00000180: aafa 303d aed5 36bd bdfc 993c 1128 0b3b
00000190: 1182 87bc 2d73 24bd 8ed3 e1ba e51f 203d
000001a0: f488 9cbc f91d 79bc 4d48 81bb 8ed7 fc3c
000001b0: 5e22 db3c 7704 77bd c822 57bb a3ee 393c
000001c0: 2b41 103d bf53 863b 99c3 4bbb b97c 29bd
000001d0: c90d e13c 0fc5 583d 5ad3 81bc d41f d9bc
000001e0: 3f20 ee3c d87f c7bb a9b7 29bd d751 0c3a
000001f0: b7e5 15bc d8ea c23c 0bbb dc3b 3a6b 03bd
00000200: be9b ceba 8506 65bc 2cde 8ebc 8790 173d
00000210: 29f9 6f3b 45de 9c3c ab50 f5bc 2b2f 3dbd
00000220: dcb9 9dbb 8ebc 963c 47b8 debb a146 12bc
00000230: 242e 983b bf55 f23b 98dc 25bd 127c babc
00000240: 3b19 64bd 920a 4dbe cc3c 11bd 0aa6 b13d
00000250: 887c 783d fdcb 6ebd 55ad 873b 03f9 9cbc
00000260: 4d30 143c 22d6 fabd cc3e 54bb a720 1cbe
00000270: 700b b53b fc82 37bd 43c2 863d c35a c5bb
00000280: 430a d43c 1ec0 9b3d c380 5bbd 48c1 b4bd
00000290: 7d19 7c3d 08c3 813d 2cfb c6bc 4bf2 41bc
000002a0: 64fa e0bc 9c15 333d 8d09 3c3d 2597 863c
000002b0: 7599 213d c92c be3d 080e 083d bae2 26bd
000002c0: 3be0 37bd 16d6 4d3d c9e7 9abc 2a05 c4bc
000002d0: f983 85bd de02 bf3c d901 383c 97f9 48bc
000002e0: 8fa5 c73c 8716 7ebd 5a58 a1bc fe69 0abd
000002f0: 6c04 e23c d621 9cbd a5f3 6b3c eee1 d1bc
00000300: 7e88 dcbc 0ec3 a83d 4c45 8b3c b586 5c3c
00000310: e30f 623c 98b1 9dbd fa8a 893c d998 9dbc
00000320: 1543 d73b 0af4 233d 6397 cf3c 04d1 a4bb
00000330: 78fc c8bc f574 173d 2b52 8fbc 9a97 6bbc
00000340: f24b 30bd abca 0d3d 786c 01bd d67c 03bd
00000350: 10e0 49bd c9e9 debb 8603 f0bc 0ca9 a5bd
00000360: 9e6e 9e3d 0901 4c3d 1932 5f3c 4eaf 113e
00000370: a828 c63c c051 dabc b952 15bc 25d5 ce3c
00000380: e4aa 7ebb 73ad f23c 9879 3d3c 3fe3 8b3d
00000390: 3c07 ac3c 1a98 a5bd a54c 5fbd 4a0b 3b3d
000003a0: 6218 03bd 632a bcbc 805f 653d 3602 7c3d
000003b0: 4bae 2ebb 1f6c 82bd 732f c03c 8e85 ad3c
000003c0: 5ad7 183c 59f4 a63c c565 f63c 2358 d3bc
000003d0: 2582 363d b819 5bbd 2111 6e3d 8c03 9b3d
000003e0: feee e53c 0e3b c0bc fb5b e2bc 7a97 8abb
000003f0: 986f d2bc 2c0d a1bb 5943 debb 4503 063d

bias f4 [140]
-0.20307425 0.11636552 0.02390827 0.043117758 -0.0644272 0.018100224 -0.10947631 -0.21760832
0.17524202 -0.16881171 0.034827907 -0.013485027 0.13685393 0.035319254 0.0955825 -0.09603423
0.08057287 0.3816533 0.10083095 0.14634939 -0.07152237 0.08023064 -0.11866461 -0.097023875
0.021289261 -0.029446116 -0.09084354 0.024477163 0.1490674 0.30203894 -0.14981556 0.08424836
0.3425072 -0.20600599 0.114320494 0.07001504 0.060756374 -0.024882652 0.023424858 -0.004946386
0.18598421 -0.030774316 -0.18467861 0.10424719 0.1535288 -0.36387423 -0.3535869 0.1761931
-0.06686743 0.1513533 -0.018416943 -0.043843478 -0.04809245 -0.086758405 -0.22369677 0.02526377
0.015320703 0.13834983 -0.13596347 0.13258189 0.059302185 0.1457774 -0.14525801 -0.050341763
0.071219735 0.0039410987 -0.029066363 0.044501137 0.21006815 -0.17480737 0.059938118 0.13511296
-0.30250034 0.10010659 -0.11267837 0.009166034 0.10642225 -0.13469805 -0.16772282 0.079088286
-0.07962857 -0.10594916 -0.089736976 0.009832176 0.049253646 -0.005271574 0.024132593 0.0015433993
-0.30705196 0.06715363 -0.17595488 0.14237739 0.061972167 -0.0702472 -0.22951394 -0.0009937299
0.045015577 -0.2904523 0.0052833497 -0.084699236 -0.08707581 -0.23920989 0.027346777 0.10460555
-0.090151876 0.051265907 -0.061965838 -0.041144073 -0.19359057 0.17004038 -0.059354257 -0.06037077
0.07249939 0.14199775 0.008735226 -0.37118742 -0.0746312 0.040674362 0.14579877 0.0397029
0.18674777 -0.06062806 0.072706066 0.098148085 -0.02450126 0.062388822 -0.013589516 2.2239868e-05
0.12674499 0.15928358 -0.2081565 -0.06654191 -0.013595918 0.050690114 -0.09368765 0.029014282
0.043860927 -0.15565704 -0.04147616 -0.16554591
00000000: b2f2 4fbe 0c51 ee3d 47db c33c 3f9c 303d
00000010: 68f2 83bd ec46 943c 1e35 e0bd b7d4 5ebe
00000020: a572 333e fadc 2cbe b5a7 0e3d 4df0 5cbc
00000030: 7023 0c3e ecaa 103d c2c0 c33d 98ad c4bd
00000040: 6403 a53d 1068 c33e 7580 ce3d 9ddc 153e
00000050: 527a 92bd f64f a43d 6e06 f3bd 74b4 c6bd
00000060: d166 ae3c fb38 f1bc 2e0c babd 5584 c83c
00000070: 20a5 183e d9a4 9a3e 4069 19be 678a ac3d
00000080: 1b5d af3e 3cf3 52be dd20 ea3d 0c64 8f3d
00000090: addb 783d b4d6 cbbc 7de5 bf3c 4b15 a2bb
000000a0: a572 3e3e 6b1a fcbc 641c 3dbe 8d7f d53d
000000b0: a736 1d3e b94d babe 5809 b5be f76b 343e
000000c0: cbf1 88bd 5cfc 1a3e 21df 96bc 3895 33bd
000000d0: 97fc 44bd 64ae b1bd c410 65be f7f5 ce3c
000000e0: b003 7b3c 94ab 0d3e 023a 0bbe 8cc3 073e
000000f0: d9e6 723d ac46 153e 84be 14be 2a33 4ebd
00000100: a7db 913d 5524 813b 951c eebc d346 363d
00000110: 1b1c 573e b400 33be ac81 753d 0d5b 0a3e
00000120: 53e1 9abe af04 cd3d ebc3 e6bd 222d 163c
00000130: e9f3 d93d 49ee 09be 88bf 2bbe 0af9 a13d
00000140: 4e14 a3bd e0fb d8bd 05c8 b7bd 2317 213c
00000150: 31be 493d 2bbd acbb b7b1 c53c e34b ca3a
00000160: ea35 9dbe d887 893d 842d 34be 61cb 113e
00000170: 87d6 7d3d c4dd 8fbd b405 6bbe 0b40 82ba
00000180: 4162 383d 2ab6 94be f31f ad3b cb76 adbd
00000190: cd54 b2bd 70f3 74be 5906 e03c 6f3b d63d
000001a0: 8ca1 b8bd 33fc 513d e4cf 7dbd b086 28bd
000001b0: 9b3c 46be 111f 2e3e 731d 73bd 5747 77bd
000001c0: 8f7a 943d dc67 113e 311e 0f3c 470c bebe
000001d0: 3ed8 98bd 299a 263d 464c 153e 829f 223d
000001e0: cf3a 3f3e 2155 78bd ebe6 943d dd01 c93d
000001f0: deb6 c8bc 6c8b 7f3d 90a6 5ebc c18f ba37
00000200: 70c9 013e 3c1b 233e fa26 55be 2047 88bd
00000210: 6ac1 5ebc 70a0 4f3d 50df bfbd 5caf ed3c
00000220: 84a7 333d 8f64 1fbe e8e2 29bd de84 29be

weight f4 [140, 140]
-0.056031626 0.04544957 0.067614965 -0.08078072 -0.021154877 -0.01951125 -0.020950992 -0.043869786
0.105463594 0.07366876 0.024184505 0.006920284 -0.050345846 0.0014915422 0.013676556 0.0024176557
0.026577756 0.0990045 0.014032581 0.051279046 0.0742671 -0.014673453 -0.059231766 0.02027267
-0.03239223 -0.0050810147 -0.08250914 -0.062934205 0.032624844 0.080880426 0.03395063 0.017385362
0.0959849 0.04639514 0.03378934 0.028951712 -0.049027137 0.019934999 0.022428352 0.021815522
-0.046485405 -0.032317337 -0.0040449137 -0.018555991 0.08695483 -0.10553871 -0.114750534 0.01379816
-0.06939228 -0.048542637 0.10372117 -0.042379197 -0.043246593 -0.054494374 -0.011829117 0.025098752
0.029950762 0.030964797 -0.021401912 -0.017611595 -0.049863815 -0.029181236 -0.08316748 -0.03289276
0.030458402 0.032271206 0.023930177 0.059938937 -0.06360621 0.06644411 -0.05801851 0.12236209
-0.10811454 -0.0026947057 -0.011224998 -0.029793885 -0.07526362 0.031372156 0.036571544 0.04904681
-0.00070300914 0.048185855 -0.049590893 -0.025508031 -0.026519207 -0.08099042 -0.1330905 0.03635774
-0.12991671 -0.029866641 -0.119191 0.037417363 -0.0024167174 0.046059463 0.008453891 -0.002961268
0.019535417 -0.027725609 0.04422221 0.0010559026 0.027214043 -0.058237296 -0.018135091 0.018271085
-0.02185125 -0.027596563 -0.03368926 0.025064636 -0.051523756 0.039088525 -0.025532454 0.027974032
0.0134859895 0.062313274 0.020517353 0.06675767 -0.015294563 0.04670415 0.01073495 -0.024776815
0.086017646 0.020461349 -0.019254057 -0.101622865 -0.07101708 0.017139468 0.01265104 0.029139891
0.008003847 0.05851298 -0.05233264 -0.040605318 0.047831792 0.013384533 -0.0110393 0.0009710306
-0.012974219 0.010067174 -0.039616723 0.025260761 -0.074328505 -0.020330066 0.08473029 0.013753127
-0.06375598 -0.022395266 0.008798903 0.049363412 -0.05744684 -0.07882704 0.048823375 -0.02735133
-0.016058125 -0.06308459 -0.04182827 -0.0072162664 -0.03375505 0.07842932 0.08521953 0.033354945
0.0033193275 -0.016900295 0.07248243 0.05331664 -0.027495055 -0.0023471212 0.035080705 -0.055972468
-0.011836343 0.024328262 0.05998348 0.007263739 -0.02959608 0.0057834624 -0.036530178 -0.077167496
-0.024850443 0.08241041 0.07181806 0.05885719 -0.016168676 0.001259381 0.0418358 -0.043038785
-0.032598242 0.020441774 0.097588286 0.11108678 -0.027220534 0.055398893 -0.028155213 0.090488575
-0.044818502 0.06499507 -0.0184718 -0.0143498145 0.008700801 -0.08299255 0.052752532 0.014736837
0.029409872 -0.0297584 -0.044054076 0.022621155 -0.027004391 0.0068313335 -0.078666486 0.095748864
-0.015251228 0.040046692 -0.011553123 0.05780027 0.119262286 -0.032070123 0.07400478 0.031886548
0.04891729 0.015615849 -0.055613797 -0.039540246 0.0010416264 0.03331333 0.04104586 0.0023634816
-0.07836463 -0.04658051 -0.04256742 0.07935468 0.03857194 0.050116193 -0.058730464 -0.04853763
0.017236367 0.07618925 0.023045976 -0.09762209 -0.033165567 0.05071171 0.03184426 -0.0033313753
-0.0053373734 -0.008944013 -0.0117248865 0.028146273 -0.0018370929 -0.08319629 -0.04223984 -0.07813284
0.009613282 -0.0061041443 -0.14817415 0.0037420897 -0.026861772 -0.0547484 -0.055527046 0.05900272
00000000: 6b81 65bd 5429 3a3d b779 8a3d 5d70 a5bd
00000010: fe4c adbc 0fd6 9fbc 6aa1 abbc ceb0 33bd
00000020: 4cfd d73d a6df 963d 951e c63c 8dc3 e23b
00000030: 7237 4ebd da7f c33a a213 603c 8871 1e3b
00000040: 98b9 d93c dfc2 ca3d e9e8 653c fa09 523d
00000050: 5919 983d ec68 70bc 029d 72bd df12 a63c
00000060: b7ad 04bd a47e a6bb 8dfa a8bd a6e3 80bd
00000070: a1a1 053d a3a4 a53d d10f 0b3d bf6b 8e3c
00000080: bb93 c43d d508 3e3d b166 0a3d 242c ed3c
00000090: aed0 48bd b94e a33c aabb b73c 77b6 b23c
000000a0: 7b67 3ebd 2f5f 04bd 328b 84bb bc02 98bc
000000b0: 6015 b23d ae24 d8bd 5402 ebbd ad11 623c
000000c0: 8a1d 8ebd a5d4 46bd c46b d43d cf95 2dbd
000000d0: 5723 31bd 7e35 5fbd eace 41bc e69b cd3c
000000e0: 4d5b f53c e3a9 fd3c 1053 afbc 3146 90bc
000000f0: 003e 4cbd 7d0d efbc b653 aabd 8fba 06bd
00000100: e683 f93c d02e 043d 3809 c43c 8882 753d
00000110: f943 82bd d913 883d d1a4 6dbd fa98 fa3d
00000120: 286b ddbd a999 30bb 0ee9 37bc 4e12 f4bc
00000130: d023 9abd 1780 003d 0bcc 153d 4fe5 483d
00000140: 254a 38ba 885e 453d d21f 4bbd 38f6 d0bc
00000150: cf3e d9bc 4ede a5bd e048 08be dbeb 143d
00000160: e308 05be e3aa f4bc 691a f4bd f342 193d
00000170: ca61 1ebb d9a8 3c3d 3082 0a3c d511 42bb
00000180: bd08 a03c d120 e3bc 5922 353d 3666 8a3a
00000190: fcef de3c 3b8a 6ebd 0b90 94bc 3ead 953c
000001a0: 6501 b3bc 3012 e2bc c0fd 09bd 5a54 cd3c
000001b0: 930a 53bd 4a1b 203d 7029 d1bc cc29 e53c
000001c0: 57f4 5c3c 343c 7f3d 0214 a83c 3fb8 883d
000001d0: 0c96 7abc da4c 3f3d a5e1 2f3c bff8 cabc
000001e0: 052a b03d 8f9e a73c afba 9dbc a61f d0bd
000001f0: 6771 91bd 1268 8c3c 4f46 4f3c c8b6 ee3c
00000200: 9122 033c 4eab 6f3d c05a 56bd c351 26bd
00000210: 45eb 433d cd4a 5b3c 2ede 34bc c38c 7e3a
00000220: d291 54bc caf0 243c 2545 22bd a8ef ce3c
00000230: 8b39 98bd 3d8b a6bc 1387 ad3d cc54 613c
00000240: 7f92 82bd 4776 b7bc 4629 103c 4a31 4a3d
00000250: 614d 6bbd 1270 a1bd 05fb 473d e50f e0bc
00000260: 548c 83bc 7e32 81bd 1f54 2bbd 6e76 ecbb
00000270: bc42 0abd 8d9f a03d 9487 ae3d 329f 083d
00000280: 1389 593b 7d72 8abc ab71 943d 8d62 5a3d
00000290: 4f3d e1bc 29d2 19bb c9b0 0f3d 6343 65bd
000002a0: 39ed 41bc 104c c73c 3db1 753d a904 ee3b
000002b0: 7a73 f2bc 3383 bd3b aba0 15bd fe09 9ebd
000002c0: 2893 cbbc cac6 a83d 5915 933d 3d14 713d
000002d0: 2c74 84bc d011 a53a 045c 2b3d 7049 30bd
000002e0: bc85 05bd 8275 a73c 5edc c73d 7781 e33d
000002f0: 99fd debc f3e9 623d c3a5 e6bc 1352 b93d
00000300: 9b93 37bd 231c 853d 2c52 97bc 7c1b 6bbc
00000310: ce8d 0e3c 00f8 a9bd 0a13 583d c672 713c
00000320: f9ec f03c e3c7 f3bc 0c72 34bd 0050 b93c
00000330: 5038 ddbc 61d9 df3b e51b a1bd fb17 c43d
00000340: 49e0 79bc 0008 243d 4f49 3dbc fabf 6c3d
00000350: c93f f43d f65b 03bd d18f 973d 789b 023d
00000360: 7f5d 483d 9ed9 7f3c 4bcb 63bd f4f4 21bd
00000370: 2f87 883a 8f73 083d b41f 283d a4e4 1a3b
00000380: a37d a0bd 34cb 3ebd 2d5b 2ebd b584 a23d
00000390: 9cfd 1d3d a346 4d3d 5b8f 70bd 65cf 46bd
000003a0: 4833 8d3c 1c09 9c3d eaca bc3c 17ee c7bd
000003b0: 9ed8 07bd 15b7 4f3d 206f 023d 3453 5abb
000003c0: 22e5 aebb e989 12bc bd19 40bc 0393 e63c
000003d0: 9cca f0ba d162 aabd af03 2dbd 1c04 a0bd
000003e0: 0781 1d3c 4605 c8bb f7ba 17be d93d 753b
000003f0: 380d dcbc dc3f 60bd 5470 63bd d6ac 713d

bias f4 [140]
0.059902858 0.053093728 0.05131451 -0.029698959 -0.10968926 -0.031000953 0.00584824 0.05379887
-0.002279634 -0.09900228 0.038174856 -0.087807 -0.04649368 -0.070624694 0.006824734 0.095340215
-0.070672244 -0.023760717 0.0030263714 -0.029950129 0.07352347 0.049116228 0.07495777 -0.08999887
-0.07189944 -0.078535244 -0.012742773 0.060683794 -0.12127561 0.011989247 -0.0080742035 0.017152688
0.007558005 -0.06978814 -0.036677253 0.00011163948 -0.032468222 -0.008795334 -0.06463273 -0.038851086
-0.080769554 0.043017946 -0.09014104 -0.026273351 0.0059308116 -0.051244676 -0.077541724 -0.12232097
0.051063187 -0.075247616 0.06514716 0.026394142 -0.03665755 0.0012140545 0.030336274 -0.056608018
-8.621455e-05 0.049808055 -0.112452954 -0.00815756 -0.06487369 -0.031743698 0.015295285 -0.17049105
-0.08716925 0.0029517885 -0.10525543 0.08203417 -0.0508363 -0.071687914 0.026103456 -0.0759482
0.028149148 0.07221665 -0.021534452 -0.040044848 -0.02097752 -0.019255867 0.049934234 -0.09392743
-0.013233116 -0.056559872 0.005825835 0.04309392 0.036854714 0.010455041 -0.046221364 0.01664573
-0.05301844 -0.05673791 0.020228598 0.08377881 0.0157223 0.003701302 0.032233946 0.014798299
0.02680614 0.04555465 0.0105183665 0.07767902 0.14123714 -0.061478447 -0.0233297 0.06392163
0.059967265 -0.037124958 -0.033012763 -0.007661503 -0.009950332 -0.0029297958 -0.103308834 0.060849603
-0.06953153 -0.03225967 0.07146437 0.034564827 0.07150696 0.038560975 -0.0037415887 -0.074901536
0.001181253 -0.06245243 0.02757875 -0.023857458 0.029101469 0.0067907847 -0.009181455 0.020800889
-0.0018025639 0.02258385 -0.046474792 0.123809375 -0.07689976 -0.04540345 0.0029667025 0.003964476
-0.081024595 0.012015944 -0.003700114 -0.08924024
00000000: b35c 753d cf78 593d 2a2f 523d 3b4b f3bc
00000010: c3a4 e0bd b6f5 fdbc 98a2 bf3b 345c 5c3d
00000020: e965 15bb b5c1 cabd 3d5d 1c3d 28d4 b3bd
00000030: 2870 3ebd aea3 90bd 05a2 df3b bb41 c33d
00000040: 9cbc 90bd d6a5 c2bc 1656 463b f959 f5bc
00000050: 7993 963d 192e 493d 7683 993d 5451 b8bd
00000060: 0340 93bd 16d7 a0bd 10c7 50bc 928f 783d
00000070: 595f f8bd 8c6e 443c aa49 04bc cb83 8c3c
00000080: 24a9 f73b 16ed 8ebd e33a 16bd fd1f ea38
00000090: 66fd 04bd 4e1a 10bc 2a5e 84bd 5122 1fbd
000000a0: 826a a5bd 9633 303d de9b b8bd 363b d7bc
000000b0: 4157 c23b f0e5 51bd 32ce 9ebd 6b83 fabd
000000c0: a227 513d 6c1b 9abd e06b 853d 8738 d83c
000000d0: 3a26 16bd e920 9f3a c783 f83c cfdd 67bd
000000e0: 16ce b4b8 8803 4c3d bc4d e6bd 49a7 05bc
000000f0: 7fdc 84bd ae05 02bd 1399 7a3c 3595 2ebe
00000100: cb85 b2bd cb72 413b 2990 d7bd 8801 a83d
00000110: b939 50bd 1dd1 92bd ead6 d53c bb8a 9bbd
00000120: 0b99 e63c 53e6 933d 0569 b0bc 1106 24bd
00000130: 0cd9 abbc 7bbe 9dbc d787 4c3d 065d c0bd
00000140: b6cf 58bc 53ab 67bd a5e6 be3b 4083 303d
00000150: f8f4 163d 9f4b 2b3c 9d52 3dbd a05c 883c
00000160: dd29 59bd 0366 68bd 72b6 a53c 3a94 ab3d
00000170: 0ecc 803c 8b91 723b be07 043d 9174 723c
00000180: 8d98 db3c 8397 3a3d 3a55 2c3c 2e16 9f3d
00000190: 78a0 103e d3d0 7bbd ed1d bfbc 58e9 823d
000001a0: 3ca0 753d 5710 18bd 6438 07bd 580d fbbb
000001b0: b806 23bc d101 40bb 9593 d3bd 6f3d 793d
000001c0: 8c66 8ebd b722 04bd e95b 923d d993 0d3d
000001d0: 3e72 923d 1df2 1d3d 7135 75bb fa65 99bd
000001e0: 46d4 9a3a 1fce 7fbd d5ec e13c b770 c3bc
000001f0: 3466 ee3c 3b85 de3b d06d 16bc a066 aa3c
00000200: 0244 ecba c401 b93c 5a5c 3ebd c58f fd3d
00000210: 9f7d 9dbd f8f8 39bd 026d 423b 6fe8 813b
00000220: 39f0 a5bd 86de 443c 9d7d 72bb 96c3 b6bd

weight f4 [140, 140]
-0.028395545 -0.039414976 -0.13787621 0.031213712 0.08917794 -0.023480631 -0.060092974 -0.012602805
-0.042608846 0.079832025 0.036562424 0.111896046 0.081689365 -0.020511478 0.03745793 -0.109398246
-0.025708284 -0.006474462 -0.0008705989 -0.03811517 -0.043809652 0.024395438 -0.063764706 0.012681407
-0.00037247583 0.07445145 0.04937739 -0.004514363 0.06696855 -0.0028691387 0.0515451 0.057875674
0.032414753 0.11994928 -0.06274517 -0.051439676 0.023291573 -0.020447932 -0.09272029 0.036167692
0.07288163 0.07872179 0.015317958 -0.0118918475 0.036597412 0.020927673 -0.07474963 -0.022409301
-0.012008593 0.038544748 0.03823647 0.040164217 -0.04552431 -0.042017303 0.06666082 -0.0005919074
0.07534722 -0.15935564 -0.05347789 0.008179527 0.06412889 -0.07493769 -0.0138342315 -0.011683674
-0.022556081 0.09029353 -0.023798065 -0.013352778 -0.039299298 0.11111748 0.010373659 -0.066891536
0.10453758 -0.03221924 -0.010272557 -0.086912386 0.06750373 0.088004425 -0.014819375 0.029399367
0.06935625 -0.054140266 0.023874367 0.006824098 0.06689601 -0.03407088 -0.044264693 -0.052303582
0.025182009 -0.028511764 -0.0005395613 0.028546976 0.05376978 -0.0011766874 -0.10560617 0.02376187
-0.08560314 0.0052509145 -0.02903823 -0.0074220574 -0.0019248996 -0.061766833 0.060446844 -0.049707476
-0.03557613 0.009167265 -0.04985674 0.08446437 -0.002232965 -0.005058958 -0.014062102 -0.0003654402
0.10744267 0.07184856 -0.10205265 0.025359899 -0.07940154 0.07110344 0.007703179 0.047790293
0.06528121 -0.030239837 -0.09800702 0.056549 0.013971233 0.011067367 -0.009429258 -0.05214554
-0.08475609 -0.09450859 0.021952318 0.04234582 -0.022016445 0.043896668 0.05249522 -0.03600648
-0.026138501 0.06080873 -0.08365775 0.09239779 -0.062442154 0.021907257 -0.02845602 -0.07182814
0.04918613 -0.10010816 0.060008194 0.07834961 -0.050407894 -0.0058656856 0.03744423 -0.12695524
-0.009671934 -0.0003911933 0.010302287 -0.08180174 -0.09253938 -0.07452062 0.054989014 0.04147616
0.010731384 0.014331512 0.07317688 0.06840274 -0.04069941 -0.046763796 -0.08326226 0.032843735
-0.045738213 0.09634995 -0.07033473 -0.016320843 -0.07667938 -0.03536951 0.020629715 0.012067477
0.0025118534 0.016789166 0.0021942402 -0.0032762003 0.113904186 0.04358449 -0.032596715 -0.018837163
-0.068020985 -0.08331766 -0.05613444 -0.005738465 -0.043289736 0.03916005 -0.09737101 -0.025487153
-0.01614488 0.05500215 -0.115590625 -0.007847248 -0.04367785 -0.007415253 0.07272916 0.0053535523
-0.087047264 0.042482715 0.04916193 0.031705942 0.063067645 -0.029667199 0.023302773 -0.015636826
-0.04847718 0.00059518754 -0.009093578 0.1394386 0.042612165 -0.10751562 0.031089364 0.08615491
-0.073720396 -0.0904193 0.0016376558 0.064029455 -0.025332147 0.048560075 0.06921557 -0.048084117
0.057080973 0.01038436 -0.029424973 0.055298295 0.023160186 0.082138784 -0.0040369816 -0.020075355
-0.0373929 -0.04410033 0.04475787 -0.069104716 0.09832418 0.06382776 0.078970544 0.09988784
-0.033341743 0.08186037 -0.09157675 0.05423087 0.012763714 -0.03413488 0.067727335 -0.076608375
-0.031596493 0.03877688 0.06480577 0.0891358 -0.013729637 0.06597237 0.03385949 -0.07505042
00000000: c69d e8bc 9971 21bd 6c2f 0dbe e6b3 ff3c
00000010: eca2 b63d 745a c0bc 0d24 76bd ff7b 4ebc
00000020: 9d86 2ebd f97e a33d 7bc2 153d c129 e53d
00000030: c14c a73d b007 a8bc 7d6d 193d 300c e0bd
00000040: 2e9a d2bc b927 d4bb e738 64ba a71e 1cbd
00000050: c071 33bd f1d8 c73c 1297 82bd adc5 4f3c
00000060: dc48 c3b9 007a 983d f23f 4a3d 39ed 93bb
00000070: cf26 893d 2908 3cbb f420 533d 0b0f 6d3d
00000080: 55c5 043d f8a7 f53d 8a80 80bd 69b2 52bd
00000090: f8cd be3c 6c82 a7bc 23e4 bdbd 9324 143d
000000a0: f742 953d e438 a13d 2cf8 7a3c 06d6 42bc
000000b0: 2be7 153d 8370 ab3c 5616 99bd b693 b7bc
000000c0: b1bf 44bc 19e1 1d3d d89d 1c3d 3c83 243d
000000d0: b377 3abd 561a 2cbd 7885 883d 3c2a 1bba
000000e0: a54f 9a3d 202e 23be a20b 5bbd 6c03 063c
000000f0: 0256 833d ee78 99bd f9a8 62bc e16c 3fbc
00000100: 88c7 b8bc d0eb b83d 29f4 c2bc 9cc5 5abc
00000110: 4df8 20bd 9091 e33d 48f6 293c 6efe 88bd
00000120: cc17 d63d 52f8 03bd 3a4e 28bc 1fff b1bd
00000130: 653f 8a3d aa3b b43d f7cc 72bc f1d6 f03c
00000140: a60a 8e3d 2fc2 5dbd 2d94 c33c af9c df3b
00000150: c600 893d e88d 0bbd e54e 35bd 483c 56bd
00000160: 804a ce3c 8191 e9bc 5971 0dba 59db e93c
00000170: b33d 5c3d 143b 9aba 0c48 d8bd 41a8 c23c
00000180: b350 afbd dd0f ac3b 95e1 edbc bb34 f3bb
00000190: ea4c fcba 38ff 7cbd 1c97 773d 119a 4bbd
000001a0: 47b8 11bd 4c32 163c 9536 4cbd a8fb ac3d
000001b0: f056 12bb 9ec5 a5bb bb64 66bc 8e98 bfb9
000001c0: e70a dc3d 5625 933d fb00 d1bd 90bf cf3c
000001d0: 469d a2bd ae9e 913d f36a fc3b c1bf 433d
000001e0: 28b2 853d 89b9 f7bc e8b7 c8bd ed9f 673d
000001f0: 99e7 643c e753 353c 2d7d 1abc 9096 55bd
00000200: 9a94 adbd b88d c1bd 59d5 b33c d072 2d3d
00000210: d55b b4bc fecc 333d 3a05 573d 887b 13bd
00000220: 6920 d6bc 9312 793d c154 abbd 0d3b bd3d
00000230: 58c3 7fbd d976 b33c 991c e9bc a21a 93bd
00000240: 6577 493d 8205 cdbd 27cb 753d c375 a03d
00000250: 8278 4ebd f034 c0bb 1f5f 193d 8e00 02be
00000260: 0877 1ebc 1319 cdb9 ecca 283c ac87 a7bd
00000270: 4985 bdbd 449e 98bd 293c 613d e8e2 293d
00000280: b0d2 2f3c b8ce 6a3c c3dd 953d bc16 8c3d
00000290: 6db4 26bd 658b 3fbd 6785 aabd 2787 063d
000002a0: fe57 3bbd 1f53 c53d a80b 90bd 4ab3 85bc
000002b0: 140a 9dbd 9fdf 10bd a6ff a83c abb6 453c
000002c0: e89d 243b 6f89 893c 3ecd 0f3b 85b5 56bb
000002d0: 9946 e93d a685 323d 2284 05bd 6550 9abc
000002e0: 964e 8bbd 73a2 aabd 3aed 65bd bc09 bcbb
000002f0: 9450 31bd 4a66 203d 746a c7bd 6fca d0bc
00000300: 4442 84bc ef49 613d c7ba ecbd be91 00bc
00000310: 8ce7 32bd a7fb f2bb 07f3 943d da6c af3b
00000320: d645 b2bd 5b02 2e3d 055e 493d 17de 013d
00000330: 9c29 813d a008 f3bc 75e5 be3c cd18 80bc
00000340: 0290 46bd 5c06 1c3a 3bfd 14bc fec8 0e3e
00000350: 188a 2e3d 2631 dcbd 1faf fe3c fc71 b03d
00000360: b8fa 96bd c12d b9bd 9ca6 d63a e021 833d
00000370: 5d85 cfbc eee6 463d e5c0 8d3d daf3 44bd
00000380: bdcd 693d 2a23 2a3c a40c f1bc 7780 623d
00000390: 6eba bd3c 6138 a83d a848 84bb 1275 a4bc
000003a0: 4c29 19bd 8ca2 34bd 0754 373d c686 8dbd
000003b0: 305e c93d 21b8 823d 4fbb a13d ff91 cc3d
000003c0: 5a91 08bd 69a6 a73d 978c bbbd 3021 5e3d
000003d0: e61e 513c 04d1 0bbd a1b4 8a3d dae4 9cbd
000003e0: 536b 01bd 81d4 1e3d e3b8 843d d58c b63d
000003f0: 45f2 60bc 861c 873d 40b0 0a3d 09b4 99bd

bias f4 [140]
-0.09516417 0.027775135 0.03446779 -0.09686729 0.044160627 -0.05551629 -0.09027935 -0.10603107
-0.0033264053 -0.07613651 -0.0001371463 -0.02701118 -0.04475446 0.040100675 -0.070258975 0.050761066
-0.061197918 -0.006520092 -0.029192729 -0.10215817 -0.02119604 0.020584865 -0.01767769 -0.13739865
0.005184941 0.07281624 -0.058156807 0.07326406 0.026928475 0.095696144 0.014784325 0.052925676
-0.1360308 -0.103848785 0.008712119 -0.04859977 -0.13561383 0.069940366 0.07169773 -0.09276192
-0.08448738 -0.053689726 -0.085689284 -0.03113235 0.03854402 0.027472554 -0.07359903 0.0962189
0.04048165 -0.13255793 -0.005515972 -0.040069297 -0.052724913 0.04560903 -0.039287876 -0.037268527
-0.08661234 -0.0025551755 0.031382497 -0.0061619184 -0.04094725 -0.016487328 0.07240971 -0.054680195
-0.21625316 0.005452619 0.096898645 -0.004364974 -0.03849447 -0.08041555 -0.0932555 0.06136896
0.02787936 0.10790511 -0.02686941 0.00964429 -0.06220791 -0.051063735 -0.037899762 -0.080812976
-0.027727986 -0.10692104 -0.025089392 -0.052931745 0.075020015 -0.08186285 0.046165306 -0.093471974
-0.024346014 -0.010659498 0.06579048 -0.1916379 -0.12912898 -0.058031842 -0.059741434 -0.013177662
-0.089670025 -0.1434212 0.09039091 0.044128798 0.06647175 -0.011033142 -0.10784983 -0.03315889
0.06131862 -0.012038702 0.0029617844 -0.11152076 -0.003895317 -0.014203046 -0.065871805 -0.043763794
0.02746161 -0.050877944 -0.10963256 0.088827305 -0.026710687 0.08094102 0.1081622 0.06531213
-0.0387083 0.12158655 0.046903327 0.0065576266 -0.08610425 0.064474806 0.089052804 -0.07627546
0.048065253 0.02939717 -0.094931155 0.023507867 -0.040590376 0.0023796915 0.009900099 -0.04686262
-0.019775635 0.021022262 -0.044459846 -0.023473347
00000000: 6fe5 c2bd ae88 e33c 192e 0d3d 5c62 c6bd
00000010: c6e1 343d 0d65 63bd 61e4 b8bd d126 d9bd
00000020: d2ff 59bb 75ed 9bbd eece 0fb9 8d46 ddbc
00000030: 7450 37bd 9b40 243d f0e3 8fbd d6ea 4f3d
00000040: abaa 7abd 7fa6 d5bb 9725 efbc 4d38 d1bd
00000050: 51a3 adbc 97a1 a83c ced0 90bc 3bb2 0cbe
00000060: 70e6 a93b ae20 953d d535 6ebd 780b 963d
00000070: 1b99 dc3c 57fc c33d f439 723c 98c8 583d
00000080: a84b 0bbe acae d4bd 47bd 0e3c 8d10 47bd
00000090: 5ade 0abe e53c 8f3d 42d6 923d f6f9 bdbd
000000a0: b807 adbd c2e9 5bbd dd7d afbd 4509 ffbc
000000b0: 56e0 1d3d 1f0e e13c 17bb 96bd 6a0e c53d
000000c0: 16d0 253d 44bd 07be 54bf b4bb b41f 24bd
000000d0: 14f6 57bd 89d0 3a3d 53ec 20bd e2a6 18bd
000000e0: cf61 b1bd bb74 27bb ef8a 003d ebe9 c9bb
000000f0: 4eb8 27bd 6f10 87bc 8b4b 943d 57f8 5fbd
00000100: 7871 5dbe e2ab b23b cc72 c63d 0e08 8fbb
00000110: 61ac 1dbd e8b0 a4bd bdfc bebd 055e 7b3d
00000120: 4163 e43c 5bfd dc3d 3d1d dcbc 1603 1e3c
00000130: b9cd 7ebd 3528 51bd c83c 1bbd 4681 a5bd
00000140: cd25 e3bc 6bf9 dabd 4588 cdbc f5ce 58bd
00000150: 18a4 993d b6a7 a7bd d517 3d3d 3c6e bfbd
00000160: 4b71 c7bc 2da5 2ebc 29bd 863d ba3c 44be
00000170: 633a 04be ccb2 6dbd 6fb3 74bd 1fe7 57bc
00000180: eba4 b7bd 02dd 12be df1e b93d 66c0 343d
00000190: 5722 883d 5ac4 34bc 5fe0 dcbd 9ed1 07bd
000001a0: 3c29 7b3d fa3d 45bc 7f1a 423b ff64 e4bd
000001b0: 9348 7fbb e5b3 68bc cce7 86bd aa41 33bd
000001c0: 2cf7 e03c 6465 50bd 0987 e0bd 17eb b53d
000001d0: 5fd0 dabc 68c4 a53d 2584 dd3d 5ec2 853d
000001e0: 988c 1ebd 5e02 f93d b41d 403d 5ce1 d63b
000001f0: 6d57 b0bd 5e0b 843d 5161 b63d 4f36 9cbd
00000200: 12e0 443d 55d2 f03c 446b c2bd 9293 c03c
00000210: 1842 26bd 99f4 1b3b 0634 223c 05f3 3fbd
00000220: 8300 a2bc e136 ac3c 871b 36bd 2d4b c0bc

weight f4 [2, 140]
-0.010208243 0.0025227058 9.4021325e-06 -0.010500447 -0.011518629 -0.015427423 -0.011243691 -0.011460487
-0.0145038245 -0.009866536 0.00050087715 0.030941973 0.005327779 -0.03623269 -0.008857672 0.045679424
-0.00271125 0.11697988 -0.023092087 -0.009691081 0.07253924 0.006207309 0.053287312 -0.00524989
0.0034346578 0.016854713 0.0014339079 0.10472512 0.016007677 0.046576064 -0.010283763 0.0046718814
-0.010041019 0.04353112 0.16874187 -0.1733655 -0.010290709 0.003604531 -0.01972157 -0.010382288
-0.009423796 0.0012711128 -0.010938258 3.086745e-05 0.0048685777 -0.022210702 -0.010347289 0.056048244
-0.011317328 -0.010615432 0.2448892 -0.010766714 -0.041596033 -0.12720095 0.0026080403 0.028150333
-0.009567738 0.0016874609 -0.009620258 0.0030228398 -0.19875701 0.0025238772 0.007414794 0.0031549693
-0.009152775 -0.04139317 0.005897757 0.0012586146 0.0016327894 -0.009228238 -0.021072097 0.016973209
-0.011500289 0.26813418 -0.012041916 -0.011625885 -0.00849611 -0.2744682 0.23516205 0.009935899
-0.008539161 -0.009657131 0.18462487 -0.23339638 -0.033911612 0.046871684 -0.009405192 -0.008853007
-0.039527066 0.0033011837 0.0016741398 -0.41805607 -0.010135081 0.00052440725 -0.010495797 0.0010090678
-0.01104411 -0.011375392 0.000756873 -0.024629336 0.0030489492 0.09785447 -0.011149898 -0.010503777
0.0024162377 -0.00989035 0.0023581884 0.0060152877 -0.0020075184 0.058824673 -0.016978461 -0.010674198
0.0025338395 0.0012738804 -0.0057014828 0.13424173 -0.019718472 0.00029067104 0.004219102 0.008815457
-0.021398084 0.0076461434 0.0012579599 0.00067366014 0.025820848 0.0011104491 0.102981165 0.00044781918
0.0032897089 0.0009610732 0.0014801812 -0.045246728 0.05126353 -0.011604688 -0.14358571 -0.01217109
-0.24193755 0.056325328 -0.016429037 -0.048883606 0.0010975449 -0.0014998288 -0.0013926994 0.0011332862
0.0013292794 0.0014188234 0.0011242309 0.0014513084 0.0012380887 0.0011566231 -0.0013105951 -0.001190143
-0.0015081643 0.19860683 0.0012110951 0.0006413168 0.0012463778 -0.0011212159 -2.651168e-05 0.0011216694
-0.00069042726 -0.001648298 -5.4845448e-05 0.001126492 -0.0016756767 0.0011512979 -0.0014738481 -0.0012075535
0.09229395 -0.00025272797 0.0011098007 0.087819174 0.0010923798 0.0011003708 -0.0009831979 0.001572763
0.0011141046 -0.001768127 0.1725391 0.0011550537 0.001383407 -0.0014752018 0.0011517674 -0.0012209534
-0.0012700582 0.00013075894 0.0011628548 5.1453393e-05 0.0014523844 0.0010981536 -0.0019386316 0.0011888427
0.20117229 0.001131845 0.0011573093 0.0014001449 0.0011647881 -0.0012381601 0.0013700661 -0.0014920738
0.0018082351 -0.0014202439 -0.00041669267 -0.0014332859 0.0011670626 0.23772684 -0.0016554411 -0.0014074096
-0.0014149979 0.0011253809 0.14652957 -0.0016262664 0.0011081197 -0.002967193 0.0012016247 0.0011272473
0.0012676493 0.0014006996 -0.0010585471 0.0011915305 0.0013259132 0.0012913679 -0.0009392539 0.0016325106
0.22233912 0.0005554474 -0.0017115389 0.0013631932 0.21466403 0.08636769 -0.0015247347 0.0031830654
0.0011158747 -0.001361583 0.0011515198 -0.0013321004 0.00116097 0.0011200176 -0.0013532385 0.1959604
-0.0015640183 -0.00061392825 0.0011485433 0.0011725118 -0.00156533 0.0011223452 0.0010734664 0.0010060633
0.13332872 0.00080023555 -0.00088778837 0.0012477454 -0.0015656345 -0.0012814937 0.0012815372 -0.0015001512
00000000: 7940 27bc fb53 253b dabd 1d37 110a 2cbc
00000010: a2b8 3cbc 4dc3 7cbc 7537 38bc c4c4 3bbc
00000020: 73a1 6dbc 40a7 21bc 4c4d 033a 057a fd3c
00000030: a694 ae3b bb68 14bd c51f 11bc 591a 3b3d
00000040: 3aaf 31bb 2693 ef3d 9e2b bdbc 57c7 1ebc
00000050: 748f 943d af66 cb3b cc43 5a3d 4507 acbb
00000060: ff17 613b e512 8a3c f7f1 bb3a 207a d63d
00000070: 8822 833c 8bc6 3e3d 3a7d 28bc 9516 993b
00000080: 1683 24bc b04d 323d abca 2c3e ba86 31be
00000090: 5d9a 28bc ff39 6c3b 218f a1bc 791a 2abc
000000a0: 4466 1abc 789b a63a 6136 33bc ac77 0138
000000b0: 9788 9f3b 38f3 b5bc ad87 29bc d892 653d
000000c0: 506c 39bc 59ec 2dbc 3cc4 7a3e df66 30bc
000000d0: 9a60 2abd f740 02be a8eb 2a3b 879b e63c
000000e0: 00c2 1cbc cb2d dd3a 499e 1dbc d61a 463b
000000f0: f586 4bbe a267 253b cdf7 f23b 9ac3 4e3b
00000100: 85f5 15bc e28b 29bd f941 c13b 19f8 a43a
00000110: 5203 d63a 0932 17bc 649f acbc 660b 8b3c
00000120: b56b 3cbc e248 893e 754b 45bc 7f7a 3ebc
00000130: 4533 0bbc 1987 8cbe 52ce 703e 2eca 223c
00000140: d6e7 0bbc f138 1ebc 4d0e 3d3e 76ff 6ebe
00000150: e7e6 0abd 86fc 3f3d 3c18 1abc 340c 11bc
00000160: 22e7 21bd ac58 583b cf6e db3a 720b d6be
00000170: 9c0d 26bc 6078 093a 90f6 2bbc b242 843a
00000180: 5bf2 34bc da5f 3abc e368 463a 76c3 c9bc
00000190: e1d0 473b ed67 c83d 10ae 36bc 0918 2cbc
000001a0: be59 1e3b 220b 22bc d68b 1a3b e41b c53b
000001b0: 9290 03bb 24f2 703d 6a16 8bbc d5e2 2ebc
000001c0: c60e 263b 55f8 a63a 81d3 babb aa76 093e
000001d0: a288 a1bc 3565 9839 6540 8a3b b56e 103c
000001e0: 094b afbc 808c fa3b 21e2 a43a 9198 303a
000001f0: 3e86 d33c 7d8c 913a cae7 d23d 46c9 ea39
00000200: 2898 573b 88f0 7b3a a402 c23a a254 39bd
00000210: b5f9 513d 9721 3ebc 2208 13be 4069 47bc
00000220: 7abe 77be 63b5 663d 3096 86bc 2d3a 48bd
00000230: 7fdb 8f3a e795 c4ba 3d8b b6ba c68a 943a
00000240: 373b ae3a d0f7 b93a ee5a 933a d439 be3a
00000250: 5d47 a23a d599 973a 46c8 abba 93fe 9bba
00000260: 99ad c5ba 975f 4b3e 9cbd 9e3a 0b1e 283a
00000270: 805d a33a c3f5 92ba 6665 deb7 fb04 933a
00000280: cafd 34ba b40b d8ba da09 66b8 cda6 933a
00000290: 61a2 dbba 26e7 963a 232e c1ba c646 9eba
000002a0: 9c04 bd3d 9380 84b9 bb76 913a 8ada b33d
000002b0: 2f2e 8f3a 513a 903a a6de 80ba 2b25 ce3a
000002c0: 2607 923a 7fc0 e7ba 17ae 303e 2c65 973a
000002d0: 7053 b53a 8f5b c1ba e7f6 963a 6608 a0ba
000002e0: 1578 a6ba 561c 0939 ef6a 983a a9cf 5738
000002f0: ef5d be3a ecef 8f3a af19 feba f1d2 9b3a
00000300: 1c00 4e3e 6b5a 943a dbb0 973a 1185 b73a
00000310: ceab 983a c249 a2ba ca93 b33a b091 c3ba
00000320: 4d02 ed3a 7a27 baba 8b77 dab9 18dd bbba
00000330: 1ff8 983a aa6e 733e 63fb d8ba d478 b8ba
00000340: 7377 b9ba 8481 933a d90b 163e 7228 d5ba
00000350: 543e 913a 3d75 42bb d67f 9d3a 25c0 933a
00000360: 4127 a63a ae97 b73a f2be 8aba 212d 9c3a
00000370: 44ca ad3a 1e43 a93a 4338 76ba f7f9 d53a
00000380: deac 633e 729b 113a b755 e0ba 2cad b23a
00000390: e3d0 5b3e 8be1 b03d 9bd9 c7ba fa9a 503b
000003a0: 8b42 923a 2577 b2ba 98ee 963a df99 aeba
000003b0: b02b 983a 8ecd 923a 265f b1ba d8a9 483e
000003c0: bfff ccba 07f0 20ba b88a 963a f8ae 993a
000003d0: c22b cdba a81b 933a 8eb3 8c3a e2dd 833a
000003e0: 5387 083e e6c6 513a 78ba 68ba 638b a33a
000003f0: fa35 cdba cbf7 a7ba 41f9 a73a b9a0 c4ba

bias f4 [2]
0.31059387 0.21352221
00000000: 2906 9f3e 91a5 5a3e

weight f4 [140, 140]
-0.027333558 0.09951828 0.08007814 0.04361829 -0.018915918 -0.026441397 -0.07987713 -0.07592844
-0.0041376203 -0.0045399973 0.034237187 0.024589878 -0.09087982 0.0386065 -0.000818668 0.07080442
0.047627866 0.084026664 0.15332422 -0.045613743 0.038912218 0.05846719 -0.0092481 0.04066302
-0.013758666 -0.04003884 -0.096443735 -0.045829255 0.058109194 0.0155720245 -0.022946639 0.036879666
0.21064554 0.090054676 0.031968754 -0.12025703 0.12063076 -0.061947305 -0.015068606 0.007689011
-0.054174826 -0.048772596 0.09183438 0.03706906 -0.0072065326 -0.12382551 -0.21735892 -0.05614604
0.048531044 0.02745301 -0.004679389 0.011765491 0.015934648 -0.057262 0.027385876 0.01849489
-0.02546196 -0.059691418 0.0233464 0.124537304 0.0413164 0.008145394 0.012927571 0.05613968
-0.0060619507 -0.027142813 -0.059786998 0.03758603 -0.041987292 -0.01842405 -0.06259282 0.026526192
-0.07512723 0.04448295 0.07613946 -0.03485154 -0.015044538 -0.0038848144 -0.060963947 -0.02924663
-0.009623281 0.007824625 -0.10138563 0.0043847314 0.048350267 0.026358655 0.09049942 0.0032678081
-0.107096076 -0.008424566 -0.08449527 0.022657769 0.09373489 -0.045654777 -0.06893459 -0.0635467
-0.055099864 -0.02096181 0.04967197 -0.062759675 -0.022926142 -0.007315486 0.0677578 0.039328482
-0.009237063 -0.036578193 0.0469363 0.043038677 0.0023087624 0.031477664 -0.120547675 0.07239152
0.083822615 -0.051548492 0.047204312 0.061758533 0.004391171 0.025030347 0.08118833 0.09026766
0.11167193 -0.07313711 -0.049231846 -0.020408189 0.021050736 -0.003197361 0.034286495 0.043285612
0.09884458 0.04523352 -0.057752293 -0.009549644 -0.05183542 0.07489902 -0.060838025 0.07786537
0.096750185 0.07443831 -0.05954776 0.022074321 0.0010879274 0.0023094325 -0.018435279 0.07266168
0.04959173 -0.06831925 0.057503875 0.06720445 -0.091094084 -0.039965153 -0.062446594 0.032997552
0.031406846 0.026475364 -0.07379674 -0.012598938 0.006438576 0.042006634 -0.07555346 -0.057486154
-0.023151563 0.042879708 -0.050580904 0.05713516 -0.075565875 0.022478623 0.093992904 0.057267886
0.06553652 -0.061151262 0.078700244 -0.058194406 -0.067695856 -0.024402037 0.003002568 0.08935498
-0.065096155 0.08546011 -0.024983253 -0.0072895153 0.030218752 0.008086703 -0.09423577 -0.083656706
0.051517185 0.034528926 0.102532245 -0.0346926 0.06466059 0.037038144 -0.033986963 0.0694758
0.039652232 -0.05015499 -0.03464512 -0.044832528 -0.0049027144 0.031025965 -0.014228206 -0.10705085
-0.0037505273 0.027482819 0.043255363 -0.025852982 -0.08403723 0.11470835 -0.02087696 0.062005926
-0.010188694 0.059932627 0.023718748 -0.010638369 0.008572221 0.08029259 -0.025830662 0.06508102
0.05858378 0.031155026 -0.021715254 0.02330056 0.05137724 -0.059232727 -0.019898918 0.028260946
-0.024708096 0.017141923 0.033880673 -0.017395092 0.008309696 0.07500857 0.018217064 0.013696275
0.06842504 0.022484656 0.042938694 0.0816582 0.025290094 0.05665482 -0.08125987 -0.0028319345
0.0856223 0.04595205 0.011210097 0.038349707 0.07080094 0.02120722 0.022572411 0.012107011
0.07677071 0.0032016477 0.055278115 -0.056440122 -0.09695808 -0.06337465 -0.03539888 -0.03759936
00000000: a0ea dfbc 3dd0 cb3d 0200 a43d 18a9 323d
00000010: 8ef5 9abc a19b d8bc 9f96 a3bd 5f80 9bbd
00000020: e094 87bb 42c4 94bb 4b3c 0c3d b670 c93c
00000030: 331f babd d921 1e3d e19b 56ba e801 913d
00000040: 7015 433d 2c16 ac3d 0601 1d3e 7ad5 3abd
00000050: 6b62 1f3d 4b7b 6f3d 5885 17bc 448e 263d
00000060: 076c 61bc c4ff 23bd 4b84 c5bd 75b7 3bbd
00000070: e803 6e3d ce21 7f3c 97fa bbbc 220f 173d
00000080: 77b3 573e 966e b83d abf1 023d 5149 f6bd
00000090: 430d f73d 75bc 7dbd 50e2 76bc 19f4 fb3b
000000a0: 6ce6 5dbd c6c5 47bd aa13 bc3d bad5 173d
000000b0: c724 ecbb 3b98 fdbd 5693 5ebe 64f9 65bd
000000c0: 7dc8 463d 23e5 e03c 8f55 99bb 0cc4 403c
000000d0: 6189 823c 8f8b 6abd 5858 e03c 9882 973c
000000e0: 9a95 d0bc fd7e 74bd f340 bf3c 6a0d ff3d
000000f0: 633b 293d 4274 053c 2ace 533c b9f2 653d
00000100: 54a3 c6bb 9b5a debc 36e3 74bd cff3 193d
00000110: defa 2bbd 09ee 96bc aa30 80bd 754d d93c
00000120: 4edc 99bd c133 363d 01ef 9b3d 7dc0 0ebd
00000130: 5e7d 76bc 5f98 7ebb 55b5 79bd a196 efbc
00000140: f7aa 1dbc db32 003c 45a3 cfbd cbad 8f3b
00000150: ee0a 463d 1bee d73c c357 b93d b928 563b
00000160: 3055 dbbd 3107 0abc db0b adbd c99c b93c
00000170: 14f8 bf3d 8100 3bbd 942d 8dbd c624 82bd
00000180: 65b0 61bd 1ab8 abbc d674 4b3d 2588 80bd
00000190: 9bcf bbbc bfb6 efbb 9ac4 8a3d e716 213d
000001a0: 0d57 17bc 04d3 15bd 4740 403d 5349 303d
000001b0: 9b4e 173b b9ee 003d b3e1 f6bd 0142 943d
000001c0: 31ab ab3d 8324 53bd 4f59 413d 84f6 7c3d
000001d0: d0e3 8f3b 710c cd3c 1146 a63d 40de b83d
000001e0: 41b4 e43d e9c8 95bd 55a7 49bd 132f a7bc
000001f0: 9872 ac3c d18a 51bb ff6f 0c3d 414c 313d
00000200: 076f ca3d c946 393d ab8d 6cbd 1c76 1cbc
00000210: 6151 54bd a864 993d 4b31 79bd e177 9f3d
00000220: f624 c63d 1d73 983d 5ae8 73bd 35d5 b43c
00000230: c998 8e3a d959 173b 9505 97bc a6cf 943d
00000240: b320 4b3d f7ea 8bbd 2f89 6b3d 7da2 893d
00000250: 898f babd 80b2 23bd 00c8 7fbd 7128 073d
00000260: 77a4 003d dde2 d83c bf22 97bd c76b 4ebc
00000270: b1fa d23b 260f 2c3d c6bb 9abd 9a76 6bbd
00000280: 59a8 bdbc a2a2 2f3d ec2d 4fbd 8f06 6a3d
00000290: 48c2 9abd 1725 b83c 5a7f c03d bb91 6a3d
000002a0: 0338 863d bf79 7abd 982d a13d 425d 6ebd
000002b0: 20a4 8abd c8e6 c7bc bbc6 443b beff b63d
000002c0: 2251 85bd b605 af3d aea9 ccbc e3dc eebb
000002d0: 518d f73c 177e 043c affe c0bd 3554 abbd
000002e0: af03 533d 346e 0d3d 6dfc d13d d419 0ebd
000002f0: c56c 843d 4fb5 173d ea35 0bbd 5449 8e3d
00000300: 616a 223d 526f 4dbd 0be8 0dbd 50a2 37bd
00000310: f3a6 a0bb 2a2a fe3c 6c1d 69bc 7a3d dbbd
00000320: 68cb 75bb a623 e13c 892c 313d a2c9 d3bc
00000330: b61b acbd 36ec ea3d 2906 abbc edf9 7d3d
00000340: 7bee 26bc ea7b 753d d24d c23c 8e4c 2ebc
00000350: 8072 0c3c 7170 a43d d39a d3bc 3349 853d
00000360: 8cf5 6f3d d338 ff3c 30e4 b1bc d1e0 be3c
00000370: f170 523d 049e 72bd 0e03 a3bc 8083 e73c
00000380: a268 cabc 386d 8c3c 76c6 0a3d 2780 8ebc
00000390: 6425 083c 189e 993d f43b 953c 5766 603c
000003a0: 6d22 8c3d be31 b83c 7ce0 2f3d 6a3c a73d
000003b0: 2c2d cf3c e20e 683d 936b a6bd fa97 39bb
000003c0: bf5a af3d 3738 3c3d 8eaa 373c 9514 1d3d
000003d0: 1500 913d c4ba ad3c c7e9 b83c 7c5c 463c
000003e0: f639 9d3d bcd2 513b 4e6b 623d c22d 67bd
000003f0: f591 c6bd 92ca 81bd 6afe 10bd c901 1abd

bias f4 [140]
-0.054555338 0.09398373 -0.011166058 0.01674202 0.025880001 -0.0087525165 0.04024788 -0.08530054
-0.028389009 0.015012236 -0.032936208 -0.022531416 0.01976713 0.09412033 -0.011700427 -0.063194245
-0.101117276 -0.056277007 0.049269184 0.025764555 0.062264834 -0.052702066 -0.03147886 -0.041660048
0.09162832 -0.06358541 0.009424574 0.0002454735 -0.0010917697 0.049441647 -0.010207762 -0.066555224
-0.0115698315 -0.0125197675 0.08623387 -0.085048184 -0.04744113 0.048662413 -0.040833455 -0.024861582
0.043380134 0.04996958 -0.017097102 -0.043929704 -0.043032706 -0.048277713 0.016608136 -0.038021322
-0.012399816 -0.0479889 -0.0046252403 -0.017423786 -0.007848467 0.04419873 -0.031381197 -0.03287854
-0.005037239 0.053422708 -0.076630585 0.1050518 -0.049215995 0.005086426 0.00093302876 -0.042882662
0.03235749 0.029537985 -0.012493483 -0.013779586 0.00471728 0.016820341 0.0696639 -0.053231653
0.019800903 -0.09027583 -0.058879163 0.010313486 0.043302782 -0.044078983 0.024016755 -0.054494962
-0.07451791 0.052636404 0.0039151283 -0.055705868 0.007093504 0.07946711 -0.07750816 0.0048789685
0.0055811116 -0.061212443 -0.02057253 0.061097242 -0.002725635 -0.09078057 0.08671389 -0.010198812
-0.0067236624 0.031860918 -0.0429189 0.03403524 0.011362337 -0.07054989 0.067588836 0.07288973
-0.015775952 -0.06392364 -0.07462245 0.07120374 0.058550946 -0.06387823 -0.073080495 0.025919177
0.061257266 -0.05534604 -0.04447361 0.05375176 0.01534746 -0.034222372 -0.08454033 0.089480564
0.020134006 -0.017987384 -0.05693131 -0.06459023 -0.04192493 0.031735186 -0.030996904 -0.037561964
0.08391652 -0.026592763 0.046260282 -0.050836075 0.034708336 0.12552021 0.037668653 0.07494922
-0.070099145 0.043274764 -0.039412554 -0.09140668
00000000: 6b75 5fbd 8b7a c03d d7f1 36bc 9026 893c
00000010: 4c02 d43c b766 0fbc f6da 243d 0db2 aebd
00000020: 1190 e8bc e2f5 753c 1ee8 06bd ce93 b8bc
00000030: adee a13c 29c2 c03d 26b3 3fbc fc6b 81bd
00000040: 9316 cfbd b882 66bd 7cce 493d 3010 d33c
00000050: 6909 7f3d 1fde 57bd faef 00bd baa3 2abd
00000060: a1a7 bb3d 1139 82bd 8769 1a3c e5b2 8039
00000070: b619 8fba 5383 4a3d 753e 27bc 1b4e 88bd
00000080: 648f 3dbc b61f 4dbc 629b b03d be2d aebd
00000090: a151 42bd 3d52 473d fb40 27bd 84aa cbbc
000000a0: 5eaf 313d e7ac 4c3d 390f 8cbc a2ef 33bd
000000b0: 1043 30bd dabe 45bd c90d 883c 3fbc 1bbd
000000c0: 9928 4bbc 0290 44bd 548f 97bb 54bc 8ebc
000000d0: db96 00bc ba09 353d 9289 00bd a6ab 06bd
000000e0: 6c0f a5bb c5d1 5a3d 7ff0 9cbd 6625 d73d
000000f0: b696 49bd 09ac a63b 8096 743a bba5 2fbd
00000100: 4a89 043d a5f9 f13c 77b1 4cbc c6c3 61bc
00000110: 6a93 9a3b d0ca 893c f2ab 8e3d 6f09 5abd
00000120: 8135 a23c 89e2 b8bd 472b 71bd e5f9 283c
00000130: 425e 313d 2a8c 34bd c9be c43c 1c36 5fbd
00000140: d99c 98bd 4599 573d 7a4a 803b d62b 64bd
00000150: a070 e83b a7bf a23d 99bc 9ebd c1df 9f3b
00000160: c2e1 b63b e6b9 7abd b987 a8bc 1a41 7a3d
00000170: 91a0 32bb 2aeb b9bd 0d97 b13d eb18 27bc
00000180: 2b52 dcbb 9880 023d bacb 2fbd 8968 0b3d
00000190: 1829 3a3c 767c 90bd 046c 8a3d 3647 953d
000001a0: 923c 81bc 66ea 82bd a8d3 98bd 44d3 913d
000001b0: 1ed3 6f3d 97d2 82bd 3aab 95bd 7454 d43c
000001c0: e6e8 7a3d 87b2 62bd f629 36bd ce2a 5c3d
000001d0: ea73 7b3c c22c 0cbd 7b23 adbd 9641 b73d
000001e0: 12f0 a43c 475a 93bc ce30 69bd e247 84bd
000001f0: 7ab9 2bbd c1fc 013d 38ed fdbc 93da 19bd
00000200: 6ddc ab3d 11d9 d9bc 6c7b 3d3d 7d39 50bd
00000210: 542a 0e3d 5f88 003e 724a 1a3d fa7e 993d
00000220: 2490 8fbd e140 313d 0f6f 21bd 6d33 bbbd
