training_outputs/softmax/models/model_softmax_N15.pt (torch, 349953 bytes, 14 tensors)

weight f4 [140, 32]
0.12167142 -0.09619123 -0.047576666 -0.1047333 0.11576422 0.10612841 0.08015763 0.053196836
-0.060427137 0.041152004 0.019138224 -0.02723823 0.009965357 -0.013330605 0.01025874 -0.1000667
0.045226067 -0.09246804 0.038747296 -0.079482265 -0.040473804 -0.002206025 0.015799703 -0.06838222
-0.033883337 0.021789525 0.011003022 0.0850505 0.05234159 -0.032515544 -0.017829696 -0.040751424
0.10376513 -0.22023648 -0.07961081 -0.07273718 0.0060539655 -0.11526204 -0.06602847 -0.13774964
-0.018870551 0.14604479 0.06455262 -0.023134844 -0.09940233 0.0802594 0.07713369 0.0310246
-0.06494708 -0.12647845 0.0778083 -0.024835493 0.049053986 0.12963873 -0.004684022 -0.15557975
-0.118193366 0.039866183 -0.046740253 0.081762075 -0.041137885 -0.013014223 -0.03877203 0.00458975
-0.08194064 -0.02683325 0.12159341 0.09572443 -0.05427064 0.121915996 0.06797064 -0.06253243
-0.06821217 -0.077926636 -0.05005572 -0.11255372 0.073999785 -0.06606989 0.03495303 0.06317005
0.055855546 -0.09255714 0.012474112 0.08744552 0.07291933 -0.08319521 -0.093400545 0.021236151
-0.03699653 -0.06565746 -0.026725821 0.061755333 -0.08313215 -0.012577611 -0.060817767 0.0018053243
0.17623846 -0.048284706 0.054366227 0.14737318 -0.030869018 -0.053781454 -0.0041210796 0.14386961
-0.027327579 0.075443245 0.005898942 0.11803542 0.052593067 -0.12808055 -0.028960453 0.023448067
0.018730571 -0.03597165 -0.057119917 -0.069789015 0.046807583 0.15257452 -0.10060353 -0.07413777
0.046901584 -0.0034463059 -0.06919448 -0.007827856 -0.04638819 0.058232155 -0.024626113 -0.026535653
-0.014632105 -0.1096968 -0.03874924 0.08328015 0.053071063 0.11172065 -0.0681234 -0.15551813
-0.016052851 0.02092465 0.010139725 -0.043136086 0.06950562 0.054396708 -0.045480546 0.08243337
-0.05917462 -0.1404237 -0.0153874 0.12686765 0.07696594 -0.05035879 -0.024913577 0.054170646
-0.016137548 -0.008079071 -0.009425438 -0.04245775 -0.00811939 -0.023416333 0.005105862 0.052407645
0.087411605 0.15452565 -0.12181568 -0.1645708 0.056821313 0.04348471 -0.06319155 -0.047635265
-0.0683114 0.09928124 0.08318116 0.09241445 0.096274585 0.15618458 0.055735555 0.015487747
-0.05295465 0.09990336 0.019881038 -0.046606474 -0.08387267 0.04700717 -0.0582619 0.06866802
0.0062300316 -0.024179611 -0.016740376 0.029132808 0.06712685 0.023572493 0.014410164 0.11128968
0.042457677 0.18232068 0.052189957 -0.008082416 0.058817014 -0.17579553 0.085783824 -0.050311618
0.12797697 -0.0012217138 0.117367074 -0.12847608 0.09369818 -0.037939206 0.0024330155 0.03832443
0.059913304 0.116682336 0.016118279 -0.01122387 -0.018381152 0.024819106 0.026379379 -0.11570619
0.03800386 0.016668977 0.003711143 0.062282152 0.07178842 -0.03133699 0.061870433 -0.018396417
-0.006823627 0.101857275 -0.0025208523 0.05793685 0.02516391 -0.17058901 -0.10240086 0.013122829
-0.07846226 -0.053238224 0.079630695 0.11057643 0.034482 -0.09032183 0.037994087 0.042393073
0.01386088 0.021763954 0.0667446 -0.047973104 0.06628172 -0.087509945 0.054278366 0.11588967
0.018888963 -0.045683533 -0.019602386 0.0059136427 -0.052329633 -0.0055530244 0.0143156815 -0.008022809
00000000: de2e f93d e8ff c4bd c0df 42bd 6a7e d6bd
00000010: cb15 ed3d da59 d93d af29 a43d ede4 593d
00000020: 7282 77bd 018f 283d c4c7 9c3c b522 dfbc
00000030: bd45 233c 9c68 5abc 4614 283c c5ef ccbd
00000040: f83e 393d e25f bdbd 7cb5 1e3d 99c7 a2bd
00000050: dcc7 25bd f592 10bb 616e 813c fa0b 8cbd
00000060: 41c9 0abd f27f b23c 0546 343c f52e ae3d
00000070: 2364 563d 052f 05bd 950f 92bc f7ea 26bd
00000080: d082 d43d ac85 61be fe0a a3bd 3bf7 94bd
00000090: 5860 c63b 810e ecbd ef39 87bd 3e0e 0dbe
000000a0: 6a96 9abc c48c 153e 2a34 843d 4985 bdbc
000000b0: 7393 cbbd 0a5f a43d 45f8 9d3d 4d27 fe3c
000000c0: fa02 85bd 9183 01be f559 9f3d ce73 cbbc
000000d0: d5ec 483d 04c0 043e 6d7c 99bb 4c50 1fbe
000000e0: 5d0f f2bd b94a 233d b572 3fbd e072 a73d
000000f0: 3380 28bd 9c39 55bc 6ccf 1ebd 9d65 963b
00000100: 7fd0 a7bd 67d1 dbbc f705 f93d 2c0b c43d
00000110: e44a 5ebd 18af f93d 3134 8b3d 0111 80bd
00000120: d2b2 8bbd 0098 9fbd 3a07 4dbd 9182 e6bd
00000130: 338d 973d a74f 87bd e92a 0f3d 4d5f 813d
00000140: c9c8 643d 998e bdbd 3860 4c3c a316 b33d
00000150: bb56 953d 4062 aabd c948 bfbd 70f7 ad3c
00000160: ac89 17bd 6b77 86bd 1cf0 dabc 29f3 7c3d
00000170: 3041 aabd 5312 4ebc 0d1c 79bd a2a0 ec3a
00000180: db77 343e 2fc6 45bd 1faf 5e3d ffe8 163e
00000190: 06e1 fcbc f149 5cbd 1f0a 87bb 8e52 133e
000001a0: 16de dfbc fd81 9a3d e94b c13b 8ebc f13d
000001b0: d46b 573d 8c27 03be 793e edbc 2916 c03c
000001c0: db70 993c 0257 13bd 93f6 69bd 8bed 8ebd
000001d0: 4fb9 3f3d 7f3c 1c3e 3909 cebd 8bd5 97bd
000001e0: e01b 403d 6bdb 61bb d6b5 8dbd 6840 00bc
000001f0: 8b01 3ebd d784 6e3d b4bc c9bc 4c61 d9bc
00000200: 7fbb 6fbc b7a8 e0bd 86b7 1ebd c98e aa3d
00000210: 0b61 593d cccd e43d 4884 8bbd 2540 1fbe
00000220: 4581 83bc 2c6a ab3c 1721 263c 77af 30bd
00000230: f658 8e3d 15cf 5e3d cf49 3abd d4d2 a83d
00000240: 1661 72bd 3bcb 0fbe 6f1b 7cbc 98e9 013e
00000250: 52a0 9d3d 0545 4ebd 8f17 ccbc 0ae2 5d3d
00000260: e432 84bc 145e 04bc 276d 1abc 2de8 2dbd
00000270: 3107 05bc 9cd3 bfbc 134f a73b 66a9 563d
00000280: db04 b33d f93b 1e3e 807a f9bd 3f85 28be
00000290: 77bd 683d 061d 323d 926a 81bd 321d 43bd
000002a0: d9e6 8bbd f653 cb3d e25a aa3d ca43 bd3d
000002b0: 9c2b c53d daee 1f3e f74a 643d 52c0 7d3c
000002c0: fae6 58bd 229a cc3d 8fdd a23c 6ee6 3ebd
000002d0: 6fc5 abbd 978a 403d 08a4 6ebd d2a1 8c3d
000002e0: 4b25 cc3b 5214 c6bc 1d23 89bc eda7 ee3c
000002f0: cd79 893d 1a1b c13c 9c18 6c3c d8eb e33d
00000300: 1ae8 2d3d 46b2 3a3e 23c5 553d 1c6c 04bc
00000310: 1cea 703d be03 34be 6eaf af3d 8e13 4ebd
00000320: 650c 033e ea21 a0ba 265e f03d 3c8f 03be
00000330: d5e4 bf3d 2466 1bbd 3a73 1f3b 14fa 1c3d
00000340: a767 753d 26f7 ee3d 7b0a 843c 53e4 37bc
00000350: 1294 96bc 7051 cb3c 9119 d83c 5ef7 ecbd
00000360: efa9 1b3d 618d 883c a636 733b 921b 7f3d
00000370: cf05 933d 375b 00bd da6b 7d3d 15b4 96bc
00000380: bb98 dfbb 8c9a d03d e234 25bb 314f 6d3d
00000390: 8b24 ce3c e3ae 2ebe 8bb7 d1bd 2201 573c
000003a0: d2b0 a0bd 5310 5abd 6b15 a33d e575 e23d
000003b0: ff3c 0d3d a7fa b8bd b09f 1b3d 5ca4 2d3d
000003c0: bf18 633c 524a b23c 65b1 883d 727f 44bd
000003d0: b6be 873d 6a38 b3bd fe52 5e3d 9057 ed3d
000003e0: 07bd 9a3c a81e 3bbd 2f95 a0bc 3bc7 c13b
000003f0: 9957 56bd 25f6 b5bb 528c 6a3c 1a72 03bc

bias f4 [140]
-0.22153014 0.1462421 -0.027440984 0.076497436 -0.17746302 0.060658965 -0.0024912409 -0.090555206
0.22865745 0.09542571 0.0499699 -0.06935351 0.24335271 -0.05664026 0.14218964 0.002195409
-0.019917246 0.15238164 0.36318633 0.16352414 -0.16813506 0.08900453 0.10138121 -0.13915662
0.018182922 -0.08380992 -0.2442837 0.11602355 0.12306085 0.15609512 -0.24338196 0.04925887
0.22362274 -0.020038288 0.18927683 -0.20192774 0.013254843 0.13829854 -0.22120263 -0.08150776
0.22475654 -0.07342272 -0.14684537 0.18657203 0.19648121 -0.18727566 0.10877107 0.18729563
-0.16236198 0.17840108 0.25184706 -0.15412772 -0.041884236 -0.008694569 -0.18831035 -0.0046778833
-0.018241031 0.121992424 -0.01065098 0.1024367 0.042033464 0.11145967 -0.17646515 -0.0146499425
-0.009798384 0.08777981 0.12479152 0.09616351 0.111098945 -0.33159208 0.16292654 0.14782138
-0.094896786 0.08006466 0.0653831 -0.12940656 0.033692 -0.28265297 -0.14961779 0.005180186
-0.12349003 -0.3446072 -0.1005085 -0.06889366 -0.15916798 -0.03887016 -0.014834556 -0.109378405
0.1913616 0.100956 0.25618452 0.31254324 0.14435607 -0.08752168 -0.43155935 0.331542
0.012629101 0.36445284 0.013456266 -0.074452005 -0.07528885 -0.3186467 0.031281926 0.13633385
-0.07156065 -0.14237118 -0.017451722 -0.097479075 -0.21261944 0.106157556 0.048234884 -0.025214626
-0.045412418 0.07779632 -0.07191882 -0.11114947 -0.09254519 0.09073722 0.13292433 0.01072559
-0.030626575 -0.11730113 0.045527555 0.08870101 0.045832474 0.24249795 -0.037563186 -0.03035531
0.14796735 0.23258649 -0.16462165 -0.07786558 0.03677624 -0.031490594 -0.19170408 0.03899326
0.07715862 -0.14747031 -0.10145258 -0.21332434
00000000: ccd8 62be 7dc0 153e eacb e0bc b0aa 9c3d
00000010: deb8 35be 8975 783d 1644 23bb 0275 b9bd
00000020: 2e25 6a3e 8e6e c33d 3dad 4c3d 3709 8ebd
00000030: 7431 793e 9eff 67bd 299a 113e dae0 0f3b
00000040: 7e29 a3bc ef09 1c3e 8ff3 b93e df72 273e
00000050: 992b 2cbe 0248 b63d f4a0 cf3d 137f 0ebe
00000060: 5af4 943c 89a4 abbd 8225 7abe c19d ed3d
00000070: 5407 fc3d 66d7 1f3e 1f39 79be abc3 493d
00000080: 5cfd 643e 5627 a4bc c9d1 413e 25c6 4ebe
00000090: d72a 593c 229e 0d3e f182 62be 8aed a6bd
000000a0: 9426 663e a75e 96bd a25e 16be bd0c 3f3e
000000b0: 5f32 493e 31c5 3fbe 5ec3 de3d 6dca 3f3e
000000c0: 3842 26be c6ae 363e 19f2 803e a8d3 1dbe
000000d0: ce8e 2bbd aa73 0ebc 6ed4 40be ee48 99bb
000000e0: 376e 95bc 2ad7 f93d 7381 2ebc 55ca d13d
000000f0: 482b 2c3d f844 e43d 48b3 34be 5006 70bc
00000100: 6789 20bc e7c5 b33d b292 ff3d 60f1 c43d
00000110: d887 e33d 70c6 a9be 37d6 263e 7d5e 173e
00000120: 3f59 c2bd f1f8 a33d 93e7 853d 2783 04be
00000130: 9f00 0a3d e4b7 90be 6835 19be 8dbe a93b
00000140: 57e8 fcbd 5b70 b0be 67d7 cdbd 1f18 8dbd
00000150: eefc 22be 5136 1fbd a30c 73bc c901 e0bd
00000160: 4cf4 433e 05c2 ce3d 9e2a 833e ab05 a03e
00000170: 14d2 133e 913e b3bd 59f5 dcbe dfbf a93e
00000180: 4aea 4e3c 9099 ba3e ac77 5c3c 4b7a 98bd
00000190: 0a31 9abd a925 a3be 7a21 003d 1a9b 0b3e
000001a0: 648e 92bd c0c9 11be eaf6 8ebc 1ca3 c7bd
000001b0: e9b8 59be 2269 d93d f191 453d e78e cebc
000001c0: 5f02 3abd ad53 9f3d 2d4a 93bd 55a2 e3bd
000001d0: 5588 bdbd 70d4 b93d 511d 083e 63ba 2f3c
000001e0: 95e4 fabc 933b f0bd 1a7b 3a3d e0a8 b53d
000001f0: d5ba 3b3d 6251 783e dbdb 19bd b3ab f8bc
00000200: c184 173e 272b 6e3e 9492 28be fd77 9fbd
00000210: afa2 163d 48fc 00bd 134e 44be 66b7 1f3d
00000220: 5705 9e3d 7502 17be 5fc6 cfbd b271 5abe

weight f4 [140, 140]
-0.043576136 -0.0039669676 0.062776215 -0.06980201 0.0022264633 -0.050025083 -0.0101894615 -0.01789195
0.014067052 0.0980936 0.14386462 0.012074032 -0.02600736 0.035530947 -0.0072107487 0.03896875
0.030282252 -0.04788305 -0.038988955 0.029720632 0.050128315 0.016427813 0.029182525 -0.06402564
-0.07315699 0.00046691028 -0.048395388 0.033870053 0.016169906 0.075547576 0.042050295 0.07263685
0.030259775 0.15355825 0.0049439063 0.062077552 -0.07783122 -0.024233293 0.010877197 0.048262585
-0.06499068 -0.028631473 0.0017464679 -0.027837224 0.054330133 -0.07738609 -0.054189656 0.020233823
-0.078932196 -0.059523296 0.041486595 -0.0024417927 -0.024472741 -0.08156444 -0.008474059 0.008017336
0.009947158 0.036641207 0.0010186905 -0.04398276 -0.09795213 -0.026145002 -0.08856108 -0.029589342
0.049903773 0.03978256 0.03244362 0.017720507 0.008279647 0.014562664 -0.10327302 -0.014931168
-0.06424455 -0.024337597 -0.06314826 0.008183201 -0.082779944 0.069328256 0.02043905 0.03146265
-0.010522689 -0.04093619 -0.014518793 -0.014371059 0.022196885 -0.18178466 -0.092453696 0.01878503
-0.03492495 -0.054779533 -0.041036434 0.021052249 -0.03465809 0.035375964 0.022986222 0.0067097177
0.16973266 0.079986446 0.017272396 0.044373803 0.016551722 0.060181003 -0.07455662 -0.00094000134
-0.024591148 0.009988624 0.07592068 0.061415315 0.0021356356 0.031673092 0.029718468 -0.0021749546
0.00703864 0.03736365 -0.014181037 0.08452492 0.023982625 0.06252111 -0.051932365 -0.005929997
0.056264047 0.0001988332 -0.0024271489 -0.075053826 -0.055086583 -0.029620852 -0.029501459 0.0009328963
0.014649977 0.016008377 -0.05695238 -0.02130914 0.038619976 -0.004298618 0.06764931 -0.009281055
-0.08572258 0.011361201 -0.023590915 0.042274363 -0.051369414 -0.0659246 0.10392796 0.02020884
-0.01064675 -0.024446823 -0.085786164 0.05155658 -0.0072964947 -0.020557944 -0.010039031 -0.0948224
-0.07983684 -0.05783147 -0.044941753 0.01742466 -0.016522642 0.022462314 0.108276345 -0.030221138
-0.073091015 0.022779439 0.09524497 -0.03895802 -0.019196313 0.02326646 -0.0068521444 -0.0353321
0.01177657 0.0696692 0.09935219 0.10667897 0.024190148 0.01140162 0.019234024 -0.09179548
-0.067468636 0.103320956 0.06380766 0.08960583 -0.08129939 -0.011971617 -0.028667033 -0.039115105
-0.024256598 -0.023330512 0.054733194 0.06307046 -0.053865977 0.04406631 -0.00027751346 0.027997877
-0.05570978 0.052067008 0.05880502 0.046801906 -0.004998702 -0.040053762 0.080543295 0.035815522
-0.0008792868 -0.0743188 -0.023423335 -0.02517323 -0.015339715 0.013312023 -0.09002202 0.0030411626
0.013699565 -0.046229485 -0.0142766675 -0.01479793 0.08341691 0.019584937 0.02528782 -0.0056379633
0.02197386 -0.006536495 -0.0655316 -0.026628233 0.0066579147 -0.055144984 -0.04902235 -0.004150335
-0.04157865 -0.06994871 0.051326513 0.052072678 0.1252034 0.048798658 -0.073654056 -0.077921145
0.0151647525 0.08370512 0.04442272 -0.081157945 -0.06086775 0.043166723 0.036267705 -0.03866679
-0.002919672 -0.039410993 0.0021551447 0.012460371 0.00021345139 -0.08724503 0.030769818 -0.0888775
-0.04618496 -0.027018733 -0.044559166 -0.054177936 -0.046407416 -0.09330515 -0.027547188 0.05619461
00000000: e47c 32bd 56fd 81bb d190 803d 5bf4 8ebd
00000010: dbe9 113b 1ae7 4cbd b3f1 26bc 2492 92bc
00000020: 7e79 663c 4ce5 c83d 3f51 133e 29d2 453c
00000030: 630d d5bc e688 113d 2548 ecbb b29d 1f3d
00000040: 7c12 f83c 0421 44bd e2b2 1fbd af78 f33c
00000050: 5953 4d3d 9f93 863c 3110 ef3c e01f 83bd
00000060: 55d3 95bd a3cb f439 3e3a 46bd 53bb 0a3d
00000070: c076 843c b0b8 9a3d ee3c 2c3d a1c2 943d
00000080: 59e3 f73c 603e 1d3e 7e00 a23b 0845 7e3d
00000090: fa65 9fbd e684 c6bc 4536 323c fdae 453d
000000a0: d519 85bd 8d8c eabc bde9 e43a e40a e4bc
000000b0: 4689 5e3d 997c 9ebd f9f5 5dbd 67c1 a53c
000000c0: 34a7 a1bd b3ce 73bd d9ed 293d 7c06 20bb
000000d0: 0f7b c8bc 420b a7bd c8d6 0abc 255b 033c
000000e0: 68f9 223c 1715 163d 9585 853a 4427 34bd
000000f0: 209b c8bd 0b2e d6bc 835f b5bd 5965 f2bc
00000100: e667 4c3d 0af3 223d 9ae3 043d 992a 913c
00000110: 5ba7 073c 3d98 6e3c ce80 d3bd dca1 74bc
00000120: a692 83bd a45f c7bc e053 81bd d512 063c
00000130: 8888 a9bd f9fb 8d3d cb6f a73c fbde 003d
00000140: 5b67 2cbc b5ac 27bd 3be0 6dbc 9774 6bbc
00000150: 3ed6 b53c c225 3abe 5d58 bdbd 10e3 993c
00000160: 770d 0fbd 8160 60bd d215 28bd c475 ac3c
00000170: a4f5 0dbd 63e6 103d 9a4d bc3c 31dd db3b
00000180: 66ce 2d3e efcf a33d d77e 8d3c 4ec1 353d
00000190: 7a97 873c 5b80 763d 24b1 98bd 6c6a 76ba
000001a0: 6073 c9bc 53a7 233c 4d7c 9b3d a08e 7b3d
000001b0: 05f6 0b3b a5bb 013d 2574 f33c af89 0ebb
000001c0: 64a4 e63b a00a 193d 9557 68bc 671b ad3d
000001d0: 3677 c43c 110b 803d 08b7 54bd 6c50 c2bb
000001e0: 2175 663d e17d 5039 cd10 1fbb d2b5 99bd
000001f0: 78a2 61bd 6ea7 f2bc 0bad f1bc 9c8d 743a
00000200: 7506 703c 0024 833c e646 69bd 8190 aebc
00000210: fb2f 1e3d 6cdb 8cbb b98b 8a3d 910f 18bc
00000220: 528f afbd 5524 3a3c bc41 c1bc e227 2d3d
00000230: bc68 52bd 7a03 87bd 2fd8 d43d 028d a53c
00000240: b56f 2ebc b444 c8bc a8b0 afbd fe2c 533d
00000250: 6f17 efbb 2269 a8bc bf7a 24bc 3f32 c2bd
00000260: 7f81 a3bd b1e0 6cbd d814 38bd 29be 8e3c
00000270: 7e5a 87bc e302 b83c fdbf dd3d 5292 f7bc
00000280: beb0 95bd f29b ba3c cb0f c33d 7292 1fbd
00000290: 9641 9dbc 4e99 be3c f487 e0bb 64b8 10bd
000002a0: 84f2 403c baae 8e3d 2979 cb3d 817a da3d
000002b0: 6b2a c63c dccd 3a3c ac90 9d3c 45ff bbbd
000002c0: ff2c 8abd f099 d33d 97ad 823d 4383 b73d
000002d0: 4b80 a6bd 9a24 44bc 20d7 eabc 2937 20bd
000002e0: c6b5 c6bc a11f bfbc ea2f 603d 162b 813d
000002f0: 92a2 5cbd e07e 343d 3a7f 91b9 ce5b e53c
00000300: f02f 64bd 3744 553d 88dd 703d 5bb3 3f3d
00000310: 27cc a3bb 6a0f 24bd e2f3 a43d 4cb3 123d
00000320: f07f 66ba 7434 98bd 4be2 bfbc 1738 cebc
00000330: 6e53 7bbc ac1a 5a3c 775d b8bd 3e4e 473b
00000340: 2474 603c 215b 3dbd afe8 69bc 0473 72bc
00000350: 7cd6 aa3d 9770 a03c 6728 cf3c aabe b8bb
00000360: 8602 b43c 1830 d6bb 6e35 86bd 7423 dabc
00000370: a32a da3b b5df 61bd a9cb 48bd 89ff 87bb
00000380: 604e 2abd 4541 8fbd c03b 523d 294a 553d
00000390: 5235 003e 1ae1 473d f0d7 96bd 1f95 9fbd
000003a0: 9575 783c 976d ab3d 99f4 353d 2336 a6bd
000003b0: 7650 79bd 97cf 303d 728d 143d 1161 1ebd
000003c0: f857 3fbb 6c6d 21bd 543d 0d3b 9526 4c3c
000003d0: ecd1 5f39 86ad b2bd fc10 fc3c 6805 b6bd
000003e0: 712c 3dbd 6456 ddbc ac83 36bd afe9 5dbd
000003f0: b415 3ebd c516 bfbd a4aa e1bc 522c 663d

bias f4 [140]
0.085611746 0.006902658 0.018393835 -0.08894649 -0.10886526 -0.077803336 0.04961108 0.06498661
-0.049603794 -0.12085722 0.050926927 -0.090189286 -0.041338585 -0.029548353 0.007030406 0.0718419
-0.093231216 0.079130165 0.0064835083 -0.022204438 0.03939428 0.07659454 -0.0004158204 -0.07088013
-0.07267391 -0.056531362 0.036212545 0.045870535 -0.08998199 0.025400145 0.012064259 0.012486433
-0.013778334 -0.06186611 -0.022544522 -0.005888336 0.02669833 0.0058130804 -0.09236756 -0.06750126
-0.057276238 0.02786942 -0.084196046 -0.049118552 0.04281841 -0.11790886 -0.15350685 -0.1115938
0.039624643 -0.12110501 0.074145764 0.03602934 -0.04096953 -0.06155793 0.065865315 -0.081691355
0.019835154 -0.024207458 -0.053511977 -0.008057675 -0.003373196 -0.08342513 0.040186215 -0.09502719
-0.08387241 0.022244778 -0.07298531 0.10455418 -0.070552535 -0.06710486 0.026756058 -0.07216633
0.022373963 0.011210025 0.040088087 -0.0039980835 -0.070256226 -0.0070869112 0.052047446 -0.08656032
0.031242691 -0.050771814 0.0055510723 0.03160791 0.03272233 -0.029707199 -0.052258696 -0.0035766847
-0.064471595 -0.06082815 0.024107793 0.06916807 0.012500804 0.008488707 -0.04857708 -0.017373947
0.0051691835 -0.007144082 0.0063176733 0.04481733 0.030846914 0.0077751954 0.013303783 0.07863133
-0.010847283 -0.044505745 -0.087590866 -0.020164477 0.0080226 -0.010499765 -0.05852867 0.06740821
-0.1049441 -0.035032853 0.060978513 0.033368003 0.07795441 0.07256603 -0.012138009 -0.054681115
0.021609182 -0.07141848 -0.035853777 -0.024321686 0.031180384 -0.0010246743 -0.09722937 0.015293582
-0.036444735 0.034747336 -0.040276937 0.086461194 -0.04891608 -0.039120503 -0.010397796 -0.08783265
-0.07950022 0.025450474 -0.0074964627 -0.04296416
00000000: 3655 af3d b12f e23b abae 963c 9429 b6bd
00000010: c0f4 debd 5b57 9fbd fd34 4b3d b317 853d
00000020: 592d 4bbd fd83 f7bd c198 503d 29b5 b8bd
00000030: a652 29bd 630f f2bc 525f e63b d921 933d
00000040: 02f0 bebd ff0e a23d 9c73 d43b 15e6 b5bc
00000050: e65b 213d 99dd 9c3d 7802 dab9 9a29 91bd
00000060: 0fd6 94bd 6e8d 67bd 9b53 143d bee2 3b3d
00000070: 7a48 b8bd f713 d03c 2ba9 453c e593 4c3c
00000080: 85be 61bc 5167 7dbd 4aaf b8bc f1f2 c0bb
00000090: 75b6 da3c a77b be3b 342b bdbd 1a3e 8abd
000000a0: 7d9a 6abd 694e e43c fa6e acbd 8930 49bd
000000b0: 5b62 2f3d 337a f1bd e630 1dbe 4a8b e4bd
000000c0: 734d 223d e705 f8bd bcd9 973d 8093 133d
000000d0: aacf 27bd 2b24 7cbd 65e4 863d cc4d a7bd
000000e0: 557d a23c b84e c6bc 602f 5bbd 5704 04bc
000000f0: d710 5dbb cbda aabd 4d9a 243d 9e9d c2bd
00000100: 4cc5 abbd ae3a b63c 5279 95bd 8020 d63d
00000110: d97d 90bd 466e 89bd 852f db3c f1cb 93bd
00000120: 9a49 b73c 41aa 373c 6833 243d 5b02 83bb
00000130: 7fe2 8fbd 5239 e8bb b42f 553d 8946 b1bd
00000140: acf0 ff3c 1bf6 4fbd c5e5 b53b 4c77 013d
00000150: da07 063d 835c f3bc 370d 56bd d066 6abb
00000160: af09 84bd f026 79bd b57d c53c fda7 8d3d
00000170: 2cd0 4c3c 3814 0b3c c3f8 46bd cf53 8ebc
00000180: 4162 a93b e718 eabb 7c04 cf3b 6092 373d
00000190: abb2 fc3c 11c7 fe3b 1cf8 593c 7609 a13d
000001a0: cdb8 31bc a84b 36bd d762 b3bd f92f a5bc
000001b0: 3971 033c 3507 2cbc c2bb 6fbd 510d 8a3d
000001c0: efec d6bd 9c7e 0fbd 9bc4 793d e3ac 083d
000001d0: 90a6 9f3d 809d 943d 80de 46bc 4ef9 5fbd
000001e0: bd05 b13c da43 92bd 69db 12bd 463e c7bc
000001f0: 016e ff3c 5d4e 86ba 3120 c7bd ef91 7a3c
00000200: 1347 15bd 3953 0e3d 6ef9 24bd 9112 b13d
00000210: 3a5c 48bd d23c 20bd 845b 2abc 9be1 b3bd
00000220: 03d1 a2bd 837d d03c e3a4 f5bb 30fb 2fbd

weight f4 [140, 140]
-0.097356535 0.0028348495 -0.02698097 0.07686147 0.09336002 -0.03755227 -0.09142365 -0.08744892
-0.020243576 0.018796094 -0.06579614 0.06510893 0.061758958 0.0018918031 -0.0014103808 -0.028729439
0.04677273 -0.1193617 -0.016398523 -0.051706076 -0.046272576 -0.12080187 0.037007492 -0.047308292
0.018834274 0.03525431 -0.017718695 -0.038108177 -0.04196884 -0.028640691 -0.01944692 0.070981465
0.013721399 0.06412453 -0.043233953 -0.047444753 -0.03583039 -0.10598951 -0.05372675 0.03604025
-0.08514972 0.061345886 0.024649909 -0.022628108 -0.046313718 0.05021897 -0.032296304 -0.046047956
-0.017526481 0.04228405 0.023247011 0.015257284 -0.03859121 0.073958576 -0.046334866 -0.009256179
0.06560026 -0.002666577 -0.05244423 0.010131174 0.07715664 -0.04294326 -0.08340274 -0.07405732
-0.03650482 -0.016499896 -0.08506766 -0.10275523 -0.04089729 -0.011433974 -0.0019418026 -0.010990412
0.052336965 0.03775247 -0.028804874 -0.080686614 0.07204381 0.083000086 -0.060134772 0.008490228
-0.04854841 0.03602233 0.08638533 -0.013323099 -0.007878803 0.067131616 -0.055583708 -0.014159644
0.015070835 0.011655374 -0.02138444 0.039017 0.029097479 -0.07828442 -0.047526564 -0.0013481708
-0.016636908 -0.010643212 -0.018418266 0.042016577 0.007846918 -0.09468792 -0.01160184 -0.042126935
0.0029090964 0.019275956 -0.015845625 0.029806014 -0.028022468 -0.003711109 -0.057902765 -0.09592232
0.09512467 0.07812209 -0.072678745 -0.0063378774 -0.060045347 0.011318522 0.002808921 -0.053346153
0.006215916 -0.023276081 -0.029233664 0.02101957 0.0009829017 -0.03096317 -0.016253417 -0.042450532
-0.01358699 -0.043953113 0.0420906 -0.07191441 -0.028401596 0.03527781 -0.013819811 0.040824022
-0.0828498 0.042676315 -0.019529538 0.013170224 -0.0042908145 0.055187315 0.03836622 -0.07060528
0.060442284 -0.06717971 0.051282927 -0.004423662 -0.020790763 -0.03546128 0.11922835 -0.07768247
-0.007986834 0.0049594245 -0.008422992 -0.06471558 -0.06598702 -0.07201807 0.02414595 0.048235506
0.034397017 0.0017411653 -0.02874134 0.0840741 -0.06500892 -0.047134947 -0.056182507 -0.010697614
-0.029553918 0.077418916 -0.06323761 -0.04029631 -0.081840955 -0.019781956 -0.015988361 -0.022171937
0.008320536 -0.0037237091 0.003756226 0.050121043 0.08774177 0.047080554 -0.04097069 -0.014043774
-0.08098127 -0.092651464 -0.054021854 0.00607704 -0.024418704 0.0040423544 -0.09232544 -0.01658539
-0.053898517 0.045152955 -0.0703313 0.00353093 -0.043282103 0.02304276 0.06666467 -0.0394625
-0.057706565 0.022431925 -0.021401294 0.099318005 0.075822145 -0.023418294 0.056482576 -0.045936376
-0.019525781 0.0277922 0.0032653122 0.078695506 0.075441785 -0.05808223 0.029668735 0.08413847
-0.07829434 -0.10475203 -0.014383745 0.07449255 0.068257384 -0.0057884487 0.032170635 -0.046498716
0.063806534 0.015228416 -0.025092924 -0.033264063 0.04036765 -0.015799042 0.008941085 -0.070858955
-0.048903972 -0.053754795 0.05324167 -0.05295753 0.09782091 0.059346147 0.060748942 0.061152346
-0.041289207 0.070494175 -0.030478073 0.014377795 -0.009809138 -0.01979808 0.016663406 -0.04624737
-0.028235788 0.017197154 0.05930776 0.05805336 -0.00024228348 0.061709527 0.023115223 -0.076938726
00000000: dd62 c7bd e2c8 393b 3207 ddbc 8c69 9d3d
00000010: 8a33 bf3d 69d0 19bd 533c bbbd 6b18 b3bd
00000020: dbd5 a5bc 44fa 993c 20c0 86bd d557 853d
00000030: f6f6 7c3d 61f6 f73a 87dc b8ba 005a ebbc
00000040: c394 3f3d e873 f4bd 3256 86bc c0c9 53bd
00000050: 5088 3dbd f966 f7bd 2b95 173d 57c6 41bd
00000060: 564a 9a3c d366 103d cc26 91bc 5217 1cbd
00000070: 85e7 2bbd e29f eabc 264f 9fbc bb5e 913d
00000080: b8cf 603c b953 833d 1616 31bd 6e55 42bd
00000090: e3c2 12bd 0711 d9bd 9510 5cbd f19e 133d
000000a0: fa62 aebd d345 7b3d 9bee c93c 955e b9bc
000000b0: 74b3 3dbd 68b2 4d3d 2149 04bd c89c 3cbd
000000c0: b293 8fbc 0a32 2d3d 8470 be3c b0f9 793c
000000d0: d111 1ebd 9877 973d a1c9 3dbd 3ba7 17bc
000000e0: 6e59 863d bdc1 2ebb c3cf 56bd 39fd 253c
000000f0: 4d04 9e3d 46e5 2fbd 0ecf aabd 5dab 97bd
00000100: 1486 15bd ca2a 87bc f437 aebd 5671 d2bd
00000110: eb83 27bd 9055 3bbc 1584 feba 2111 34bc
00000120: 495f 563d 55a2 1a3d 33f8 ebbc 063f a5bd
00000130: b48b 933d f3fb a93d e14f 76bd 991a 0b3c
00000140: b3da 46bd 278c 133d cbea b03d 2149 5abc
00000150: 1816 01bc 4d7c 893d beab 63bd dafd 67bc
00000160: aaeb 763c 2ff6 3e3c 6c2e afbc 4ad0 1f3d
00000170: d65d ee3c 9553 a0bd 37ab 42bd 1bb5 b0ba
00000180: 204a 88bc de60 2ebc e7e1 96bc 9319 2c3d
00000190: 5c90 003c bdeb c1bd a515 3ebc 4b8d 2cbd
000001a0: 8aa6 3e3b 9ce8 9d3c afce 81bc be2b f43c
000001b0: 608f e5bc 1436 73bb 732b 6dbd ec72 c4bd
000001c0: b9d0 c23d 79fe 9f3d 98d8 94bd f8ad cfbb
000001d0: 1cf2 75bd 5271 393c e015 383b 7f81 5abd
000001e0: e2ae cb3b 7bad bebc 707b efbc 3c31 ac3c
000001f0: b5d4 803a 79a6 fdbc e325 85bc 9ce0 2dbd
00000200: f79b 5ebc 2e08 34bd 3167 2c3d dd47 93bd
00000210: 77aa e8bc 777f 103d 7d6c 62bc 1737 273d
00000220: 28ad a9bd 5ccd 2e3d 69fc 9fbc ecc7 573c
00000230: f699 8cbb 180c 623d e625 1d3d 8099 90bd
00000240: 5492 773d 8495 89bd 0c0e 523d 5ef4 90bb
00000250: 6451 aabc d93f 11bd fe2d f43d fd17 9fbd
00000260: 36db 02bc ab82 a23b 9700 0abc 9a89 84bd
00000270: 3424 87bd 367e 93bd bacd c53c 9892 453d
00000280: e3e3 0c3d d037 e43a f572 ebbc 0b2f ac3d
00000290: 6623 85bd 9310 41bd a11f 66bd 0c45 2fbc
000002a0: 0f1b f2bc cf8d 9e3d b882 81bd be0d 25bd
000002b0: 3b9c a7bd c50d a2bc 06fa 82bc eca1 b5bc
000002c0: dc52 083c 7909 74bb 042b 763b b94b 4d3d
000002d0: f5b1 b33d 8ad7 403d e2d0 27bd dc17 66bc
000002e0: 82d9 a5bd 0dc0 bdbd 0546 5dbd e821 c73b
000002f0: bc09 c8bc ba75 843b 1f15 bdbd 15de 87bc
00000300: b1c4 5cbd 4ef2 383d db09 90bd 2d67 673b
00000310: 9348 31bd 2cc4 bc3c 7d87 883d 6ea3 21bd
00000320: b85d 6cbd 28c3 b73c c451 afbc 3d67 cb3d
00000330: a448 9b3d b9d7 bfbc 465a 673d c827 3cbd
00000340: 88f4 9fbc 78ac e33c d9fe 553b 1c2b a13d
00000350: 3981 9a3d a2e7 6dbd d90b f33c ca50 ac3d
00000360: c858 a0bd 3b88 d6bd cda9 6bbc 8d8f 983d
00000370: 87ca 8b3d 07ad bdbb 5bc5 033d 7075 3ebd
00000380: 00ad 823d 9b80 793c ad8f cdbc e63f 08bd
00000390: 8d58 253d fe6c 81bc a17d 123c 801e 91bd
000003a0: 884f 48bd fd2d 5cbd f013 5a3d ffe9 58bd
000003b0: 5456 c83d f214 733d e2d3 783d e27a 7a3d
000003c0: df1e 29bd 405f 903d 27ad f9bc d890 6b3c
000003d0: 82b6 20bc 952f a2bc b281 883c e26d 3dbd
000003e0: bd4e e7bc 0ce1 8c3c b2ec 723d 5cc9 6d3d
000003f0: 7a0d 7eb9 21c3 7c3d 235c bd3c 0d92 9dbd

bias f4 [140]
-0.05192878 0.02426104 0.030938705 -0.031589992 0.03772429 -0.041691393 -0.09616602 -0.12902156
0.02631796 0.06252903 -0.023016779 -0.07342809 -0.059447717 0.12370797 -0.062416144 0.11456729
-0.016711459 -0.05140752 -0.057729375 -0.095643364 0.039249368 0.0006467627 -0.033121806 -0.03855408
-0.05943426 0.083832465 -0.049163297 0.097145244 0.08774168 0.13564081 0.021741869 0.12132889
-0.082393415 -0.17999439 -0.021390716 0.058441512 -0.0532418 0.071185954 0.13531373 -0.03804086
-0.039723817 -0.031096123 -0.0921773 -0.052072387 -0.06302509 -0.003013327 0.019328216 0.06193868
0.04298333 -0.07474079 -0.027653005 0.03688159 0.0059656417 0.06546551 0.0012508514 -0.063678876
-0.031334795 0.06682946 0.038097493 -0.0003211588 0.07230354 -0.059090428 0.040149976 -0.07685164
-0.1308665 0.033317786 0.09024243 -0.041442744 -0.07268788 -0.081891686 -0.11370623 -0.00733736
0.07000334 0.043868 -0.05041206 0.02010326 -0.047012042 -0.032167654 -0.083900824 -0.025367273
0.0024158964 -0.13304639 -0.042520963 -0.014280089 0.05044922 -0.07249989 0.033581983 -0.09607978
-0.02902987 0.08223151 0.008725068 -0.121540874 -0.06841732 -0.013926669 -0.05191773 -0.024268385
-0.013798517 -0.11683285 0.10257796 0.048186548 0.11192215 -0.029968005 -0.059736706 -0.023231648
0.054060973 0.026009256 0.007837214 -0.12619412 0.048307072 0.047496077 -0.14065938 -0.030077737
0.037450567 -0.11162831 -0.12647375 0.115960814 0.018695332 0.112918265 0.0033099381 0.0031514373
-0.07210655 0.03295276 0.010011986 0.02671736 -0.04358591 0.18422744 0.080111206 -0.13974792
0.08341715 0.0011338817 -0.10164828 -0.012986448 -0.07447575 -0.018213209 -0.002515791 -0.03072212
-0.014435317 -0.037675478 -0.04393247 -0.04380651
00000000: 46b3 54bd 17bf c63c 2b73 fd3c 8264 01bd
00000010: c984 1a3d 98c4 2abd b1f2 c4bd 3a1e 04be
00000020: c398 d73c 380f 803d af8d bcbc 7761 96bd
00000030: 737f 73bd 9b5a fd3d 12a8 7fbd 41a2 ea3d
00000040: 78e6 88bc b190 52bd a375 6cbd abe0 c3bd
00000050: f2c3 203d 838b 293a bbaa 07bd e2ea 1dbd
00000060: 5771 73bd 5bb0 ab3d 745f 49bd 16f4 c63d
00000070: e9b1 b33d 6de5 0a3e 011c b23c 487b f83d
00000080: e1bd a8bd 7350 38be 953b afbc 5e60 6f3d
00000090: 1314 5abd f1c9 913d af8f 0a3e bcd0 1bbd
000000a0: 71b5 22bd 4cbd febc 74c7 bcbd db49 55bd
000000b0: 4c13 81bd 3d7b 45bb 3556 9e3c 6ab3 7d3d
000000c0: 4a0f 303d b311 99bd 8e88 e2bc 2611 173d
000000d0: 6e7b c33b c812 863d 9cf3 a33a 126a 82bd
000000e0: ea58 00bd e2dd 883d 1e0c 1c3d 3461 a8b9
000000f0: e113 943d ce08 72bd 4d74 243d 6564 9dbd
00000100: de01 06be 3b78 083d 06d1 b83d debf 29bd
00000110: 62dd 94bd d4b6 a7bd d0de e8bd 3d6e f0bb
00000120: e95d 8f3d efae 333d e07c 4ebd 98af a43c
00000130: b38f 40bd 3bc2 03bd 32d4 abbd 07cf cfbc
00000140: 0454 1e3b 503d 08be 762a 2ebd 09f7 69bc
00000150: d7a3 4e3d d37a 94bd 438d 093d 7ac5 c4bd
00000160: 0dd0 edbc fe68 a83d 96f3 0e3c 6cea f8bd
00000170: 611e 8cbd af2c 64bc b0a7 54bd 7ece c6bc
00000180: 2d13 62bc 1046 efbd 6514 d23d 425f 453d
00000190: 7137 e53d 767f f5bc 7aae 74bd 4c50 bebc
000001a0: 0a6f 5d3d 5d11 d53c a867 003c 0839 01be
000001b0: a3dd 453d 3f8b 423d 0309 10be 9665 f6bc
000001c0: c465 193d 629d e4bd 5682 01be dd7c ed3d
000001d0: f426 993c b141 e73d 8ceb 583b 5888 4e3b
000001e0: 99ac 93bd 79f9 063d 5009 243c 5dde da3c
000001f0: 2487 32bd 1ea6 3c3e 5811 a43d 141a 0fbe
00000200: 9cd6 aa3d c29e 943a f92c d0bd 1cc5 54bc
00000210: be86 98bd de33 95bc f8df 24bb f5ac fbbc
00000220: 1c82 6cbc 9a51 1abd 89f2 33bd 746e 33bd

weight f4 [2, 140]
-0.0013798298 0.0010574 0.0004382871 0.0011273362 -0.0015854619 -0.00023226488 -0.0010332596 -0.10348589
0.0011537644 -0.01179882 -0.0015530447 0.0034965347 0.00050128635 -0.009817301 -0.0015504904 0.10205361
0.0005609868 0.020891188 -0.000980232 -0.0016438186 0.15209748 0.00018339846 0.00046125724 0.0008301926
-0.0015613802 0.0007663052 0.0018320058 0.12694633 -0.010574095 0.1150122 -0.0014615753 -0.015962934
-0.12275371 -0.025084145 0.079570815 -0.007651187 0.00076623476 0.0012674014 -0.002066467 -0.002566613
0.00063008984 -0.013142581 -0.059751473 -0.000119092656 -0.0011042227 -0.001474536 0.078703366 -0.0016118141
-0.0015748655 0.001959338 -0.00069765165 0.00088907627 -0.024491753 -0.013107235 0.0006990058 0.020017559
0.018216344 0.0011784986 -0.0016790319 0.001096083 -0.01316368 0.0010603508 0.00090478663 -0.001668124
-0.00085056847 0.0058455095 0.0074943393 -0.0009832785 -0.0015951885 -0.0015940575 -0.0013950047 0.0013142468
4.3850418e-05 0.00076226715 -0.0015044396 -0.10992664 -0.0015982147 -0.0013649699 0.011377068 0.0007137989
-0.0017718044 -0.11061483 0.0014387979 -0.0015405389 -0.0016154594 0.0006126734 -0.015262592 -0.06785621
0.0011716125 -0.01900659 -0.0017467627 -0.078810774 -0.0015847152 0.0031545712 -0.00053042476 0.0012102955
0.0007501957 -0.0013838279 0.00054364017 0.0006288397 0.1348497 0.0012609765 -0.0015821937 -0.0016696699
0.0004373638 -0.0008853234 -0.0015159068 -0.001262843 0.0020805926 0.11883796 -0.17043076 -0.04762199
0.00028156396 -0.0014758487 -0.10001388 0.11463089 0.003241841 0.0011230125 -0.0015212488 0.17897892
-0.015987905 -0.0014126826 -0.0009778918 0.0010313893 0.00081506406 0.21510793 0.00093433686 -0.058465064
0.12270241 0.00085854117 0.0012554553 -0.0016159315 0.010987043 -0.093144804 -0.08521311 0.00047587152
-0.15184332 0.014271182 -0.1741902 -0.014750824 0.0002116388 -0.0011324479 -0.0008023402 -0.0007820827
0.00026894402 -0.0005513488 0.00015859307 -1.5137136e-05 -0.00106183 0.15660824 4.576161e-05 -0.0028540662
-0.00076056074 0.16948567 8.478199e-05 0.0009892588 -0.00065418717 0.0015469533 0.00028890642 0.00018563196
-0.0003217143 -0.000961738 -0.00095980836 -0.0017186289 -5.225621e-05 -0.0013598925 -0.0025049194 0.001198454
0.21682705 0.00033306165 0.00021592838 0.2066258 0.00067068444 -0.0053516165 0.00092352275 0.18720123
-0.0008302599 -0.0022788853 0.11934282 -0.0010085515 -0.0009159037 0.0007883486 0.0008282273 0.00045749368
4.790205e-05 -9.891598e-06 0.0006847427 3.4994682e-05 0.00015967229 -0.00091378426 -0.00045992696 -0.0009126761
0.23218745 0.00072634994 -0.0007349168 0.00065230543 -0.0030813299 -0.0013120229 -2.183831e-05 -0.0012744508
0.22537519 0.0005480733 -0.0011467373 0.00018734176 1.4419096e-05 0.08093708 0.06797313 0.0003065852
4.3433076e-05 2.7068205e-05 0.00022511584 -0.0009893064 -0.0007022579 -0.0014795639 -8.4267536e-05 0.0014691593
0.00032829805 -2.5593228e-05 1.8410969e-05 -0.0012882793 2.8988503e-05 0.00082198775 0.12308185 0.00010439045
6.404947e-05 -0.0010502621 0.00028173625 0.0015658305 -0.000779711 0.23191607 -7.79943e-05 0.00040903594
0.00016128315 0.12330493 0.00036543442 -0.00057716935 -0.0009293071 0.0003201422 -0.0009279436 -0.0012808355
0.000713463 -0.0012332987 3.0446723e-05 6.898001e-05 -0.0009018091 0.00025471096 -5.3823827e-05 -4.3707864e-06
0.10619967 0.0007205866 0.0012462328 0.00042483304 -0.0009763988 -7.456199e-05 0.0012924438 0.0006443508
00000000: 68db b4ba 7598 8a3a e6c9 e539 20c3 933a
00000010: 46cf cfba 218c 73b9 706e 87ba 69f0 d3bd
00000020: e939 973a d74f 41bc 888f cbba 1e26 653b
00000030: c268 033a bfd8 20bc d339 cbba 7c01 d13d
00000040: 300f 133a ff23 ab3c 217b 80ba 6675 d7ba
00000050: 71bf 1b3e a64e 4039 e6d4 f139 48a1 593a
00000060: 3aa7 ccba dfe1 483a ea1f f03a 38fe 013e
00000070: f83e 2dbc 848b eb3d 5492 bfba b3c4 82bc
00000080: 4c66 fbbd 447d cdbc 06f6 a23d cfb6 fabb
00000090: 25dd 483a ef1e a63a 906d 07bb 9f34 28bb
000000a0: 9d2c 253a fb53 57bc f6bd 74bd 62c1 f9b8
000000b0: 91bb 90ba 3845 c1ba 3b2f a13d 8243 d3ba
000000c0: b86b ceba 3d68 003b 9ce2 36ba e610 693a
000000d0: eea2 c8bc babf 56bc 7c3d 373a ddfb a33c
000000e0: 713a 953c da77 9a3a f612 dcba 71aa 8f3a
000000f0: 7aac 57bc 78fb 8a3a 342f 6d3a f4a4 daba
00000100: aff8 5eba b08b bf3b 1393 f53b 5ae1 80ba
00000110: a515 d1ba b2ef d0ba 97d8 b6ba ce42 ac3a
00000120: 07ec 3738 e2d2 473a 9e30 c5ba 3821 e1bd
00000130: 307b d1ba cae8 b2ba e266 3a3c 3c1e 3b3a
00000140: e43b e8ba 078a e2bd 0c96 bc3a e8eb c9ba
00000150: d3bd d3ba d19b 203a f30f 7abc 32f8 8abd
00000160: cb90 993a b5b3 9bbc a1f3 e4ba 8b67 a1bd
00000170: 38b6 cfba ecbc 4e3b 340c 0bba c7a2 9e3a
00000180: c8a8 443a 8f61 b5ba 1383 0e3a b8d8 243a
00000190: 0a16 0a3e 5a47 a53a 9c61 cfba d3d8 daba
000001a0: fa4d e539 0c15 68ba 64b1 c6ba fb85 a5ba
000001b0: 8d5a 083b 5161 f33d 6785 2ebe 470f 43bd
000001c0: e09e 9339 4471 c1ba 14d4 ccbd 9ac3 ea3d
000001d0: 1175 543b 0c32 933a a464 c7ba 4046 373e
000001e0: 11f9 82bc c329 b9ba 9b2c 80ba af2f 873a
000001f0: 06aa 553a 4145 5c3e 49ee 743a 1079 6fbd
00000200: 674b fb3d b90f 613a 178e a43a aacd d3ba
00000210: 0003 343c b4c2 bebd 3684 aebd 657e f939
00000220: d17c 1bbe add1 693c ea5e 32be 71ad 71bc
00000230: 5ceb 5d39 a56e 94ba 2454 52ba ae04 4dba
00000240: 0e01 8d39 6488 10ba 014c 2639 81f5 7db7
00000250: 1a2d 8bba e95d 203e 28f0 3f38 490b 3bbb
00000260: 5e60 47ba a78d 2d3e fccc b138 04aa 813a
00000270: c27d 2bba 24c3 ca3a 5d78 9739 33a6 4239
00000280: c3ab a8b9 251d 7cba a69b 7bba 9e43 e1ba
00000290: ae2d 5bb8 6c3e b2ba 9329 24bb 7115 9d3a
000002a0: e907 5e3e c79e ae39 d56a 6239 b795 533e
000002b0: dfd0 2f3a 9d5c afbb 9018 723a aeb1 3f3e
000002c0: cca5 59ba 5a59 15bb 026a f43d 5f31 84ba
000002d0: 4219 70ba 2ea9 4e3a 651d 593a c3db ef39
000002e0: 6fea 4838 17f4 25b7 4e80 333a 41c7 1238
000002f0: b46d 2739 068b 6fba 5a22 f1b9 a840 6fba
00000300: 8cc2 6d3e 8568 3e3a 6ea7 40ba 7aff 2a3a
00000310: 23f0 49bb 2ff8 abba 6a31 b7b7 790b a7ba
00000320: c1c8 663e 94ac 0f3a 1e4e 96ba 2c71 4439
00000330: 8ce9 7137 57c2 a53d 7f35 8b3d 2bbd a039
00000340: e92b 3638 8710 e337 130d 6c39 9dab 81ba
00000350: bb17 38ba eded c1ba cab8 b0b8 ce90 c03a
00000360: 6b1f ac39 0ab1 d6b7 4171 9a37 7bdb a8ba
00000370: 562c f337 aa7a 573a 5612 fc3d 32ec da38
00000380: 4c52 8638 f3a8 89ba 00b6 9339 8e3c cd3a
00000390: 8565 4cba 687b 6d3e df90 a3b8 e073 d639
000003a0: 1e1e 2939 4c87 fc3d c797 bf39 2e4d 17ba
000003b0: be9c 73ba c2d8 a739 3e41 73ba b5e1 a7ba
000003c0: b107 3b3a a3a6 a1ba d767 ff37 5ca9 9038
000003d0: 6267 6cba ba8a 8539 e5c0 61b8 c5a8 92b6
000003e0: 367f d93d c0e5 3c3a a258 a33a 20bc de39
000003f0: 04f5 7fba 2a5e 9cb8 3867 a93a a6e9 283a

bias f4 [2]
0.17098688 0.19812344
00000000: 2f17 2f3e dfe0 4a3e

weight f4 [140, 140]
-0.03959704 0.11920128 0.06402287 0.04168695 -0.0031565463 -0.058902506 -0.042290505 -0.042761534
-0.00038267695 0.045226444 0.027198583 0.0044446345 -0.041370377 0.044223513 0.013957558 0.052288197
0.028768212 0.0153998565 0.07919926 -0.05473365 0.05116582 0.009074093 0.024999209 0.07445216
0.006354926 -0.03391806 -0.07171872 -0.059650037 -0.0018714996 -0.0010814212 -0.031570688 0.052876744
0.025857873 0.04941303 0.028655052 -0.08627664 0.062482033 -0.055382505 -0.03109399 -0.02362354
-0.07653559 -0.06653899 0.06314958 0.020039419 -0.031390373 -0.06762613 -0.0328767 -0.063108765
0.043454565 0.044647064 0.03237564 0.038727988 0.036131293 -0.0663048 -0.0890717 -0.0002550491
-0.052053526 -0.059508942 0.044802986 0.078342736 -0.09721047 -0.0063398657 0.02042933 0.05830156
0.005757255 0.034420546 -0.033884335 0.030011978 -0.018056316 -0.036805097 -0.053199884 0.020995714
-0.06965015 0.029109769 0.06548012 -0.049204305 -0.04929624 0.030552313 -0.059873868 -0.05202712
-0.02482548 -0.08668923 -0.055363685 -0.03733425 0.03395578 0.009205369 0.09115168 0.032598592
-0.027712211 -0.014786996 0.04038391 -0.03309758 0.059636742 -0.039770115 -0.11450828 -0.052322198
-0.06641504 0.09121898 0.052672114 -0.0049137664 -0.0019449294 -0.024574293 0.06524633 0.032175064
-0.028727695 -0.05165956 0.02239096 0.049423493 0.00085792656 0.011053296 -0.052019257 0.06499259
0.022380609 -0.03006773 0.05840657 0.05286368 -0.004642882 0.061433 0.05980969 0.059579056
0.062143516 -0.046776887 -0.03770341 0.015265842 0.02313966 -0.03549868 0.06215505 0.07116862
0.082408585 0.030309021 -0.03297416 0.015033972 -0.030320136 0.059309438 -0.020518659 0.06536892
0.066317305 0.070362166 -0.022287348 0.058478687 0.035295743 0.003505862 0.031104771 0.073536955
0.04167254 -0.058988713 0.039425 0.064652756 -0.09454278 -0.08156267 -0.0605543 0.0062542735
-0.009174575 0.0023641328 -0.0468082 -0.03505662 0.01604954 0.017032476 -0.07463595 -0.06391123
-0.01346037 0.024249602 -0.03948347 0.033725005 -0.032071736 0.01634723 0.08529415 0.06664358
0.062484283 -0.05824682 0.08274758 -0.06751713 -0.039145965 -0.010704025 0.016614413 0.066053554
-0.035572387 0.0878733 -0.011049049 0.0054874625 0.028747765 -0.0077285273 -0.06359029 -0.07200685
0.052368354 0.009865353 0.074210614 -0.021602549 0.06799148 0.053797364 -0.007335024 0.08320343
0.038838975 -0.04161756 -0.017098216 -0.050896317 0.025702704 0.04481886 -0.02670708 -0.076330066
-0.014329063 -0.00085916935 0.039533455 -0.01322424 -0.06511373 0.076000124 -0.032936133 0.061203055
-0.009515355 0.055257924 0.029224657 0.02270102 0.011471252 0.09994622 -0.018528296 0.067259446
0.043588944 0.020988567 -0.008271723 0.033656046 0.05477235 -0.030863604 0.0028274371 0.0056819846
-0.025607472 -0.00096495874 0.027888414 -0.046163853 -0.015244388 0.07430068 0.024152456 0.0054121176
0.06316651 0.051577814 0.0725326 0.07452833 0.004950776 0.056925815 -0.055108853 -0.029903967
0.05862622 0.06582101 0.015317733 0.04106947 0.07546492 0.030953174 0.02770889 0.01720884
0.06924741 -0.01824214 0.030262021 -0.059652846 -0.058761522 -0.05969802 -0.0019721338 -0.011707016
00000000: 8130 22bd cd1f f43d 6c1e 833d efbf 2a3d
00000010: 0fde 4ebb c143 71bd cf38 2dbd b826 2fbd
00000020: 08a2 c8b9 5d3f 393d 90cf de3c 4ca4 913b
00000030: fc73 29bd b723 353d 3eae 643c 262c 563d
00000040: 50ab eb3c ae4f 7c3c 3933 a23d 6430 60bd
00000050: 4093 513d 81ab 143c 24cb cc3c 607a 983d
00000060: fc3c d03b aaed 0abd 44e1 92bd 9953 74bd
00000070: 1b4d f5ba 79be 8dba 4450 01bd 4995 583d
00000080: e4d3 d33c 5165 4a3d 00be ea3c cfb1 b0bd
00000090: 29ed 7f3d c4d8 62bd d3b8 febc 2786 c1bc
000000a0: b1be 9cbd 9845 88bd 9154 813d b529 a43c
000000b0: 3193 00bd 927f 8abd b8a9 06bd 2b3f 81bd
000000c0: 6afd 313d d7df 363d 529c 043d 3da1 1e3d
000000d0: 68fe 133d d0ca 87bd 396b b6bd 1cb8 85b9
000000e0: 1436 55bd a6bf 73bd 5683 373d 2872 a03d
000000f0: 4816 c7bd a6be cfbb 695b a73c 9ecd 6e3d
00000100: 5ba7 bc3b 8ffc 0c3d 4dca 0abd aedb f53c
00000110: d7ea 93bc f1c0 16bd 1fe8 59bd 34ff ab3c
00000120: bda4 8ebd 9c77 ee3c 711a 863d 748a 49bd
00000130: dbea 49bd d848 fa3c 4d3e 75bd 641a 55bd
00000140: ce5e cbbc 1f8a b1bd 08c5 62bd cceb 18bd
00000150: 3715 0b3d 1ed2 163c bbad ba3d 1a86 053d
00000160: b804 e3bc 2845 72bc 9969 253d 5491 07bd
00000170: a845 743d fde5 22bd 5183 eabd cd4f 56bd
00000180: 9c04 88bd 04d1 ba3d b7be 573d a903 a1bb
00000190: 00ed feba 0750 c9bc de9f 853d 00ca 033d
000001a0: 5856 ebbc fa98 53bd 3f6d b73c 4a70 4a3d
000001b0: 7ae6 603a e218 353c 2512 55bd d61a 853d
000001c0: 8a57 b73c 9a50 f6bc ba3b 6f3d 9687 583d
000001d0: 5123 98bb 2ba1 7b3d 01fb 743d 2b09 743d
000001e0: 338a 7e3d 1f99 3fbd e46e 1abd 951d 7a3c
000001f0: 628f bd3c 1067 11bd 4b96 7e3d dac0 913d
00000200: d5c5 a83d a04a f83c ea0f 07bd 0d51 763c
00000210: ef61 f8bc 74ee 723d bf16 a8bc 24e0 853d
00000220: 5ed1 873d 0a1a 903d f593 b6bc 5987 6f3d
00000230: 4592 103d 9bc2 653b 6fcf fe3c 8b9a 963d
00000240: d3b0 2a3d 269e 71bd 1c7c 213d aa68 843d
00000250: a59f c1bd 540a a7bd c907 78bd a6f0 cc3b
00000260: f550 16bc 91ef 1a3b f5b9 3fbd 8897 0fbd
00000270: 537a 833c b187 8b3c bcda 98bd e4e3 82bd
00000280: e288 5cbc 1aa7 c63c 6bb9 21bd 3b23 0a3d
00000290: a75d 03bd a0ea 853c b3ae ae3d 6e7c 883d
000002a0: 85ef 7f3d 3894 6ebd 9077 a93d 6c46 8abd
000002b0: 8557 20bd ef5f 2fbc f31a 883c 1647 873d
000002c0: 5ab4 11bd ebf6 b33d 1207 35bc 2cd0 b33b
000002d0: 6f80 eb3c 963f fdbb a03b 82bd 5478 93bd
000002e0: 3380 563d 4aa2 213c bcfb 973d d4f7 b0bc
000002f0: 1e3f 8b3d a05a 5c3d a45a f0bb 8f66 aa3d
00000300: 9e15 1f3d 2d77 2abd 8f11 8cbc a878 50bd
00000310: 7a8e d23c fb93 373d cec8 dabc f052 9cbd
00000320: 72c4 6abc e139 61ba d5ed 213d 7caa 58bc
00000330: 595a 85bd f4a5 9b3d 0ae8 06bd 0eb0 7a3d
00000340: 4be6 1bbc 2256 623d 8c68 ef3c 7df7 b93c
00000350: ebf1 3b3c 9bb0 cc3d a7c8 97bc 52bf 893d
00000360: 528a 323d 37f0 ab3c 1f86 07bc ecda 093d
00000370: f958 603d abd5 fcbc 864c 393b f12f ba3b
00000380: c3c6 d1bc 49f5 7cba 3e76 e43c 4f16 3dbd
00000390: 99c3 79bc f42a 983d 5fdb c53c 2258 b13b
000003a0: 715d 813d 4243 533d f98b 943d 4fa2 983d
000003b0: 1f3a a23b 0b2b 693d d2b9 61bd 2af9 f4bc
000003c0: 0c22 703d 2acd 863d 3bf7 7a3c 7638 283d
000003d0: 5a8d 9a3d 8391 fd3c c1fd e23c 8ef9 8c3c
000003e0: 96d1 8d3d 8a70 95bc 0fe8 f73c 8b56 74bd
000003f0: ecaf 70bd e985 74bd ea3e 01bb c9ce 3fbc

bias f4 [140]
0.006833285 0.09559866 -0.008546176 -0.0010344107 0.057255406 -0.007269146 0.0568849 -0.084682636
-0.04179962 0.026887475 -0.028236309 -0.011857105 0.008129434 0.07666424 0.048046682 -0.07549357
-0.072996706 -0.07536087 -0.03969816 0.012482501 0.06500139 -0.046330936 -0.06754711 -0.0647126
-0.04876958 -0.05193538 0.012996448 0.043008912 0.024644604 0.063143864 -0.004010699 -0.05670261
-0.010056953 -0.012153763 0.08230541 -0.10221527 -0.050449755 -0.0020724693 -0.12889625 0.015331664
0.08900564 0.036815435 0.005124815 -0.06602565 -0.06497161 -0.018396534 0.028264554 0.028745687
-0.0030236822 -0.059837203 0.04728762 -0.018130237 0.04920106 0.00815259 -0.043191943 -0.04817206
-0.0143022 -0.04667377 -0.08528586 0.09768518 -0.07512676 0.003813935 -0.0057767807 -0.030761138
0.02645491 0.028650671 0.0028937184 -0.019182341 -0.0015286821 0.00903074 0.09266502 -0.09950791
0.052918825 -0.09488378 -0.055173423 0.02162404 0.050129086 -0.066258505 0.08970621 -0.047633395
-0.101436496 0.093108945 -0.019407516 -0.04718325 0.02152425 0.085394785 -0.07900596 0.010908578
0.018013457 -0.056077816 0.03455381 0.04362842 0.041544396 -0.10023591 0.11354212 -0.03804596
-0.0016927081 0.022067215 -0.026703887 0.038518276 0.032093816 -0.05313483 0.030012593 0.07179233
-0.00556839 -0.08277881 -0.06561277 0.04396082 0.070162125 -0.042618375 -0.10660173 0.021821657
0.09280985 -0.010028135 -0.07532506 0.08204246 0.020227453 -0.016796527 -0.08955233 0.108890936
0.026506403 -0.019094083 -0.07176397 -0.07328419 -0.03296962 0.017905163 -0.03694505 -0.025123838
0.08035737 -0.08108659 0.028071977 -0.041522384 0.032447245 0.118940055 0.048529807 0.075276956
-0.03402632 0.031456452 -0.02872507 -0.008246323
00000000: c0e9 df3b 3bc9 c33d 4305 0cbc 1095 87ba
00000010: a584 6a3d 0432 eebb 2400 693d 176e adbd
00000020: 1436 2bbd 1f43 dc3c d54f e7bc 4e44 42bc
00000030: 5131 053c 2402 9d3d 99cc 443d 5f9c 9abd
00000040: 4c7f 95bd cd56 9abd 8a9a 22bd 6783 4c3c
00000050: 731f 853d 82c5 3dbd 2456 8abd 0a88 84bd
00000060: 9cc2 47bd 31ba 54bd 0eef 543c 1d2a 303d
00000070: 7be3 c93c 9251 813d 2f6c 83bb ff40 68bd
00000080: ebc5 24bc 9420 47bc bd8f a83d 3d56 d1bd
00000090: 67a4 4ebd 44d2 07bb 61fd 03be a931 7b3c
000000a0: 9748 b63d c8cb 163d 10ee a73b 7538 87bd
000000b0: d60f 85bd 54b4 96bc 118b e73c 137c eb3c
000000c0: f828 46bb db17 75bd aab0 413d dd85 94bc
000000d0: 0d87 493d 7192 053c 09ea 30bd 1150 45bd
000000e0: c653 6abc ff2c 3fbd 5aaa aebd 2b0f c83d
000000f0: 0fdc 99bd 36f3 793b 264b bdbb c8fe fbbc
00000100: f8b7 d83c d0b4 ea3c 8aa4 3d3b 4924 9dbc
00000110: 0f5e c8ba abf5 133c 28c7 bd3d ceca cbbd
00000120: 69c1 583d 6d52 c2bd 87fd 61bd e624 b13c
00000130: 2854 4d3d 8ab2 87bd e4b7 b73d 3c1b 43bd
00000140: f0bd cfbd e7af be3d 83fc 9ebc 3943 41bd
00000150: a053 b03c 76e3 ae3d e0cd a1bd e4b9 323c
00000160: f590 933c dab1 65bd 4c88 0d3d b7b3 323d
00000170: 752a 2a3d 7c48 cdbd c588 e83d 15d6 1bbd
00000180: dcdd ddba 4ec6 b43c 1cc2 dabc 57c5 1d3d
00000190: ce74 033d e8a3 59bd f8dc f53c db07 933d
000001a0: 0a77 b6bb f087 a9bd fd5f 86bd 4310 343d
000001b0: 29b1 8f3d 9b90 2ebd 0252 dabd 55c3 b23c
000001c0: 1713 be3d 0c4d 24bc 0644 9abd e105 a83d
000001d0: 0bb4 a53c df98 89bc 3667 b7bd 3602 df3d
000001e0: f523 d93c 326b 9cbc fdf8 92bd 0516 96bd
000001f0: 270b 07bd d9ad 923c b153 17bd 82d0 cdbc
00000200: 6892 a43d ba10 a6bd 34f7 e53c 6013 2abd
00000210: 67e7 043d d896 f33d 31c7 463d ce2a 9a3d
00000220: 2f5f 0bbd 7bd8 003d d750 ebbc 961b 07bc
