training_outputs/sigmoid/models/model_sigmoid_N20.pt (torch, 353665 bytes, 13 tensors)

weight f4 [140, 42]
0	0x3e206ccf	0.15666507
1	0xbd9628a3	-0.073319696
2	0xbd934080	-0.07190037
3	0xbe262866	-0.16226348
4	0x3e131eb9	0.14367189
5	0x3d6773de	0.056506984
6	0x3dc030a0	0.093842745
7	0x3d51a10f	0.051178988
8	0xbdedaa4b	-0.116047464
9	0x3d1b3687	0.0378938
10	0x3c876116	0.016525786
11	0xbd3c6f8f	-0.046004828
12	0xbbb8aecf	-0.005636073
13	0xbd1f147a	-0.038837887
14	0xbcfd730f	-0.030938653
15	0xbdfdd5af	-0.123942725
16	0x3d6d74d9	0.057972763
17	0xbe2c50da	-0.16827717
18	0x3d67dc03	0.056606304
19	0xbdf02e4c	-0.117275804
20	0xbd85a9b3	-0.06526508
21	0x3c092f5e	0.00837311
22	0x3c55389c	0.013013985
23	0xbd884801	-0.06654359
24	0xbdf04f38	-0.1173386
25	0xbd0062ea	-0.03134433
26	0x3c481dfd	0.012214181
27	0x3e07fcdf	0.13280056
28	0x3df999db	0.12187549
29	0xbc6fe575	-0.014642109
30	0xbdeb1b50	-0.11479819
31	0xbd2b460d	-0.041814853
32	0x3d9b7b32	0.07591857
33	0xbd71be24	-0.059019223
34	0xbdb34fe7	-0.087554745
35	0x3c58f7fa	0.013242716
36	0x3c7349e0	0.014849156
37	0x3c154971	0.009111748
38	0xbd8a4738	-0.06751865
39	0xbdb0ee8f	-0.086392514
40	0x3ca2f858	0.01989381
41	0x3ddac512	0.106821194
42	0x3e39582d	0.18100043
43	0x3bbbc594	0.0057303403
44	0xbd911003	-0.07083132
45	0x3da40456	0.080086395
46	0x3df48f99	0.119414516
47	0x3d93c30f	0.07214939
48	0xbba06326	-0.004894632
49	0xbdfedab2	-0.124440566
50	0x3e57d818	0.21078527
51	0xbc4313ba	-0.011906559
52	0x3e4c65cc	0.19960707
53	0x3e1cc799	0.15310515
54	0x3db88b1e	0.090109095
55	0xbdd711c0	-0.105014324
56	0xbd2b5560	-0.041829467
57	0x3d99108e	0.07473861
58	0x3db71aff	0.08940696
59	0x3e0ab579	0.13545789
60	0x3da1f86e	0.07908712
61	0x3dab54e8	0.08365804
62	0x3dd519f3	0.1040534
63	0xbdb09f48	-0.086241305
64	0xbc7ddc7f	-0.015494465
65	0x3bc664a6	0.0060544787
66	0x3e566b24	0.20939308
67	0x3dc6c1fb	0.097049676
68	0xbc0bd2c0	-0.008534133
69	0x3e0e72da	0.13911
70	0x3e105654	0.14095432
71	0x3b97eaa8	0.0046361275
72	0xbc029005	-0.007968907
73	0xbc757dc6	-0.0149836
74	0xba43be3c	-0.0007467007
75	0xbda6fae8	-0.08153325
76	0x3e0fbcf2	0.1403692
77	0xbd53d77f	-0.051719185
78	0x3da80b14	0.08205238
79	0x3d890cb4	0.06691876
80	0x3deb2d47	0.11483245
81	0xbda59034	-0.08084145
82	0x3daa678c	0.08320531
83	0x3e0741b4	0.13208658
84	0x3dcaff0a	0.09911926
85	0xbe1d6efe	-0.15374371
86	0xbde123e1	-0.109931715
87	0x3d30a990	0.043130457
88	0xbcfaa7b0	-0.030597538
89	0xbd170461	-0.03686941
90	0xbc78ae93	-0.0151783405
91	0x3dc22a3e	0.09480713
92	0xbde878f6	-0.113511965
93	0xbd84ba91	-0.06480897
94	0xbd911612	-0.07084288
95	0x3d755b1b	0.059901338
96	0x3e089fe4	0.13342243
97	0xbc38f9df	-0.011290043
98	0x3da59863	0.08085706
99	0x3d41e168	0.047334105
100	0xbd0ca34a	-0.034335412
101	0xbda522e1	-0.08063293
102	0xbb0c9ca8	-0.002145568
103	0x3daf1c55	0.08550326
104	0xbd64b8f7	-0.05584046
105	0x3d750e2e	0.059827976
106	0x3c298dc3	0.01034874
107	0x3db5f542	0.0888467
108	0x3ddb8291	0.10718263
109	0xbe097c67	-0.13426362
110	0xbceb15b4	-0.028696872
111	0xbc87a0ee	-0.01655623
112	0x3dd12100	0.102113724
113	0xbd69dd2b	-0.057095688
114	0xbc9991cb	-0.018746277
115	0xbd8aae85	-0.06771568
116	0x3dec9b25	0.11553029
117	0x3e249b2a	0.16074815
118	0xbde0aed5	-0.109708466
119	0xbd87ca30	-0.06630361
120	0x3de61fd0	0.112365365
121	0x3ca69662	0.02033538
122	0xbdc746d5	-0.09730307
123	0x3c85ae4e	0.016318467
124	0xbd9e2f5b	-0.07723876
125	0x3d9a9ba7	0.075492196
126	0xbd509a14	-0.05092819
127	0xbe11f038	-0.14251792
128	0xbcbfaaf9	-0.023396956
129	0xbd57a87b	-0.05265091
130	0xbd765a3f	-0.06014466
131	0x3e0da447	0.13832198
132	0x3d8fcf0b	0.07021912
133	0x3e10a47d	0.14125247
134	0xbda16720	-0.07880998
135	0xbe051ec2	-0.13000014
136	0xbca6f683	-0.020381218
137	0xbb0b22e9	-0.0021230525
138	0x3cd88a4b	0.02643313
139	0xbd2d1f68	-0.04226628
140	0x3dc74f50	0.097319245
141	0x3d428748	0.047492296
142	0xbd9852ff	-0.07437705
143	0x3da0df26	0.07855062
144	0xbd9b7c8f	-0.07592117
145	0xbdee63db	-0.1164014
146	0xbcc62e1e	-0.024191912
147	0x3e02ccaf	0.12773393
148	0x3dcff225	0.10153607
149	0xbd0f350f	-0.03496271
150	0x3c59ec8e	0.013301028
151	0x3d84bf2e	0.06481777
152	0xbccd04d3	-0.025026714
153	0xbd603c56	-0.05474504
154	0xbc5c4a7c	-0.013445493
155	0xbd8f3d28	-0.069940865
156	0xbc0c83c4	-0.008576337
157	0x3bd62a43	0.0065357997
158	0x3e01d751	0.12679793
159	0x3d19ce3c	0.037550196
160	0x3d735ae7	0.059412863
161	0x3de7c0be	0.113160595
162	0xbde8734d	-0.11350117
163	0xbdd77682	-0.105206504
164	0x3d9ba3f5	0.07599632
165	0x3d859131	0.06521834
166	0xbd818002	-0.06323244
167	0x3b18acd7	0.002329638
168	0xbdf871b7	-0.121310644
169	0x3d914805	0.07093815
170	0x3de1db14	0.11028114
171	0xbb9dfd81	-0.00482148
172	0x3dfc4269	0.12317354
173	0x3da3d21a	0.07999058
174	0x3df6634b	0.120306574
175	0xbd299cb0	-0.041409194
176	0xbdb4c9b7	-0.088275366
177	0x3df6a3a2	0.12042929
178	0x3d0f4a50	0.03498298
179	0x3c986de2	0.018607084
180	0xbdfa4fd4	-0.12222257
181	0x3dc51866	0.09623794
182	0xbd7af9f4	-0.06127353
183	0x3bb053ed	0.0053810985
184	0x3d6d14fa	0.057881333
185	0xbd098c79	-0.03358123
186	0xbdad4800	-0.084609985
187	0x3d16e49b	0.03683911
188	0x3d8997fa	0.0671844
189	0xbd3dfe60	-0.04638517
190	0x3bf5738a	0.00749058
191	0xbc647fe8	-0.013946511
192	0x3c375232	0.0111890305
193	0x3e072f8b	0.1320173
194	0xbbbafb5a	-0.005706233
195	0x3d19f65f	0.037588473
196	0x3d5d1a82	0.053980358
197	0xbddbca3b	-0.10731932
198	0x3dd61d4f	0.10454809
199	0xbd180c2b	-0.03712098
200	0x3dc47308	0.09592253
201	0x3c274b4b	0.010210822
202	0x3dc315e2	0.09525658
203	0xbdc892a9	-0.09793598
204	0x3c47d19a	0.012195969
205	0xbce82832	-0.02833948
206	0xbc934a61	-0.017979803
207	0x3d439fe6	0.047759913
208	0x3d6fdd48	0.05856064
209	0x3dc852c8	0.09781414
210	0x3d37f5da	0.044912197
211	0x3c5ee18c	0.013603579
212	0xbc8e5027	-0.017372204
213	0x3dacbbe4	0.08434275
214	0x3df7d089	0.12100322
215	0xbde72a31	-0.11287344
216	0x3ceea33b	0.029130569
217	0x3d82052e	0.06348644
218	0x3d022bd3	0.031780075
219	0x3e20a04a	0.15686145
220	0x3d037cda	0.03210149
221	0xbd63e455	-0.055637676
222	0xbd13e2e6	-0.03610506
223	0x3da24aff	0.079244606
224	0xbad4439e	-0.0016194468
225	0x3da11c58	0.07866734
226	0xbab0cd38	-0.0013488894
227	0x3de4c398	0.11170119
228	0x3d40cb85	0.04706909
229	0xbdea757f	-0.11448192
230	0xbdc4a1d6	-0.0960118
231	0x3d786d1c	0.06065093
232	0xbda1b74f	-0.078962915
233	0xbc60470e	-0.013688816
234	0x3e077c69	0.13231052
235	0x3e077952	0.13229874
236	0x3ca50b8a	0.020147104
237	0xbd8491f9	-0.064731546
238	0x3dabda62	0.083912626
239	0x3da8a895	0.082352795
240	0x3d21063a	0.03931258
241	0x3da003cd	0.07813225
242	0x3da1b655	0.07896105
243	0xbcaac812	-0.020847354
244	0x3e061711	0.13094737
245	0xbdbc8885	-0.092057265
246	0x3e0d7681	0.13814737
247	0x3e1dc3b7	0.1540669
248	0x3db35384	0.08756164
249	0xbc870c58	-0.016485378
250	0xbd6ecac2	-0.058298834
251	0x3da0252a	0.078195885
252	0xbe03e10f	-0.12878822
253	0x3d4b63e4	0.04965581
254	0x3cb6df27	0.022323204
255	0x3c30ed9e	0.01079884

bias f4 [140]
0	0xbe2a4351	-0.16627242
1	0x3e1c4dba	0.15264025
2	0xbd9cbc6d	-0.07653127
3	0x3d876d5d	0.06612656
4	0xbe1413c1	-0.1446066
5	0x3d66785b	0.056267124
6	0xbdabcfec	-0.08389267
7	0xbd67d0e2	-0.05659569
8	0x3d8d262e	0.06892048
9	0xbe296929	-0.16544022
10	0x3c7ba604	0.015359405
11	0xbc706d71	-0.01467453
12	0x3df03793	0.1172935
13	0x3cba3a10	0.022732764
14	0x3e0c1632	0.13680342
15	0xbcdc6d9c	-0.026907735
16	0xbb75cf55	-0.0037507613
17	0x3e0bc69f	0.13649987
18	0x3e2644e7	0.16237222
19	0x3e07e5b7	0.13271223
20	0xbde38534	-0.11109391
21	0x3c58368d	0.0131966
22	0x3c1180f4	0.0088808425
23	0xbdd1f9a4	-0.10252693
24	0xbd0d9553	-0.034566235
25	0x3d3cbd74	0.046079114
26	0xbde1c848	-0.11024529
27	0x3d14b781	0.036307815
28	0x3dcc1221	0.09964395
29	0x3d9a4ad5	0.07533804
30	0xbe4eed95	-0.20207818
31	0x3da9e92f	0.08296429
32	0x3df89c06	0.12139134
33	0xba3472b3	-0.00068835466
34	0x3e08e048	0.13366807
35	0xbcd0098b	-0.025395175
36	0x3d0bffa3	0.03417934
37	0x3e10d016	0.14141878
38	0xbe18bc55	-0.14915593
39	0x3d630e2b	0.055433434
40	0x3e4ed077	0.2019671
41	0xbd30937a	-0.043109395
42	0xbdb1493f	-0.08656549
43	0x3e008112	0.12549236
44	0x3ddad86a	0.10685809
45	0xbe169f73	-0.14709263
46	0xbd98482c	-0.07435641
47	0x3dc6a32e	0.09699093
48	0xbe0a3163	-0.13495402
49	0x3de3b028	0.111175835
50	0x3e3bd0f5	0.1834143
51	0x3cee96cd	0.029124642
52	0xbcb500c8	-0.0220951
53	0x3d8195e7	0.0632742
54	0xbe13d0bd	-0.14435096
55	0x3c3c3f1e	0.011489658
56	0xbbc0d4ca	-0.0058847414
57	0x3d78d961	0.060754184
58	0xbdba189b	-0.09086724
59	0x3d9db9d3	0.07701459
60	0x3bfa6885	0.007641854
61	0x3df3d3b4	0.119056135
62	0xbe082d80	-0.13298607
63	0xbdb06138	-0.08612293
64	0xbcda1c37	-0.026624782
65	0x3c961638	0.018321142
66	0x3dc96ee5	0.098356046
67	0x3a70ec8b	0.0009190521
68	0x3e0d4e43	0.13799386
69	0xbe2d19e4	-0.16904408
70	0x3d903d25	0.070429124
71	0x3d946f3c	0.07247779
72	0xbe33e153	-0.17566423
73	0x3cb9f515	0.022699872
74	0xbc17ff15	-0.009277125
75	0xbd6ce4da	-0.057835437
76	0x3dfd7cf1	0.12377346
77	0xbe261b4e	-0.16221353
78	0xbe01ae00	-0.12664032
79	0x3d17737c	0.03697537
80	0xbde8fdd5	-0.113765396
81	0xbe171643	-0.14754586
82	0xbc1fe38f	-0.009758844
83	0x3d969d16	0.073541805
84	0x3d6365cd	0.055517007
85	0xbb4994ad	-0.0030758784
86	0xbd3e481d	-0.04645549
87	0xbd76c24f	-0.0602439
88	0xbdf4a4b2	-0.11945476
89	0x3d2990f7	0.041398015
90	0x3ddef080	0.108857155
91	0x3e2cdbd1	0.16880728
92	0x3d59a5b6	0.05313655
93	0xbe30c254	-0.1726163
94	0xbe1b6e4d	-0.15178795
95	0x3d7bb2bc	0.06144975
96	0x3d16ffaf	0.036864933
97	0x3dea52f3	0.114416026
98	0x3c738474	0.014863122
99	0xbe06a33d	-0.13148208
100	0xbdbbceea	-0.09170325
101	0xbe36b20c	-0.17841357
102	0xbc62b843	-0.013837877
103	0x3dcf6fe7	0.101287656
104	0xbdf56db3	-0.11983814
105	0x3c2dfe7f	0.010619759
106	0xbd2c8aa6	-0.042124413
107	0xbdcc39c6	-0.09971957
108	0xbe1485fd	-0.14504237
109	0x3e0c2883	0.13687329
110	0x3c5992ed	0.013279659
111	0xbd63f85c	-0.055656776
112	0x3c865924	0.016399927
113	0x3dec2cec	0.11532006
114	0xbda7fb85	-0.082022704
115	0xbd8a420d	-0.067508794
116	0xbd9fad69	-0.07796747
117	0xbc97edef	-0.018546073
118	0x3dac7ca5	0.084222116
119	0x3d8fb864	0.070175916
120	0xbb6fd8e1	-0.0036597776
121	0xbd09af1f	-0.033614274
122	0x3cecd26e	0.028908934
123	0x3d0c3a6a	0.034235395
124	0x3d669c27	0.056301262
125	0x3e22a67b	0.1588382
126	0xbd92eaed	-0.07173715
127	0xbb4bf976	-0.0031124032
128	0x3ddf10ea	0.10891898
129	0x3e0f2d60	0.13982153
130	0xbe06b6b9	-0.1315564
131	0xbd455996	-0.04818114
132	0x3cd83aee	0.026395287
133	0x3cf55c46	0.029951226
134	0xbd31c9a5	-0.043405194
135	0x3d8ee730	0.06977689
136	0x3d789747	0.060691144
137	0xbddabc99	-0.106805034
138	0xbdd9dffd	-0.106384255
139	0xbe52ceb4	-0.20586663

weight f4 [140, 140]
0	0xbd508392	-0.050906725
1	0xbcc4bad3	-0.024014866
2	0x3d826c66	0.063683316
3	0xbdbb23bd	-0.09137676
4	0xbb9b9f19	-0.0047491905
5	0xbd3608ad	-0.044441868
6	0x3b8a4111	0.0042191823
7	0xbd40adcf	-0.047040757
8	0x3d129b1b	0.03579245
9	0x3d96154b	0.0732828
10	0x3d6c5d39	0.05770609
11	0x3cc6e9d3	0.024281418
12	0xbd591e6d	-0.053007532
13	0x3ae87c00	0.001773715
14	0xbc18ccea	-0.009326199
15	0x3c1ef282	0.009701373
16	0x3ca273d8	0.01983063
17	0xbd0c0528	-0.034184605
18	0xbd88104f	-0.066437356
19	0x3d4ba47b	0.049717408
20	0x3d896702	0.067091
21	0xbcae4c51	-0.021276625
22	0xbc75beda	-0.014999116
23	0xbc8e941b	-0.017404607
24	0xbd0895ef	-0.033346113
25	0xbc0450c2	-0.008075895
26	0xbd8525bd	-0.06501339
27	0xbcbd61e0	-0.02311796
28	0x3cfd8386	0.030946504
29	0x3da31925	0.0796378
30	0x3d030370	0.0319857
31	0x3d84ed9e	0.064906344
32	0x3d30d0ba	0.043167807
33	0x3d9a3295	0.07529179
34	0x3d3827d6	0.044959866
35	0x3d44a90c	0.04801278
36	0xbd9e2983	-0.077227615
37	0xbc2e0418	-0.010621093
38	0x3cd5d5b0	0.02610287
39	0x3d010f3f	0.03150868
40	0xbd5e7cc5	-0.05431821
41	0xbd501cab	-0.05080859
42	0xba08fb6a	-0.0005225452
43	0xbd6b7b0b	-0.05749039
44	0x3da509fb	0.08058544
45	0xbda6b44b	-0.08139857
46	0xbceb57e7	-0.028728439
47	0x3c0f21ba	0.008736068
48	0xbd95ba1e	-0.0731089
49	0xbd5cdff6	-0.053924523
50	0x3d9432d3	0.072362565
51	0xbbbb40a7	-0.0057144943
52	0xbd5a5cb9	-0.053311083
53	0xbdcbd09f	-0.09951901
54	0xbba9b2ad	-0.0051787705
55	0x3c4ffb34	0.012694169
56	0x3c529265	0.012852286
57	0x3d334968	0.043771178
58	0xbc66f9ee	-0.014097674
59	0xbd69ff0e	-0.057128005
60	0xbd76c195	-0.060243208
61	0xbd0951dc	-0.033525333
62	0xbda0969f	-0.07841229
63	0xbcdcf75e	-0.026973423
64	0x3c970016	0.018432658
65	0x3d51a318	0.05118093
66	0x3d00d8df	0.031456824
67	0x3d6edbc2	0.058315046
68	0xbc2fa6d5	-0.010720928
69	0x3cb68d59	0.022284197
70	0xbd7d8800	-0.061897278
71	0x3d2d44d6	0.042301975
72	0xbd764269	-0.060121927
73	0xbc8b158a	-0.016978044
74	0xbd168b01	-0.03675366
75	0x3b02a56f	0.0019935032
76	0xbda869f9	-0.08223338
77	0x3d118f81	0.035537247
78	0x3d52bd77	0.05145022
79	0x3cdc70d9	0.026909279
80	0x3c6a6e40	0.014308512
81	0x3c4c1c23	0.01245788
82	0xbce5458a	-0.02798726
83	0xbd5017a1	-0.050803784
84	0xbc916587	-0.017748607
85	0xbd9540ca	-0.07287748
86	0xbd79cf31	-0.06098861
87	0x3c50b695	0.012738843
88	0xbd474d48	-0.048657686
89	0xbd4ac0bc	-0.049500212
90	0xbd90c302	-0.07068445
91	0x3d17e91d	0.03708755
92	0xbd1c73d7	-0.03819641
93	0x3d6f5002	0.05842591
94	0x3ce1dfdf	0.02757257
95	0xba8d1f14	-0.0010766708
96	0x3c42cdaa	0.011889854
97	0x3bf929a1	0.0076038395
98	0x3cf66689	0.03007819
99	0x3d140e5b	0.036146503
100	0x3d3c780b	0.04601292
101	0x3d28bbbb	0.04119466
102	0xbd820a12	-0.06349577
103	0x3a0870d8	0.00052048033
104	0xbcf0db5e	-0.029401477
105	0xbd0f6d24	-0.035016194
106	0x3c883e15	0.016631166
107	0x3d59f5c2	0.05321289
108	0xbd173a4b	-0.036920827
109	0x3d07a84c	0.033119485
110	0x3d48fc30	0.04906863
111	0x3c608ab6	0.013704946
112	0xbc078e09	-0.00827361
113	0x3d119207	0.035539653
114	0x3cad4edd	0.021155769
115	0x3da297a2	0.07939078
116	0x3d23e113	0.04000957
117	0x3d8a129f	0.06741833
118	0xbd5491d7	-0.051896896
119	0xbd51dd72	-0.051236577
120	0x3d5e0e9b	0.054213148
121	0x3c6d8a0d	0.014498246
122	0xbcc2bc1e	-0.023771342
123	0xbd98e8a5	-0.074662484
124	0xbd8e0628	-0.06934768
125	0xbb8c7c64	-0.0042872895
126	0xbd62db88	-0.055385143
127	0x3d8e2970	0.06941497
128	0x3beb61b6	0.007183279
129	0x3d72bb6c	0.05926077
130	0xbd4f3107	-0.050583865
131	0xbbb79c8b	-0.005603378
132	0x3c2a714b	0.010402988
133	0xbc88f877	-0.01672004
134	0x3d846100	0.06463814
135	0xbbbf12cf	-0.0058310996
136	0xbd88bd84	-0.06676772
137	0x3c37df7c	0.011222716
138	0xbcc7ad1d	-0.024374539
139	0x3d265402	0.04060746
140	0xbaadfc09	-0.0013273965
141	0xbd6c74c2	-0.057728536
142	0x3da2b9bb	0.079455815
143	0x3c8f5c9d	0.017500216
144	0xbd3ca957	-0.046059933
145	0xbcd1a141	-0.025589587
146	0xbdafcb39	-0.085836835
147	0x3d73b250	0.059496224
148	0xbd006881	-0.031349663
149	0xbd29b683	-0.041433822
150	0xbc3532f8	-0.011059515
151	0xbd8033d5	-0.06259886
152	0xbdbd57d8	-0.092452705
153	0xbd965e6b	-0.073422275
154	0xbdb1c78e	-0.0868064
155	0x3d053046	0.03251674
156	0xbd224e60	-0.039625525
157	0x3ce4b558	0.027918503
158	0x3d207e35	0.03918286
159	0xbd17ea8f	-0.037088927
160	0xbb02d39b	-0.0019962552
161	0x3cab05ec	0.020876847
162	0x3d924f8b	0.07144078
163	0x3cde5a5a	0.027142692
164	0x3c08200b	0.008308421
165	0x3bab8fa4	0.005235629
166	0x3c3ba8b9	0.011453801
167	0xbd883f73	-0.06652727
168	0x3d382c85	0.044964332
169	0x3d8f1dde	0.069881186
170	0x3dbec583	0.09315016
171	0x3da92b08	0.08260161
172	0x3c0a78e1	0.008451671
173	0xbcba19aa	-0.022717316
174	0xbceb588d	-0.028728748
175	0xbd853813	-0.06504836
176	0xbd1938bf	-0.037407633
177	0x3d2a5854	0.041588143
178	0x3d850d5c	0.06496689
179	0x3d8375f7	0.064189844
180	0xbdbc04f9	-0.09180636
181	0xbcaf9a9e	-0.021436032
182	0xbc09f040	-0.0084190965
183	0xbd9640c6	-0.07336573
184	0xbc4967f1	-0.012292848
185	0xb92fa18c	-0.00016749481
186	0x3d813ede	0.06310819
187	0x3d9705cc	0.073741525
188	0xbd584799	-0.052802656
189	0x3d115d8c	0.035489604
190	0xbccd25de	-0.02504247
191	0x3d59c6ce	0.05316811
192	0xbd261cf7	-0.040554967
193	0x3d5a0409	0.053226504
194	0x3d3ac7c5	0.04560067
195	0x3d202231	0.039095107
196	0x3cab4bb3	0.02091012
197	0xbd308815	-0.043098528
198	0x3d51861b	0.051153284
199	0x3cf37151	0.02971712
200	0x3d04ce6c	0.03242342
201	0xbb72b6bf	-0.0037035195
202	0xbc5d2e48	-0.013499804
203	0x3c95a29b	0.018266013
204	0xbcca9a67	-0.024731828
205	0x3cabc462	0.020967666
206	0xbdb13765	-0.08653144
207	0x3caeb35f	0.021325765
208	0xbc8f5e3a	-0.017500985
209	0xbd63be56	-0.05560144
210	0xbce1a790	-0.02754572
211	0x3ad52609	0.0016261946
212	0x3da8aeb2	0.082364455
213	0xbb1c607c	-0.002386122
214	0x3d57bae9	0.052668486
215	0x3c4fd532	0.012685107
216	0x3d8786f5	0.06617538
217	0x3ccc7bff	0.02496147
218	0xbd5faafe	-0.05460643
219	0xbd5a2285	-0.053255577
220	0x3cc54116	0.024078887
221	0xbd83905c	-0.06424019
222	0xbd200f73	-0.039077234
223	0xbc3b07f1	-0.011415468
224	0xbce01e1d	-0.02735811
225	0xbd21048f	-0.039310988
226	0x3d34db0d	0.044154216
227	0x3d4b40e6	0.04962244
228	0x3da06c36	0.078331396
229	0x3d5465ac	0.051854774
230	0xbda515af	-0.080607764
231	0xbd97b710	-0.07407963
232	0x3ce25666	0.027629089
233	0x3d93a116	0.07208459
234	0x3d3a4129	0.045472298
235	0xbd96a775	-0.07356159
236	0xbce5bd15	-0.028044263
237	0x3d297980	0.041375637
238	0x3d332125	0.04373278
239	0xbd51fa39	-0.05126402
240	0x37520097	1.2517113e-05
241	0xbc77a81a	-0.015115762
242	0x3c2c8314	0.010529298
243	0x3ceec680	0.029147387
244	0xbc2ab279	-0.010418528
245	0xbdaa171b	-0.08305188
246	0x3c689fd7	0.014198265
247	0xbd6ffd29	-0.05859104
248	0xbd2a99ff	-0.04165077
249	0xbc113095	-0.0088616805
250	0xbcd4bffe	-0.025970455
251	0xbd0a3341	-0.033740286
252	0xbd9c2779	-0.07624716
253	0xbda548c4	-0.080705196
254	0xbceef356	-0.029168766
255	0x3d83568d	0.064129926

bias f4 [140]
0	0x3dac0742	0.08399822
1	0x3cb1e79a	0.021716882
2	0xbc78370e	-0.015149845
3	0xbcec5e10	-0.028853446
4	0xbd8a18f3	-0.0674304
5	0xbd340aa6	-0.043955468
6	0x3d3f10f5	0.04664703
7	0x3d086b81	0.03330565
8	0xbb0d3fe4	-0.0021552974
9	0xbd963581	-0.07334424
10	0x3d3068e3	0.043068778
11	0xbd8c5db1	-0.06853808
12	0xbc3d7a14	-0.01156475
13	0xbdb80131	-0.08984602
14	0x3ceba5af	0.028765528
15	0x3d9b3499	0.075783916
16	0xbdb1021f	-0.08642983
17	0xbc6db5ee	-0.014508707
18	0x3d41db8c	0.047328517
19	0xbc9ea1a2	-0.019364182
20	0x3d79d70b	0.060996097
21	0x3d73fc85	0.059566993
22	0x3d885c12	0.06658186
23	0xbda264eb	-0.07929405
24	0xbd740f0c	-0.059584662
25	0xbd418e4b	-0.04725484
26	0x3d125fec	0.03573601
27	0x3d01be26	0.03167548
28	0xbd93ccf8	-0.07216829
29	0x3cf0bf5c	0.029388122
30	0x3c870780	0.016483068
31	0x3d4fc4ea	0.0507249
32	0x3c458418	0.012055419
33	0xbd8a2f4a	-0.06747301
34	0xbd97ca0e	-0.07411586
35	0x3c107289	0.00881637
36	0xbc165d67	-0.009177542
37	0x3c7a3aa5	0.015272771
38	0xbdb6c972	-0.089251414
39	0xbd8b197d	-0.06791971
40	0xbd5d3228	-0.05400291
41	0x3d523940	0.05132413
42	0xbd8d0af2	-0.06886853
43	0xbc81c34d	-0.015840197
44	0x3b86f13d	0.0041181133
45	0xbd803c4c	-0.06261501
46	0xbdacbcb7	-0.08434432
47	0xbd78f3ea	-0.06077949
48	0x3d338855	0.04383119
49	0xbcd8d3e5	-0.026468227
50	0x3d8c8649	0.0686155
51	0x3d6de9c0	0.05808425
52	0xbd0ca284	-0.034334674
53	0xbc7a8486	-0.015290385
54	0x3d6b9c44	0.057522073
55	0xbcb632f8	-0.0222411
56	0x3d714f47	0.058913495
57	0x3cffd31e	0.031228598
58	0xbd7ad217	-0.061235514
59	0xbc332c7f	-0.010935902
60	0x3cc3a051	0.023880156
61	0xbd443ce6	-0.04790964
62	0x3cb75e2b	0.02238377
63	0xbdb72b78	-0.08943838
64	0xbda1bc97	-0.07897299
65	0x3ce58a3e	0.02802002
66	0xbd4c1f01	-0.049834255
67	0x3d93d2eb	0.07217964
68	0xbd4fee77	-0.050764527
69	0xbd2729bf	-0.040811297
70	0x3d1e52ac	0.03865306
71	0xbd46d1e2	-0.048540004
72	0x3cee5538	0.02909337
73	0x3da90e7a	0.08254714
74	0x3d6686f9	0.056281064
75	0xbd7b731d	-0.061389077
76	0xbd0da732	-0.034583278
77	0x3d692642	0.05692125
78	0x3d6014b4	0.054707244
79	0xbd93a29a	-0.07208748
80	0x3d03cf81	0.032180313
81	0xbd4e2ba8	-0.050334603
82	0x3c4b7eae	0.0124203395
83	0x3d552363	0.0520357
84	0x3d418ef1	0.04725546
85	0xbcbe3adf	-0.023221431
86	0xbd28eb7e	-0.041240208
87	0xba32e785	-0.000682466
88	0xbd630488	-0.055424243
89	0xbd0669bf	-0.03281569
90	0x3cee68a9	0.02910264
91	0x3dbf4832	0.09339942
92	0x3cca1553	0.024668371
93	0xbc08ee64	-0.008357618
94	0x3c0bbe3a	0.00852924
95	0x3cab6b1e	0.0209251
96	0x3cea2c6b	0.028585633
97	0x3d557bc4	0.052119985
98	0x3bd49360	0.006487295
99	0x3db23403	0.08701327
100	0x3d4cecbd	0.05003046
101	0xbb607ce5	-0.003425413
102	0xba426c27	-0.00074166287
103	0x3dc29b49	0.095022745
104	0x3d23fe51	0.040037457
105	0xbd0fdb07	-0.03512099
106	0xbd0f732f	-0.035021957
107	0x3cbc4805	0.02298356
108	0xbd29fe5e	-0.04150235
109	0xbad97453	-0.0016590453
110	0xbd4e1477	-0.050312486
111	0x3d94f245	0.07272772
112	0xbd4dd619	-0.050253008
113	0xbbedd32e	-0.0072578406
114	0x3d91fad0	0.07127917
115	0x3d69e12e	0.057099514
116	0x3d6159a6	0.055017136
117	0x3d9bb8ec	0.076036304
118	0xbc5a2927	-0.013315476
119	0xbd498d84	-0.049207225
120	0x3c7764b8	0.015099697
121	0xbd7d497f	-0.06183767
122	0x3cbc4e94	0.022986688
123	0xbc3c7f09	-0.011504897
124	0x3d26d3a7	0.04072919
125	0x3b6e2040	0.003633514
126	0x3c8e1a53	0.017346537
127	0x3c7a04fc	0.015259977
128	0x3a1fb4fc	0.00060923374
129	0x3bf2d3bf	0.007410496
130	0xbcdc3a25	-0.026883194
131	0x3d8e65ad	0.06952987
132	0xbd6132ed	-0.054980207
133	0xbcae541a	-0.021280337
134	0x3c320b7c	0.010866996
135	0xbd09ff1b	-0.033690553
136	0xbd884c0d	-0.066551305
137	0x3d34216d	0.04397719
138	0xbc3e7917	-0.01162555
139	0xbda550ff	-0.080720894

weight f4 [140, 140]
0	0xbd9a9e98	-0.075497806
1	0xbcc7b109	-0.02437641
2	0xbd3f1c2d	-0.04665773
3	0x3d6edba2	0.058314927
4	0x3d4646ba	0.048407294
5	0xbd53730c	-0.05162339
6	0xbd80d47b	-0.062905274
7	0x3c516a35	0.012781669
8	0xbcfca14c	-0.030838631
9	0xba19c191	-0.00058653305
10	0xbb42e3dc	-0.0029737866
11	0x3d3bfdb0	0.045896232
12	0x3b745349	0.0037281087
13	0x3d6e6604	0.05820276
14	0xbd058904	-0.03260137
15	0xbc7a2a9e	-0.01526895
16	0x3d2401b6	0.040040694
17	0xbd98bf22	-0.07458331
18	0xbc76e617	-0.015069506
19	0xbd8ac0db	-0.067750655
20	0xbd974223	-0.073856615
21	0xbc29f214	-0.010372657
22	0x3c0f828f	0.008759155
23	0xbd160a6c	-0.036631033
24	0xbc9bc773	-0.019016003
25	0x3d54e65c	0.0519775
26	0x3c0618a2	0.008184584
27	0xba17d434	-0.00057918136
28	0xbd611010	-0.05494696
29	0xbcc35738	-0.0238453
30	0xbc448de4	-0.01199672
31	0x3d5584b0	0.052128494
32	0x3cc06421	0.023485245
33	0x3d35db43	0.044398557
34	0xbd7f7fd8	-0.06237778
35	0xbcc0b974	-0.023525931
36	0x3d2044a3	0.039127957
37	0xbdb25dc9	-0.08709294
38	0xbd87686d	-0.066117145
39	0x3d12ddd6	0.03585609
40	0xbda9f879	-0.082993455
41	0x3d005b7e	0.031337254
42	0x3c53cf60	0.01292786
43	0xbcac0278	-0.020997271
44	0xbd206323	-0.039157044
45	0x3c182dd1	0.009288267
46	0xbdaabbe3	-0.08336618
47	0xbd684f66	-0.056716345
48	0xbd0140da	-0.031555988
49	0x3d24b6bd	0.040213335
50	0x3cc9e15e	0.024643596
51	0x3d1158ee	0.0354852
52	0xbd091e0d	-0.033475924
53	0x3dad89c3	0.084735416
54	0x3d7a7676	0.06114813
55	0x3ce4a5cc	0.02791109
56	0x3dc74998	0.09730834
57	0xbd2c9b74	-0.04214044
58	0xbdaf6a37	-0.08565181
59	0x3c8f9c4c	0.017530583
60	0x3d2f8413	0.042850565
61	0xbd4a2eae	-0.049360923
62	0x3d354cb1	0.04426259
63	0xbd1342d0	-0.03595239
64	0xbd9308e2	-0.07179429
65	0x3d11b46d	0.035572458
66	0xbd1a6920	-0.03769791
67	0xbd857ae2	-0.06517579
68	0xbd8209ea	-0.06349547
69	0x3d183066	0.03715553
70	0x3d06f072	0.03294415
71	0xbbf8c93a	-0.0075923475
72	0x3d6d9449	0.058002744
73	0x3d6371ac	0.055528328
74	0xb8197469	-3.6586458e-05
75	0xbd8fd587	-0.07023149
76	0x3d394927	0.04523578
77	0x3d889702	0.066694275
78	0x3d5bcd7d	0.053662766
79	0x3c05ae3a	0.008159215
80	0x3c8853da	0.016641546
81	0x3d35f08c	0.044418857
82	0x3da29263	0.07938077
83	0xbcd27c41	-0.025694015
84	0xbc61eaef	-0.013788923
85	0x3cfc23fd	0.03077888
86	0xbd4455ee	-0.04793351
87	0xbd8e85a5	-0.069590844
88	0xbd03da34	-0.032190517
89	0xbcb10a33	-0.021611309
90	0xbd218e4f	-0.039442357
91	0x3d5492ce	0.051897816
92	0x3d1f8668	0.03894654
93	0x3c7ff52a	0.0156224165
94	0xbd8f6d3b	-0.07003256
95	0xbd25216d	-0.04031508
96	0xbd964aeb	-0.07338508
97	0xbda4c88d	-0.080460645
98	0xbbff9da9	-0.007800777
99	0x3cea1d5a	0.028578449
100	0x3b7f4c07	0.0038955228
101	0xbd95fe14	-0.07323852
102	0x3d5ca065	0.0538639
103	0xba9d51a2	-0.0012002478
104	0xbd225d7f	-0.039639946
105	0xbbc6f01a	-0.006071103
106	0xbd719782	-0.05898238
107	0x3c96c63b	0.01840507
108	0xbcda5d62	-0.026655857
109	0x3ccb1485	0.024790058
110	0xbc284511	-0.010270373
111	0xbdbc3209	-0.09189231
112	0x3dadc751	0.08485282
113	0x3dc5498d	0.09633169
114	0xbd4a61b0	-0.04940957
115	0xbd12df6c	-0.035857603
116	0xbda403cf	-0.08008539
117	0x3d69151f	0.05690491
118	0x3d197cbf	0.037472483
119	0xbd7b2655	-0.061315853
120	0x3c2b8ba6	0.0104703065
121	0x3bc799b3	0.0060913204
122	0xbd788031	-0.060669128
123	0x3ca34ea0	0.019934952
124	0xbaa8b803	-0.0012872223
125	0xbb0ec5c2	-0.0021785353
126	0xbd1ba779	-0.03800151
127	0xbd2d0e07	-0.042249706
128	0xbd13adce	-0.036054425
129	0x3ab00cd4	0.0013431557
130	0x3d03cddd	0.03217875
131	0x3d8baf32	0.06820525
132	0x3aa8d507	0.001288087
133	0x3da7e578	0.081980646
134	0x3c9304a0	0.017946541
135	0x3d1bcb39	0.038035605
136	0xbcffd866	-0.031231117
137	0x3d8e3cab	0.06945165
138	0xbb9f98ae	-0.0048704958
139	0x3d850798	0.06495589
140	0xbd9063cc	-0.07050285
141	0x3da23a22	0.07921244
142	0x3d6a59b6	0.05721446
143	0xbdaf9c9c	-0.08574793
144	0x3dab734a	0.08371599
145	0xbd7c2fe7	-0.06156912
146	0x3d03cd64	0.032178298
147	0x3d2969a4	0.041360512
148	0xbd006443	-0.031345617
149	0xbcc1372b	-0.023585876
150	0x3d3adf80	0.045623302
151	0xbd9111bd	-0.070834614
152	0xbc73eb08	-0.014887579
153	0x3c800ba6	0.015630554
154	0x3c59258e	0.013253583
155	0xbd9db017	-0.07699602
156	0xbd644eb6	-0.055739127
157	0xbd85c847	-0.065323405
158	0x3a8ba5cb	0.0010654269
159	0x3d28e26e	0.041231565
160	0x3d59761b	0.05309115
161	0x3c62c490	0.013840809
162	0x3c611a83	0.013739231
163	0x3d1bc312	0.03802783
164	0xbd568f24	-0.052382603
165	0xbcefb0ed	-0.02925917
166	0xbd9670e6	-0.073457524
167	0x3cd68691	0.026187213
168	0xbd286c91	-0.041119162
169	0x3d8709f3	0.065936945
170	0xbd8b055f	-0.06788134
171	0xbcec396b	-0.028835973
172	0xbdbfced0	-0.09365618
173	0x3aba983e	0.0014236046
174	0x3c31c078	0.010849111
175	0xbd12e7bc	-0.03586553
176	0x3c9ca8ea	0.019123513
177	0x3c9c4382	0.019075159
178	0x3c2c7d59	0.010527932
179	0x3d40b98b	0.047051948
180	0x3dc27211	0.09494413
181	0x3d695eb5	0.056975085
182	0xbd46d6f6	-0.048544846
183	0xbd87ebc3	-0.06636765
184	0xbd39e20a	-0.045381583
185	0xbda263f9	-0.079292245
186	0xbcfc7d73	-0.030821538
187	0x3bad5297	0.0052893865
188	0xbcae2232	-0.02125654
189	0x3cbc77c5	0.02300633
190	0xbda32ac9	-0.07967145
191	0xbd0c661c	-0.034277067
192	0xbd9396fd	-0.07206533
193	0x3c067870	0.0082074255
194	0xbd8da45d	-0.069161154
195	0xbd3d51fe	-0.046220772
196	0xbd594824	-0.053047314
197	0x3cbeefae	0.023307648
198	0x3db4d0f1	0.08828915
199	0xbd46b3ca	-0.048511304
200	0xbd0fd2e2	-0.035113223
201	0x3c345786	0.011007195
202	0x3d52a155	0.05142339
203	0x3d288682	0.0411439
204	0x3dc4596e	0.0958737
205	0xbd6fb61b	-0.05852328
206	0x3c446ff9	0.011989587
207	0xbd0ab51f	-0.033864137
208	0x3bd723d9	0.0065655527
209	0x3b741a1c	0.0037247008
210	0xbc049fe4	-0.0080947615
211	0x3da82a75	0.08211223
212	0x3da682b6	0.081304
213	0xbdb10ed0	-0.086454034
214	0x3d11f41b	0.035633188
215	0x3daa91de	0.08328603
216	0xbd700a66	-0.058603667
217	0xbd5a6e2b	-0.05332772
218	0xbd0684e9	-0.032841597
219	0x3db7d817	0.08976763
220	0x3b9acd45	0.004724177
221	0xbc26606d	-0.010154826
222	0x3d5d29b7	0.05399486
223	0xbd280600	-0.041021347
224	0x3daeddfc	0.08538434
225	0xbaf683cb	-0.0018807588
226	0xbd0313cd	-0.032001305
227	0x3cc86b7b	0.024465313
228	0x3da48935	0.08033983
229	0x3c1735ed	0.0092291655
230	0x3c50f041	0.0127525935
231	0xbdbc2f1b	-0.09188672
232	0xbcee4e87	-0.02909018
233	0xbd40802a	-0.046997227
234	0x3d2eb6e2	0.04265488
235	0xbd0a6da1	-0.033795957
236	0x3de35e65	0.11101989
237	0x3db88c60	0.090111494
238	0x3d5f8d87	0.05457833
239	0x3d8584ad	0.065194465
240	0xbc194d62	-0.009356828
241	0x3d98e594	0.074656636
242	0xbd9a0a13	-0.07521453
243	0x3ce7777d	0.028255219
244	0x3cbf7123	0.023369377
245	0xbd04fc65	-0.032467265
246	0x3d0e7ce5	0.034787077
247	0xbd967518	-0.073465526
248	0xbc60a95a	-0.013712252
249	0x3cfb5ed0	0.030684859
250	0xbb72dfdb	-0.0037059698
251	0x3d8bc396	0.068244144
252	0x3c26394d	0.0101454975
253	0x3d0f6ed4	0.035017803
254	0xbc139e64	-0.009009931
255	0xbdb9eec1	-0.09078742

bias f4 [140]
0	0x3c911910	0.017712146
1	0x3c808b85	0.015691528
2	0x3d5664fe	0.052342407
3	0xbd5eb17a	-0.054368474
4	0x3dba3b91	0.09093393
5	0xbccfd62e	-0.025370684
6	0xbd541f57	-0.0517877
7	0xbd898d8c	-0.06716451
8	0x3d0f8570	0.035039365
9	0xbadb2610	-0.0016719718
10	0xbbc8ba61	-0.0061257337
11	0xbd9e2177	-0.07721227
12	0xbd6c61b4	-0.057710364
13	0x3d84e839	0.064896055
14	0xbd0024bf	-0.031285044
15	0x3da66542	0.08124782
16	0xbc77cf24	-0.01512507
17	0xbd150b09	-0.036387477
18	0xbd134b56	-0.035960518
19	0xbd9fefbe	-0.07809399
20	0xbd2da37d	-0.042392243
21	0xbd1008f8	-0.035164803
22	0xbd678500	-0.056523323
23	0xbd4b0913	-0.0495692
24	0xba4149b9	-0.0007373351
25	0x3d95dd51	0.073176034
26	0xbd67ff5e	-0.05664002
27	0x3d116f03	0.03550626
28	0x3d002a5a	0.03129039
29	0x3d99c2c3	0.07507851
30	0x3d88df37	0.066832
31	0x3db0f0f4	0.08639708
32	0xbc6070f1	-0.013698802
33	0xbd989680	-0.074505806
34	0xbd720366	-0.059085272
35	0xbcde607b	-0.027145615
36	0xbd3b1904	-0.045678154
37	0x3d52cc6e	0.05146449
38	0x3d8795b6	0.06620352
39	0xbd778bef	-0.060436185
40	0xbd28b8b8	-0.041191787
41	0xbd24fd4a	-0.040280618
42	0xbceddcf2	-0.029036019
43	0xbd2abe2d	-0.041685272
44	0x3c03b6fa	0.0080392305
45	0x3d41b269	0.047289286
46	0x3d9b7f1d	0.07592604
47	0x3d8b0b52	0.067892686
48	0x3dae49d4	0.08510175
49	0xbd6e08d5	-0.05811389
50	0xbd37e573	-0.044896554
51	0x3c277ef0	0.010223135
52	0xbc9ed22e	-0.01938733
53	0x3d840f13	0.06448188
54	0xbcd043d2	-0.025422964
55	0xbd0c0e6f	-0.034193452
56	0x3cc6136f	0.024179189
57	0x3cf612db	0.030038288
58	0x3d9f8e29	0.07790787
59	0xbcbafecf	-0.02282658
60	0x3c924be6	0.017858457
61	0xbcc4ec62	-0.024038497
62	0x3d6d549a	0.05794201
63	0xbce70d9b	-0.02820473
64	0xbd8a44ba	-0.0675139
65	0x3bb4af30	0.005514048
66	0x3d986e19	0.074428745
67	0xbcc236e0	-0.023707807
68	0xbd86e2de	-0.0658624
69	0x3c0e63bf	0.0086907735
70	0xbda0659b	-0.0783188
71	0x3cbcf616	0.023066562
72	0x3d9dd2bf	0.07706212
73	0x3cbcee4c	0.023062848
74	0x3cec94b6	0.028879505
75	0x3d84aff7	0.06478875
76	0xbbabc5bc	-0.0052420776
77	0x3a5fb2aa	0.0008533398
78	0xbd98af7a	-0.074553445
79	0xbd4f140b	-0.050556224
80	0x3d2cf745	0.042228002
81	0xbd755dfb	-0.05990408
82	0xbdb745fa	-0.08948894
83	0x3c7cbc93	0.015425819
84	0x3da6e743	0.081495784
85	0xbdb55422	-0.08853938
86	0x3d3a2ab5	0.045450885
87	0xbd24abe0	-0.040202975
88	0xbd40d226	-0.047075413
89	0x3cd7daaf	0.026349394
90	0x3d393943	0.045220625
91	0xbd750387	-0.059817817
92	0xbbe0f6f4	-0.0068653766
93	0xbd6dffbd	-0.05810522
94	0xbca47608	-0.020075813
95	0xbc86fa4e	-0.016476776
96	0xbd3fbbe3	-0.046810042
97	0xbd7fc8fd	-0.062447537
98	0x3d9774e4	0.07395342
99	0x3d5535fe	0.052053444
100	0x3d864954	0.06556955
101	0xbd23a96f	-0.039956506
102	0xbc312e50	-0.010814264
103	0x3c4afa56	0.012388786
104	0x3d8ef49e	0.06980251
105	0x3d5889d2	0.05286581
106	0x3d8e5ea9	0.06951649
107	0xbd9e869e	-0.0774052
108	0xbc57ac9b	-0.013163711
109	0x3c080fbd	0.008304534
110	0xbd3a28ac	-0.045448944
111	0xbbd80f21	-0.0065936004
112	0x3c8310a4	0.015999146
113	0xbc562063	-0.013069245
114	0xbd986053	-0.074402474
115	0x3d766968	0.060159117
116	0xbc2501af	-0.010071202
117	0x3db47ed1	0.08813251
118	0x3daae05d	0.08343575
119	0x3d0236cf	0.03179055
120	0xbcdcce7e	-0.026953932
121	0x3dba24f8	0.090890825
122	0x3d3a862f	0.045538124
123	0x3cd1de24	0.02561862
124	0xbd4ab470	-0.049488485
125	0x3d4f10af	0.05055302
126	0x3d9b5db0	0.07586229
127	0xbdbc10da	-0.09182902
128	0x3ca1ed7b	0.01976656
129	0x3ca16c9b	0.019705107
130	0xbda092d4	-0.07840505
131	0xb9befee3	-0.0003642953
132	0x3b201ab1	0.0024429972
133	0x3d319862	0.043358214
134	0x3d6a61eb	0.057222288
135	0xbd10cb16	-0.035349928
136	0x3ceb51d3	0.02872554
137	0x393dba73	0.00018093902
138	0xbc7ce091	-0.0154344
139	0xbd8b9507	-0.06815534

weight f4 [2, 140]
0	0x3d198ed3	0.037489723
1	0xbcce009a	-0.025146771
2	0xbd504c1c	-0.050853834
3	0xbd5a9beb	-0.05337135
4	0x3d1416d2	0.036154576
5	0x3d586c3e	0.052837603
6	0x3c47f041	0.012203277
7	0x3d295a2b	0.041345757
8	0xbd0dd924	-0.03463091
9	0x3cf2bec0	0.029631972
10	0xbd4d9d1e	-0.050198667
11	0xbd8f23d9	-0.06989259
12	0x3cdbe6a3	0.026843375
13	0xbd36fe01	-0.04467583
14	0xbd95c878	-0.07313627
15	0xbceb56bd	-0.028727883
16	0x3c83954a	0.016062398
17	0xbcefa256	-0.029252212
18	0xbd15bf20	-0.036559224
19	0xbb8dbf8f	-0.004325814
20	0xbd321c1d	-0.043483842
21	0xbcc554f2	-0.024088357
22	0xbb963c08	-0.004584793
23	0xbb3a4a34	-0.0028425576
24	0x3da5266d	0.0806397
25	0xbc4427d0	-0.011972383
26	0x3d11febc	0.035643324
27	0xbd56bda1	-0.052426938
28	0x3d83f2eb	0.06442817
29	0xbd22cc2e	-0.039745502
30	0xbd962e0f	-0.07333004
31	0xbd702a23	-0.058633935
32	0x3d3313a4	0.043719903
33	0x3d90b7ef	0.070663325
34	0xbd041f38	-0.032256335
35	0xbd2a1185	-0.041520614
36	0x3d47450e	0.04864984
37	0x3cda3c2b	0.026640018
38	0x3da3d3c9	0.07999379
39	0xbda1fa01	-0.079090126
40	0x3d060aa7	0.032725003
41	0x3d7c37b9	0.06157658
42	0xbc22895a	-0.0099204425
43	0xbd4da955	-0.050210316
44	0xbce65673	-0.028117394
45	0x3d873a12	0.06602873
46	0x3ad12864	0.0015957472
47	0xbce719db	-0.028210571
48	0xbbad4214	-0.005287418
49	0xbd2976e9	-0.041373167
50	0x3a65c972	0.00087656744
51	0xbd8d8bd8	-0.06911439
52	0x3d71e1f7	0.059053387
53	0x3da82ac4	0.08211282
54	0xbd3545c5	-0.04425599
55	0x3d6bf6b3	0.057608318
56	0xbc82989c	-0.01594191
57	0x3d135546	0.035969995
58	0xbc73c733	-0.014879036
59	0xbcbedd1d	-0.023298794
60	0xbd1a83e6	-0.037723444
61	0xbd46efe4	-0.04856862
62	0x3cd98886	0.026554357
63	0x3d0f9409	0.035053287
64	0x3d1bef09	0.03806976
65	0x3d2f7fc7	0.042846467
66	0x3d0162b7	0.031588282
67	0xbd8732bf	-0.06601476
68	0xbd761b85	-0.06008484
69	0x3cd9f297	0.026604934
70	0x3d37b47d	0.04484986
71	0xbcd69e77	-0.026198609
72	0xbd1f1543	-0.038838636
73	0xbc24627d	-0.010033247
74	0x3c678727	0.014131344
75	0x3d3e6e05	0.04649164
76	0xbd6fce73	-0.058546495
77	0xbcc6d769	-0.024272637
78	0xbda6632a	-0.08124383
79	0x3d349133	0.044083785
80	0x3d8bf860	0.06834483
81	0xbcce2474	-0.025163867
82	0xbcee98a3	-0.029125517
83	0xbd9bf624	-0.07615307
84	0x3d765ac4	0.060145155
85	0xbc81aa85	-0.01582838
86	0xbd0406ed	-0.032233167
87	0xbd053d86	-0.032529376
88	0x3d81f552	0.06345619
89	0xbc9ce8dc	-0.019154005
90	0xbd73cea1	-0.05952323
91	0x3d33cad5	0.043894608
92	0x3da4c02c	0.080444664
93	0x3d9b64f9	0.075876184
94	0x3d9f58ce	0.0778061
95	0xbc807860	-0.0156824
96	0xbd1ce3b4	-0.038303092
97	0x3ad1cbdb	0.0016006188
98	0xba153ab1	-0.00056926446
99	0x3cc41055	0.023933569
100	0x3d182296	0.03714236
101	0x3d0880a3	0.033325803
102	0x3d0fc255	0.03509744
103	0xbca18c40	-0.019720197
104	0x3d10f76b	0.035392206
105	0xb97f1f0b	-0.0002433026
106	0x3cfec0ac	0.031097732
107	0xbd88cd37	-0.066797666
108	0xbd1097f2	-0.035301156
109	0x3d39f866	0.045402907
110	0x3baf8eb4	0.0053575877
111	0x3ce2ab2d	0.027669514
112	0xbc8e5e07	-0.01737882
113	0x3d1a7f61	0.037719134
114	0xbcd9b7f4	-0.026576973
115	0xbd802e44	-0.062588245
116	0x3d6382b2	0.055544563
117	0x3d2fd8c2	0.042931326
118	0x3d5e1dd5	0.05422767
119	0x3d1977ae	0.03746765
120	0x3bd8ffd3	0.0066222935
121	0x3cdb5efd	0.026778692
122	0xbd16f633	-0.036855888
123	0xbd20d86e	-0.039268903
124	0x3d3954b4	0.045246795
125	0xbcc68d13	-0.024237191
126	0x3bee77a5	0.0072774463
127	0xbcb12bc1	-0.021627309
128	0xbd107d58	-0.035275787
129	0x3c933ee7	0.01797433
130	0xbcc475c3	-0.023981934
131	0xbd56260c	-0.052282378
132	0x3cbfd56c	0.023417197
133	0xbd5a1668	-0.053244025
134	0x3d137d8c	0.036008403
135	0x3d85c60b	0.06531914
136	0xbd17f3e1	-0.037097815
137	0x3be4ee03	0.006986381
138	0xbc029bb1	-0.00797169
139	0x3c7ee2d5	0.015557011
140	0x3b0022cb	0.0019551988
141	0x3c7b4585	0.015336399
142	0x3d6ecd06	0.058300994
143	0xbd7cfe0b	-0.06176571
144	0x3d13b7db	0.03606401
145	0x3d4df805	0.050285358
146	0xbd79abc9	-0.060954843
147	0xbc9ef3c7	-0.019403351
148	0xbc9a4af6	-0.018834572
149	0x3c8994d6	0.016794603
150	0xbc8dd96e	-0.017315593
151	0xbcfe8724	-0.0310703
152	0x3d353754	0.044242218
153	0x3d93b824	0.072128564
154	0x3cb73948	0.022366181
155	0x3cdfbeee	0.027312722
156	0x3d0e241b	0.0347024
157	0xbc0a4584	-0.008439425
158	0xbc6392bb	-0.013889964
159	0xbc1c5505	-0.009541755
160	0xbd7b25a0	-0.06131518
161	0xba20bd92	-0.0006131764
162	0xbd6f2703	-0.058386814
163	0xbca052b7	-0.019570692
164	0x3da0ba06	0.07847981
165	0x3c35228f	0.011055603
166	0xbc73a19b	-0.014870073
167	0x3b3f3a14	0.0029178904
168	0xbcbebd4d	-0.023283625
169	0x3c45b6aa	0.012067476
170	0xbc615907	-0.013754136
171	0x3daf7097	0.08566397
172	0xbd8ac094	-0.067750126
173	0x3d9899a1	0.074511774
174	0xbc8406ed	-0.016116584
175	0x3d7bd9dc	0.061487064
176	0x3dac8898	0.08424491
177	0x3d3cb489	0.04607061
178	0xbd1c7087	-0.038193252
179	0xbd128ac1	-0.035776857
180	0xbcbbba63	-0.022916025
181	0x3cfe95ca	0.031077284
182	0x3da9487d	0.08265779
183	0xbd057a88	-0.032587558
184	0xbc824484	-0.015901811
185	0x3d9756c9	0.073896
186	0x3c7236a8	0.014783539
187	0xbd3a0efe	-0.045424454
188	0x3d7b7996	0.06139525
189	0x3c1c0b8e	0.009524239
190	0xbd83fe5c	-0.064449996
191	0xbc84b7ff	-0.016201017
192	0x3cda489b	0.02664595
193	0xbcf2e8e8	-0.029652074
194	0xbd601159	-0.054704044
195	0x3b6d6e78	0.0036229175
196	0x3d58ca1b	0.052927118
197	0xbd01f19e	-0.031724565
198	0xbb49ce26	-0.003079304
199	0xbcd7d9ea	-0.026349027
200	0x3da2496d	0.07924161
201	0x3d8fca61	0.070210226
202	0x3d5ae2ad	0.05343883
203	0xbb5d941c	-0.0033810204
204	0xbb9025c9	-0.0043990356
205	0xbb54f25d	-0.0032493093
206	0xbc07c603	-0.008286956
207	0xbcd0db5b	-0.025495222
208	0xbcd8a5dd	-0.026446277
209	0x3c2902c8	0.0103156045
210	0xbcf2ab09	-0.029622572
211	0x3db7fefa	0.0898418
212	0x3bcac182	0.0061876187
213	0xbcf583ad	-0.029970014
214	0x3d868a32	0.065693274
215	0xbd845fc7	-0.064635806
216	0x3d715480	0.058918476
217	0xbd8acec0	-0.06777716
218	0x3c5c2a78	0.01343786
219	0x3ce45cac	0.02787622
220	0xbcfa2251	-0.030533941
221	0x3da4f4b2	0.080544844
222	0xbd372e73	-0.04472203
223	0x3ac090a1	0.001469154
224	0x3d474655	0.04865106
225	0xbd26bce7	-0.040707495
226	0xbc6d81ef	-0.014496311
227	0xbc69cef8	-0.014270537
228	0xbc777f89	-0.01510609
229	0x3b9bdb0e	0.004756338
230	0xbd25c74e	-0.040473275
231	0x3cd894bf	0.026438115
232	0x3db9ef8e	0.090788946
233	0x3a316ad3	0.0006767932
234	0xbcff3dc9	-0.031157391
235	0x3c12f6f4	0.008970011
236	0xb8c0c0fb	-9.191219e-05
237	0x3db4aaf1	0.08821667
238	0xbcf81f65	-0.030288408
239	0x3c6f91a3	0.014622125
240	0xbbe88d28	-0.0070969053
241	0xbd8f597d	-0.069994904
242	0x3c625e5d	0.013816443
243	0x3a45b4a7	0.0007541873
244	0x3d9c7c28	0.076408684
245	0xbd43dd3f	-0.04781842
246	0xbd831dbd	-0.064021565
247	0xbd2f91f7	-0.042863812
248	0xbd3e938c	-0.04652743
249	0xbd3f7bdb	-0.046748977
250	0x3d234995	0.039865095
251	0xbd011605	-0.03151514
252	0xbd1ea809	-0.03873447
253	0x3d3a3251	0.04545814
254	0xbcb4eb25	-0.022084782
255	0x3dbba0cc	0.09161529

bias f4 [2]
0	0x3d51d821	0.051231507
1	0xbd27e3a2	-0.040988572

weight f4 [140, 140]
0	0xbb14cfcd	-0.0022706867
1	0xbd461185	-0.04835655
2	0xbd7b1893	-0.061302733
3	0x3d2c3f72	0.042052694
4	0xbd8b1b30	-0.06792295
5	0xbd6fdb95	-0.05855902
6	0xbd056c40	-0.03257394
7	0xbd896e20	-0.06710458
8	0x3b54e7db	0.003248683
9	0xbd139225	-0.036028046
10	0xbd7db931	-0.06194419
11	0x3ccc7193	0.0249565
12	0x3d87facc	0.066396326
13	0xbd1ae56d	-0.037816454
14	0xbdafdb77	-0.085867815
15	0x3d844dc2	0.064601436
16	0x3d34bf14	0.04412754
17	0x3d9522cf	0.0728203
18	0xbd4c5e74	-0.049894765
19	0xbd51d1cf	-0.05122548
20	0x3dafd30a	0.085851744
21	0x3d2960a1	0.041351918
22	0x3d99226d	0.07477269
23	0x3ccc1185	0.024910698
24	0x3d3244d3	0.043522667
25	0x3d34f234	0.044176295
26	0x3d099d37	0.033597197
27	0x3d9e8b08	0.07741362
28	0x3d57d723	0.052695405
29	0x3d9f4946	0.07777648
30	0xbd410d95	-0.047132093
31	0xbd19527f	-0.03743219
32	0x3bd888f5	0.0066081234
33	0x3d35233d	0.04422306
34	0x3d5ce72d	0.053931404
35	0xbd603d2e	-0.054745845
36	0x3ba5ec06	0.0050635366
37	0x3d555002	0.052078255
38	0x3d60b652	0.054861374
39	0xbd2faf49	-0.042891774
40	0xbd288e69	-0.041151438
41	0xbc981783	-0.018565899
42	0xbd9fc079	-0.07800383
43	0x3d312127	0.043244507
44	0x3b18b813	0.0023303076
45	0xbd8419d5	-0.064502396
46	0x3cca9216	0.024727862
47	0x3d0069f3	0.03135104
48	0xbd98baf3	-0.07457533
49	0x3d2c8cb4	0.042126372
50	0x3d8fa9e0	0.07014823
51	0xbd224b88	-0.039622813
52	0xbd9123ec	-0.0708693
53	0xbd8d4ac3	-0.06899025
54	0x3d93f930	0.07225263
55	0x3d81969a	0.06327553
56	0x3c85e95b	0.016346624
57	0x3b7d2cf1	0.0038631523
58	0xbd845262	-0.06461026
59	0x3cc2d135	0.023781398
60	0xbcdd511c	-0.027016215
61	0x3d35534f	0.044268902
62	0xba8e5a5d	-0.0010860671
63	0xbd59b3f4	-0.053150132
64	0x3c463f94	0.012100119
65	0x3cb4672b	0.02202185
66	0x3c2e9a2f	0.010656877
67	0x3cfa1a9a	0.030530263
68	0x3bfba7a0	0.0076798946
69	0xbc8f810a	-0.017517585
70	0xbd52f938	-0.051507205
71	0x3d0410dd	0.032242645
72	0xbd2f9a02	-0.042871483
73	0x3d8b355a	0.067972854
74	0xbd260ae7	-0.04053774
75	0xbc8dbe57	-0.017302675
76	0xbd88260d	-0.066478826
77	0xbd7018d5	-0.05861743
78	0x3d9a5c19	0.075370975
79	0x3d3d7833	0.04625721
80	0xbc6e84cf	-0.014558031
81	0xbd67568b	-0.05647902
82	0x3d94e087	0.07269388
83	0xbc18a097	-0.009315631
84	0x3d181881	0.037132744
85	0x3d333d30	0.043759525
86	0xbd5fcc38	-0.054638118
87	0x38bbb3e4	8.950362e-05
88	0x3c946f63	0.01811952
89	0xbdab6328	-0.08368522
90	0x3d1bf095	0.038071234
91	0xbc804a84	-0.015660532
92	0x3d0ad573	0.033894967
93	0x3d68e3ed	0.056857992
94	0xbd8d05c4	-0.06885865
95	0x3bb79a37	0.0056031006
96	0x3b72aadf	0.0037028117
97	0xbcd04a67	-0.025426103
98	0x3d82abac	0.063804
99	0x3d12b6bb	0.035818797
100	0x3d7590a4	0.059952393
101	0x3db3ad01	0.08773232
102	0xbc6d04d9	-0.014466488
103	0xbd6ca89e	-0.057777993
104	0xbd04dbda	-0.03243623
105	0xbb474384	-0.0030405233
106	0x3d05ea22	0.03269399
107	0x3d1d1897	0.03835353
108	0x3d3c30ce	0.04594498
109	0x3daa9fe9	0.08331282
110	0xbd0fc1fa	-0.0350971
111	0xbd353d4b	-0.044247907
112	0xbcd75743	-0.026286727
113	0xbc764cc3	-0.01503295
114	0xbc496f22	-0.0122945625
115	0x3da85460	0.08219218
116	0x3d5ecf90	0.054397166
117	0x3da6f2f7	0.081518106
118	0x3ca823a8	0.020524815
119	0x3d808c7f	0.062767975
120	0xbd578dbd	-0.052625407
121	0x3cb19c5b	0.021681001
122	0x3cc553da	0.024087835
123	0x3c6f0a8c	0.014589917
124	0x3c9eeb72	0.019399378
125	0x3d646abb	0.05576585
126	0x3d89038a	0.06690128
127	0x3c97a69f	0.018512068
128	0x3d7c5c4a	0.06161145
129	0x3cd0b586	0.025477182
130	0xbcb2d408	-0.02182962
131	0x3c630670	0.013856515
132	0x3d838433	0.064216994
133	0xbd51e41b	-0.05124293
134	0xbd5ce8d9	-0.053933
135	0x3d5cddb9	0.05392239
136	0xbd9e8ef3	-0.07742109
137	0x3db3bc3c	0.08776137
138	0xbda279ec	-0.07933411
139	0x3b494d65	0.0030716297
140	0xbd03a04b	-0.03213529
141	0xbd7ee1d5	-0.06222709
142	0xbd16afff	-0.036788937
143	0xbc6a7dc5	-0.014312212
144	0xbd1c4e7e	-0.038160793
145	0xbd79302a	-0.06083695
146	0x3c39b1cd	0.011333895
147	0xbd7ffcdf	-0.062497016
148	0xbd86b7b2	-0.06578006
149	0x3d58922e	0.052873783
150	0xbd4659bd	-0.048425425
151	0xbda4b26a	-0.08041842
152	0x3d90fdc6	0.070796534
153	0x3d98df9e	0.074645266
154	0x3ae2a416	0.0017291333
155	0xbd4d665c	-0.050146446
156	0x3cf31cd1	0.029676827
157	0xbd67dc24	-0.056606427
158	0xbd4ecd22	-0.0504886
159	0xbd5708b7	-0.052498545
160	0x3be7898b	0.007065957
161	0x3d42d492	0.047566004
162	0x3d77a22b	0.06045739
163	0xbd104e05	-0.035230655
164	0xbbe81f62	-0.0070838192
165	0xbc326a3e	-0.010889588
166	0xbbc208d9	-0.005921465
167	0x3d2f0dc2	0.04273773
168	0x3dab180b	0.08354195
169	0x3d384e00	0.04499626
170	0x3d97416b	0.07385524
171	0x3da218b4	0.07914868
172	0xbda99f33	-0.08282318
173	0xbd8b7712	-0.0680982
174	0x3d26ecb2	0.040753074
175	0x3d821f4e	0.06353627
176	0x3d391fc8	0.045196325
177	0xbc66587c	-0.014059182
178	0x3db57aef	0.08861338
179	0x3cce38aa	0.025173504
180	0x3d103494	0.035206392
181	0x3d07deff	0.03317165
182	0xbd5c4bad	-0.053783108
183	0x3d282df0	0.041059434
184	0xbc96c1a6	-0.018402886
185	0x3d19828c	0.037478015
186	0xbd910cbb	-0.07082506
187	0x3d273746	0.040824197
188	0xbc9a5973	-0.01884148
189	0xbd3366f8	-0.04379937
190	0x3d9dcbb3	0.07704868
191	0x3d0e6cc5	0.0347717
192	0x3da652e4	0.08121279
193	0x3d82958f	0.06376182
194	0xbcdf8e59	-0.027289556
195	0x3c9f2411	0.019426377
196	0xbd60f582	-0.054921634
197	0xbc82328b	-0.015893241
198	0xbd18e69c	-0.0373293
199	0x3d202fb0	0.03910798
200	0x3daebcfc	0.0853214
201	0x3ca34f07	0.019935144
202	0xbd5bdd6d	-0.053677965
203	0xbcb1487a	-0.021641005
204	0xbc8c8201	-0.017151834
205	0x3da0676a	0.07832225
206	0x3d53e095	0.05172785
207	0x3d6234f7	0.055226292
208	0x3d5364bb	0.051609736
209	0x3cf98183	0.030457264
210	0x3d8d0d67	0.06887322
211	0xbd006e61	-0.031355266
212	0xbd83bf7a	-0.06433006
213	0x3d7bb655	0.061453182
214	0x3ce298b5	0.027660707
215	0xbd949892	-0.07255663
216	0xbd0b16dd	-0.03395735
217	0x3bbff48d	0.00585801
218	0x3d9b4d0e	0.075830564
219	0xba14bb2c	-0.0005673643
220	0xbd94205a	-0.07232733
221	0xbd49ea17	-0.04929551
222	0x3d9b8148	0.07593018
223	0xbdb4baaf	-0.088246696
224	0x3cbb415d	0.022858316
225	0x3c945c06	0.018110286
226	0x3c230cdb	0.009951795
227	0xbd854eba	-0.065091565
228	0x3db3a84d	0.08772335
229	0x3d80ae1e	0.0628321
230	0x3b70607e	0.0036678608
231	0xbd9ffc4a	-0.07811792
232	0xbd7f32ea	-0.062304415
233	0x3d4d6863	0.05014838
234	0xbccd8002	-0.025085453
235	0x3d54e1b3	0.051973056
236	0x3d4d04f3	0.050053548
237	0xbd6ce09f	-0.057831403
238	0x3ccb2e30	0.024802297
239	0x3da72764	0.0816181
240	0x3cfba7d9	0.030719684
241	0xbd23d966	-0.04000225
242	0xbd055cf4	-0.03255935
243	0x3bde0941	0.0067760055
244	0xbd9b84e1	-0.07593704
245	0x3d785539	0.06062815
246	0xbd5c4bc5	-0.053783197
247	0xbc8e4737	-0.017367942
248	0x3d97ffd4	0.07421842
249	0x3d7c3731	0.061576072
250	0xbd96a434	-0.07355538
251	0xbd826252	-0.06366409
252	0x3c7a362c	0.015271705
253	0x3c3b65cd	0.011437845
254	0xbd698538	-0.057011813
255	0xbd133005	-0.035934467

bias f4 [140]
0	0xbd1bea5d	-0.038065303
1	0x3d49508b	0.049149077
2	0xbda72861	-0.081619985
3	0x3d821512	0.06351675
4	0xbd8fa790	-0.07014382
5	0xbd68459b	-0.056707006
6	0xbd917b02	-0.0710354
7	0x3cbc3660	0.022975147
8	0xbd4c7c81	-0.049923424
9	0xbd88bae1	-0.06676269
10	0xbd616f9d	-0.055038083
11	0x3d893a37	0.06700557
12	0xbd9b5c4b	-0.07585963
13	0x3ce07fe4	0.027404733
14	0xbc9994f0	-0.018747777
15	0xbd1747f7	-0.036933865
16	0xbcdf413d	-0.027252788
17	0xbd0794f5	-0.03310104
18	0x3c541a27	0.012945688
19	0xbd68296b	-0.056680124
20	0x3d85f6b7	0.06541198
21	0xbd21dd29	-0.039517555
22	0x3cd25627	0.025675846
23	0x3d82196e	0.063525066
24	0xbd3e3f91	-0.04644734
25	0xbd499159	-0.04921088
26	0xbcb7e945	-0.022450099
27	0xbcf84341	-0.030305507
28	0xbda1058c	-0.07862386
29	0x3c55b903	0.0130445985
30	0xbbedb6e9	-0.0072544706
31	0xbc99f9db	-0.018795898
32	0x3d6a9b73	0.057277154
33	0xbc6b1eb9	-0.014350587
34	0xbd3b696e	-0.045754842
35	0x3cd3a00f	0.025833158
36	0x3d49e329	0.049288902
37	0xbd6525c5	-0.055944223
38	0x3cef2ec1	0.029197099
39	0xbd576fdb	-0.052596908
40	0xbc63d5cd	-0.013905955
41	0xbcb67f32	-0.022277448
42	0xbd5ddffb	-0.054168683
43	0x3da085f4	0.078380495
44	0x3d6f44fc	0.058415398
45	0x3d422bf0	0.047405183
46	0xbd24423e	-0.040102236
47	0xbd05b295	-0.032641012
48	0xbcb7ef61	-0.022453012
49	0xbd397ef6	-0.045287095
50	0xbaae9352	-0.0013319051
51	0x3d9e4441	0.07727862
52	0xbc95d1bf	-0.018288491
53	0x3d82ad7a	0.06380744
54	0xbc382ffd	-0.01124191
55	0xbd25ca86	-0.040476345
56	0xbd64a25a	-0.055818893
57	0x3b98fd5a	0.0046688737
58	0x3c3befe9	0.011470773
59	0xbcd6738e	-0.026178148
60	0x3c7139b5	0.014723231
61	0x3d2cb13a	0.042161204
62	0x3d804d4f	0.062647454
63	0x3d3f0158	0.04663214
64	0x3d120c44	0.03565623
65	0xbd938e28	-0.072048485
66	0x3cc2151a	0.023691703
67	0xbbd395e9	-0.0064570797
68	0x3cb9cf08	0.022681728
69	0x3d8b435c	0.06799957
70	0xbc8e830c	-0.017396472
71	0xbd2f5f6d	-0.042815614
72	0xbd31fa10	-0.04345137
73	0x3c1e6ef7	0.009670011
74	0x3d3c13e9	0.045917425
75	0xbd30a8fa	-0.0431299
76	0xbd7f85a1	-0.062383298
77	0x3c31708e	0.010830058
78	0x3d9fdc73	0.07805719
79	0x3cbabff2	0.022796605
80	0x3d5db717	0.054129686
81	0xbd9c3cbc	-0.07628772
82	0xbd250b8b	-0.04029421
83	0x3d38ce49	0.045118604
84	0xbd610c79	-0.054943535
85	0xbd8a7cdf	-0.067620985
86	0xbd84b203	-0.064792655
87	0xbd40ff95	-0.047118742
88	0xbbeb006e	-0.007171682
89	0x3d63d069	0.055618677
90	0xbd889859	-0.06669683
91	0x3b913732	0.0044316286
92	0xbdb183a1	-0.08667684
93	0x3ca8ef56	0.020621937
94	0x3d32ba9c	0.043634996
95	0x3cad0d30	0.021124452
96	0x3da0fe2c	0.078609794
97	0xbd3f01fb	-0.046632748
98	0xbbb19be2	-0.005420194
99	0x3cd1aef1	0.025596114
100	0x3ae7ce03	0.0017685298
101	0x3d9ee422	0.07758357
102	0xbd0c0e27	-0.034193184
103	0x3d2c2111	0.042023722
104	0x3d9a4341	0.07532359
105	0xbd225feb	-0.039642256
106	0x3d27d91f	0.040978547
107	0x3d64e5bd	0.055883158
108	0xbd148a44	-0.036264673
109	0x3d8d05f2	0.068858996
110	0xbd9f1b50	-0.07768881
111	0x3c713440	0.01472193
112	0xbca1c599	-0.019747542
113	0x3ac3f8c4	0.0014951457
114	0x3da8750b	0.08225449
115	0xbd84d1c4	-0.06485322
116	0x3d48247c	0.04886292
117	0xbd97977c	-0.0740194
118	0xbd3d94e1	-0.04628456
119	0x3d237ecf	0.039915856
120	0x3cde4130	0.027130693
121	0x3da575ce	0.0807911
122	0xbd109bc8	-0.035304815
123	0x3d967060	0.073456526
124	0xbd9018b4	-0.07035962
125	0x3cfa4033	0.03054819
126	0xbc8677c0	-0.016414523
127	0x3d337a45	0.043817777
128	0x3d9e2e34	0.07723656
129	0x3ca83d5b	0.020537069
130	0xbd6d634d	-0.05795603
131	0xbd3c1f77	-0.045928445
132	0x3ccc8f4b	0.024970671
133	0xbdac05a9	-0.08399517
134	0xbd28549b	-0.04109631
135	0x3d6f2194	0.058381632
136	0x3b5fff8b	0.0034179415
137	0xbcf63445	-0.03005422
138	0xbd6c95df	-0.057760116
139	0xbce510b3	-0.027962064
