training_outputs/sigmoid/models/model_sigmoid_N15.pt (torch, 348161 bytes, 13 tensors)

weight f4 [140, 32]
000000 4e c4 a4 3e 4d 0c 25 be 05 04 48 bd 6f 2f 18 bd
       0.3218102 -0.16117974 -0.04883196 -0.03715461
000010 69 78 01 3d ec a8 66 3d 66 9d 18 3d c0 54 7f bb
       0.031608973 0.05631344 0.03725948 -0.0038960427
000020 4d e9 c3 3b 68 51 be 3c be 8f 9f 3c 5f 14 50 bc
       0.0059787394 0.023232177 0.019477721 -0.012700169
000030 18 97 d3 3b 19 19 eb bb b3 2a 5e 3c 38 41 a2 bb
       0.0064572208 -0.0071746227 0.013559985 -0.0049516223
000040 f5 f3 d3 3b 96 9f 6d 3c 44 38 8e 3c bc d0 87 bc
       0.006468291 0.01450338 0.017360814 -0.016579024
000050 15 40 f5 bb 19 d2 e8 3c 60 f3 56 ba 06 4d 97 bc
       -0.007484446 0.028420495 -0.0008199718 -0.018469345
000060 47 d3 28 bc 27 76 5b bc e6 05 90 b9 2e 58 87 3c
       -0.010304279 -0.013394869 -0.00027470215 0.01652154
000070 3a 85 26 bb d2 38 58 bc b5 23 86 bb 88 9f 74 bb
       -0.0025409 -0.013197141 -0.004093612 -0.0037326533
000080 7b 2f 0d 3f 27 db 5a be 1c f4 4a bd 80 bc 20 3d
       0.55150574 -0.21372662 -0.049549207 0.039242268
000090 39 af 24 bd 44 f3 8d bb 3f 0d 45 bd 0a cc 4d bd
       -0.040206168 -0.004331978 -0.048108336 -0.050243415
0000a0 20 bc 60 bd 10 f6 7b 3d 67 1a 36 3d 33 8c 1f 3d
       -0.05486691 0.06151396 0.044458773 0.038952064
0000b0 47 5c 39 3f dd 6b 95 3e 0e 8c cb 3f a1 1f cd 3e
       0.7240643 0.29183856 1.5902116 0.40063193
0000c0 4b d7 77 3f 36 4c fd 3d ab 70 5f 3f 3a 6a f2 3d
       0.96812886 0.12368052 0.8728129 0.11836667
0000d0 79 6c 1c 3f 9d 21 5a 3e f0 1c b9 3e 41 89 90 bd
       0.61103016 0.21301885 0.3615489 -0.07057429
0000e0 c9 c4 8b 3e 90 28 ea 3d 40 ea bb 3e 4a 68 23 3e
       0.27298573 0.11433518 0.36702156 0.15957752
0000f0 0c 19 8f 3e 90 81 dd 3d 73 86 85 3e 9b 4a 91 bd
       0.27948797 0.10815728 0.2607914 -0.07094308
000100 eb 58 d6 bd 7c ba 3f bd 94 cd a6 3d d8 5a f5 3d
       -0.104661785 -0.046808705 0.0814468 0.11980218
000110 22 77 85 bc 37 64 0b 3e 9c 77 a1 3d 9f 3b 62 bd
       -0.016292159 0.13612448 0.07884142 -0.05523264
000120 9f da 82 bd fe 83 c2 bd f4 53 a2 bc 53 cb ed bd
       -0.06389355 -0.09497832 -0.019815423 -0.11611047
000130 cd 56 43 3d 9c c2 16 bd 33 77 c6 3a be b8 5b 3d
       0.0476902 -0.036806688 0.0015141725 0.05364298
000140 92 fe bf 3b 2c da 0a be b7 16 8a 3b 80 d2 84 3d
       0.0058592046 -0.13559788 0.0042141336 0.06485462
000150 63 9d 45 3d 1f 5e dd bd 26 07 71 bd 69 88 ea 3c
       0.0482458 -0.10808968 -0.058844708 0.028629499
000160 61 fb 56 bc 7f 7f 4f bd 2b 47 05 bc 06 88 1b bc
       -0.013121457 -0.0506587 -0.008134644 -0.00949288
000170 fa 2c 28 bd 28 c3 a4 3c 51 02 7e bc fb 03 93 bc
       -0.041058518 0.020112589 -0.015503482 -0.017946234
000180 2d 77 3a 3e 55 ea ba bd 67 3f 22 3c 6b e1 ce 3c
       0.18209524 -0.091267265 0.009902812 0.025253972
000190 54 5e 1d bd 74 9d 70 bc ca e7 41 bd 9f eb 27 3e
       -0.038420036 -0.014685977 -0.047340192 0.16398476
0001a0 ae 9e 8f bd b8 cc c4 3d ea ef a9 bc d4 a8 01 3e
       -0.070126876 0.096093595 -0.020744283 0.12662059
0001b0 90 34 98 3c d2 f4 c0 bd ab 99 87 bd 6a b1 d9 3c
       0.018579751 -0.09421696 -0.06621107 0.026573855
0001c0 8f 8e c3 3c 06 40 1a bd 50 e7 50 bd 45 31 56 bd
       0.023871688 -0.037658714 -0.051001847 -0.05229308
0001d0 93 d6 75 3d e2 a4 42 3e 66 d3 db bd 7b 4c c0 bd
       0.060019087 0.1900821 -0.107336804 -0.093895875
0001e0 8d 38 8c 3d d2 10 df 3a ba bd 62 bd bf 05 3a bd
       0.06846724 0.0017018563 -0.05535672 -0.045415636
0001f0 51 19 90 bd 33 b1 66 3d 8f 4c b1 bc 44 b1 94 3c
       -0.07036079 0.056321334 -0.021642951 0.018150933
000200 7c 0c 36 3d 34 81 87 be 4a 76 19 bc d4 7a 2c 3d
       0.0444455 -0.26465762 -0.009366581 0.042109326
000210 b5 cc 8e 3c d3 c3 a4 3d d2 18 a5 bc e2 64 d5 bd
       0.017431596 0.08045163 -0.020153437 -0.104196325
000220 e5 15 77 bb cb 78 a6 3d 0f 96 32 bc 5a 7d 06 3c
       -0.003770226 0.08128508 -0.010900035 0.008208597
000230 a8 a9 21 3c 7d 41 09 3d 08 7a ac bc bb 76 8e 3c
       0.009867109 0.03350972 -0.021054283 0.0173906
000240 26 19 d7 bc 89 e1 ae bd 4e e1 ac bc 66 97 ec 3d
       -0.026257109 -0.08539111 -0.021103527 0.115523145
000250 ee 64 4c 3d 66 e6 cb bc 9f 25 85 bb 66 61 12 3c
       0.04990094 -0.024890136 -0.0040633227 0.008934354
000260 74 46 19 bc 7b 02 e2 3c 8c 7c 20 bb f5 8a 0a bd
       -0.009355176 0.027589073 -0.0024488298 -0.033823926
000270 82 a4 7a bc 7e a5 e6 3c 47 a5 84 bc 3b 14 7d 3c
       -0.015298011 0.028155085 -0.016192092 0.015446718
000280 bc a8 1e 3e 6c 66 bf 3e 3a 04 e7 bc 91 a5 3b be
       0.15494055 0.3738283 -0.028200258 -0.18324877
000290 d4 a5 0c bc f7 ce 4c 3d a4 41 1a bd bf ea ed bc
       -0.008584458 0.050002065 -0.037660256 -0.0290426
0002a0 17 b3 a6 bc 6c 92 2c 3e 53 e9 6a 39 0a 03 ed 3d
       -0.020349069 0.1685273 0.00022402899 0.11572845
0002b0 be bd c9 3c fa 97 d7 3d a9 b5 c5 3c c8 d9 00 bd
       0.024626609 0.10527034 0.024134474 -0.031457692
0002c0 0f 4b fc bc f4 e8 84 3d 72 73 f4 bc f3 7d 9d bd
       -0.03079751 0.06489745 -0.029840205 -0.076900385
0002d0 22 4e 82 bc 6f db db 3c 73 20 01 bd 0b a3 ba 3d
       -0.015906397 0.026838033 -0.031525087 0.09113129
0002e0 31 3d 9d 3b 4f 43 cf 3c d9 a7 4f bb 2c 18 9b 3c
       0.0047985543 0.02530065 -0.0031685738 0.018932424
0002f0 45 b0 39 3d 73 d6 1b bd fa 21 63 3d 3b b5 41 3b
       0.04533412 -0.03804631 0.055452324 0.0029557485
000300 19 d6 8f bc c0 9e f9 3e 2c 0d 7d bb 1e 36 93 3c
       -0.017558144 0.4875393 -0.0038612587 0.017970141
000310 ed f9 15 3c 32 87 53 bd 75 ce 50 3c 00 96 fe bc
       0.009153825 -0.051642604 0.012744536 -0.031077385
000320 d1 d7 53 3c ec 14 98 3c 87 0d ce 3b 87 a1 98 bd
       0.012929873 0.018564664 0.0062882337 -0.07452684
000330 74 16 ab 3a 63 df ed bb 98 0f 0e 3c dc c9 7c bc
       0.0013052956 -0.007259296 0.00867071 -0.015428986
000340 85 f4 81 3c 96 bf 67 3c 7c 09 47 bb 2e 05 f2 bc
       0.015863666 0.014144799 -0.0030370643 -0.029543485
000350 20 26 dd 3a d1 77 42 3c 09 0f 91 3c 34 a5 02 bd
       0.0016872324 0.011869387 0.017707365 -0.03189583
000360 45 24 dc 3b 28 00 7f 3c 9a 26 56 3c f4 df 22 3b
       0.006718191 0.015564002 0.013070727 0.0024852725
000370 5c 86 fb 3b 6c ad 0f bc 3a c6 52 3c fd be b3 bb
       0.007675929 -0.008769374 0.012864644 -0.005485414
000380 96 e4 9d bc 6a 75 55 3d e8 dd 17 bc b4 0a ad 3d
       -0.019274037 0.052113928 -0.009269215 0.08449307
000390 e1 0d ea 3c de 4d 23 be 89 80 af bd 68 c5 f5 3c
       0.028571071 -0.15947673 -0.08569438 0.030001357
0003a0 e6 95 8e bd bf f9 5b bd 36 cb 95 3d f5 d8 e5 3d
       -0.069621846 -0.053704973 0.0731415 0.11223022
0003b0 00 80 12 b9 4f 0c e0 bd ff c0 d0 3c a0 85 2c 3d
       -0.00013971329 -0.10939848 0.025482653 0.042119622
0003c0 da 4f c5 3b eb 35 f6 3c 56 ec 51 3d c9 3c 2b bd
       0.006021482 0.030055007 0.05125078 -0.041806016
0003d0 e0 75 83 3d 7e 90 b4 bd 96 3c 2a 3c 6d 96 be 3d
       0.06418967 -0.08816622 0.010390421 0.09306035
0003e0 1d 2c e4 3c 9c a4 22 bd 87 9f ec bc 47 b6 e7 3c
       0.027853066 -0.039707765 -0.028884662 0.028285159
0003f0 37 09 d2 bc 5f cd 13 3c 3e a8 7c bb 0c 75 3a 3d
       -0.02563916 0.009021132 -0.0038552429 0.04552178

bias f4 [140]
000000 c3 f6 98 be a7 30 97 be 93 4d 2a 3d 1e 8e 88 3d
       -0.29875764 -0.29529306 0.041577887 0.06667732
000010 32 00 ba be b8 d8 f3 3d 4f 04 7f bd 7b 0a 04 3d
       -0.36328274 0.1190657 -0.06225997 0.032236557
000020 d5 3e 8c 3e cd 2f a9 be 8a b4 89 3d 9a cf d2 bd
       0.27391687 -0.33044282 0.06723888 -0.10293503
000030 53 de 57 3e d7 56 8c bd 76 28 5f 3e 74 d2 0e bc
       0.21080904 -0.06852501 0.21792778 -0.008717168
000040 5b b5 81 3d 25 e4 35 3e 72 19 88 3e 78 59 63 3e
       0.06333419 0.17762811 0.26581913 0.22202098
000050 e8 e5 20 be 8d a8 ce 3c fb eb 67 bb 54 6d 96 be
       -0.15712702 0.025226856 -0.0035388458 -0.29380286
000060 41 59 5b bc ec b2 9b be 02 be e1 bb 52 d2 b9 bc
       -0.013387979 -0.30409944 -0.006889106 -0.022683296
000070 ea e8 3c 3e 9e 81 00 3e 9a b8 28 be 27 b4 df 3b
       0.18448225 0.12549445 -0.1647667 0.0068268958
000080 71 06 51 bc 4d da 26 bd 86 09 53 3e 59 4f 3e be
       -0.012757883 -0.04073553 0.20609102 -0.18584956
000090 32 17 db 3d 5c c5 3c 3e 47 12 86 be f6 7d 0e 3d
       0.106977835 0.18434662 -0.2618582 0.034788094
0000a0 88 e9 8c 3e dd 65 00 be 6a 4f 32 be eb 53 54 3e
       0.2752192 -0.12538858 -0.17413107 0.20735137
0000b0 b7 bf 26 3e 44 26 25 be fc cc b7 3d 5d 14 14 3e
       0.16284071 -0.16127878 0.089746445 0.14460893
0000c0 3a 3f 72 be fb 77 b5 3e 65 4c 78 3e ff 07 04 be
       -0.23656932 0.354431 0.24247892 -0.12893675
0000d0 d2 68 3b bd 83 4b 31 3b 4f 42 23 be f0 1d 06 3d
       -0.04575426 0.0027053065 -0.15943263 0.032743394
0000e0 41 3f 73 3d 95 71 25 3e 0e bf f4 bd 6f 76 f7 3d
       0.059386496 0.1615661 -0.11950503 0.12083136
0000f0 df 8c 53 3d 62 0c c3 3d ca e6 4d be e1 2d 29 be
       0.051648017 0.09523846 -0.2010757 -0.16521408
000100 00 f8 d2 bb 21 6b 64 3b d5 de 1b 3e 6a 06 dc 3d
       -0.0064382553 0.0034853893 0.15221722 0.10743411
000110 d5 1d 1e 3e db a4 96 be 48 c2 4e 3e 89 64 4f 3e
       0.15441068 -0.2942265 0.201913 0.20253195
000120 87 e5 01 be 53 54 30 3d 5b 74 dc 3d 15 a6 d7 bd
       -0.12685214 0.043049168 0.107643805 -0.105297245
000130 50 e9 44 be 86 54 5c be fa 18 4d be 27 34 63 3c
       -0.19229627 -0.21516618 -0.20029059 0.013867415
000140 31 be 32 be 9f 2d ad be 7e 20 85 3c 83 e7 95 3d
       -0.17455365 -0.3382387 0.016250845 0.07319548
000150 c0 14 a2 bc 26 e0 23 3c cd 7c 4b bd 97 2f e2 bd
       -0.019785285 0.010002172 -0.049679566 -0.11044233
000160 24 de 0d be 8d 4b f9 3d a2 1d 14 3e 4d 3a 63 3e
       -0.13854271 0.12172613 0.14464429 0.22190209
000170 21 20 13 3e 48 1a 3f be 2f 95 a2 be 4a ec c5 3e
       0.14367725 -0.18662369 -0.31754443 0.38656837
000180 59 a5 a1 3d 5f ed 7d 3e 91 a9 bc 3d 13 4a aa 3c
       0.07892866 0.24797581 0.0921203 0.020787274
000190 38 4a 6d bd 7c 83 be be d8 1d 26 3d a5 a6 09 3e
       -0.05793211 -0.3720969 0.040555805 0.13442476
0001a0 f4 56 aa bd e8 d9 a3 bd 81 13 b9 bd a4 f5 52 be
       -0.08317366 -0.08000547 -0.09036923 -0.20601517
0001b0 98 2d 4e be 62 a9 04 3d df 5d 45 3d 0c ed 52 3d
       -0.2013458 0.0323881 0.048185226 0.051495597
0001c0 5c fc 95 bd 2e 6b 27 3e 5f 8d 6c 3b ac 8f 92 bc
       -0.07323524 0.1634948 0.0036095006 -0.017890774
0001d0 7c 3a 6f be 1b cf a5 3c ef 27 ef 3d 2c 5b 40 3b
       -0.23362154 0.020240357 0.116775386 0.0029351218
0001e0 72 17 df bd bb ba 98 bd e1 b9 e5 3d d9 b2 23 3d
       -0.10893144 -0.07457491 0.11217094 0.039965484
0001f0 aa bb 1a be d9 4a bd 3e 4f b8 3d 3a a0 61 e0 bd
       -0.1511065 0.36971167 0.0007237242 -0.109561205
000200 af e6 2a 3e d1 0c 76 3e 0f b6 2c be 2f 8b d7 bd
       0.16689561 0.24028327 -0.16866325 -0.10524594
000210 ba ed 9d 3d fa ee 47 3d 8a ba 9b bd d6 41 ee 3c
       0.07711358 0.04881189 -0.07603939 0.029084127
000220 9b e5 5e 3d f9 c3 26 be fe 88 9f 3d e5 a9 9b be
       0.054418188 -0.16285695 0.07789801 -0.30403057

weight f4 [140, 140]
000000 e1 24 63 bd b9 e2 9c bd 5c 9f 29 3d 3e 06 91 bd
       -0.055455092 -0.076604314 0.041411743 -0.07081269
000010 c4 fd 8f bc e8 72 97 bd 19 71 09 3d 40 04 80 bc
       -0.01757706 -0.073949635 0.033555124 -0.015627027
000020 54 f9 5d 3d 4d 0c ce 3d 32 4b b5 3d c1 1e c1 3c
       0.054192856 0.1006094 0.08852233 0.023574235
000030 2f c2 bf bc 18 45 1c 3c 0e fe c7 bb b8 74 5e 3c
       -0.023408024 0.009537958 -0.0061032837 0.013577633
000040 73 a6 45 3b c1 a0 2a bd c6 15 b6 bb 33 a9 a0 3d
       0.0030159026 -0.041657213 -0.005556795 0.07844772
000050 54 5f 51 bc bc fc 07 bd e8 f7 4a bd 2b e0 fb bc
       -0.012779076 -0.03320001 -0.049552828 -0.03074654
000060 b2 a2 29 3b d1 c9 03 3c 64 c2 8f bd 61 f9 9d bc
       0.0025884327 0.008043722 -0.07019499 -0.019283952
000070 de d7 05 3d 1c 4c de 3c 4e 4b 8a 3d ab ce 3b 3d
       0.03267657 0.027135901 0.067526445 0.04585139
000080 c5 c8 5f 3d e5 d4 f9 3d d9 68 15 3d 68 8e 04 3d
       0.054634828 0.121988095 0.036476944 0.03236237
000090 1f 1f aa bd e1 bb b2 bb c8 f5 16 3d 39 8a 41 3d
       -0.08306717 -0.005454526 0.03685549 0.04725096
0000a0 7f 84 93 bd 95 95 b8 bb 1b dc f3 bb 8f 71 6f bd
       -0.07203006 -0.005633066 -0.00744201 -0.058457907
0000b0 a9 04 62 3d 90 ab 85 bd 50 6a 9b bc 7d 43 a8 3b
       0.055180226 -0.065268636 -0.018971592 0.0051349984
0000c0 91 9f 4d bd 7d a2 93 bc e1 dd 60 3d 54 28 07 3c
       -0.050201003 -0.018021816 0.0548991 0.008249361
0000d0 fa ca 4e bc 72 70 41 bd 08 87 04 bc 38 9a 92 3b
       -0.012621636 -0.047226377 -0.008088835 0.0044739507
0000e0 0a 4d 09 bc 73 41 62 3c 85 2c 54 bc 01 e9 2d bd
       -0.008380184 0.01380955 -0.012950067 -0.042458538
0000f0 88 db 81 bd 5c 0f 70 bb 69 f7 ca bd 8d 96 84 bd
       -0.063407004 -0.0036630249 -0.09910471 -0.06474028
000100 0f de 9f 3c 08 e7 e9 3c dc 9d c1 3c e5 86 12 3d
       0.019515065 0.028552547 0.023634844 0.035773177
000110 d9 24 35 bc f4 62 ef 3c f1 97 d3 bc b5 7a 75 bb
       -0.011056148 0.02922199 -0.025829287 -0.0037457172
000120 cc 03 8f bd 63 9b be bc ba be 0d bd 2c ed c5 bb
       -0.06983146 -0.023267454 -0.03460572 -0.006040236
000130 4a 5c ca bd 7f 75 16 3d ff 51 be 3c e0 8b 0f 3d
       -0.09880884 0.036733147 0.023232458 0.035045505
000140 46 ae 20 3c 05 dd 48 bc 9c d6 c7 bc ec 7a 9c bd
       0.009807175 -0.012259726 -0.024394326 -0.07640633
000150 30 ea d3 3c f5 6b 1c bd 38 12 9c bd c3 10 61 3c
       0.025868505 -0.038188893 -0.076206625 0.013736906
000160 66 5b 40 bd 37 e5 a1 bd e2 3f 64 bd ce 05 12 3d
       -0.046962164 -0.079050474 -0.055724986 0.035650067
000170 4f 55 24 bd 7e af 9b 3c 50 42 10 3d a2 b9 27 bc
       -0.04012042 0.01900458 0.03521949 -0.010237129
000180 6f b4 9e 3c b8 22 2e 3d 18 c5 6f 3c 58 de 68 3d
       0.019373147 0.04251358 0.014634393 0.05685267
000190 13 33 fb 3c 20 1d 21 3d a2 5d 92 bd ce 6e 05 bc
       0.030664003 0.039334416 -0.07146765 -0.008144094
0001a0 83 91 5b bc 59 01 90 bc 53 6a 42 3c 73 64 e5 3c
       -0.013401392 -0.017578768 0.01186617 0.028002
0001b0 c4 4a 31 bd ea 1c 89 3c cd 26 11 3d 2b 8d 73 3b
       -0.043284193 0.01673742 0.035437394 0.0037163
0001c0 83 aa f6 3b d8 b6 c5 3c c5 59 3a 3d 21 f4 aa 3d
       0.007527651 0.024135038 0.045495767 0.08347345
0001d0 dd 57 28 3d 9f 16 56 3d 87 94 21 bd 38 bd 08 3a
       0.041099418 0.052267667 -0.039448287 0.0005216184
0001e0 aa 70 17 3d 59 78 41 3c 3e 42 91 bd 52 02 a5 bd
       0.03697268 0.011808478 -0.07092713 -0.08057083
0001f0 50 de 4c bd 5f c3 22 3c c8 fa 7e bd b6 0e 86 3c
       -0.0500167 0.009934275 -0.062250882 0.016364437
000200 21 7f e2 3c 01 ad 01 3d d4 48 04 bd 63 6b 78 bc
       0.02764851 0.03165913 -0.032296017 -0.015162322
000210 6c e8 a6 3c 86 aa d9 bc d3 af 89 3d 2b 30 c1 3c
       0.0203745 -0.02657057 0.06722989 0.023582539
000220 ad be 81 bd 7b 78 b7 3c 57 f0 4c bd 1a 5e 84 3d
       -0.06335197 0.022396317 -0.050033893 0.06463261
000230 8c 87 78 bd cf 34 87 bd bc 90 9d 3d 5c 77 4b 3d
       -0.060676143 -0.06601869 0.076936215 0.049674377
000240 2c 8a 2c bd d5 45 86 bc 86 4e 0a be d6 36 8d 3d
       -0.04212396 -0.01639072 -0.13506517 0.06895225
000250 a1 63 c3 bc b9 0e 81 bd 5b c9 c1 3c f3 a3 b1 bd
       -0.023851218 -0.06301636 0.023655584 -0.08673849
000260 e0 1d 95 bd dd a4 4f bd 74 79 51 bd 42 e3 4e bc
       -0.07281089 -0.050694335 -0.051141217 -0.012627425
000270 b4 d8 21 bd 83 21 72 3c 5d b9 26 3d b3 e9 86 3c
       -0.039513305 0.014778498 0.04070412 0.016468858
000280 1b 79 11 bd 9e b0 ab bc a7 f1 32 3d dd 9a 41 3c
       -0.035515886 -0.020958241 0.04368749 0.011816707
000290 61 1a 3a 3c 48 24 82 bb 5e 45 0f 3d 9b 30 62 bd
       0.011358828 -0.00397161 0.034978263 -0.055222135
0002a0 67 b3 42 3d dc 09 62 3d 76 c4 96 3d f1 cb bf 3d
       0.047534373 0.055185184 0.07361691 0.093650706
0002b0 54 37 6a 3c 35 45 7d bb c1 c8 84 3c f4 56 a0 bd
       0.014295418 -0.0038645987 0.016209008 -0.07829085
0002c0 f4 fe 14 bd fa f3 df 3d e5 31 29 3c 58 67 9d 3d
       -0.036375955 0.10935207 0.010326837 0.07685727
0002d0 df 6f a0 bd 79 a7 46 bc 34 06 86 3c ef 93 56 bd
       -0.07833838 -0.0121248895 0.01636038 -0.052387174
0002e0 a1 13 9f ba 67 17 ad bb ce 0f 43 3d dd 17 80 3d
       -0.0012136587 -0.005282331 0.047622494 0.062545516
0002f0 14 89 04 bd c7 cc 43 3d 17 e2 0d bd 4f c5 8e 3d
       -0.03235729 0.047802713 -0.034639444 0.069712274
000300 1b c2 a7 bd f7 d0 35 3d fc ee 61 3d d3 02 22 3d
       -0.081913196 0.044388738 0.055159554 0.039553475
000310 af 1f b4 3c 5f 44 7f bd f2 2a 71 3d f6 d2 5e 3c
       0.021987764 -0.062321063 0.058878846 0.013600102
000320 59 5c 19 3d 4c 50 d0 3c 3f a0 01 bd 08 af 00 3d
       0.037441585 0.025428914 -0.031646963 0.031416923
000330 aa 19 34 bd 56 51 94 bb 42 b2 86 bd a6 14 a5 3c
       -0.043969788 -0.0045262976 -0.06576969 0.020151448
000340 13 e6 9d bc e7 06 83 bd fb 7e 54 3a 29 22 89 3b
       -0.019274747 -0.06397801 0.000810608 0.0041849804
000350 20 f1 71 3d 24 e0 0a 3b 28 6c 9f 3d 0e ae 96 b9
       0.059067845 0.0021190727 0.07784301 -0.0002873991
000360 ae 5c 36 3d 98 10 46 3d cf 3b 80 bd 79 20 2a bd
       0.04452198 0.04835567 -0.062614076 -0.041534875
000370 b7 a6 31 3c 9a f9 b4 3c b5 0f 24 bd ef ff 04 3c
       0.010842971 0.022091676 -0.040054042 0.00811766
000380 9c 6c 6c bc e8 7e 1c bd 6a c4 92 3b bc ba ce 3c
       -0.014430191 -0.038206965 0.004478981 0.025235526
000390 96 86 9b 3d 15 36 8d 3d 8b 4f a3 bd 8d fb 84 bd
       0.075940296 0.06895081 -0.07974156 -0.06493292
0003a0 44 79 d1 3c e6 58 5d 3d 82 88 cb 3c 5f 3c 53 bd
       0.02557052 0.05403986 0.024845365 -0.051571246
0003b0 99 8f 2a bd 39 a4 b1 3c 9e 99 a9 3c 60 b7 40 bd
       -0.04164085 0.021684753 0.020703133 -0.04704988
0003c0 b0 c0 04 bc 1d 39 d3 bc 7f a0 ac 3c 74 0f 01 3d
       -0.008102581 -0.02578407 0.021072624 0.031508878
0003d0 f0 ac 82 bc 06 d6 87 bc 5f 45 c6 3c 5a 25 af bd
       -0.015951604 -0.016581547 0.024203 -0.08552046
0003e0 7d 48 d8 bb e7 55 46 3c 7c 8c 20 bd 3c dd 17 bc
       -0.006600438 0.012105442 -0.039196476 -0.009269055
0003f0 a4 d8 8b bd 38 83 81 bd 20 3e de bc 4b 8f 2f 3d
       -0.0682843 -0.06323856 -0.027129233 0.042861264

bias f4 [140]
000000 fe 3e 27 3d 1f 31 40 3d b3 5e 1c 3c 0a 82 18 bd
       0.04083156 0.046921846 0.009544062 -0.03723339
000010 07 e0 56 bd c5 3a 92 bd f9 03 5c 3d af 64 84 3d
       -0.052459743 -0.07140116 0.053714726 0.06464516
000020 8c 2b ea 3c e6 c0 09 be a5 7b 0d 3e e5 b2 cc bd
       0.028585218 -0.13452491 0.13816698 -0.09995059
000030 72 68 f3 bc 2e a7 ca bd 9f 98 1c 3d c6 67 a3 3d
       -0.02971289 -0.09895168 0.03823149 0.079787776
000040 9e f0 a1 bd c7 0e 43 bd 89 6f 13 3d c1 5c 37 bd
       -0.07907222 -0.047621515 0.03599504 -0.04476619
000050 4a cc b6 3d 21 b2 ed 3c 04 9d a7 3d 39 00 a1 bd
       0.08925684 0.029015603 0.08184245 -0.078613706
000060 03 2d 9a bd 6d c6 54 bc 03 64 2c 3b e2 15 96 3d
       -0.075281166 -0.0129867615 0.0026304729 0.073283926
000070 91 d3 bb bd 2d 5e a7 3c 1c f4 72 bb 6f 71 ea 3c
       -0.091712125 0.020430649 -0.003707177 0.028618542
000080 b6 27 a4 3b 0d 79 a7 bd 73 c5 b2 bd 80 cd cf ba
       0.0050096167 -0.081773855 -0.08729067 -0.001585409
000090 bf 3f 87 3d 5a 10 b6 3c 4a ab ce bd 74 a4 c1 bd
       0.066039555 0.022224594 -0.100912645 -0.09455195
0000a0 5a 84 7b bd 6c 3b 62 3c 0d 1b 71 bd 1d 85 0f bd
       -0.061405517 0.013808113 -0.05886369 -0.035039056
0000b0 41 d6 b1 3d 6f 3e b6 bd bc 4a cb bd 00 44 9e bd
       0.08683444 -0.08898627 -0.09926364 -0.07727814
0000c0 8d 25 45 3d 7e 5e 77 bd a4 e1 e6 3c 59 8a 08 3d
       0.048131514 -0.06039285 0.028183766 0.033335064
0000d0 93 61 8a bd 51 51 4b bc a6 3b 1c 3c e0 be 72 bd
       -0.06756892 -0.012409524 0.009535706 -0.059264064
0000e0 06 6b 3d 3d 1c 66 2d bc cd 8a 37 3c 4d c8 06 bd
       0.046244644 -0.010583427 0.011202526 -0.032905865
0000f0 a9 de 0a bc 7c 23 85 bd 79 de 98 3c 62 2e 04 be
       -0.008475938 -0.06500909 0.01866077 -0.12908319
000100 75 06 cb bd 68 3d 16 3c 55 fa 88 bd bc e6 47 3d
       -0.09913341 0.009169914 -0.06688372 0.04880403
000110 6b 26 bb bd 74 58 5f bd 9f bd 0e 3d a4 ee a4 bd
       -0.09138187 -0.054527715 0.034848806 -0.080533296
000120 c2 b9 c0 3c b6 e7 8c 3d 24 dd fb 3d bc fa 05 bd
       0.023526076 0.06880133 0.122980386 -0.032709822
000130 d7 0b 76 bd 67 c6 7c bc b5 15 89 3d 3f 55 8a bd
       -0.060069885 -0.015428162 0.066935934 -0.06754541
000140 66 31 ef 3c 51 4a a7 bd b0 bf 63 3b 97 95 fe 3c
       0.02919836 -0.081684716 0.0034751706 0.03107719
000150 c3 f0 b7 3c 43 e4 a4 bc 5d 51 d3 bc 35 75 88 3c
       0.022453671 -0.020128375 -0.025795633 0.016657451
000160 4f a1 19 bd 80 83 a8 bc 05 77 ce 3c 94 aa 8b 3d
       -0.03750735 -0.020570517 0.025203237 0.068196446
000170 82 5f 06 3d bd 5b 5e bc 6f 10 d7 bb 3d d8 95 bc
       0.032805927 -0.013571677 -0.0065632383 -0.018291587
000180 fe 12 49 bd 3b cc 2f 3d 60 0f 93 bc 12 13 b8 3d
       -0.049090378 0.04291938 -0.017951667 0.089880124
000190 de 11 6e 3d f4 d1 c8 3c 93 66 c2 3c a0 76 c2 3d
       0.05812251 0.024514176 0.023730552 0.09495282
0001a0 ea 54 94 3c 59 ee 3b bd 17 e6 63 bd d5 14 03 bd
       0.018106896 -0.045881603 -0.055639353 -0.03200229
0001b0 55 b4 07 bd 11 f0 ce bc 8b f7 93 3c 71 04 44 3d
       -0.033130962 -0.025260957 0.018062374 0.0478558
0001c0 96 f1 6a bd 27 2f 47 bd 65 b6 0a 3b 4b a7 10 3d
       -0.0573593 -0.048628952 0.0021165845 0.035315793
0001d0 47 2b 5e 3c d4 7f 4d 3d b9 c2 78 bc 66 df e9 bd
       0.013560123 0.050170735 -0.015183144 -0.11419563
0001e0 77 0e 81 3b b5 42 97 bd 5b 93 80 3c 6f 99 0c bd
       0.003938492 -0.0738577 0.015695265 -0.034326013
0001f0 d6 50 92 3d 67 d9 d9 bb a6 29 25 bd bb 43 0c 3d
       0.071443245 -0.006648231 -0.040322922 0.03424428
000200 d9 38 f8 bc 81 f8 e3 3c fe 7f a0 bd 1e b4 70 3d
       -0.030300545 0.027828457 -0.078369126 0.058765523
000210 fd 22 0a be 6b 46 58 bd d3 3e d8 bd 64 f1 ff bd
       -0.1348991 -0.05280153 -0.10558858 -0.124972135
000220 7a 2c c7 bd 8b 2e 18 3c 2f 40 69 bc a7 2a d3 bd
       -0.0972528 0.00928844 -0.014236494 -0.1031087

weight f4 [140, 140]
000000 b4 68 46 bd dc 7e 7c bd 3f 40 02 bd 45 0c 28 3d
       -0.048439696 -0.06164442 -0.03179955 0.041027326
000010 42 8c 84 3d 8e c6 9f bd 26 dc 6f bd 4a 9e 2a 3d
       0.064720646 -0.07801543 -0.05855956 0.041654862
000020 05 04 b1 bc d1 a7 36 bd e8 30 12 bc 97 33 e8 3c
       -0.021608362 -0.044593636 -0.008922793 0.028344912
000030 60 da 33 bc d7 c1 2a 3d 2a 6b 83 bd 12 f6 1b bc
       -0.010977358 0.041688766 -0.06416924 -0.009519117
000040 e5 d7 f8 3d 9c fc e1 bd 11 ac 65 bc f3 ba a0 bd
       0.121505536 -0.110345095 -0.014018075 -0.07848158
000050 9a e9 c0 bd 04 b5 94 3c f6 44 40 3c f2 2f 1e 3e
       -0.09419556 0.018152721 0.011735192 0.15447977
000060 c1 f5 44 bc a4 4e df bc c8 04 0c bb da 5d 58 3c
       -0.012021483 -0.027259178 -0.0021365155 0.01320597
000070 b5 64 23 bc 26 98 45 3c 32 22 40 bd d0 da 20 3d
       -0.009972741 0.012060201 -0.04690761 0.039271176
000080 84 52 9f 3c ae 86 35 3d 22 78 b5 bd 26 cd d6 bc
       0.019448526 0.044317894 -0.08860804 -0.02622087
000090 57 0e 2a be d0 36 a2 bd 85 22 ae bd 9c 01 4d 3d
       -0.16607033 -0.07920611 -0.08502678 0.050050363
0000a0 c7 64 01 bd 69 1d 3b 3c a9 98 12 3c 17 6a c3 3d
       -0.03159025 0.011420586 0.00894753 0.095417194
0000b0 b7 10 12 3c c8 ee 17 bd 43 51 95 bd e0 99 92 bd
       0.008915118 -0.037092954 -0.0729089 -0.071582556
0000c0 35 0b 25 3d dc 41 59 bb ae c1 b3 3b 3c f2 94 3c
       0.04029389 -0.0033150828 0.005485735 0.018181913
0000d0 71 41 90 bd ed 52 9f 3c b1 b4 c1 3b c9 a5 cc bc
       -0.07043732 0.019448722 0.0059114327 -0.024981396
0000e0 38 f6 cc 3d 0e b7 a5 bd 4e 58 17 bd a0 3c 4e 3b
       0.100079 -0.080915555 -0.03694945 0.003146924
0000f0 cf d3 03 3d b2 4d 9d bd ab f1 bd bc 98 8c db 3a
       0.03218442 -0.07680835 -0.023186525 0.0016750274
000100 a1 ed 8d bd b1 ee c8 3c fc d6 a1 bd 15 a7 84 bd
       -0.0693009 0.02452788 -0.07902333 -0.06477181
000110 ca b9 62 bd 7c 09 ea 3c 8a da 47 3b ae 4a 44 3c
       -0.055352964 0.028568976 0.003049525 0.011980696
000120 13 26 ef 3d ba 40 15 3d 97 a3 a2 bd fa af d6 bd
       0.11677184 0.03643868 -0.079413585 -0.104827836
000130 74 0b d9 3c bc 5a 94 bc d5 5a fd bc 58 82 0e 3e
       0.02649472 -0.018109672 -0.030927101 0.1391691
000140 dc 6e 11 3d 41 8b aa 3d b3 0f 42 3d d2 60 3d bd
       0.035506114 0.08327342 0.047378253 -0.046234913
000150 92 76 b3 3c d4 66 dc 3c 02 f7 90 bc cc 80 20 bd
       0.021907125 0.026904501 -0.017695908 -0.03918533
000160 18 63 1d 3d 66 64 bf 3d 59 89 5a 3c eb b7 53 3d
       0.03842458 0.09345321 0.01333841 0.05168907
000170 46 bb 97 3d 64 5b b0 3c 62 85 c4 bd a8 ef a0 bd
       0.074087664 0.021527953 -0.09595753 -0.07858211
000180 ac 0f 93 bd 1b 92 4d bd b6 d4 51 bc 9f 87 da 3c
       -0.071807235 -0.050188165 -0.012807062 0.026675997
000190 05 6e 43 bc 3c 09 cf bc 02 db 60 3d bb 92 65 bd
       -0.011928086 -0.025272958 0.054896362 -0.056048136
0001a0 49 63 34 bd d7 51 a8 bb fd e9 0b bd 13 ed ad b8
       -0.04404 -0.005136709 -0.034158695 -8.293441e-05
0001b0 7c bf 1c 3e 9b ab 24 3d a2 b8 8f bd 9d 63 8f bd
       0.1530742 0.04020272 -0.07017638 -0.070014216
0001c0 d3 1c 19 3d dd b3 28 3d 1f fb 9d bd 24 f7 3f bd
       0.037381005 0.041187156 -0.07713913 -0.04686655
0001d0 f8 27 9b bd e7 46 62 3d 4b 6e dc 3c ac 1e a7 3c
       -0.07575983 0.0552434 0.02690806 0.020400368
0001e0 12 d0 3d bd c3 97 ad bc d3 ad 75 bd 6b a8 33 3c
       -0.04634101 -0.02119053 -0.059980225 0.010965447
0001f0 2d fc 6b 3c b9 b5 bf 3c 8d 34 a2 bd 1b 4d a8 bb
       0.014403385 0.023402082 -0.079201795 -0.005136145
000200 2c 51 3f bd cc fe 0a 3d 24 ec 95 3c 62 b3 85 3d
       -0.04670827 0.0339344 0.018301077 0.06528355
000210 4c fb 80 bc e2 e2 4c 3d d7 6b 29 bd bc 3c 52 3c
       -0.015744828 0.05002106 -0.04136261 0.012831863
000220 a0 a9 05 bd 5b f5 06 3c 9a da 16 bb 48 b6 ce 3c
       -0.03263247 0.008237208 -0.002301848 0.025233403
000230 08 55 af 3c 22 50 74 3b e4 04 cd 3a 21 c1 94 bd
       0.02140285 0.0037279208 0.0015641716 -0.07263399
000240 49 9d e5 3d c8 de 6d bd c5 cc 5a 3c b2 70 b2 3d
       0.112116404 -0.05807379 0.013354485 0.08712901
000250 bf 9a 92 bd 34 d9 34 bd da 85 ee 3c c4 2e 79 bd
       -0.07158422 -0.044152454 0.02911656 -0.060835615
000260 41 7f 83 bd b5 14 b3 3b 6e 3d 84 bd bc a1 87 bd
       -0.06420756 0.005465115 -0.06457029 -0.06622645
000270 a3 14 59 3d c1 52 82 bd 8c 3a ea 3c f9 5c 69 3d
       0.052998196 -0.0636344 0.02859237 0.05697343
000280 0e 1b db bc fa d9 36 3d 29 99 13 bd ba 09 1d 3e
       -0.0267463 0.044641472 -0.036034737 0.15335742
000290 40 71 44 bb e2 b1 bf bd 0c ec 8f bd 72 55 bc bc
       -0.0029974729 -0.093601 -0.07027444 -0.022989962
0002a0 da 56 ee 3a 62 d0 a8 3d a6 37 7b bd 33 bb c3 bc
       0.0018183843 0.08242871 -0.061332367 -0.023892974
0002b0 cb 36 58 bd 63 55 bc bc 39 92 ac bb fe e5 dc b9
       -0.05278663 -0.022989934 -0.0052664545 -0.00042133027
0002c0 ad cd bb bd 25 4b 08 bd 96 7f 7c 3b e4 4b d9 3c
       -0.09170089 -0.03327479 0.0038528196 0.026525445
0002d0 70 34 43 3d 41 12 b2 3b 49 18 03 bd 9b 11 c4 3c
       0.04765743 0.005434305 -0.032005582 0.023934176
0002e0 80 89 67 bd 26 ea 0b be 49 ba 58 bd 39 25 d8 bc
       -0.056527615 -0.1366354 -0.05291203 -0.026384937
0002f0 38 ec 07 3d 66 07 9e bb 79 4a a1 bd da 6d bf bc
       0.03318426 -0.0048226593 -0.07875533 -0.023367811
000300 42 b3 50 bd 9c 95 9c 38 cb d9 ac bd 58 a4 ba 3b
       -0.050952204 7.4665266e-05 -0.08439978 0.005695861
000310 4f 0f a5 bc a5 44 dc 3c 9f 3b 90 3d 34 bd 4f bd
       -0.020148901 0.026888201 0.07042622 -0.050717548
000320 98 53 86 bd ca e6 35 3c e0 e2 8a bb e8 5e 96 3d
       -0.06558913 0.011102388 -0.0042384714 0.07342321
000330 9e a9 92 3d 0f 00 a3 bc 25 f7 08 3d c2 af 18 bd
       0.07161258 -0.019897489 0.03343882 -0.03727699
000340 2e 8e 8a bd cd 8c 06 3d d0 ae 15 bc 5f 53 88 3d
       -0.067654 0.03284912 -0.009135917 0.06656527
000350 71 70 dc 3d 8d d9 7d bd e3 da 71 bd 60 4e 3f 3d
       0.10763634 -0.06197505 -0.059046637 0.046705604
000360 d2 27 f3 bc 92 68 f0 bd 7f 95 12 bc 66 22 21 3e
       -0.029682074 -0.11738695 -0.008946775 0.15735778
000370 0f 99 d2 bc 82 6b 59 3d 58 bd 0b 3d 7a a9 bb bd
       -0.02570775 0.053081043 0.03411612 -0.091631845
000380 5a eb 8b 3d 51 1d c4 bb 0a c2 8f 3c 83 4f df bc
       0.06831999 -0.00598494 0.01754858 -0.027259594
000390 72 a5 8d 3d 2e a6 16 3e 30 a4 08 3d 63 95 93 bd
       0.06916322 0.1471183 0.033359706 -0.07206228
0003a0 3b 67 9f bc 46 53 8d bc 23 74 b7 3c e0 af b6 bd
       -0.019458404 -0.017251622 0.022394245 -0.08920264
0003b0 31 29 8a 3d 3e 96 63 3d 2b db c8 3d f6 c6 3f 3d
       0.06746138 0.055563204 0.09807428 0.046820603
0003c0 83 63 7c bd f1 fc 75 3d c4 58 ff bc 1f 78 71 bd
       -0.06161834 0.060055677 -0.031170256 -0.058952447
0003d0 ce 68 a5 bc cd 02 27 bd ab 9e b0 3c 35 02 2f bc
       -0.020191576 -0.040774155 0.021560034 -0.010681679
0003e0 23 c5 e5 3d 60 c7 ed 3c 09 40 34 bd 83 da 87 3d
       0.112192415 0.029025733 -0.04400638 0.06633475
0003f0 39 c7 7e bc 9e 0f 30 3d f0 67 fc bc 36 e4 77 bd
       -0.015550428 0.042983644 -0.03081128 -0.060520373

bias f4 [140]
000000 fd ee b2 3b de f0 33 3c 55 6e 4c 3d 9d 55 6a bd
       0.0054606185 0.01098272 0.04990991 -0.057210553
000010 46 5f d5 3d d3 dd ab bc 95 b7 8c bd b4 07 0f be
       0.104185626 -0.020979797 -0.06870953 -0.13967782
000020 08 04 e9 3c fa 2b a0 bb 27 fa eb bb 62 28 dd bd
       0.028444305 -0.004888055 -0.0072014513 -0.10798718
000030 dd 16 7b bd 86 d6 b5 3c 43 48 b7 bd 06 61 27 3d
       -0.0613011 0.02219702 -0.0894933 0.040864013
000040 ff f2 88 3d 02 d6 b8 bc a4 b8 8b bd 32 5e f5 bd
       0.06686973 -0.022562984 -0.06822327 -0.11980857
000050 41 ed d0 bd ae ab 01 bd d0 ce 01 be 28 0b 88 bd
       -0.102015026 -0.031657867 -0.12676549 -0.06642753
000060 f6 65 1c 3d 36 eb a1 3d 12 01 8a bd c6 1f 52 bc
       0.038183175 0.07906191 -0.067384854 -0.012824958
000070 4e c2 84 3d 43 95 81 3d d2 fa 0a 3d 2c 06 a0 3d
       0.06482373 0.063272975 0.033930607 0.07813677
000080 be d9 4c bc a6 5d e4 bc ec 67 d3 bd 15 ea ad bd
       -0.012503086 -0.027876686 -0.10322556 -0.08491913
000090 d6 f0 14 3c 61 5d e1 3d 59 a5 c7 3d 8a 8d 9f bd
       0.009090623 0.11004139 0.097483344 -0.07790668
0000a0 e2 55 e2 bc d1 42 14 bd db f2 59 3c 9a 08 9c bd
       -0.027628843 -0.036196534 0.01330253 -0.07618828
0000b0 5d 6b 3d bd 71 42 bd 3d e0 e3 b3 3c 91 28 e9 3c
       -0.046244968 0.09241188 0.021959245 0.028461726
0000c0 86 f0 15 3e ae 77 61 bd 02 1d 69 bd 32 69 d0 3b
       0.14642534 -0.055045776 -0.05691243 0.0063601965
0000d0 99 07 75 bd 0c 9c bb 3d dc 99 c9 bd a1 98 af bd
       -0.0598217 0.09160623 -0.098437995 -0.085740335
0000e0 d5 71 aa 3d 26 34 30 3d e5 b3 5a 3c a8 c7 e9 bd
       0.08322493 0.043018483 0.013348554 -0.114150345
0000f0 d9 59 d1 3d 1c 76 f6 ba a6 9d ed 3d b9 8b e2 bc
       0.10222215 -0.001880351 0.11602335 -0.027654516
000100 7c 2d eb bd 9e 4b 6a bd f9 17 25 bd f1 e7 74 bd
       -0.11483285 -0.05720102 -0.040306065 -0.05979151
000110 25 bd c9 bd ee 76 59 bd c6 11 19 be 4d ed 09 3d
       -0.098505296 -0.053091936 -0.14948186 0.033673573
000120 bd e6 9d 3d 43 37 bc 3c 96 3f ac 3d c8 01 31 3d
       0.077100255 0.02297557 0.084105656 0.04321459
000130 d2 2a b3 bd 05 8c 91 bd c1 e6 20 be ce 4f 44 bd
       -0.08748402 -0.07106785 -0.15713026 -0.04792767
000140 8a 58 ad bc 61 a7 95 bb 95 fc b4 bd de d0 19 bd
       -0.021160383 -0.0045670723 -0.08837239 -0.037552707
000150 c0 fd 1b 3e 49 dd 1f be 31 66 ad bb 95 d7 9a bd
       0.15233517 -0.15611757 -0.005291723 -0.0756065
000160 5d bd 5c bd 54 68 11 bd dc 2b cb 3b 76 59 16 bd
       -0.05389153 -0.035499886 0.006200297 -0.03670641
000170 4c c7 5f 3d 5b 50 c1 bd 39 be 72 3d ae a7 65 bd
       0.054633424 -0.09439155 0.05926344 -0.056068115
000180 07 5b 4e bd dd 25 b8 3c b1 d3 a2 3d ee 30 41 3d
       -0.05037978 0.022478992 0.07950533 0.047165804
000190 76 6e 9e 3d 8f a6 9f bd 04 98 1a bd 20 34 a2 bd
       0.077359125 -0.077954404 -0.03774263 -0.07920098
0001a0 fd 46 f4 3d b4 9f 82 3c 45 e1 94 3d f3 26 c0 bd
       0.119276024 0.015945293 0.07269529 -0.09382429
0001b0 49 46 30 bd ba 22 37 bd 5a 8a ad bd 02 f5 17 bc
       -0.04303578 -0.044710852 -0.08473654 -0.009274723
0001c0 9a 5e 94 3c 2d e2 ca 3b df 07 cc bd ba 23 cd 3d
       0.018111516 0.006191513 -0.09962439 0.1001658
0001d0 f4 41 8e bd 59 dc 0e 3e b7 48 dd 3c 2f d0 99 3d
       -0.06946173 0.13951243 0.027012212 0.07510411
0001e0 e2 00 d0 bb c1 16 0f 3e 2f fa 07 bb 5c 08 be 3c
       -0.0063477615 0.13973524 -0.0020748486 0.023197345
0001f0 ff 64 fe bd d7 98 82 3c 2c 34 5b 3d bc 94 b9 bd
       -0.12421607 0.01594202 0.05351655 -0.09061572
000200 2f a8 93 bd 58 b3 11 3d cb e4 da bb b6 e8 c7 bc
       -0.07209813 0.035571426 -0.0066801063 -0.024402957
000210 96 0b d3 3b 6d 72 72 3b 80 25 a8 3d 65 9b c9 bc
       0.00644059 0.0036994473 0.082102776 -0.02461023
000220 cc 39 fb 3c 21 f9 a8 3d 08 ce 89 bd a0 e2 9a bd
       0.030667208 0.082506426 -0.067287505 -0.075627565

weight f4 [2, 140]
000000 e7 1b 6a ba 52 46 e8 b9 05 14 32 ba 6c d7 84 ba
       -0.00089305494 -0.0004430288 -0.0006793144 -0.0010135002
000010 e8 81 63 3d 6a ca 22 b9 df 15 b8 3d 58 10 3b 3b
       0.05554381 -0.00015524929 0.089885466 0.0028543677
000020 78 8d ff b9 e8 a0 55 ba 5b 44 38 ba 30 95 95 bd
       -0.00048742793 -0.0008149282 -0.0007029229 -0.07303846
000030 a7 45 35 ba ed b1 99 bd 19 a6 2d b9 d4 10 7c bd
       -0.0006914981 -0.0750464 -0.00016560442 -0.061539486
000040 30 a3 a6 bb f5 52 eb b9 53 ec 14 b9 b4 18 8d b9
       -0.0050853714 -0.000448845 -0.00014202418 -0.0002691202
000050 9f 8b f0 bd 1d 2a e2 b9 e1 2b a4 bd 1c e4 13 ba
       -0.117453806 -0.00043137456 -0.08016182 -0.0005641596
000060 fb 09 90 3c 79 69 15 38 c5 eb 3f ba 6b 8f 7b b8
       0.017582884 3.5622597e-05 -0.0007321204 -5.997663e-05
000070 8e ed bc 3d ac 6d 3b ba bb 22 c9 b9 5a 75 e6 bd
       0.092249975 -0.0007149826 -0.00038363584 -0.11252852
000080 ed 15 d9 3d 70 f3 10 bc 20 ed 9c b9 f9 76 96 b8
       0.10599885 -0.0088471025 -0.0002993131 -7.174718e-05
000090 8d f4 07 bb 2e e7 c2 3d a9 c6 8e 3a 60 56 4f bc
       -0.002074513 0.0951675 0.0010892946 -0.012654871
0000a0 2a c4 c4 3d 85 dc f5 b9 18 5c 97 bb 9e 55 c0 b8
       0.09607728 -0.0004689434 -0.0046191327 -9.171221e-05
0000b0 0a 3c c6 b8 2e 42 b5 bb 4b 8f 08 b8 e9 52 98 bd
       -9.452559e-05 -0.005531571 -3.255838e-05 -0.07437689
0000c0 05 13 84 bc 1a a7 bd b9 8e 48 33 ba 2a 9c 2c ba
       -0.01612235 -0.0003617339 -0.00068391196 -0.00065845496
0000d0 66 f5 a6 b8 c7 73 a4 3a 43 ca 06 be 76 2e fd 38
       -7.961206e-05 0.0012546711 -0.13163094 0.00012072634
0000e0 ff 0b b4 bc 70 e6 e9 b9 42 b5 4a b8 29 d6 e9 bd
       -0.021978376 -0.00044612912 -4.8329362e-05 -0.11417801
0000f0 59 2a ba bc 22 ce 17 be 01 44 b7 3b 0f f8 af b9
       -0.022725271 -0.14824727 0.0055928235 -0.0003356342
000100 7d 73 70 b9 34 c6 40 39 03 80 3d b9 5a 24 21 b9
       -0.00022931206 0.00018384383 -0.00018072133 -0.00015367699
000110 3a dd 5a 37 1d 7d 03 b9 c7 70 1d b9 a8 44 db bd
       1.3045321e-05 -0.00012539742 -0.000150147 -0.107064545
000120 26 07 f3 b9 72 95 8e b9 5c e2 e9 bb 4a f3 af 3d
       -0.00046353898 -0.00027195696 -0.00713758 0.085913256
000130 74 db 02 b9 91 cd c9 bd 6b 3f 3d b7 8e 81 15 ba
       -0.00012479519 -0.09853662 -1.12800435e-05 -0.0005703204
000140 29 af 21 3c 97 c6 3e bb 26 fd 60 bb 1d 3a 47 37
       0.009868422 -0.0029110068 -0.0034330576 1.1874855e-05
000150 ea 7c cf 3c 3e af cf bd bf c4 a7 b7 93 57 0f b9
       0.025328118 -0.10140847 -1.9999568e-05 -0.00013670167
000160 37 56 bf b9 df 82 74 b9 90 96 74 b9 e9 6a 2b 3d
       -0.00036494594 -0.00023318407 -0.00023325742 0.041850004
000170 b4 bd 95 bc 44 16 07 3b 7e 64 ed 3d f0 8e 20 b7
       -0.018278934 0.0020612637 0.11591433 -9.570023e-06
000180 da 10 54 ba 02 93 9d bb b6 5e f5 b9 a3 12 5c ba
       -0.0008089669 -0.0048087845 -0.00046800607 -0.0008395111
000190 f5 8b 57 b9 53 a9 b9 3d 79 72 cd 3a c4 36 6f b8
       -0.00020556136 0.09065499 0.0015674374 -5.7033045e-05
0001a0 3f f6 f0 3d f0 af 5b b9 fd 2a cb 3d be 1e 78 b8
       0.11765718 -0.0002095101 0.09920309 -5.915644e-05
0001b0 cf 1f 36 b9 9d 1c 49 3c 73 54 98 b8 54 b5 6c ba
       -0.00017368722 0.012274888 -7.263655e-05 -0.00090297055
0001c0 8d 41 e3 b9 44 23 a3 3d e4 12 b9 bb 1e 7b e5 bc
       -0.00043345653 0.07965711 -0.005648004 -0.028012808
0001d0 1c 19 44 3a 83 e2 a1 bb 1c 4b 34 b6 29 56 dc 3d
       0.0007480548 -0.0049403324 -2.686581e-06 0.10758621
0001e0 0f 46 17 ba 97 c0 92 3d 9d 33 8f bd d8 6a 58 ba
       -0.00057706324 0.0716564 -0.06992266 -0.0008255667
0001f0 69 b8 fa 3d d9 df c0 b8 44 9a 3a b9 c8 fb 34 ba
       0.12242205 -9.196968e-05 -0.0001779581 -0.00069039734
000200 50 0f 16 b9 90 a4 9e b9 64 4c 45 bc 53 ab 72 bd
       -0.00014310819 -0.00030258717 -0.012042139 -0.05924542
000210 43 a6 62 ba b8 1c 89 37 c5 e4 37 3a de 1f b2 3d
       -0.0008645991 1.6345046e-05 0.00070149853 0.086974844
000220 0c e2 13 ba 61 85 9a bc be 02 93 b9 a3 9e 0e ba
       -0.00056412886 -0.018862428 -0.00028040068 -0.0005440509
000230 74 64 6b ba 78 6b 2f ba 7d fd 13 ba 5e 20 ef b9
       -0.0008979507 -0.00066917343 -0.00056453777 -0.00045609748
000240 a0 31 74 38 ad 6c 15 ba db 78 ed b9 67 ad 65 3a
       5.822035e-05 -0.0005700093 -0.00045294207 0.00087614957
000250 fc c0 3a ba 53 c1 57 ba 87 bc 1e ba f3 42 a5 39
       -0.0007124094 -0.00082304067 -0.00060553144 0.00031521133
000260 15 22 4a ba cd 72 64 39 44 aa 49 39 47 11 86 39
       -0.0007710767 0.00021786541 0.00019232283 0.00025571344
000270 bd ef 0a 3e 0d f6 2a ba 6c 82 55 39 b3 8f 9b b9
       0.13568015 -0.000652165 0.00020361849 -0.00029670968
000280 53 4b 4f 39 cf 93 47 ba f1 7e ce 39 e4 c3 f1 b9
       0.00019769119 -0.0007613273 0.0003938596 -0.00046113052
000290 30 47 67 3d 5b 88 ea ba 47 ef 3f ba ac a8 89 39
       0.056464374 -0.001789342 -0.0007321727 0.00026256347
0002a0 32 1a 3b 3a 71 d1 2d ba ff d6 5c 39 03 83 bf 39
       0.00071373873 -0.00066306355 0.00021060927 0.0003652797
0002b0 17 f7 66 39 b9 c0 04 3e 87 f5 7a 39 af d3 69 39
       0.00022026557 0.12964143 0.00023933324 0.0002229947
0002c0 63 05 f8 3d 2e 63 20 ba a4 23 09 bb 6f a3 99 b9
       0.121104024 -0.00061182946 -0.0020925784 -0.00029304202
0002d0 86 1a d5 b8 3f 67 be b9 30 63 03 3e 3b a6 47 39
       -0.00010161572 -0.00036316548 0.12830806 0.00019040045
0002e0 cb 37 73 39 b7 66 18 3e e4 6e 8c 39 6d 17 11 39
       0.0002319507 0.14882933 0.000267855 0.00013837004
0002f0 0f ca 7f 3e 5c d0 3b ba 51 25 1b ba c3 ca 29 ba
       0.24979423 -0.0007164532 -0.00059183413 -0.0006477052
000300 40 72 80 39 13 66 dd ba 25 c8 15 3a 3e 6e 8b 39
       0.00024499185 -0.0016891382 0.0005713723 0.00026594283
000310 cb 33 2b 3e d8 cd 6c ba a8 20 98 39 f8 20 44 3a
       0.16718976 -0.00090333587 0.0002901603 0.00074817194
000320 f7 c6 82 3e 78 02 60 39 41 c6 bc 3d d6 e3 3b ba
       0.25542423 0.00021363224 0.092175014 -0.0007167434
000330 68 62 7d 39 57 79 6f 39 9e 29 89 39 10 5d 19 39
       0.0002416462 0.00022838019 0.00026161683 0.00014625886
000340 12 90 78 39 50 7c 53 39 59 a0 46 39 83 48 56 b8
       0.00023704793 0.00020168838 0.00018942486 -5.1089108e-05
000350 15 38 6d ba d4 33 37 ba 3d 81 1b 3e 1f 4b 4a ba
       -0.00090491894 -0.0006988619 0.15186019 -0.00077168824
000360 65 83 5e 39 4b d9 f4 39 f7 6f 5f 39 aa f8 18 ba
       0.00021220518 0.00046701203 0.00021308647 -0.00058353937
000370 ae ca 12 3a 97 67 e1 3d 2f 69 0b ba 06 41 8d 39
       0.00055996596 0.11006086 -0.0005318103 0.00026942062
000380 4e 97 a8 3d f8 a1 ff 39 c9 22 69 39 b8 63 56 39
       0.08231984 0.00048758066 0.0002223357 0.00020445779
000390 cf 64 c6 b9 f8 ef 69 39 41 dd 64 39 94 5f 89 39
       -0.0003784061 0.00022310007 0.00021826198 0.00026201888
0003a0 30 d3 5b 3e 08 a8 ed 39 72 b6 2f 39 1b d9 ce b9
       0.2146728 0.00045329356 0.00016757267 -0.00039453138
0003b0 61 7b 38 ba 94 10 02 3e 8b 40 c9 b9 f4 42 1d ba
       -0.0007037428 0.12701637 -0.00038385796 -0.00059990515
0003c0 ff 04 23 ba bd 59 c0 ba dd 97 22 3a 8e 55 49 39
       -0.0006218701 -0.0014675182 0.0006202439 0.00019200725
0003d0 e6 f5 94 ba 92 90 b6 39 9b 7c 87 ba 88 f5 16 39
       -0.0011364787 0.00034821458 -0.0010336818 0.00014396582
0003e0 7f 54 4e 39 33 aa ac 3a 1d c3 8e 39 89 a5 1a ba
       0.00019677168 0.0013173282 0.0002722972 -0.00058993004
0003f0 2c db 64 ba 27 d4 a6 b9 35 0d 02 ba d9 4b 27 3e
       -0.0008730169 -0.00031820053 -0.00049610744 0.16337527

bias f4 [2]
000000 7d 6a 68 3e f1 ca f2 3d
       0.22696872 0.11855114

weight f4 [140, 140]
000000 60 a8 31 3c 37 58 31 bd 17 c8 77 bd 07 af 50 3d
       0.010843366 -0.04329702 -0.060493555 0.05094817
000010 9b 88 94 bd 8b 11 6e bd 23 8e 89 bc 6d 02 3d bd
       -0.07252618 -0.0581222 -0.016791409 -0.04614489
000020 af 76 8f bc 32 64 e6 bc 99 16 3c bd d4 12 24 3d
       -0.017512647 -0.028123949 -0.04591999 0.04005702
000030 d9 34 81 3d 0a 81 08 bd 67 f5 99 bd b8 72 90 3d
       0.06308908 -0.033326186 -0.0751751 0.07053131
000040 72 68 4f 3c 66 04 89 3d 48 86 50 bd bc 94 78 bd
       0.012659179 0.06690292 -0.05090931 -0.06068872
000050 b4 26 98 3d 73 5b 4e 3d 72 38 82 3d 48 1b 29 3d
       0.07429257 0.05038018 0.06358422 0.041285783
000060 a0 b1 5c 3d 3e 83 28 3d d9 eb 52 3d 8b 3d 94 3d
       0.053880334 0.041140787 0.051494453 0.07238301
000070 73 9b df 3c 09 3c 6d 3d 68 54 6e bd 03 57 21 bd
       0.027295804 0.057918582 -0.058185965 -0.03938962
000080 e8 0c 94 3c 42 fd 9e 3d c9 1f 58 3d 14 f8 01 bd
       0.01807256 0.07763149 0.052764688 -0.031730726
000090 dd 79 a3 3b 4f e0 1a 3d d9 a4 38 3d 5d 42 76 bd
       0.0049888925 0.037811574 0.045079086 -0.060121883
0000a0 83 aa ae bc 5f 00 5c bb 42 70 8b bd b8 51 1b 3d
       -0.02132154 -0.0033569557 -0.06808521 0.03791973
0000b0 6b 78 3e 3c 86 07 89 bd 61 83 cb 3c 6f 1b f9 3c
       0.01162539 -0.06690888 0.02484292 0.03040859
0000c0 b0 b5 97 bd f3 35 47 3d 66 10 80 3d 3c 71 1c bd
       -0.07407701 0.048635434 0.06253128 -0.038193926
0000d0 47 0d 98 bd 38 2a a7 bd 7e 8c 4b 3d c9 a2 6a 3d
       -0.074244075 -0.081623495 0.04969453 0.05728415
0000e0 ad 81 c3 3c 5b d5 1b 3c 6c ff 80 bd 81 c3 02 3d
       0.023865545 0.009511317 -0.06298718 0.03192473
0000f0 c4 74 0b bd 9c 1e 1e 3d c1 d2 31 3c 95 0d 15 bd
       -0.034046903 0.03860341 0.01085347 -0.036389906
000100 86 0e 07 3d a2 1d d9 3c a9 a6 0a 3c 94 da c2 3c
       0.032972835 0.026503388 0.008462586 0.023785867
000110 90 5a 91 3c f8 2c 8e bc f9 1e c3 bc 59 e7 04 3c
       0.017743379 -0.017355427 -0.02381848 0.008111798
000120 29 bb 30 bd fd 01 a4 3d e8 40 84 bd dc b4 ab bc
       -0.04314724 0.08008192 -0.064576924 -0.020960264
000130 58 0c 6a bd 71 51 6b bd b6 1d a0 3d 93 be 01 3d
       -0.05714068 -0.057450715 0.07818167 0.031675886
000140 82 5f 5b 3a b4 4b b4 bd 1f 6f 82 3d 0a e9 47 bc
       0.0008368419 -0.08803502 0.06368851 -0.012201557
000150 ff a8 04 3d 1f c3 ed 3c 1e 35 e0 bd 82 ac 0c 3c
       0.03238773 0.029023705 -0.10947631 0.008586051
000160 d3 9b 88 3c ac 4a a2 bd 2f 2e 03 3d 84 3e 87 bc
       0.016675865 -0.07924399 0.032026466 -0.016509302
000170 1a cb 0c 3d a5 87 6b 3d 95 56 8c bd 06 02 f6 39
       0.03437338 0.057502408 -0.06852452 0.00046922284
000180 bd 36 f7 3b b8 a2 8d bc 1e 7f a6 3d 1c f1 17 3d
       0.007544367 -0.017289504 0.081297144 0.037095174
000190 5b 87 65 3d 8f 89 dd 3d c2 0c 96 bc ad 9a 5e bd
       0.05603729 0.10817253 -0.01831663 -0.05434673
0001a0 0f f6 0b bd 34 9b 86 bc 69 8f 55 3d 13 71 2c 3d
       -0.034170207 -0.016431428 0.05213872 0.042100023
0001b0 d6 87 49 3d 4a bb 9d 3d 7c fd 04 bd 69 7a 22 bd
       0.04920181 0.07701738 -0.032468304 -0.03966752
0001c0 f2 13 e1 bc b9 8c c0 bb af 29 84 bc d2 58 c1 3d
       -0.027475331 -0.0058761504 -0.016133158 0.09440769
0001d0 3b e5 52 3d b8 14 8f 3d 2f e5 b3 3c c4 c9 71 3d
       0.051488142 0.06986374 0.02195987 0.05903031
0001e0 38 a6 26 bd 5f d8 c0 3c 3a 65 cf 3c 5c 19 a8 3c
       -0.040685862 0.023540674 0.025316823 0.020519905
0001f0 2b 3d 9a 3c ea 25 0a 3d 16 ec 27 3d c3 9b 06 3c
       0.018827995 0.033727564 0.040996633 0.008215847
000200 93 d1 65 3d 1f 6a da 3c f5 c1 97 bc 62 0c 5b 3c
       0.05610807 0.02666193 -0.018525103 0.0133696515
000210 ce ba 5d 3d c4 be 19 bd f3 65 86 bd 38 43 5a 3d
       0.05413323 -0.037535444 -0.06562414 0.05328676
000220 33 b3 97 bd 26 5d bd 3d b9 cc b7 bd 43 e7 80 bb
       -0.074072264 0.09246282 -0.089745946 -0.0039338185
000230 44 fd c6 bc cc 1b 91 bd eb b0 bc bc f1 65 c2 b9
       -0.024290688 -0.0708538 -0.02303358 -0.00037078516
000240 53 0c 12 bd b9 47 77 bd 0f 8e b1 3c 3f 44 5f bd
       -0.035656285 -0.060371134 0.021674184 -0.054508444
000250 41 1a d1 bd 19 8c 98 3d 52 a2 09 bd e8 22 80 bd
       -0.10210086 0.074485965 -0.033602066 -0.06256658
000260 3d de 84 3d 3b 3b 96 3d 27 98 1d 3a 60 3e 2b bd
       0.06487701 0.07335516 0.0006011747 -0.041807532
000270 1b 91 2d 3c 24 a1 87 bd 2d 99 6a bd 81 83 95 bd
       0.010593678 -0.06622532 -0.057274986 -0.07300473
000280 ea ba fd 3a 71 74 84 3d 39 60 13 3d 83 00 9a bc
       0.0019358073 0.06467522 0.035980437 -0.018799072
000290 d2 a0 4f 3c 4a 77 f8 ba 4d b0 d9 bb 60 95 0b 3d
       0.01267262 -0.0018956449 -0.006643331 0.034078002
0002a0 6c 96 bc 3d d1 71 3b 3d db 90 9b 3d dc 30 b6 3d
       0.09208378 0.04576284 0.07595988 0.08896038
0002b0 69 75 a7 bd b2 bc 36 bd bb 57 3f 3d 41 67 b4 3d
       -0.08176691 -0.044613548 0.046714526 0.088087566
0002c0 f6 9b 29 3d cd 00 97 bc 2e 51 96 3d 11 91 96 3c
       0.0414085 -0.018432999 0.073397025 0.01837972
0002d0 3b a6 66 3d d8 12 9d 3c 45 4a 33 bd 21 70 07 3d
       0.056310873 0.019174024 -0.043772 0.03306592
0002e0 ae 06 71 bc 7d 03 24 3d f2 f2 91 bd 73 2e e1 3c
       -0.014711065 0.04004239 -0.07126416 0.027487969
0002f0 fd 69 ad bc e4 17 5b bd 41 fa 96 3d 9d 14 db 3c
       -0.021168703 -0.05348958 0.07371951 0.026743228
000300 68 90 9d 3d af a5 8f 3d c3 d7 07 bc 56 92 a4 3c
       0.07693559 0.070140235 -0.008291188 0.02008931
000310 e5 6f 93 bd d3 93 09 bc 96 d8 0c bd 68 a6 28 3d
       -0.071990766 -0.00839706 -0.03438624 0.041174322
000320 23 22 bc 3d 40 b4 29 3d a9 68 52 bd f7 41 60 bc
       0.091861986 0.041431665 -0.051369343 -0.013687602
000330 1e 7a ae bb 22 4e b2 3d e5 2d 09 3d eb 58 44 3d
       -0.005324616 0.08706309 0.033491034 0.04793636
000340 65 ee 1a 3d 80 bc 1c 3d 31 30 63 3d 1c 42 5c bd
       0.037825007 0.038265705 0.05546588 -0.053773984
000350 41 77 80 bd a2 e5 1e 3d 5d 5e b8 3c 61 04 99 bd
       -0.06272746 0.038793214 0.022505933 -0.07471538
000360 85 af 86 bc eb f1 88 3b d0 ce 9f 3d c8 60 0b bc
       -0.016441116 0.0041792295 0.07803118 -0.008506961
000370 71 6c 35 bd 00 e7 83 bd 43 fd 93 3d 1e a4 90 bd
       -0.04429287 -0.06440544 0.0722604 -0.07062553
000380 da b0 35 3d f5 ba 44 3c df 60 d3 bc 1d e9 94 bd
       0.044358112 0.012007465 -0.025803028 -0.07271025
000390 a3 0d b3 3d 9d 51 99 3d f8 e6 b1 3c bc 20 51 bd
       0.087428354 0.074862696 0.02171658 -0.05105661
0003a0 63 26 97 bd be 6d 88 3d 53 fd 42 bc 9b 74 12 3d
       -0.073803686 0.06661557 -0.0119012175 0.035755735
0003b0 d8 2b 14 3d 02 e8 6b bd 16 65 2b 3d f4 08 ba 3d
       0.036174625 -0.057594307 0.04184445 0.09083739
0003c0 16 f6 fb 3c c2 2d 89 bc 6e d1 18 bd 10 25 80 3b
       0.030756991 -0.016745452 -0.037309103 0.003910668
0003d0 bd d7 a6 bd 69 f4 27 3d f3 3a 7c bd 6f fd fa bc
       -0.081466176 0.041004572 -0.061579656 -0.030638425
0003e0 a4 30 a2 3d f2 cf 52 3d d7 85 a0 bd eb 8a 85 bd
       0.07919434 0.051467843 -0.07838028 -0.06520637
0003f0 18 94 85 3c 59 59 5b 3c 64 b0 84 bd 2f 80 f6 bc
       0.016305968 0.013388001 -0.06478956 -0.03009042
