training_outputs/imitation_learning/models/model_imitation_N40.pt (torch, 375273 bytes, 13 tensors)

weight f4 [140, 82]
000000 39 44 02 3e b9 b7 8b bd 70 0f 74 bd df b1 c2 bd
       0.12721337 -0.06822152 -0.059585035 -0.095065825
000010 41 61 ce 3d fd 1f 8f 3d ed 50 87 3d 39 dc 53 3d
       0.100771435 0.06988523 0.06607232 0.051723693
000020 59 91 c3 bd dd f7 5a 3d 6f 38 f0 3b 46 f0 b8 bb
       -0.09549207 0.053459037 0.007330946 -0.005643877
000030 96 fd da bb 04 79 34 bc cb 3f f0 bc 16 b7 b5 bd
       -0.006683062 -0.0110151805 -0.029327294 -0.088728115
000040 6a 51 0b 3d b5 0f c8 bd 31 ce 29 3d 4b 16 89 bd
       0.03401319 -0.09768621 0.041456405 -0.06693705
000050 0d c5 52 bd 91 25 9e bb 01 72 11 3b e4 02 92 bd
       -0.051457454 -0.0048262556 0.0022193196 -0.071294576
000060 a2 bc d1 bd 70 6e fe bc b1 c1 72 3c bd 82 c9 3d
       -0.10241057 -0.03105852 0.014816687 0.098393895
000070 c1 f0 bd 3d 69 cf 11 39 36 f1 d6 bd fb 8b 43 bd
       0.09274436 0.00013905544 -0.10495226 -0.047740918
000080 26 f9 61 3d 35 6a d3 bd 32 8e 82 bd 7a b4 93 bd
       0.055169247 -0.10322992 -0.06374778 -0.072121575
000090 1f 78 49 bb fc 55 92 bd 03 60 1d bd 98 11 c3 bd
       -0.0030741764 -0.071453065 -0.038421642 -0.0952484
0000a0 42 f0 2d 3c b2 7c bb 3d 1b 26 ce 3d a4 41 21 bc
       0.010616364 0.09154643 0.10065862 -0.00984231
0000b0 b9 0c c6 bd 42 63 25 3d 18 95 7f 3d 5d 8e 0f 3d
       -0.096703954 0.040377863 0.062398046 0.035047878
0000c0 1f 8a 8c bd 24 b9 ce bd 6a da c6 3d 3e 44 f1 bc
       -0.06862282 -0.100939065 0.09709628 -0.029451486
0000d0 d9 e4 b8 3d ec 75 ab 3d d5 dc 05 3c 60 46 d0 bd
       0.09028024 0.08372101 0.008170326 -0.10169673
0000e0 b6 51 b2 bd b9 58 0a 3d 33 77 4e 3b 6b 7d 9a 3d
       -0.087069914 0.03377602 0.0031504154 0.07543453
0000f0 9d 01 42 bb 52 8f 29 3d a6 5b e4 3c 6a 29 9e bd
       -0.0029603012 0.041396447 0.027875733 -0.07722743
000100 d3 8e 6a bd 82 5c 23 bc d4 bf ac 3d 0e 5c 64 3d
       -0.057265114 -0.009970786 0.08435026 0.055751853
000110 a5 ce 6d bd da 6d a7 3d 13 43 45 3d b6 6b ba bc
       -0.0580584 0.081752494 0.04815967 -0.022756439
000120 7d 91 56 bd 50 91 15 bd 62 6a 5b bd b9 1d 9d bd
       -0.052384842 -0.036515534 -0.05356825 -0.07671685
000130 1a 6d 06 3d 62 2f 3f bd 3c 34 c1 3c 2f 1d 31 3d
       0.03281889 -0.046676047 0.023584478 0.043240722
000140 de 69 03 3d 60 dc 67 bd 28 8e 1b 3d 5f e2 e4 3d
       0.032083385 -0.05660665 0.037977368 0.11175989
000150 a8 b8 4d 3d 29 81 a6 bd 6d 92 a6 bd 73 28 00 3a
       0.05022493 -0.08130104 -0.08133397 0.000488884
000160 f5 96 bb bc 4d 69 3d bd 9e 2b ee bb 7a 26 26 3d
       -0.02289913 -0.046243 -0.007268383 0.040564038
000170 ef 30 ab bd 56 88 83 bd 66 a8 9b bd 09 05 1d 3d
       -0.08358943 -0.064224884 -0.07600479 0.03833488
000180 49 74 d7 3d e1 46 ab bc aa 27 63 3d 38 ff d7 3c
       0.105202265 -0.020907821 0.05545775 0.026366815
000190 04 7c 06 bd bf 40 32 bd 04 e3 f1 ba b6 d5 ba 3d
       -0.032833114 -0.043518778 -0.0018454497 0.091227934
0001a0 75 af 0c bd ac cc 60 3d d2 c9 81 3b e1 c4 7c 3d
       -0.034347016 0.05488269 0.0039608264 0.061711196
0001b0 75 ee 9d 3d 82 73 e5 bd 63 bd ee bb 8c 7a ef bc
       0.07711498 -0.11203672 -0.0072857602 -0.02923324
0001c0 35 a1 98 3d b2 b1 8c bd 2b e5 b5 bc c4 b2 a6 bd
       0.07452623 -0.0686983 -0.022204002 -0.081395656
0001d0 46 5f cd 3d b6 c1 c6 3d 9c 52 f1 bd 71 5c 72 bd
       0.100279376 0.09704916 -0.117833346 -0.05917019
0001e0 df db c4 3d 58 66 f4 3b 27 40 dd bd 77 2b 1c 3c
       0.096122496 0.0074584894 -0.10803252 0.009531847
0001f0 d7 75 d7 bd f6 82 81 3d 13 87 9a bc 14 b4 3b bd
       -0.10520523 0.06323807 -0.018863237 -0.045826033
000200 3c 2c 8c bb 74 c5 07 bd a5 64 0f bd 5e 7c da 3d
       -0.004277734 -0.03314729 -0.03500809 0.106682524
000210 a7 2d 88 3d 43 73 de 3d d1 bd 25 bd 5e 0f b7 bd
       0.066493325 0.10861828 -0.040464226 -0.08938478
000220 ee ac 64 bb 2a 45 ed ba dc de a7 3c 73 c6 14 bd
       -0.0034893113 -0.0018102278 0.02049201 -0.03632207
000230 34 6a 97 3d ab f4 0e 3d 4d 4b 70 bd 59 30 60 3d
       0.073933035 0.034901302 -0.058665562 0.054733608
000240 fa c9 65 bd 41 9f a2 bd af 4e 8a bc 18 5a c9 3d
       -0.056100823 -0.079405315 -0.016883222 0.09831637
000250 f8 37 a6 3d 02 55 c8 bc 5a 04 d9 3c 6e 71 09 3d
       0.08116144 -0.024454597 0.026491333 0.03355544
000260 d4 e7 ad bb 62 16 57 bd c3 e1 24 bc 5e b2 a5 bd
       -0.005307177 -0.05251158 -0.010063591 -0.080906615
000270 01 27 2b 3c b2 a0 d2 bc 35 8c cd 3d 9e 34 ec 3b
       0.010446311 -0.025711391 0.10036508 0.007208421
000280 d0 9e 46 3d ca 01 97 3d 83 05 cb bd 5e 34 c7 bd
       0.0484913 0.07373388 -0.09913161 -0.09726785
000290 d8 ed 95 3d e5 cc 2c 3d 0b 7b 90 bd c2 4c 28 bc
       0.07320756 0.04218759 -0.070547186 -0.010272207
0002a0 74 e9 96 bd 08 f0 15 3d 0a 11 b2 3d b0 3f ba 3a
       -0.073687464 0.036605865 0.08694656 0.0014209654
0002b0 c1 40 ce 3d f7 2f 8a 3d 9b aa ce 3d b8 a8 93 bc
       0.100709446 0.0674743 0.10091134 -0.018024787
0002c0 21 18 6c bd 48 08 d5 3d ac a6 00 3d 30 af e6 3c
       -0.0576402 0.1040197 0.03140895 0.028159708
0002d0 eb b9 ab bd 61 29 b2 3d b0 1c 30 bd 06 cc 45 3c
       -0.083850704 0.08699299 -0.04299611 0.012072569
0002e0 3e b6 45 3d 0e 68 e2 bc 99 74 6f bd e2 b3 8b 3c
       0.048269503 -0.027637508 -0.058460806 0.017053548
0002f0 14 87 57 3d 67 13 0e bd 80 fb d4 3b 25 39 1d bc
       0.052619055 -0.034686472 0.0064997077 -0.009596144
000300 db 0c e5 3c cc b4 b5 3d 42 40 05 3c 1a 50 37 3c
       0.027960232 0.08872375 0.008132996 0.011188531
000310 00 06 33 3d 5d 2f bd bd 2b 12 b1 3d ac cf 4a bd
       0.043706894 -0.092375495 0.086460434 -0.049514458
000320 03 16 b3 3d 83 2b 55 bb 37 02 c9 3d ae c8 c2 bd
       0.08744433 -0.0032527156 0.098148756 -0.09510933
000330 a1 38 6e 3c 1c d1 c8 bc 30 53 30 bb a8 b6 37 3d
       0.014539869 -0.024513774 -0.0026905052 0.04485193
000340 82 42 0c 3d 31 09 e5 3d ee 07 45 3d c6 08 dc 3c
       0.034243114 0.11183394 0.048103265 0.026859652
000350 b1 ed 0b bc 2c 61 3d 3d 4b 19 c4 3d 2e cf c2 bd
       -0.008540557 0.04623525 0.09575137 -0.09512173
000360 8c 5c 87 3c 5e 5b 30 3d 3f 23 de 3c 57 ee ca 3d
       0.016523622 0.043055885 0.027116416 0.09908741
000370 5b 64 b1 3c be 69 74 bd 94 9e 7f bc e4 f5 2c 3d
       0.021654299 -0.059671156 -0.015601773 0.042226687
000380 06 05 00 3c d1 b1 21 3d 6a 35 4f 3b e0 4a 6f 3d
       0.007813698 0.03947622 0.003161753 0.058421016
000390 c2 36 c3 3c 54 50 cf bd 62 73 a9 bd 9f 9a 0b 3d
       0.023829821 -0.10122743 -0.08273961 0.034083005
0003a0 15 35 90 bd 3a 31 75 bc 2b 10 ce 3d 3b ca ba 3d
       -0.070413746 -0.01496535 0.100616775 0.09120604
0003b0 0f f8 52 3c e8 ea 4f bd 6c f1 4e 3d b9 76 4c 3d
       0.012876525 -0.050761133 0.050523207 0.04991791
0003c0 e2 4f b0 3c 3a 39 47 3d e6 94 3c 3d 0e 98 a2 bc
       0.021522466 0.04863856 0.046040438 -0.019847896
0003d0 24 0d b5 3d 0b 79 87 bd 74 c4 c1 3d dc de fc 3d
       0.08840397 -0.06614884 0.094612986 0.123471946
0003e0 78 bc 4e 3d 20 c2 06 bc bf 81 4f bd 5e 5f 50 3d
       0.050472707 -0.008224994 -0.050660845 0.0508722
0003f0 50 c1 81 bd 26 1e 58 3c ba 61 98 3c 9c 19 f3 3c
       -0.063356996 0.013190782 0.018601287 0.029675297

bias f4 [140]
000000 5b c5 e6 bd c0 17 62 3d bf 82 5f bc b5 fb 2d 3d
       -0.11268111 0.05519843 -0.013642012 0.042476375
000010 cb 4a bf bd 8b b9 1f 3d 44 50 93 bd 8b 61 c4 bc
       -0.093404375 0.038995307 -0.07193044 -0.023972293
000020 72 8e 7c 3d f6 4f e3 bd d6 4f 02 3c 8d 16 93 bc
       0.061659284 -0.11099236 0.007953605 -0.017955089
000030 53 c9 97 3d e5 a8 ea ba 0f 29 81 3d fd 08 4e bc
       0.074114464 -0.0017903118 0.063066594 -0.012575385
000040 07 84 75 3b 67 f6 c2 3d f4 f8 de 3d 7e a2 a8 3d
       0.0037462728 0.09519654 0.10887328 0.08234118
000050 3d a7 a7 bd fc 6a db 3c 0c c4 b0 3b 1a 7a 6b bd
       -0.08186195 0.026784413 0.0053944644 -0.057489492
000060 30 08 1c 3a 6f eb 90 3b eb da 79 bd 6f 36 d6 3c
       0.0005952148 0.004422597 -0.060999792 0.026149003
000070 34 36 d3 3d 8e 2d 95 3d ea 55 c9 bd 44 91 09 3d
       0.10313073 0.072840795 -0.0983084 0.0335858
000080 8b e6 ac 3d da 83 4a bc 3b cb a2 3d 6c d9 ef bc
       0.0844241 -0.012360537 0.079489194 -0.02927848
000090 0a 0e 79 3c 00 59 c2 3d e0 bf a7 bd 31 26 f3 3c
       0.015201101 0.09489632 -0.08190894 0.029681297
0000a0 9c fe b7 3d 02 1f 08 bd 1e 9b 8d bd 52 46 ad 3d
       0.0898411 -0.033232696 -0.06914352 0.08460678
0000b0 98 05 ae 3d 09 06 d9 bd c6 d8 17 bc a6 90 c3 3d
       0.08497161 -0.10596854 -0.009267991 0.09549074
0000c0 87 02 b8 bd 51 3f b7 3d 88 6b da 3d aa 74 a6 bb
       -0.08984857 0.089476235 0.10665041 -0.0050798254
0000d0 df d0 c1 bc 46 36 09 3d c7 5f c9 bd 67 1d 03 3c
       -0.023659168 0.033499025 -0.09832721 0.0080026155
0000e0 d5 df 1d bc f1 cb 92 3d 6e b9 46 bd f1 b3 55 3d
       -0.009635885 0.07167805 -0.048516683 0.05217356
0000f0 48 26 40 3d 60 dc a9 3d 2a 60 b4 bd 48 4d ae bb
       0.046911508 0.08293986 -0.08807404 -0.0053192712
000100 e6 d9 4b bc f0 37 50 3c 21 31 28 3d 57 af e3 3c
       -0.012442088 0.012708649 0.041062478 0.02779357
000110 ee c2 91 3d 94 e7 de bd d3 4e 46 3d a9 7d a6 3d
       0.07117258 -0.10884014 0.048415016 0.081294365
000120 e6 ef a2 bd 2c c3 ba 3c 25 a3 0a 3c 9d a4 10 bd
       -0.07955913 0.022798143 0.008461748 -0.035313237
000130 fe 12 51 3d 3a e2 ea bd 54 aa a9 bd 12 13 16 3d
       0.051043503 -0.114689305 -0.08284441 0.03663928
000140 7a 61 87 bd 10 90 a3 bd ba af 2e ba 77 9c 36 3d
       -0.06610389 -0.07986462 -0.00066637585 0.04458281
000150 07 6a 09 3d ab c5 53 3b db 62 22 bd 6f e4 6d bd
       0.03354838 0.0032313864 -0.039645057 -0.05807918
000160 c1 f9 9c bd 66 5d dd 3c 60 66 49 3d 61 08 da 3d
       -0.07664824 0.027022075 0.049169898 0.106461294
000170 5e f1 09 3d c7 f0 a9 bd 8f 1a c8 bd 19 7a be 3c
       0.03367745 -0.08297878 -0.09770691 0.02325158
000180 bc 54 d6 3c aa 5b 21 3d 15 db b5 3c 2f 6a a5 bd
       0.026163451 0.03939406 0.022199193 -0.080768935
000190 b9 46 94 bd bf 74 e5 bd 37 b0 60 bc b0 a6 ac 3d
       -0.07240052 -0.11203908 -0.013713888 0.084302306
0001a0 0c b2 ad bd 59 69 73 bc 79 83 07 bd a6 90 92 bd
       -0.08481225 -0.01485666 -0.033084366 -0.07156496
0001b0 09 3e db bd c0 64 9c 3d 14 83 a6 3b 31 86 a7 bc
       -0.10705192 0.07636404 0.0050815437 -0.02044973
0001c0 06 02 3a 3c 03 4a 4d 3d 9a ff 05 bd 37 66 25 bd
       0.0113530215 0.05011941 -0.032714464 -0.040380683
0001d0 a5 37 79 bd 8b d3 8c 3c 39 10 b3 3d e1 6d 29 3d
       -0.060844082 0.017190715 0.087433286 0.041364554
0001e0 a2 f3 49 bc 41 44 88 bd 28 09 22 3d 4f 08 d8 3c
       -0.012326153 -0.066536434 0.039559513 0.02637115
0001f0 4f 67 1c 3d 5a 4a d3 3d 56 6f ea bc 35 2d 15 3c
       0.03818446 0.10316916 -0.028617542 0.0091050165
000200 26 50 8b 3d c3 59 67 3d 0c eb ae bd af a3 30 bd
       0.068023965 0.056482088 -0.085409254 -0.04312485
000210 ed ed 42 3d 44 35 83 3b fc 29 80 bc 7d f7 b8 3c
       0.047590185 0.0040041525 -0.01564502 0.02257895
000220 65 13 3e 3d 1f f1 8a bd 9c f1 b1 bd bd 9c ed bd
       0.046405215 -0.067842714 -0.086886615 -0.11602161

weight f4 [140, 140]
000000 9c 75 99 bd 78 e6 e5 bc 52 69 5c 3d 8c 23 8b bd
       -0.07493135 -0.028063998 0.05381138 -0.067938894
000010 0d f5 04 bb 16 15 6d bd 28 9c 69 3c 51 e5 10 bd
       -0.0020287663 -0.057881437 0.014258422 -0.035374943
000020 1a f5 a3 3c c3 a1 a2 3d c1 2a 8d 3d f4 e0 87 3c
       0.020014334 0.0794101 0.0689292 0.016586758
000030 95 d2 2e bd eb 43 6f 3c 3b 9a 83 3c 5a 0f a6 3c
       -0.042681295 0.014603595 0.016064754 0.020270992
000040 9f e8 f4 3c bb 16 dc bc 5e a2 1c bd 54 0b 5a 3d
       0.029896079 -0.026866307 -0.038240783 0.05323346
000050 34 4f a2 3d ae a6 f7 bc 3b 2e 0b bc 41 a5 79 bc
       0.07925263 -0.030230846 -0.008494909 -0.0152371535
000060 8c d1 e2 bc 0f b9 17 bc cd fd 8f bd 5e 0a 58 bc
       -0.02768781 -0.00926043 -0.070308305 -0.0131860655
000070 fa d2 d8 3c fc 99 a8 3d bc de e4 3c 33 af 85 3d
       0.026467789 0.08232495 0.02793824 0.06527557
000080 94 6f 60 3d ed a0 97 3d ad df 1e 3d 84 67 54 3d
       0.05479391 0.07403741 0.038787533 0.051856533
000090 a0 64 9e bd 26 6f ab bc 67 ee b5 3c 10 30 2a 3d
       -0.077340364 -0.020927023 0.022208406 0.041549742
0000a0 78 63 75 bd a2 c1 01 bd 72 08 e7 3b 61 55 25 bd
       -0.059909314 -0.031678803 0.0070505673 -0.040364627
0000b0 d9 91 8e 3d c0 2e a5 bd 33 94 2d bd b8 8f db 3c
       0.06961412 -0.080655575 -0.042377662 0.026801929
0000c0 82 64 9a bd 88 d8 70 bd 4c 51 7c 3d 38 99 fe bb
       -0.075387016 -0.05880025 0.06160097 -0.00776973
0000d0 96 e4 23 bd 20 53 a0 bd 8f 36 04 bc c3 cd be 3c
       -0.04001292 -0.07828355 -0.008069648 0.023291474
0000e0 cf f5 98 3c f4 95 11 3d 58 fe 9d bc 9f eb 85 bd
       0.018671898 0.035543397 -0.01928632 -0.06539082
0000f0 89 3d 58 bd c4 5d 23 bd 74 2d 93 bd 17 94 25 bd
       -0.05279306 -0.039884344 -0.07186404 -0.040424433
000100 ee 32 9a 3c d2 98 29 3d ce 47 14 3d 0f 0d 90 3d
       0.018823113 0.041405506 0.03620129 0.07033741
000110 20 4c fa bb 81 3e 84 3c 90 99 8b bd a7 fb 0f 3d
       -0.0076384693 0.016143085 -0.06816399 0.035152104
000120 9a 19 52 bd bf e3 dd bc be 73 3a bd e1 28 c4 bb
       -0.051293947 -0.027086137 -0.045520537 -0.0059863185
000130 a0 3f bb bd 20 4f 4c 3d 76 e9 0f 3d f1 09 5b 3d
       -0.09142995 0.049880147 0.035134755 0.053476278
000140 08 3b b1 3a 4d cd 9a 3c 54 17 2f bd fd b8 52 bd
       0.0013521621 0.018896723 -0.042746857 -0.05144595
000150 bd 18 04 bd 43 9f 8e bd f0 c0 78 bd b7 ce 04 3d
       -0.032250155 -0.069639705 -0.060730875 0.0324237
000160 f5 54 42 bd c9 89 7a bd 0c bf 78 bd e3 86 e8 3c
       -0.047444303 -0.06116656 -0.06072907 0.028384631
000170 94 f9 b9 bc 61 1e 48 3d e9 51 1b 3d 03 11 c5 ba
       -0.022702016 0.048857097 0.037919912 -0.0015034977
000180 76 60 46 3b 74 a6 12 3d b7 8d 03 3d 96 87 f8 3c
       0.0030269898 0.035803273 0.03211757 0.03033809
000190 0a 99 84 3d 98 d5 33 3d bf 2e 8a bd 52 e9 d7 3b
       0.064745024 0.04390487 -0.06747197 0.0065890932
0001a0 37 d7 03 bd 5e 64 a6 bc a7 22 9f 3a bb 13 5b 3d
       -0.032187667 -0.02031153 0.0012141065 0.053485613
0001b0 95 62 29 bd af a5 59 3d da b1 57 3d 2e b1 cf 3c
       -0.04135378 0.053136524 0.052659847 0.02535304
0001c0 d7 59 98 bb ee 5d 68 3d c3 76 e1 3c 40 30 83 3d
       -0.0046493816 0.056730203 0.02752245 0.06405687
0001d0 14 d8 e8 3c 71 6e 77 3d c9 18 5f bd 86 51 3e bd
       0.028423347 0.06040806 -0.054466996 -0.046464466
0001e0 bb f3 6c 3d 20 b4 92 3b 6c 1a ca bc 8e cf 9a bd
       0.057849627 0.004477039 -0.024670802 -0.07559119
0001f0 23 b9 85 bd 7a 74 1e bc cd 30 73 bd 1f 8d ac 3d
       -0.06529453 -0.009671325 -0.059372712 0.08425354
000200 91 d8 e9 3b 58 b8 8f 3d 03 67 b9 bc c0 de 1c bd
       0.0071364124 0.07017583 -0.022632128 -0.03829837
000210 96 1e 02 3b c0 0d a5 bc 7e a5 a7 3d 27 7b 9b 3b
       0.0019854656 -0.020148158 0.08185862 0.0047449055
000220 c5 75 8f bd e3 6f 82 3c 91 3e 21 bd 65 b5 07 3d
       -0.07004885 0.015922492 -0.03936631 0.033131976
000230 56 a5 ee bc 51 01 45 bd be 9f a1 3d bc 75 b8 3c
       -0.029131573 -0.04809696 0.078917965 0.022517078
000240 dd 01 42 bd 49 a8 ff bc e2 bd aa bd 9a a7 9f 3d
       -0.04736506 -0.031208174 -0.083369985 0.07795639
000250 d9 af 26 bd 79 06 2b bd df 98 95 bb ea 72 a9 bd
       -0.040695045 -0.04175422 -0.004565343 -0.08273871
000260 45 b4 af bd 76 3f 6d bd b4 05 8c bd 39 d3 fe 3c
       -0.085793056 -0.05792185 -0.06837025 0.031106578
000270 ea 02 f2 bc 35 6b e6 3c 7d fd 8d 3d 76 e9 cd ba
       -0.029542405 0.028127292 0.06933115 -0.0015709836
000280 54 ad 3d bc 0c 85 05 3d 22 a4 84 3d 19 ce c3 3c
       -0.011576969 0.032597587 0.06476618 0.023901986
000290 ff 64 65 3c df fd ed 3b 7a 2b 95 3c 41 76 7e bd
       0.01400113 0.00726293 0.018209208 -0.062124494
0002a0 d2 d0 27 3d fb 86 92 3d 57 26 a7 3d 15 d7 90 3d
       0.04097063 0.07154652 0.081616096 0.07072274
0002b0 24 ac a6 3c 1a c4 db bc 83 76 a9 bc f9 35 92 bd
       0.020345755 -0.026826907 -0.020686394 -0.07139201
0002c0 11 1e 20 bd ae 5d ab 3d 53 27 83 3d fe 46 8b 3d
       -0.039091174 0.08367477 0.06403985 0.0680065
0002d0 41 c3 91 bd 54 19 1c bc f4 35 f3 bb 7a 69 a7 bd
       -0.0711732 -0.009527523 -0.007422203 -0.08174415
0002e0 38 38 63 bc 94 29 3d bc 76 05 53 3d 5d d0 ce 3d
       -0.013868384 -0.0115455575 0.05151888 0.10098336
0002f0 af 3e 53 bd 95 9f 2e 3d 13 63 cc bc 74 6b 96 3d
       -0.05157345 0.042632658 -0.024949586 0.07344714
000300 b5 77 1f bd 1d 63 82 3d db a3 2b 3d c4 ae fa 3c
       -0.03893252 0.063665606 0.04190431 0.030600913
000310 75 d2 b0 3c 76 8f 66 bd 58 e6 82 3d 9f 8c e5 3c
       0.021584729 -0.05628916 0.06391591 0.028021155
000320 0b 3c 20 3d 07 7a 82 3b a1 9d f3 bc 28 50 b8 3c
       0.03911976 0.003981832 -0.02973825 0.022499159
000330 5e 6d fa bc 80 28 f1 3b 00 4b bf bd bb 1b 13 3c
       -0.030569728 0.0073595643 -0.09340477 0.008978779
000340 8f 01 dc bc 81 75 81 bd e4 f9 08 bc a9 d9 dd ba
       -0.026856212 -0.0632124 -0.00836036 -0.001692583
000350 ce 61 aa 3d aa 2a be bb 1e da 2c 3d 6a ec 8e 3c
       0.08319436 -0.005803426 0.0422002 0.017446715
000360 c5 e6 6e 3d f2 5f b3 3c 9b 7a 7b bd 18 35 0a bd
       0.058325548 0.021896336 -0.061396223 -0.03374204
000370 86 18 39 3c ee 07 9c bd 68 7d 0a bd d0 07 90 3c
       0.011297351 -0.076187 -0.033811003 0.01758185
000380 e1 27 27 bd 43 ab 12 bd fd c1 45 3d f3 37 6f 3d
       -0.040809516 -0.03580786 0.048280705 0.058402967
000390 44 92 96 3d 20 e4 2e 3d 3f 09 9e bd 26 05 c5 bd
       0.07352117 0.042698026 -0.07716607 -0.096201226
0003a0 46 5d 13 3d 9e 84 71 3d 3c 47 45 3d 48 73 af bd
       0.035977624 0.058964364 0.048163638 -0.0856691
0003b0 32 15 10 bd 31 d2 2d 3d 1c f5 54 3d 94 67 85 bd
       -0.035176463 0.042436782 0.051991567 -0.065138966
0003c0 41 ca 17 bc 06 57 9d bc fc ca 04 bc 83 a7 0d 3d
       -0.00926453 -0.019206535 -0.008105036 0.03458358
0003d0 fa 4e ce bc d4 17 99 bd 5b 36 62 3b 71 af 95 bd
       -0.025184143 -0.07475248 0.0034517262 -0.073088534
0003e0 bf 08 4e bd 9c 6f bf bb c5 e2 01 bd ba d3 8a bc
       -0.05030131 -0.0058421623 -0.031710405 -0.016946662
0003f0 c3 3f 7c bd 1c fd 9d bd 9d 6e 58 bc 5a 62 42 3d
       -0.061584245 -0.077142924 -0.013209966 0.047457077

bias f4 [140]
000000 1a bb a0 3d 11 44 ce 3c b5 ce 08 3c 54 0f 40 bd
       0.07848187 0.025178941 0.008350064 -0.046889618
000010 e8 8c 9e bd f8 0b 2c bd f0 bc 17 3d 89 c9 1d 3d
       -0.077417195 -0.0420036 0.03704542 0.038522277
000020 65 b0 9d 3a e9 4a ae bd 49 31 d4 3c 38 b2 82 bd
       0.0012030719 -0.08510382 0.025902407 -0.06381649
000030 a9 d1 36 bc a5 33 a2 bd ad e0 db 3c ae 75 96 3d
       -0.011158385 -0.07920007 0.026840532 0.07346664
000040 33 66 9c bd 1d 01 fb bb 49 9e 2f 3d 31 57 4a bc
       -0.076366805 -0.007660045 0.042875562 -0.01234989
000050 9f 2a 75 3d 77 ea 84 3d 6c 22 7d 3d fe 2e 9e bd
       0.0598551 0.06490033 0.061800405 -0.07723807
000060 d1 e2 71 bd 70 13 5b bd 03 80 21 3d 85 13 e1 3c
       -0.0590542 -0.053485334 0.039428722 0.027475128
000070 48 20 9a bd e6 89 0a 3d e4 90 9c 3c 8b 75 46 3d
       -0.075256884 0.033822916 0.019112058 0.04845194
000080 27 ba 63 3c ac 17 86 bd 4a bf 97 bd cf 3f 2c 3c
       0.013899363 -0.06547484 -0.07409532 0.01051326
000090 cc 56 dc bc c6 d6 95 3c 34 c6 ad bd 56 63 7c bd
       -0.026896857 0.018290889 -0.0848507 -0.06161817
0000a0 de 89 3e bd d3 68 43 3d a5 b6 a0 bd bc 85 8e bc
       -0.0465182 0.04770739 -0.07847337 -0.017397754
0000b0 99 9b be 3c e2 fd 90 bd c2 60 a4 bd b6 9a 54 bd
       0.023267554 -0.07079674 -0.080262676 -0.051905356
0000c0 6a 77 46 3d 09 01 06 bd d5 85 94 3d 2a 48 49 3d
       0.048453726 -0.03271583 0.07252089 0.049141087
0000d0 88 f2 24 bd 36 ea c4 bc 93 8d 66 3d f1 e2 66 bd
       -0.04027036 -0.024037462 0.05628736 -0.056368772
0000e0 60 ff 37 3d 31 38 22 3d 13 1e 49 bd 13 70 43 bc
       0.04492128 0.03960437 -0.049100947 -0.011928576
0000f0 c6 03 f9 3c c6 df 4b bd 5b 8a 06 3d 96 a3 a0 bd
       0.030397307 -0.049773954 0.03284679 -0.078437015
000100 8b a4 97 bd 0b 02 97 3c a4 9e 6d bd fc eb a0 3d
       -0.07404431 0.018433591 -0.05801262 0.078575104
000110 85 96 3f bd 08 8d 63 bd a5 ed f0 3c dd ae 44 bd
       -0.046774406 -0.05555442 0.029410193 -0.048018325
000120 4c ae 23 3d b5 46 9e 3d 5a 14 35 3d bb ff 90 bd
       0.039961144 0.0772833 0.044208862 -0.07080027
000130 25 9e 1a bd dc 7a 65 3d e3 bd 4d 3d b9 19 82 bd
       -0.037748475 0.05602537 0.05022992 -0.063525625
000140 67 1f 23 3d 16 c3 38 bd dc fd 4b 3c ff 59 68 3d
       0.03982487 -0.045107923 0.0124506615 0.056726452
000150 b5 e7 58 3d fa f5 6e bc b8 a8 01 bd 2f 7a 68 3c
       0.052955348 -0.014585013 -0.031655043 0.014189287
000160 43 ec 4c bd e0 52 da bc 4c c8 e3 3c 68 0b ac 3d
       -0.050030004 -0.026650846 0.02780547 0.08400613
000170 07 4d e4 3c 6f ed 83 bc fe 36 60 3b d0 46 17 3d
       0.02786876 -0.016104428 0.0034212465 0.036932766
000180 78 3e 39 3d 75 38 64 3d 7c 96 7f 3b 8e 07 b9 3d
       0.04522559 0.055717904 0.0038999608 0.09034644
000190 a2 5d 35 3d 91 9f c9 3b 2e d1 12 bc 2b e9 9b 3d
       0.04427875 0.006153055 -0.008961005 0.07612833
0001a0 a8 0d 46 3d 2c d1 1f bd bc d4 fe bc 46 7d 84 3c
       0.048352867 -0.03901784 -0.031107299 0.016173016
0001b0 5d 6d d7 bc b7 03 ad 3b a6 d3 55 bd ee 65 95 3d
       -0.026297266 0.005279984 -0.052203797 0.07294832
0001c0 17 ef 75 bd 79 fb f5 bb 35 c0 99 3d 75 a9 60 3d
       -0.060042467 -0.0075067845 0.07507364 0.054849107
0001d0 50 a6 80 3d 7f db 82 3d 48 fe 90 bc c8 19 66 bd
       0.062817216 0.06389522 -0.017699376 -0.05617693
0001e0 45 ec 94 3c 98 8e 5e bd d2 ae 9c 3c 55 c2 08 bc
       0.018179068 -0.054335207 0.01912633 -0.008347114
0001f0 2e 9d 0e 3d cd d1 30 3b 7e c0 83 3c 48 4e bc 3c
       0.034817867 0.002698052 0.016082998 0.022986546
000200 85 5d 47 3b e5 c9 c6 3b 38 22 c9 bc a4 38 89 3d
       0.0030420732 0.006066548 -0.02455245 0.067002565
000210 28 a5 72 bd 3e 28 fe bc bc 3f 7b 3b 74 b0 fe bc
       -0.059239537 -0.031025048 0.003833755 -0.031089999
000220 81 e3 90 bd ab d7 1d 3d 86 6f aa bb 11 ed 98 bd
       -0.07074643 0.038535755 -0.005201283 -0.07467092

weight f4 [140, 140]
000000 cf d1 9d bd 6e c3 82 bb 9e 55 dd bc 99 82 68 3d
       -0.077060334 -0.003990582 -0.027018365 0.056765173
000010 4d d1 94 3d 0a 01 96 bd 27 fe 93 bd 4f 13 95 3c
       0.072664835 -0.07324417 -0.0722621 0.018197684
000020 54 d8 ea bc 06 a2 82 bb 10 40 7e bb c6 3d 7e 3d
       -0.028667606 -0.0039866 -0.0038795508 0.06207063
000030 c8 1a 75 3c 2a 3c 6d 3d 25 9e 22 bd 79 b1 9b bc
       0.014959998 0.057918705 -0.0397016 -0.019005524
000040 ec 41 16 3d 12 09 91 bd 07 87 e6 bc a6 df 9a bd
       0.03668396 -0.07081808 -0.028140558 -0.07562189
000050 23 84 3e bd ea 8b 06 bc 91 c0 99 3c dd ef c6 bc
       -0.046512734 -0.008212069 0.01876858 -0.024284298
000060 d7 b4 bf bc a6 36 15 3d 6e 7e 88 3c 6a 53 36 3c
       -0.02340166 0.03642907 0.016661849 0.011128286
000070 d6 c7 5a bd 4b 42 c7 bc 61 57 2c 3b d9 ea 6b 3d
       -0.053413235 -0.024323603 0.00262972 0.057597015
000080 70 03 06 3d bb 4a 70 3d 50 67 32 bd cc ad a1 bc
       0.032718122 0.05866502 -0.043555558 -0.019736193
000090 0b 4f 96 3c 34 40 92 bd d5 4e ab bd da 80 3b 3d
       0.018348237 -0.07141152 -0.083646454 0.04577718
0000a0 96 37 9f bd 12 b1 07 3d b9 52 04 3b b3 0c 0b 3b
       -0.07774274 0.03312785 0.0020190908 0.0021217286
0000b0 7b b3 12 bc 0b a2 c8 3b 94 1f a5 bd 59 c1 72 bd
       -0.008953924 0.0061228327 -0.08062664 -0.059266422
0000c0 7a be c6 ba 86 67 1e 3d 9e 68 26 3d 86 31 fb 3c
       -0.0015162968 0.038672946 0.040627114 0.030663263
0000d0 f2 8b 48 bd 85 97 11 3d ac e3 96 39 4a ea 03 bd
       -0.048961587 0.03554489 0.00028779858 -0.032205857
0000e0 58 43 9f 3d 20 70 82 bd 3b 82 7e bd aa a9 14 3c
       0.07776517 -0.063690424 -0.062135916 0.009073654
0000f0 0b 4d 97 3d 95 84 72 bd d0 bd a4 3c d6 22 be bc
       0.07387742 -0.05920847 0.02011004 -0.02320997
000100 34 60 6a bd 0e a1 49 3c ea 4d 94 bd 8d f2 80 bd
       -0.057220653 0.012306465 -0.072414234 -0.06296263
000110 e4 4f 3e bd c4 2a b1 3c d7 92 95 3c 51 69 58 bb
       -0.04646291 0.021626838 0.018258495 -0.0033021758
000120 79 58 8f 3d 6b 95 48 3d 43 42 01 bd 15 12 8e bd
       0.06999297 0.04897062 -0.031557333 -0.069370426
000130 2c 19 6e 3d ec 22 ad 3d 02 4b 6f 3b f3 c3 c9 3b
       0.058129475 0.084539264 0.0036513214 0.006157392
000140 0b 61 c4 3c 6a ab 8e 3d 62 2a aa 3d c7 24 f7 bc
       0.023972055 0.069662884 0.08308865 -0.030168904
000150 60 c8 f9 bb fa ce b3 3c 94 0b 82 bd 1c 6f 80 bd
       -0.0076227635 0.02194928 -0.063498646 -0.062711924
000160 07 ec e9 3a b3 64 30 bc ad 06 89 bc 35 cd 5d 3d
       0.0017846831 -0.010766196 -0.016726816 0.05415078
000170 04 51 51 3d a0 f8 75 bb 7a 44 94 bd 70 33 de bc
       0.051102653 -0.0037532225 -0.07239623 -0.027124137
000180 88 dc 6f bd 38 16 11 bd e3 48 02 bd 5e ea 13 3d
       -0.058559924 -0.03542158 -0.03180779 0.03611218
000190 4e f3 b9 3b 0b f3 96 bd 46 33 92 3d 6e 81 13 bc
       0.005674756 -0.073705755 0.07138686 -0.009003026
0001a0 d1 03 43 bd 95 16 b4 3c 4a cc 55 bd df a8 72 3c
       -0.04761106 0.021983424 -0.05219678 0.01481077
0001b0 ec c5 53 bc 34 09 01 3d 8b 9d 78 bd 1b f1 9c bd
       -0.012925606 0.031502917 -0.06069712 -0.07663175
0001c0 02 79 96 3d 02 41 6c 3d 03 fa 75 bd 02 43 6d bd
       0.07347299 0.057679184 -0.060052883 -0.05792523
0001d0 87 a7 a0 bd eb 59 fe 3c 99 a4 b9 3b 7a b2 75 bd
       -0.07844453 0.031048736 0.0056653735 -0.05998466
0001e0 8a 60 ef 3c 31 4b 77 bc 18 32 b6 bd f4 35 98 3c
       0.029220838 -0.015093611 -0.088962734 0.018580414
0001f0 0d c1 7c bb 3e bb ac 3a 70 85 37 bd 71 b6 7e bc
       -0.0038567216 0.0013178361 -0.04480499 -0.015546427
000200 91 7e 4d bd 46 08 ad ba 08 12 3e 3c cc 63 9f 3d
       -0.05016953 -0.0013201318 0.011600979 0.077827066
000210 50 54 71 bc 94 d1 81 3d f2 d3 4d 3d ab ca bb 3c
       -0.014729574 0.06338802 0.050250955 0.022923788
000220 0b 19 33 bd 90 06 84 3d 68 7b b8 3b d5 85 52 3d
       -0.043725055 0.06446564 0.0056299455 0.051397163
000230 67 fd 82 bd 8d 4f 5d 3d c8 ad 0e 3d 7c d2 a2 bd
       -0.06395989 0.054030944 0.0348337 -0.07950303
000240 3a 90 78 3d 73 c4 46 bd 8f ac 35 3d 02 e3 26 3d
       0.06068442 -0.048527192 0.044354018 0.040743835
000250 73 51 10 bd 6d 64 a2 bc 2b aa 3f 3d 72 7e ac bd
       -0.035233926 -0.019823277 0.046793144 -0.08422555
000260 5a 8f 9e bc b4 94 e7 3c 4f 0f 9d 3c d4 63 90 bd
       -0.019355465 0.02826915 0.019172339 -0.07050291
000270 ff e1 7d bd 0d 11 90 bd 91 05 cd 3c 25 36 3c 3d
       -0.061983105 -0.07034502 0.025027068 0.045950074
000280 c3 fe 08 3d d7 77 90 3c 66 ba 07 3b b6 67 05 3d
       0.033446085 0.01763527 0.0020710467 0.03256961
000290 b9 f9 73 bd cc 44 3c bb 56 89 b8 bd a4 2d 8a 3b
       -0.059564326 -0.002872753 -0.0901057 0.0042168666
0002a0 69 d8 34 bd 7a 35 96 3d 28 88 93 bd 04 eb 08 bd
       -0.044151697 0.073344186 -0.07203704 -0.033427253
0002b0 fa 32 c5 bd 7f 09 c8 bc 6e 3d c8 3b b4 3e 27 bd
       -0.09628864 -0.02441859 0.0061108386 -0.040831283
0002c0 aa d3 60 3d 19 6c 37 3c a6 67 79 3c ec 57 14 3d
       0.05488936 0.011195206 0.015222466 0.03621666
0002d0 38 5e 9c 3d 75 bf 81 3d 37 fa 00 bd 32 ab a8 bd
       0.07635158 0.06335346 -0.031488623 -0.08235778
0002e0 79 42 92 bd 13 13 a6 bd e5 a8 24 bd 9a 98 30 3a
       -0.07141585 -0.08109107 -0.040200133 0.00067366066
0002f0 c9 5d 25 bd 3f 6a 8e 3c 41 be be bd e3 3a ec bc
       -0.040372644 0.017384646 -0.09313632 -0.028836673
000300 e1 48 72 bd 92 4b c5 3d 28 78 85 bd cc 83 30 3c
       -0.059151534 0.096335545 -0.065170586 0.01077361
000310 86 74 12 bd 79 17 44 3d 31 01 98 3d 71 5e 35 bd
       -0.035755657 0.047873948 0.07422102 -0.04427952
000320 94 ac a1 bd 27 b0 b1 3c 70 fd 90 3d 8b 86 f9 3c
       -0.07894245 0.021690441 0.07079589 0.030459663
000330 2a 8c 9d 3d ca 08 20 bd 1d 08 03 3d 6f 83 21 bd
       0.0769275 -0.039070882 0.03199016 -0.039431985
000340 72 df 9f bc 9e 37 56 3c 8c 7a f4 3b f1 ab a4 3d
       -0.019515727 0.013074784 0.007460898 0.08040608
000350 66 30 90 3d a2 a0 a7 bd 2a 15 89 3d 65 09 ad 3d
       0.07040481 -0.08184935 0.0669349 0.084490575
000360 87 e0 8d bd f4 86 a0 bd 36 66 a9 bb 39 c3 bd 3d
       -0.06927591 -0.0783824 -0.005169655 0.092657514
000370 fd a4 9c ba 10 25 e4 bc 56 ec 55 3d 0d 81 36 bd
       -0.0011951026 -0.027849704 0.05222734 -0.044556666
000380 04 1d 9a 3d 0e 7e 1b 3c a8 4c 47 bc ef 5f ad 3c
       0.075250655 0.009490503 -0.012164272 0.021163909
000390 eb 57 85 3d 14 5a 75 bb 1f b5 02 bc 2d 6f c5 bd
       0.0651091 -0.0037437724 -0.007977753 -0.09640346
0003a0 ff ab 71 bd c8 bb f7 bc 50 25 32 3d f2 9c 57 bd
       -0.05900192 -0.030240908 0.043492615 -0.05263991
0003b0 9d 56 a1 3d e6 86 6c 3d 63 bd a9 3d 21 84 8b 3d
       0.07877848 0.057745837 0.08288076 0.06812311
0003c0 71 c0 4a bc 05 eb a2 3d 3a 5c c0 bd 11 eb 0b 3d
       -0.012374983 0.07954983 -0.09392591 0.034159724
0003d0 be b8 d4 3c f3 41 8e bd 13 4e d8 3c 7d c7 85 bd
       0.025966998 -0.069461726 0.026404416 -0.0653219
0003e0 2c 9f de bc 8d 13 b0 3c a8 6a 5a 3d 4b 75 59 3d
       -0.027175508 0.021493698 0.05332437 0.053090375
0003f0 03 3b b6 3c f1 3a 92 3d 0f 4f b7 bb c6 08 8c bd
       0.022244936 0.071401484 -0.0055941413 -0.06837611

bias f4 [140]
000000 33 1e 03 3c 4e e9 f4 3c a9 53 1d 3d ba 4f 45 bd
       0.0080028055 0.029896405 0.038409863 -0.048171736
000010 96 0d ae 3d 0e a5 ed bc 69 c0 1d bd 57 71 9a bd
       0.08498685 -0.029009368 -0.038513575 -0.07541149
000020 55 9b 25 3d 82 d5 b3 bb db ca 5b ba 52 3f 91 bd
       0.04043134 -0.0054880986 -0.0008384415 -0.070921555
000030 26 da 80 bd ea ad 5e 3d bc b7 f2 bc 0e 91 89 3d
       -0.062916085 0.054365076 -0.029628627 0.0671712
000040 70 9b 88 bc f8 25 ad bc f8 67 d0 bc f3 d7 75 bd
       -0.01667568 -0.021136269 -0.025440201 -0.0600204
000050 48 d0 1a bd 34 34 bf bc 97 39 5f bd 1a 6a 4c bd
       -0.03779629 -0.023340322 -0.05449828 -0.049905874
000060 e1 99 e2 bb 39 4d 93 3d b6 98 84 bd 21 ce 05 3d
       -0.0069153165 0.071924634 -0.0647444 0.032667283
000070 49 09 ab 3c bc 88 8f 3d 4f bb 84 3d 1a da 93 3d
       0.020878451 0.07008502 0.06481039 0.07219334
000080 c0 cb 2f bc 87 98 99 bd 9d 3a 59 bd fd 6d d5 bc
       -0.01072973 -0.074997954 -0.053034414 -0.026053423
000090 16 17 3e bd 86 f5 5b 3d 73 79 9b 3d 71 3f 4e bd
       -0.046408735 0.053700946 0.07591524 -0.05035347
0000a0 a1 ed 2c bd a3 e0 1f bd 8e a0 2a bd 92 03 e8 bc
       -0.042218808 -0.03903259 -0.041657023 -0.028322015
0000b0 93 fa 89 3c 5a 1d 31 3d 02 cf 85 3d 45 cd 8e 3d
       0.016843116 0.043240882 0.06533624 0.06972746
0000c0 bc 60 b9 3d 29 41 49 bd 76 1c 31 bd 82 96 94 3c
       0.09051654 -0.049134407 -0.043240033 0.018138174
0000d0 f0 67 d3 bc 39 c1 92 3d 8f 96 91 bc 8f c7 f8 bc
       -0.025806397 0.071657605 -0.017771987 -0.030368594
0000e0 70 de 8f 3c c6 f5 fa 3c 08 09 a1 3d aa 57 99 bc
       0.017562121 0.030634772 0.07863051 -0.01871856
0000f0 67 d7 45 3c e5 68 13 bd e8 33 3a 3d 06 d2 04 bd
       0.012075282 -0.035988707 0.045459658 -0.032426856
000100 e6 cc 9c bd de 51 b4 3b 13 a1 80 3d 99 87 c4 bc
       -0.07656269 0.0055029234 0.062807225 -0.02399044
000110 8d 5a 6a bd 2d d1 b0 3a 82 18 67 bd 87 4e 95 3b
       -0.057215262 0.0013490074 -0.056419857 0.0045564803
000120 bf 6b 98 3d 75 8f 0b 3d 6f cc b4 3c 39 0f 8c 3d
       0.07442426 0.03407236 0.022070138 0.06838841
000130 ae 52 b3 bc 95 09 5e 3b e4 03 a3 bd c3 11 6a bd
       -0.02189001 0.0033880223 -0.079597265 -0.057145845
000140 f6 a2 4e 3d 5d 60 89 bd 5e 6e ac bd bf ef a9 3c
       0.05044838 -0.06707833 -0.08419488 0.020744203
000150 9f 28 a4 3d 92 7b 9c bd c6 ba 79 3d 9c 19 11 bd
       0.0801556 -0.07640757 0.060969137 -0.035424814
000160 1e 3d 14 bd 1b 2f da 3c 94 b4 46 3d 2b 2e 76 bd
       -0.0361911 0.02663379 0.048512056 -0.060102623
000170 41 b9 3c bc 31 bc 79 bd 23 cd 61 bc 5b dd 0d bd
       -0.011518777 -0.06097049 -0.013781819 -0.03463493
000180 98 6a 16 bd 1a 2a af bd c6 06 a0 3d 21 d3 52 3d
       -0.03672275 -0.08552952 0.07813792 0.05147088
000190 72 6e 63 3d e7 f5 e1 bc eb f2 6c bc 5c f3 8f 3c
       0.05552525 -0.027583076 -0.014462213 0.017572097
0001a0 39 52 94 3d a3 4e 44 3d a8 b9 b0 3d 58 8b 93 bd
       0.07242245 0.047926556 0.08629161 -0.07204312
0001b0 6c 78 3f bc f2 26 31 3c 03 7d 2d bd 37 d3 34 3c
       -0.011686426 0.010812508 -0.04235555 0.011036686
0001c0 d5 5e a7 3c c9 8c ad bc f6 24 83 bd fb 40 2f 3d
       0.020430962 -0.021185296 -0.06403534 0.04278658
0001d0 f7 8d 8e bc a5 3e ab 3d e9 5a 98 3d eb 66 02 3d
       -0.017401678 0.08361558 0.07439215 0.03183643
0001e0 96 5b 90 bc 30 98 b0 3d ed f7 4e 3d 11 ef e6 3c
       -0.017621797 0.086227775 0.05052941 0.028190168
0001f0 a9 90 05 bd 89 27 74 3d c8 ed 99 3d 11 a2 ad bd
       -0.03260866 0.059608016 0.07516056 -0.08478177
000200 3a a6 64 3c 78 f5 7c 3c ad 22 a3 bd 0f bc c1 3b
       0.013955647 0.015439384 -0.07965598 0.005912311
000210 54 6b 63 bb 39 29 32 3d a8 dd 91 3d 8b 0c 25 bd
       -0.0034701424 0.043496344 0.07122356 -0.040295165
000220 2d b3 16 3d 30 b3 16 bc 7f ad bd bc 97 ae 8f bd
       0.03679197 -0.009197995 -0.023154018 -0.07015722

weight f4 [2, 140]
000000 3c 43 3f 3d 43 4b 80 bd 2f 83 85 bd 2a 6c a6 bd
       0.04669498 -0.06264355 -0.06519162 -0.081260994
000010 e4 98 73 3d c4 4d 6a 3d 55 7a 68 3d 52 ae a2 3d
       0.05947198 0.05720307 0.05675729 0.07943405
000020 79 94 72 bd 8e d0 2e 3d 89 4b 98 bd 33 e5 c0 bd
       -0.059223626 0.042679362 -0.07436282 -0.09418716
000030 74 72 a0 3c a4 53 91 bd 9d 28 a5 bd 11 8b 31 bd
       0.019585826 -0.07096031 -0.08064387 -0.043345515
000040 3f 15 ea 3c 11 f1 4e bd 93 54 9d bd ad ae 62 3c
       0.028574584 -0.050522868 -0.07682147 0.013835591
000050 57 d9 7d bd 79 06 d8 bc 18 50 74 bc 1d ba 30 bc
       -0.06197485 -0.026370274 -0.014911674 -0.01078656
000060 3f c0 a2 3d e0 63 9b ba c5 ec 5a 3d e4 0c 5a bd
       0.07946824 -0.0011855327 0.053448457 -0.05323495
000070 9a 4e ae 3d e1 9f 87 bd fb fb 5f bd c3 da ad bd
       0.08511086 -0.06622291 -0.054683667 -0.08488991
000080 27 50 a1 3d 9d 88 bd 3d d2 e9 86 bd 35 25 a3 bd
       0.07876616 0.092545725 -0.065875664 -0.07966081
000090 43 ce 43 3d be 8c 57 3d 9f 68 ae 3d b3 80 c4 bd
       0.04780413 0.052624457 0.08516049 -0.0959486
0000a0 71 2b ac 3d 0e 93 90 3d 03 c0 41 bc af 7d 90 bd
       0.08406723 0.070592985 -0.011825564 -0.07055222
0000b0 ac 84 e3 bc 99 87 8e 3d 94 32 6a 3c ac 8a 8e bd
       -0.027773224 0.06959457 0.014294285 -0.06960043
0000c0 17 9c 1e bb 27 1c 41 bd 66 ee b2 3c b1 16 a1 bd
       -0.0024201924 -0.04714599 0.021842193 -0.07865656
0000d0 f9 c5 16 3d d5 1a ba 3d 93 64 da bc d4 99 6b 3d
       0.036809895 0.09087149 -0.026659286 0.05751975
0000e0 c0 2d 16 bd 3b 09 89 3d ea 2c e9 bc b6 ab bc ba
       -0.036664724 0.06691214 -0.0284638 -0.0014394436
0000f0 ae dd 30 bc 1f a1 a6 bd 65 6a 0a 3c 46 f7 88 3d
       -0.01079504 -0.081362 0.008448218 0.06687789
000100 10 c6 a2 3d 34 6d 69 3d 6b bf 19 3d 93 47 92 bd
       0.07947934 0.05698891 0.037536066 -0.07142558
000110 ba 4b a6 bd 32 2d 3f 3d 2d f9 24 3d cf 5b 8d bd
       -0.081199124 0.04667396 0.040276695 -0.06902277
000120 6d 6c 53 bd 91 b4 00 bd 26 70 ef 3c 73 e4 af 3d
       -0.051617075 -0.0314222 0.029228281 0.08588495
000130 24 b1 8c bd d2 6d be bc 09 3c 5d bd 2d 60 8a 3d
       -0.068697244 -0.023245726 -0.054012332 0.06756625
000140 5b 37 bc 3d dc 07 19 bd 17 0b 05 bd 55 52 8c bd
       0.09190246 -0.03736101 -0.03248128 -0.06851641
000150 12 02 9b 3d ab cb 85 3c 68 45 3c bd 33 92 33 bd
       0.07568754 0.016332468 -0.04596463 -0.0438406
000160 47 14 63 3d 48 cf a2 3b f6 b1 94 bd b2 37 9f 3d
       0.05543926 0.0049685575 -0.07260506 0.07774295
000170 42 28 ab 3d ce c5 bf 3d 1f 5c a3 3d 5e 92 80 bc
       0.08357288 0.093639 0.07976555 -0.015694793
000180 76 04 54 bd 2d 27 02 bd ee 83 2a 3d 93 45 a4 3c
       -0.051762067 -0.031775642 0.041629724 0.020052707
000190 cd 36 5f 3d a3 13 8e 3d ae 02 8b 3d 60 5b 50 bc
       0.05449562 0.06937339 0.067876205 -0.012717098
0001a0 13 00 86 3d fd 3a 3e bc 81 cf 6b 3d 1d b6 98 bd
       0.06542983 -0.011610744 0.057570938 -0.0745661
0001b0 07 7d d7 bc 05 d4 a5 3d d5 52 27 3b 2e 91 5e 3d
       -0.026304735 0.0809708 0.002553155 0.054337673
0001c0 70 4b f6 3b ff 49 5f 3d 6a ba 31 bd 82 2f 92 bd
       0.007516317 0.054513928 -0.04339067 -0.07137968
0001d0 97 8d c0 3d e4 bb 06 3d 6c 94 b6 3d 35 e6 06 3d
       0.09402006 0.03289403 0.08915028 0.032934386
0001e0 3c e0 f5 bc a7 45 08 3d 19 4f 2c bd 0a fc 54 bd
       -0.03001415 0.03326955 -0.04206762 -0.051998176
0001f0 0a 02 89 3d 37 be 14 bd c0 a1 7c bc 01 5d 09 bd
       0.06689842 -0.036314216 -0.015419424 -0.03353596
000200 c2 da 4b bd 9c 78 d1 3c 1f d6 41 bd 46 d5 bd bd
       -0.04976917 0.025570206 -0.047323342 -0.09269194
000210 d6 0b 87 3c fe 96 6c bd 27 32 89 3d 4d b5 9c 3d
       0.016485136 -0.057761185 0.06699019 0.07651768
000220 c6 16 5b bd 9c 17 e0 b9 53 ec 38 bc 5b f0 b4 3b
       -0.053488515 -0.000427422 -0.011286813 0.0055218167
000230 79 71 d4 3a 47 d8 04 3c 4c ee 39 3d b6 cc 7f bd
       0.0016208134 0.008108205 0.045393273 -0.062451087
000240 09 9a 47 3d 03 2c 3c 3d 34 f3 6d bd 2d 88 c8 bc
       0.048730884 0.04594041 -0.058093265 -0.024478996
000250 18 25 b1 bc a7 01 a5 3c ae f8 04 bc 20 2c 00 bd
       -0.021624133 0.02014239 -0.0081159305 -0.03129208
000260 06 d2 24 3d 14 91 f3 3c 21 d4 7f 3c 88 5c b6 3c
       0.040239356 0.029732265 0.01561454 0.02226092
000270 19 58 cb 3c e4 df b8 ba 4d 5e 18 3b 3c 36 1e 3b
       0.024822282 -0.001410481 0.0023249567 0.0024141213
000280 9b fc 80 bd e5 2b 10 3b 0a 62 aa bd 5d 28 3a bd
       -0.06298181 0.002199882 -0.08319481 -0.04544865
000290 b3 6e 71 3d 54 46 28 3c b9 84 a2 bc d2 1a 0a 3c
       0.05894346 0.010270674 -0.019838678 0.008429246
0002a0 81 31 be bc c7 d4 cb 3b b5 3a e7 bb 12 c0 66 3d
       -0.023216965 0.0062204334 -0.007056559 0.056335516
0002b0 74 6a 1e bd b5 f3 7a 3d 21 a3 1b bc 8c 5c 20 3d
       -0.03867574 0.061267573 -0.009499342 0.03915076
0002c0 d2 4b 84 3d 23 f3 21 3d 3a d7 c8 bc 3f 60 aa bc
       0.06459774 0.039538514 -0.02451669 -0.020797847
0002d0 ba 67 d3 bc fc 40 ac 3c 82 68 94 3d c2 71 ce bc
       -0.025806297 0.02102708 0.07246496 -0.025200728
0002e0 d0 4b 19 bc e0 94 38 3d 75 7a 14 3c 08 64 ea bc
       -0.009356454 0.045063853 0.009062399 -0.028612152
0002f0 0d 9d 4a 3d 2c d8 35 3c 79 92 7f bd 0d 38 80 bc
       0.04946618 0.011098903 -0.062395547 -0.015651727
000300 8d 26 be 3c 49 31 4d bd 10 06 d1 bc 85 31 07 3c
       0.023211742 -0.05009583 -0.025515586 0.0082515525
000310 4b e9 85 3d a1 c9 06 bd 5e 6d 84 3c 38 4d 30 bd
       0.06538638 -0.032907132 0.016165432 -0.04304239
000320 36 f6 87 3d 5b 98 8e 3d f4 19 6a 3d 99 16 59 3b
       0.06638758 0.06962653 0.057153657 0.0033125042
000330 99 f0 03 bc de d4 1a 3b 1e d1 36 bc 0c a9 84 bc
       -0.008052968 0.0023625414 -0.011158256 -0.01619389
000340 98 9b 92 bc 19 48 61 3c a6 48 d8 bc 14 43 23 3d
       -0.017896459 0.0137501 -0.026401829 0.039858893
000350 43 44 c5 bb dd c7 93 bc 03 a9 53 3d 04 b2 5a bd
       -0.0060201003 -0.018039638 0.051674854 -0.053392425
000360 95 52 11 3d 13 ab 8a bd b4 3d ca 3c d4 60 b2 3c
       0.035479147 -0.06770911 0.024687625 0.021774687
000370 62 9c ff bc 7c 6f 86 3d 04 f2 66 bd e8 a9 f3 bb
       -0.031202499 0.06564233 -0.056383148 -0.007436026
000380 ea d5 f5 3c de 1e 64 bd df 9f 62 bb e3 7b 9f bb
       0.030009229 -0.0556935 -0.0034580154 -0.0048670634
000390 39 7c 07 bd 82 7d 75 3c c1 ef af bc c2 06 f6 3c
       -0.033077452 0.014983537 -0.021476628 0.03003252
0003a0 a7 83 30 3d 34 19 1a 3c df ce c7 bc 38 1e a2 3b
       0.043094303 0.009405423 -0.024390636 0.00494745
0003b0 c0 5d 8b 3b ec 56 e5 3c a5 27 0e bd bc f8 b1 3b
       0.004253119 0.02799555 -0.034705777 0.005431263
0003c0 34 e8 f2 bb 3b 8d 6a bd 13 6d b3 3c aa ae 12 3c
       -0.0074129347 -0.057263594 0.021902597 0.008952776
0003d0 63 df 62 3d 90 cc 13 bd b5 25 fe bc 66 0a 05 bd
       0.05538882 -0.036083758 -0.03102384 -0.03248062
0003e0 c7 f1 30 bd d4 f8 dd bc ba cc 07 3d a4 78 17 bd
       -0.043199327 -0.02709619 0.033154227 -0.036980286
0003f0 f4 12 72 bd 7b 51 bd 3c 47 c8 12 bd b1 ff 91 3d
       -0.059100106 0.023110142 -0.03583553 0.071288474

bias f4 [2]
000000 02 a5 2e 3d 28 8f 55 bd
       0.042637832 -0.052138478

weight f4 [140, 140]
000000 4e b3 b5 bb c2 af 16 bd 76 b1 61 bd 85 99 69 3d
       -0.0055450564 -0.03678871 -0.05510088 0.057031173
000010 13 f0 84 bd 76 e5 60 bd 38 bc 1b bd 62 0a 8e bd
       -0.06491103 -0.05490633 -0.038021296 -0.06935574
000020 c1 ee 29 bb fe 9d 1b bd 07 e1 66 bd 9d 1a fa 3c
       -0.0025929662 -0.03799247 -0.056366947 0.030530268
000030 2d 87 8e 3d eb a8 27 bd 90 a1 ad bd fa 59 76 3d
       0.069593765 -0.040932577 -0.08478081 0.060144402
000040 85 b4 04 3d f2 19 7a 3d 78 86 68 bd cd 33 53 bd
       0.03239872 0.0610599 -0.056768864 -0.051563073
000050 48 cf 88 3d 0b ea 3d 3d f7 fa 93 3d e3 9a e1 3c
       0.06680161 0.04636578 0.07225602 0.027539676
000060 2a 76 15 3d df 42 37 3d 95 6f 2e 3d 63 8b 94 3d
       0.036489643 0.044741508 0.04258688 0.072531484
000070 90 4e 3b 3d a8 d0 93 3d 24 69 4e bd cb 17 03 bd
       0.04572922 0.072175324 -0.05039324 -0.032005113
000080 48 45 5b 3c 3d e6 2c 3d f0 11 56 3d 87 43 52 bd
       0.013383217 0.04221176 0.0522632 -0.05133393
000090 0a 66 29 3c d5 41 5a 3d 51 eb 30 3d e6 d0 68 bd
       0.010339269 0.05328544 0.043193165 -0.056839846
0000a0 87 22 01 bd 54 0d ab bc 2c be ad bd 79 bd 31 3d
       -0.03152707 -0.020880379 -0.08483538 0.043393586
0000b0 92 a1 f4 3b e3 e0 93 bd 39 d9 af 3c 71 16 ba 3c
       0.0074655497 -0.07220628 0.021465885 0.022715779
0000c0 41 47 a1 bd 58 fd 14 3d 4e 1e 9e 3d 56 5f cd bc
       -0.07874919 0.03637442 0.07720624 -0.025069874
0000d0 c6 71 8b bd c4 61 9c bd 3a ed 97 3d b5 03 69 3d
       -0.0680881 -0.07635835 0.07418294 0.0568883
0000e0 64 93 40 3c b7 52 23 3c 4c f6 6c bd 1d f7 d3 3c
       0.011753891 0.009968451 -0.057852075 0.025874669
0000f0 06 f3 da bc 50 b1 6e 3d 8e 52 9c bb 37 a4 33 bd
       -0.02672721 0.058274567 -0.0047705835 -0.04385778
000100 3d b2 12 3c 7e 95 c6 3c b5 9c 3c 3c ac 7a 09 3d
       0.008953628 0.024241205 0.011511971 0.033564255
000110 5f 2d 5c 3c 02 b5 ce bc e8 58 74 bd c5 6b c2 3c
       0.013438552 -0.025232796 -0.0596551 0.02373303
000120 75 3b 44 bd a5 f2 9b 3d 0e 08 e2 bc 9e ec 9a bc
       -0.047908265 0.0761464 -0.027591731 -0.018911656
000130 00 f4 73 bd a9 5d 7f bd 11 69 9d 3d df 7e 02 3d
       -0.05955887 -0.06234518 0.076860555 0.031859275
000140 e2 0d 88 bb ba 24 91 bd e5 a8 aa 3d f8 f6 03 bc
       -0.0041520456 -0.07087083 0.08332995 -0.008054487
000150 1b df 0b 3d 06 2b 39 3d 62 70 56 bd 52 79 7e bc
       0.034148317 0.045207046 -0.05235327 -0.015531855
000160 33 3b 71 3c f0 07 93 bd 88 fc db 3c dc 87 f2 bb
       0.014723587 -0.07179248 0.026853815 -0.0074014496
000170 d1 e6 1a 3d 09 8c 87 3d 33 c7 88 bd de 63 98 3b
       0.03781778 0.066185065 -0.06678619 0.004650577
000180 3a 28 e9 3b 86 ab c3 bc 7d 27 8b 3d df 94 1d 3d
       0.007115391 -0.0238855 0.06794641 0.038472053
000190 1a 44 73 3d cd cb ae 3d 4b 49 21 bc 8e ce 6e bd
       0.05939112 0.08534966 -0.009844135 -0.058302455
0001a0 ba c1 08 bd 19 29 d9 bb f6 a2 17 3d c7 ec f1 3c
       -0.033387877 -0.0066272137 0.037020646 0.02953185
0001b0 f9 a2 5b 3d 5e d6 b2 3d 13 de e8 bc 5e f7 3c bd
       0.05362222 0.087322935 -0.028426206 -0.046134345
0001c0 bb c1 df bc d0 f4 cc bb 22 24 7d bc 70 83 ac 3d
       -0.027314058 -0.00625477 -0.015450509 0.08423507
0001d0 76 80 6c 3d cd 57 87 3d 93 63 da 3c e6 aa 86 3d
       0.057739697 0.066085435 0.026658809 0.06575565
0001e0 dd 60 46 bd c5 42 b7 3c dd c6 b8 3c 96 e0 9d 3c
       -0.04843222 0.022370705 0.022555763 0.01927213
0001f0 62 ac 99 3c 5c cd 65 3d f6 1d 78 3d f6 9b 99 3c
       0.018758956 0.05610405 0.060575448 0.018751126
000200 b5 b8 88 3d 2f 81 d5 3c a5 cc de bc 1e e4 fc 3c
       0.06675855 0.026062576 -0.027197191 0.030870494
000210 81 1c 70 3d bc 2e 2e bd 4b cc 80 bd 56 dd 5b 3d
       0.058620933 -0.042525038 -0.06288966 0.05367788
000220 3a 46 88 bd 10 bb aa 3d 0d b8 c1 bd 7f db e2 3a
       -0.0665402 0.083364606 -0.09458933 0.0017307847
000230 88 c7 19 bd bb 1d 37 bd c3 00 ea bc 92 87 bb b9
       -0.037543803 -0.044706088 -0.028564816 -0.00035768427
000240 7e 1c 22 bd d6 f7 58 bd dd 98 81 3b a0 c6 8d bd
       -0.039577954 -0.05297073 0.0039549903 -0.0692265
000250 8a 7c 8c bd bd 41 40 3d d2 a4 36 bd aa 21 94 bd
       -0.068596914 0.046937693 -0.04459078 -0.072329834
000260 27 21 96 3d a9 73 8b 3d fd de 18 b9 03 1d 55 bd
       0.07330542 0.0680917 -0.00014578919 -0.05202962
000270 02 b1 a9 3c 65 96 84 bd 98 9f 6d bd 75 08 62 bd
       0.020714287 -0.06473998 -0.05801353 -0.055183847
000280 ca 53 bd bb 2a 42 5e 3d b3 ad 67 3d 86 ad 22 bd
       -0.0057778107 0.054262318 0.056562137 -0.039716266
000290 6d 42 67 bc 6c 2b ed bb 10 a5 f6 bb dc 1b 28 3d
       -0.014114958 -0.0072378423 -0.007527001 0.041042194
0002a0 e1 3e a4 3d 92 6b 07 3d 7a 2e a4 3d 1c 70 a9 3d
       0.08019806 0.03306157 0.08016677 0.08273336
0002b0 7a 9c a6 bd 80 86 90 bd c0 6d 1d 3d 78 78 96 3d
       -0.08135314 -0.07056904 0.038434744 0.07347196
0002c0 ab ff 50 3d 9b f3 72 bc 74 c1 9c 3d 6c 9f 82 3c
       0.051025074 -0.014828588 0.07654086 0.015945159
0002d0 1c 50 2b 3d 50 19 ea 3c fe cf 6f bd 8b 18 30 3d
       0.041824445 0.028576523 -0.058547966 0.042992156
0002e0 69 5a f0 bb 52 eb 18 3d 3c b1 9a bd c5 34 dd 3c
       -0.0073349965 0.037333794 -0.07553336 0.027002702
0002f0 58 29 88 bc 84 b1 39 bd d6 f6 af 3d 97 c6 29 3d
       -0.016621277 -0.045335308 0.08592002 0.041449156
000300 e9 80 a3 3d 55 f0 7e 3d 16 af a4 bc 72 49 54 3c
       0.07983572 0.062240917 -0.020103019 0.012956964
000310 c5 95 79 bd 5c 7e 4a bc aa c4 15 bd 7a d7 19 3d
       -0.060933847 -0.012359228 -0.036564507 0.03755901
000320 eb 3b a8 3d e0 c6 ee 3c fe 4f 59 bd 50 32 38 bc
       0.082145534 0.029147565 -0.053054802 -0.011242464
000330 67 32 c4 bc 13 cb a8 3d 6d 0d 51 3d fa 5e 6a 3d
       -0.023949815 0.08241858 0.051038194 0.057219483
000340 7f 13 5c 3d 56 81 c9 3c 85 24 67 3d 70 72 32 bd
       0.05372953 0.024597805 0.056431312 -0.043566167
000350 ca ad 92 bd 95 bf 8a 3d a5 e3 18 3d 9d 8e a2 bd
       -0.07162054 0.067748226 0.037326474 -0.079373576
000360 01 02 a0 bc b3 a6 55 3b 39 e5 a0 3d 42 3b 9e bc
       -0.019532206 0.0032600581 0.07856221 -0.019315366
000370 84 cb 85 bd 6a ff 71 bd 64 bd a5 3d 11 17 bf bd
       -0.06532958 -0.059081472 0.08092764 -0.093305714
000380 cd 80 d1 3c 45 bf 41 3c 39 bd f1 3b fd cd a8 bd
       0.025574112 0.011825387 0.0073772934 -0.08242414
000390 56 13 a9 3d 34 b4 8d 3d b2 e4 50 ba 50 d1 8a bd
       0.08255641 0.06919137 -0.00079686486 -0.067782044
0003a0 67 bd 6d bd 97 96 6d 3d a5 e5 ef bc cb 01 70 3d
       -0.058041956 0.05800494 -0.029284308 0.05859546
0003b0 45 03 59 3d 58 e5 52 bd a5 2a d9 3c 3c 2b a3 3d
       0.052981634 -0.05148825 0.026509592 0.07967231
0003c0 62 a2 15 3d 2a fc 3a bd 5d 3a ba bc e1 f9 6c 3a
       0.036531813 -0.04565064 -0.022732908 0.00090399204
0003d0 17 16 a2 bd 3c 22 80 3d 40 d5 37 bd d1 eb d5 bc
       -0.079143696 0.0625653 -0.044881105 -0.026113423
0003e0 00 7e a1 3d 13 f8 80 3d 83 45 8f bd 76 83 8d bd
       0.07885361 0.062973164 -0.0699568 -0.0690984
0003f0 27 79 aa 3b 00 32 84 3c 5f 2f 7f bd fa 04 f5 bc
       0.0052024308 0.016137123 -0.062301036 -0.0299096
