training_outputs/imitation_learning/models/model_imitation_N15.pt (torch, 347305 bytes, 13 tensors)

weight f4 [140, 32]
00000000: 3469 4f3e 0034 bdbd 7e6b a3bd 25db 38be
00000010: e95e 933d f273 9e3d 1eff 833d a096 5c3d
00000020: ccb0 f7bd 7622 c93d 785d 903b bfc5 a1bc
00000030: 1f69 b73c 1e49 f8ba 84c8 f9bc 254b 05be
00000040: e683 593d acb2 f9bd 9acb 123d ebef aebd
00000050: c2c4 12bd 2725 823d 78cf 96b9 9636 8fbd
00000060: e004 a3bd 6ef8 a3bc 55b4 333d bb91 343e
00000070: 4271 d03d 0b1a 843c 71ba 93bd 2414 77bd
00000080: 53e3 053e 5857 52be 34b1 c3bd 1163 9dbd
00000090: 741e d03c 6fa2 dbbd a95e 96bd 9b43 0ebe
000000a0: cf85 32bc bb6d 0f3e 0d41 f83d 521a b6bc
000000b0: 0ae8 f3bd eae7 803d 4da3 dd3d be0f 323d
000000c0: 98e8 99bd 9f48 19be db26 033e 7e08 7ebd
000000d0: 8585 103e e898 043e bf39 803c 225e 44be
000000e0: cbb5 13be 38d0 0c3d b7c2 253c 5377 0c3e
000000f0: 3fc6 41bc 05a4 863d 7c9d 163d 6fec e7bd
00000100: 8d00 15be 14ac 243c dbd8 163e 84dc e23d
00000110: fae8 76bd 192b 113e 17a9 b93d 4189 02bd
00000120: c154 93bd a89c 04bd 391b 65bd de95 20be
00000130: 7537 713d ea97 fcbd cffd a23d 34ea a53d
00000140: 1967 553d 3034 aabd 4ce2 4a3d 7390 343e
00000150: c9b5 983d 3353 a4bd 3f02 adbd e3fb 813d
00000160: 66a2 683c b6dd 89bd 9cf7 e9bc 5a60 b03c
00000170: 09c9 e0bd ed32 e9bd f879 adbd 2882 ed3c
00000180: 4736 3e3e ca76 b1bd 05ab 653d 84e8 6e3c
00000190: 203c 4fbd deb8 f4bd 9577 dfbc 5821 0e3e
000001a0: 62b5 6bbd d92a cf3d 3aac abba 6731 083e
000001b0: 5833 e63d ec2d 07be a153 ebbc f19c 48bc
000001c0: d39b ae3d 9c36 80bd 50d8 25bd de6e cabd
000001d0: efa2 0c3e cb2f 453e 8d9f 07be 06f9 b7bd
000001e0: d229 ed3d dd06 453b 5dbc 0ebe a3bb 26bb
000001f0: d587 1abe 8acd b43d 350e 3fbd d501 83bd
00000200: 263f 28bc c93e 13be de51 92bd 9916 b53d
00000210: 25c3 803d cee2 f13d c74d 85bd 2a69 23be
00000220: e805 9ebc 8126 c33c 0212 243d d8f5 39bd
00000230: d897 c53d 9971 773d 9912 4cbd a25a ad3d
00000240: 6a9f 81bd fe92 fcbd 2726 32bc bcad 013e
00000250: 51b2 fe3d cfd6 81bd 056f 093d 11aa 423b
00000260: 92d4 5c3b 65a9 f6bd 9a88 b9bc 32a2 0ebe
00000270: bb79 4d3c a290 4a3c 70de 1b3e e39a 933d
00000280: 80b6 5c3d 6c44 303e 0275 17be a425 e2bd
00000290: 1742 c83d 23f0 123e 4908 f2bd 002b 223c
000002a0: a37c ddbd e957 863d 3fd6 f23d 2af2 493c
000002b0: 6c52 073e 47f9 e53d b234 083e 43d0 85bd
000002c0: 543f d5bd 359f c23d 86c4 2b3d 258e a63b
000002d0: 52f1 05be b305 cb3d 97a0 70bd 2e59 c83c
000002e0: 1ada 4f3d f31e c2bc 3f27 b3bd 2b16 323d
000002f0: 4e88 813d b152 10bd d599 1b3c 0547 173c
00000300: fa4b d23d 69af 723e 9322 293e b00c 583d
00000310: e29e ca3d 194c 16be 8a64 2a3e d089 aebd
00000320: d549 883e 9a38 19bc 16a1 0f3e cdbd 08be
00000330: c5a8 c33d 2216 94bc 7638 313d a4cc 053e
00000340: a3fe 2e3e a61e 8b3e 5e53 0b3e 5958 fa3d
00000350: a29b 2f3d 5360 c43d 5802 533e 74f5 25be
00000360: 9f68 3e3e 9cb1 cd3b 6fdf 0c3e 120e 0b3e
00000370: 87e6 6d3d aa8a ffbd ebf2 d63c 3fe8 3f3d
00000380: 5c8f b0bc b0be 523e 2291 a5bc 9e92 693d
00000390: 6788 033d 155f 1abe 32f8 d7bd 3026 253d
000003a0: 7472 b1bd 45ec 97bd 48f7 b83d 4305 c03d
000003b0: 697d d5bb 7ff7 bfbd bc58 6d3d 438f 553d
000003c0: 12b2 0cba 2743 283d 7426 8a3d 1d07 43bd
000003d0: df63 bb3d d644 03be 2dcf 973d 9c82 223e
000003e0: 1352 0e3d 969a 4bbd b47b aebd eb46 fd3c
000003f0: 8f6a 92bd 5944 b3bc 05c5 f63b 3710 3abc
0.20254976 -0.09238434 -0.07979487 -0.18052347 0.07195837 0.077369586 0.06445144 0.053854585
-0.12094268 0.09821026 0.0044056736 -0.019747613 0.022388993 -0.0018942689 -0.030491121 -0.13016947
0.053104304 -0.12192282 0.0358387 -0.085418545 -0.035832174 0.063547425 -0.00028764806 -0.06992833
-0.07959914 -0.020015921 0.04387315 0.17633717 0.10177852 0.0161257 -0.07213295 -0.060321942
0.13074999 -0.20541131 -0.09555283 -0.07684911 0.025405146 -0.10724341 -0.07342274 -0.13892977
-0.01089616 0.14006703 0.121217825 -0.022229347 -0.11909492 0.06294234 0.10822163 0.043472044
-0.07515067 -0.14969109 0.12807791 -0.062019818 0.14113434 0.12948954 0.015652535 -0.19176534
-0.14424817 0.03437826 0.010117224 0.13717394 -0.011827051 0.06574253 0.036771283 -0.11324393
-0.14550991 0.010050792 0.14731161 0.11077216 -0.060280778 0.14176597 0.090654545 -0.031869177
-0.071939 -0.03237596 -0.055934165 -0.1568217 0.05889078 -0.12333663 0.079585664 0.08101311
0.052100275 -0.08310735 0.04953222 0.17633228 0.07456548 -0.080236815 -0.08447694 0.06346872
0.014198875 -0.06731741 -0.028560452 0.021530319 -0.109758444 -0.113866664 -0.08470529 0.028992727
0.18575393 -0.08665235 0.0560713 0.014581803 -0.05059445 -0.11949323 -0.0272787 0.13879907
-0.057546027 0.101155944 -0.0013097592 0.13300095 0.11240262 -0.13201112 -0.0287264 -0.012244449
0.08525815 -0.06260416 -0.040489495 -0.098844275 0.13734029 0.19256513 -0.13244458 -0.08983044
0.11580242 0.0030063905 -0.13939042 -0.002544143 -0.15090878 0.08828266 -0.04664441 -0.06396834
-0.010268962 -0.1437942 -0.07144521 0.08842201 0.06287221 0.11810838 -0.065089755 -0.15958086
-0.019289926 0.023822071 0.040056236 -0.04540047 0.096481025 0.06041107 -0.049822424 0.084645525
-0.06329234 -0.12332724 -0.010873354 0.1266393 0.12436355 -0.063397996 0.033553142 0.0029703418
0.0033696038 -0.12044028 -0.022648145 -0.1392906 0.01254123 0.012363585 0.15221572 0.07207277
0.053884983 0.17213601 -0.14790729 -0.11042336 0.09778231 0.14349417 -0.118179865 0.009897947
-0.10814788 0.06559736 0.118572704 0.012325803 0.13215035 0.112291865 0.13301352 -0.065338634
-0.104124695 0.095030226 0.041935466 0.005082863 -0.13080338 0.099131964 -0.0587469 0.024456587
0.050745107 -0.023696398 -0.0874772 0.043478172 0.06324826 -0.03523511 0.009497126 0.009233241
0.10268398 0.23699726 0.16517095 0.052746475 0.09893586 -0.14677466 0.16639915 -0.085223794
0.2661883 -0.009351874 0.14026293 -0.13353653 0.095536746 -0.01807696 0.043266736 0.13066345
0.17089324 0.2717182 0.13606021 0.12223882 0.042873032 0.09588685 0.20606363 -0.16206914
0.18594597 0.006277276 0.13757108 0.13579586 0.058081176 -0.1247762 0.02623888 0.046852347
-0.021552734 0.20580554 -0.020210806 0.05702459 0.032112505 -0.15075333 -0.105453864 0.04031962
-0.08664408 -0.07418112 0.0903154 0.093760036 -0.006515194 -0.09373378 0.05794595 0.05213858
-0.0005367111 0.041079666 0.067456156 -0.047614206 0.09149908 -0.12819228 0.074125625 0.15870136
0.03474624 -0.04970797 -0.08519688 0.030917605 -0.07149231 -0.021883177 0.007530811 -0.011356405

bias f4 [140]
00000000: e45c 9abe 40b2 1d3e ff61 91bd afbe 223d
00000010: 4969 64be 5633 813c 910a 3c3d 08de aabd
00000020: e1d2 c73d f647 86be 02b8 81bc c7b6 89bd
00000030: ebce 873e 34c8 b2bd 0441 1a3e 9045 f8bd
00000040: 9aae 21bd d94e ce3d d4d0 ac3e a5cc 523e
00000050: 8ed9 41be 0359 66ba dceb 183c 7b6e 36be
00000060: f443 68bc 4a5b ce3d 60c0 48be 0f7e 9fbd
00000070: 2299 6e3e 380e 9f3d f34a 95be b919 9bbc
00000080: ab8e d73d e1b8 0cbe 22cc 9c3e da80 5fbe
00000090: 64ad 0b3e 7508 8e3e fee0 84be cc26 ce3d
000000a0: b724 133e 59f4 37bd cdaa 35be 406d bd3e
000000b0: 97df 633e 185f 7fbe f87f b93d 7227 483e
000000c0: 919f 54be da69 393e f376 a83e 8d5c acbd
000000d0: eb70 8abd e22b ce3d d463 8abe 9703 f53d
000000e0: 0358 fbbd c58b 083e fdda 75bd 9058 b53c
000000f0: af1d 293e d1a2 313e 5454 6bbe fb43 aabd
00000100: 072f 64bd 2b15 c03c 5969 9e3d 14ee c83d
00000110: 58f0 013e 4af3 c1be a052 083e 30cd 723e
00000120: b725 ffbd b75a 4f3c f231 dabd d1a7 d3bd
00000130: 0ee3 a5bc f0a0 b4be c518 44be 7f52 96bd
00000140: 5ad4 eebd 7071 61be 308c 2f3c 9e71 953c
00000150: 238a 863d 8150 a43d 5095 adbc b5a0 e1bd
00000160: 3f27 54be 789c 1d3e 39a6 953d 7725 733e
00000170: 3220 523d 196e 95bd 9b7f 93be ef93 843c
00000180: 0b96 a53d 1927 ee3c 62b5 013d 9de1 57be
00000190: 28db ccbd 58c1 9fbe 5428 b03c 8bf6 e53d
000001a0: d96f 2fbd 6257 23bd e801 8b3b 1e41 a3be
000001b0: 6056 22be aadd 1c3d 8f0a 113e d2fb adbd
000001c0: 1e96 843d 60ae ac3d ddcb 463d 7467 9dbd
000001d0: 2956 f4bd 43aa 40bc 089f 67bd cfdc b63d
000001e0: 691a e8bd 2d1b 31bd 1e8f e43d 1bd3 acbd
000001f0: 7983 ac3c 51f3 813e 9ba1 44bd 11d4 21be
00000200: 8923 6e3e deaa 5a3e 0598 9ebe bfc0 5d3d
00000210: dbe2 473b 4bac 003d 02b6 93bd c1e5 113d
00000220: f7dc c13c db7f 34be 4e35 cc3b fb7e 17be
-0.30148995 0.15400028 -0.070987694 0.03973263 -0.22305788 0.01577155 0.045908514 -0.0834313
0.09757019 -0.26226777 -0.015834812 -0.06724315 0.26525053 -0.08729592 0.15063864 -0.12122643
-0.039473154 0.10073633 0.33753073 0.20585878 -0.18930647 -0.00087870675 0.009333577 -0.17815582
-0.014176358 0.10076006 -0.19604635 -0.07787716 0.23300603 0.07766384 -0.29158744 -0.018933164
0.10525259 -0.137424 0.3062449 -0.21826497 0.13640362 0.27740827 -0.25952905 0.10065994
0.14369474 -0.044910762 -0.17740937 0.36997414 0.22253262 -0.24938619 0.09057611 0.19546297
-0.20763995 0.18106785 0.3290325 -0.0841609 -0.06759819 0.10066964 -0.27029288 0.11963575
-0.12272646 0.13334568 -0.060023297 0.022136956 0.1651523 0.17347266 -0.22981387 -0.083137475
-0.05570891 0.023447594 0.07734937 0.09811035 0.1268934 -0.37880927 0.13312769 0.23711085
-0.124583654 0.012655905 -0.106540576 -0.10334743 -0.02024987 -0.35279036 -0.19150074 -0.07339954
-0.116615966 -0.22015929 0.010714576 0.018242653 0.06569316 0.080231674 -0.021189362 -0.110169806
-0.20718096 0.1539172 0.07307095 0.2374476 0.051300235 -0.0729639 -0.28808293 0.016183821
0.08085259 0.029071378 0.03166712 -0.21082158 -0.10002738 -0.31202197 0.021503605 0.11228665
-0.042831276 -0.039878257 0.0042421706 -0.31885618 -0.15853262 0.038297333 0.14164184 -0.084952965
0.06473945 0.08431697 0.048534263 -0.07685748 -0.11930496 -0.011759344 -0.05654815 0.08928835
-0.11333162 -0.043238807 0.1116011 -0.08438703 0.021058785 0.25380948 -0.04800568 -0.15803553
0.23255743 0.21354243 -0.30975357 0.054138895 0.0030500207 0.03141431 -0.072124496 0.0356195
0.023664935 -0.17626898 0.0062319404 -0.14794533

weight f4 [140, 140]
00000000: c1ba 97bd 785c 81bc 0217 553d b2cc 54bd
00000010: 752a 33bc 855b 81bd eda8 97bc 047e 02bd
00000020: 3e10 933c 06f4 f93d faaf 983c ad82 bb3c
00000030: 0a06 15bd 1807 1bbc 31f7 273b c257 073d
00000040: 0bfc d13c 3fbc a1bc 184a f8bc 1682 623d
00000050: 14f7 4e3c 5d2e 94bc 4395 81bc 64e2 27bd
00000060: cea9 1bbd 321c c1bc bf9a 78bd aa4b e9bc
00000070: d63e f33c cfe9 813d 6cc5 1b3d 536e 203d
00000080: ad38 243d 429e 5a3d 112f 643d aeb8 d73d
00000090: 321f ebbd bae4 3fbc 9b26 613c d329 773d
000000a0: de9d 73bd 8ea6 84bc 2f45 503b 2765 8abd
000000b0: d427 8f3d c0d5 87bd 047a 0abd e176 18bc
000000c0: 30fe 22bd c757 b6bc 0722 943c 8b7b 6b3b
000000d0: 5302 77bc 644d 85bd b6ca 20bd f3a6 403c
000000e0: 7755 3c3d 09e3 c73c 1dcd e7bc 8423 0abd
000000f0: 8d6e 40bd 8e78 f2bc 2cb7 9bbd de39 2fbd
00000100: 5b22 d63c cb0c fd3c 2f92 f23c ead9 3f3d
00000110: c173 2abc 3572 663c 4afd 0abd 1f9a 653d
00000120: 7de6 b4bd d914 0cbc a4aa 08bd e5ae 88bc
00000130: e772 84bd 4781 a03d 87c2 023d 8dbb 973d
00000140: a651 8fba 74a1 fb3c aecf 943a 8aca 82bd
00000150: e93c 05bd 8542 97bd 82f9 a4bd 1207 d03c
00000160: 4b6e 6ebd 5d1e b4bd f3f2 13bd 40b4 ba3c
00000170: 1fb8 52bd 7b2e 8fbb 0f67 5c3d d9ba 963c
00000180: 6bce bf3a dbff 033d 50fe bb3c f21d 9f3d
00000190: 123f e83c 7f54 7c3c 75e4 4ebd 25b4 90bc
000001a0: 9600 13bd daad 28bd bfb4 0d3d 03ec 203d
000001b0: c4f7 a1bc fadc f43c f55a 9d3c ad80 7a3b
000001c0: e9cc b3bb 8c1b 873d 7cd9 0cbd faa1 af3d
000001d0: 87c2 143d 7bf8 4d3d 570e 09bd 592a c7bc
000001e0: 6bfa 403d ae16 2f3b 01ee 49bd 4215 c13c
000001f0: 31ff 23bd 91cf 723c 02dc 0bbd 4f99 d23c
00000200: cc23 c73c f9f0 323c 7309 c2bc ba15 d0bc
00000210: 49ed 153c c7c8 d4bc 4978 8f3d 0fef 8e3a
00000220: 81de d7bd 7eea 923b 1147 82bd d0a1 363d
00000230: c8ce b63d a18d 06bd 5473 963d 6355 753d
00000240: 245b 203c 554f 59bc 083d 1fbe aae7 033c
00000250: 1696 a7bd 86fb f33b 157c 3dbd 4767 93bc
00000260: aa39 21be 7c61 493d aed2 2abe 3921 853d
00000270: 0dfc 8ebd 03d8 4f3d c638 8fbd 5fd5 97bd
00000280: 0ced 10bd 0244 843c b730 9b3c 3460 753d
00000290: eabb 81bb 8c01 9fbd 2c6a ad3d 24e8 4dbc
000002a0: 4f41 b43c 94dd 973d aac4 ec3d 0173 353e
000002b0: 3195 563c 1136 8b3d b473 eebd 8450 8d3c
000002c0: e707 dcbd 0fcb 0e3b 7a54 713d 2813 4a3d
000002d0: 49b5 9dbd 1649 023d a1ac 113d ab8d 6cbe
000002e0: a381 76bd 5866 0abc 8fba d1bc b5b7 f53c
000002f0: f2ac 2bba 321d 1a3d b18d 13be 0590 053e
00000300: c83d 5abd 667d ba3d 839a 4c3d a71a 84bc
00000310: 6adc e03c 1a50 b8bd 52ec c13d fe30 643d
00000320: e710 82bd 94e9 563d 70fe cfbb 9b0a 6d3d
00000330: daf7 e8bd 9081 32bb 801d 8dbd 9987 3f3c
00000340: 0bcd 483d 8bf4 f83c 6647 c7bd 1ff5 8ebd
00000350: 5b12 843d 243d 273c a5f1 9c3d b73d 133e
00000360: bfb7 d13d c161 f43d 6e91 fbbc 22f5 56bb
00000370: 497c f13c 0ca5 2e3c 474d a5bd 5c1a 613d
00000380: 9ceb 0d3d 6feb abbd 2157 0fbd 6df6 cfbb
00000390: 968f f03d 0c95 b9bc b74d 09be 171f e0bd
000003a0: b7b2 ca3c eb22 903c 6512 a13d 1750 b0bd
000003b0: 2446 1a3c cfa7 e938 d1b7 86bc db61 5fbc
000003c0: be41 8bbd 8d02 c43d 62b4 46bd d3f3 8c3d
000003d0: 5553 61bd 59da 97bc cc6e b03c 8f1b ac3d
000003e0: d3b7 e9bd 0858 843d 8d60 cdbd b071 ec3c
000003f0: 8f20 8cbd c572 bfbd e6ad bdbd bbc3 823c
-0.07408667 -0.015791163 0.052023895 -0.051953025 -0.0109354155 -0.06316284 -0.018513167 -0.03185846
0.01795208 0.12204747 0.0186386 0.02288946 -0.036382712 -0.0094621405 0.0025629515 0.033042677
0.025632879 -0.019743083 -0.030308768 0.05529984 0.01263215 -0.018088514 -0.015818244 -0.040987387
-0.038003735 -0.023573015 -0.060694452 -0.028478462 0.029693048 0.063434236 0.038030073 0.039167713
0.040093113 0.053373583 0.05570895 0.10533272 -0.114805594 -0.0117122475 0.013742114 0.06034262
-0.059476726 -0.0161927 0.0031779518 -0.067575745 0.069900185 -0.066325665 -0.03380777 -0.009305687
-0.039793193 -0.022258652 0.018082632 0.0035931792 -0.015076238 -0.06508902 -0.03925582 0.011758554
0.045979943 0.024400251 -0.028296048 -0.033725277 -0.04698043 -0.0295985 -0.07603297 -0.042779796
0.026139429 0.03088989 0.029610721 0.04683868 -0.010403574 0.014065315 -0.03393296 0.056055184
-0.08833025 -0.008549892 -0.03336586 -0.016684959 -0.064672284 0.07837158 0.031923797 0.07408819
-0.0010934367 0.030716635 0.0011353397 -0.063862875 -0.03252879 -0.073857345 -0.08055402 0.025393996
-0.058210652 -0.08794854 -0.036120366 0.022791028 -0.051445123 -0.0043695546 0.05380922 0.018399643
0.0014633661 0.032226425 0.022948414 0.077693835 0.028350387 0.015401005 -0.050510842 -0.017664025
-0.03588923 -0.041181423 0.0345962 0.03928758 -0.019771464 0.029890526 0.01920841 0.003822367
-0.0054870737 0.06597051 -0.034387097 0.085758165 0.03631833 0.050285798 -0.03346094 -0.024312185
0.047113817 0.00267164 -0.049299244 0.023569707 -0.04003829 0.0148199955 -0.034145363 0.025707869
0.024309061 0.01092171 -0.023686146 -0.025400985 0.0091508115 -0.025974644 0.070053644 0.0010904985
-0.10540486 0.00448352 -0.06361211 0.04458791 0.08926159 -0.03284991 0.07346216 0.059895884
0.009787355 -0.013263543 -0.15550625 0.0080508385 -0.081829235 0.0074457554 -0.046260912 -0.017993582
-0.15744653 0.049165234 -0.1668193 0.06500477 -0.069816686 0.050743114 -0.069932505 -0.07413744
-0.035382316 0.01614571 0.018944127 0.0599062 -0.0039591687 -0.07763967 0.08467516 -0.012567554
0.022003798 0.074153095 0.11560948 0.17719652 0.013097093 0.06797422 -0.11643162 0.017250307
-0.10743695 0.0021788513 0.058918454 0.049334675 -0.07700593 0.03180798 0.035565022 -0.23100917
-0.060182225 -0.008447252 -0.025601653 0.029994825 -0.0006548903 0.0376255 -0.1440952 0.1304322
-0.053281575 0.09105949 0.04995204 -0.01612599 0.027448852 -0.08999653 0.09468903 0.055710785
-0.0635088 0.05246885 -0.00634747 0.057871442 -0.11375399 -0.002723787 -0.06890392 0.011690044
0.04902367 0.030390045 -0.09730415 -0.06980347 0.064488135 0.010207448 0.076632775 0.14379011
0.10240125 0.119327076 -0.030708995 -0.003279992 0.02947821 0.010659467 -0.0807138 0.05495678
0.034648523 -0.08394515 -0.034995202 -0.006346515 0.11746137 -0.022654079 -0.13408552 -0.1094343
0.024743421 0.017594775 0.078648366 -0.08609026 0.009416137 0.000111415626 -0.016445072 -0.01363417
-0.06799649 0.09570799 -0.04851187 0.06882443 -0.055011112 -0.018536733 0.021537207 0.08403694
-0.11412015 0.06462103 -0.10028181 0.028862804 -0.068421476 -0.093480624 -0.09261684 0.015962472

bias f4 [140]
00000000: 43fb 8e3d f377 b53c 9d09 5b3c 523e f8bc
00000010: d9af eebd d1c7 47bd b595 f43c a291 cc3c
00000020: 1b37 91bb e7b5 c6bd dca3 af3c 11dc a3bd
00000030: f4e3 86bc 1330 8fbd 545d 8a3c 544c 9b3d
00000040: d215 aabd 1819 71bc 59c6 fd3c 09ef 97bc
00000050: a063 673d f61e 59bd 8fd5 983d c89e 98bd
00000060: ce95 89bd a2d8 5bbd 80e3 9c3c 275c 07bd
00000070: 75c1 c1bd bdeb d63c 501f cb3b a848 163d
00000080: 0053 66bd 9145 b1bd a5fa 83bd de45 a93b
00000090: 0f4a 63bd 7645 833c 2bf0 c7bd f0ac c2bd
000000a0: 6db6 93bd b68f 3f3d 157c 62bd b3a5 54bd
000000b0: 53c4 233c 75b2 84bd a728 bfbd 2b00 57bd
000000c0: 5d20 92bb 6cfc 54bd ecaa 9d3c 8c30 013d
000000d0: 1ca1 35bd 4509 433b 7ee9 963d 4792 c8bd
000000e0: bc7e 703d f462 3c3d c317 47bd 3dfb ddbc
000000f0: 1369 033d 77ad 38bd 8eb5 b63c 1d17 15be
00000100: 4082 acbd 1ec5 7abd 5ce6 b0bd febf 9d3d
00000110: 7a6a 5ebd 2a5e 65bd 9efa 813c f948 bbbd
00000120: 1867 d33c 613a 693d 1993 7d3d 0331 bbbd
00000130: 6116 42bd 030d 8e3c 254c 2d3d c554 a6bd
00000140: 28f7 f43c dabc 93bd 27ff 8f3b 64ce 613d
00000150: bff3 4c3d a5b0 59bc e51c 84bd c7aa a93c
00000160: 6dd7 58bd 6465 2cbd 8bfb c43c 4f7a 463d
00000170: 0359 1abd 00a5 31bc 06e5 15bc e9ee e23d
00000180: d73d 663d 9c48 363d b629 03bd bd25 ba3d
00000190: 984f 8e3d a680 293c 6328 c4bc b860 923d
000001a0: 1272 0c3d 1261 3ebd 5a1e 00bd c33d 08bd
000001b0: b8e2 3cbd 2368 dabc 05b7 68bd 3a3b b63c
000001c0: ab7d 90bd 5293 edbc 29d1 893d 1b26 153d
000001d0: aa1d 983d 078c 2c3d 2672 723a 8e50 abbd
000001e0: e3dc a13c 6c0d 7bbd 7852 c73c 3b79 30bd
000001f0: 686f 3d3c 38d7 9abc 80c4 b4ba f981 873c
00000200: c265 5fbc 8e05 a2bb f1d3 03bd 63b0 213d
00000210: 21de 07bd 8788 21bd 36f8 7bbc 23bb 91bd
00000220: c5cb aabd dbae 2a3d dc1c d3bc 7f26 15be
0.06981518 0.022151923 0.013368991 -0.030303154 -0.11654634 -0.048774544 0.029856542 0.024971787
-0.004431618 -0.09702664 0.021440439 -0.08000959 -0.016466118 -0.06991591 0.016890205 0.07582918
-0.08304943 -0.0147154555 0.030978369 -0.018546598 0.056491494 -0.053008042 0.07462608 -0.0745216
-0.06718026 -0.053673394 0.01915145 -0.033046868 -0.09460727 0.026235456 0.006198801 0.036690384
-0.0562315 -0.08655847 -0.06444291 0.0051657995 -0.05549055 0.016024332 -0.09762605 -0.095056415
-0.07212529 0.046767913 -0.055294115 -0.051915836 0.009995538 -0.064793505 -0.09333926 -0.052490395
-0.0044594244 -0.05199854 0.019246541 0.03154044 -0.0443431 0.0029760164 0.07368754 -0.09793525
0.058714613 0.045992807 -0.048606645 -0.027097339 0.03208263 -0.045087304 0.022303369 -0.14559598
-0.08423281 -0.06122314 -0.086376876 0.07702635 -0.054300763 -0.055998005 0.015866574 -0.09144778
0.025805995 0.05694044 0.06190786 -0.091402076 -0.047384623 0.017340189 0.042308945 -0.08121637
0.02990301 -0.07213755 0.00439443 0.05512847 0.050037142 -0.013286744 -0.06450824 0.020711316
-0.05293982 -0.04208888 0.024045726 0.048456486 -0.037682544 -0.010842562 -0.009148842 0.11080725
0.05621132 0.04450284 -0.0320222 0.09089229 0.06948775 0.010345614 -0.02394504 0.07147354
0.034288473 -0.046479292 -0.031278946 -0.033262026 -0.046114653 -0.026660984 -0.056815166 0.022245038
-0.07055219 -0.029000912 0.06729347 0.036413293 0.07427533 0.042125728 0.0009248577 -0.08364974
0.019758647 -0.061292097 0.024331316 -0.043084364 0.011562206 -0.018901452 -0.0013791472 0.016541468
-0.013635101 -0.00494451 -0.032184545 0.039474856 -0.033170823 -0.039436843 -0.015379002 -0.071157716
-0.08339647 0.04167066 -0.025770597 -0.14565466

weight f4 [140, 140]
00000000: fd48 56bd 965b 7bbb c25c f739 1592 0c3d
00000010: b4f7 b33d cc52 98bd d0ae 41bd 7ac5 193d
00000020: 664e 2dbd 8bc0 30bc 2c1c 733c ef01 803c
00000030: e181 b3bc 7565 923d dbef 82bd 8305 e4bc
00000040: f56c ab3d 2d43 9fbd 2bda 6cbd c498 aabd
00000050: e381 c6bd 7040 10bc 54a1 5abc 1f3e c0bc
00000060: 2b0f 813c 09bf 033d 67cc b23a 6fdb 483c
00000070: fb39 12bd 592d 55bc 6ac8 f1bb 63ee 4e3d
00000080: 35b4 2d3d 85d6 573d 09e6 3cbd 126e 8fbc
00000090: 6070 a53c 95cd 7abd a718 a2bd 7d7c 753d
000000a0: c10d 23bd 29b7 f13b 6b5d c3bb a519 fc3a
000000b0: 0199 cd3c 12a0 aabb c0c7 92bd 48f8 a4bd
000000c0: 4721 8c3c b70a b83c 6109 483c 7cd5 083d
000000d0: 3387 a5bd ebb5 933d 6cad 87bd baad 1e3c
000000e0: 5fce b83d 5bf2 723a c524 43bd 42fc 60bc
000000f0: 96c9 463d eb46 abbd 9c5f 793c fa81 01ba
00000100: 454a 86bd 6bc7 1f3d 8579 99bd a5fa 52bd
00000110: a677 54bd b8ef 043d 6007 633b d50b 483c
00000120: 771d 913d 717a 223d aaa8 5c3c aa1c 24bd
00000130: 8c47 193d 0d9c 7f3d 652b bf3c c96d 0e3d
00000140: 4181 6d3c 2a76 993d 558d 453d ce72 67bd
00000150: 8f58 1cbd 7d8e f63c 7dcd e3bc c0aa 6fbd
00000160: 43b3 5d3b be37 073c b66c c3ba e6ac 2d3d
00000170: d16f 793d ccf9 ff3c 8860 bcbd 761d 33bd
00000180: d2b1 32bd 9286 56bd bcf0 b5bc 17d8 a03c
00000190: 5333 7fbc aa04 88bd d12b a43d 049d a4bd
000001a0: 08d1 19bd 15f7 433c df45 bbbd 295c d33c
000001b0: afd0 04bc 8859 163d 5143 19bd 62da 89bd
000001c0: 5b22 ba3c 9ce1 ad3c 9e08 86bd 8c42 6bbd
000001d0: bc92 babd 2e99 863d 82aa b43b 166c 39bd
000001e0: db18 903c 412c 22bc 81d0 bcbd 3e96 8dbb
000001f0: 245d 1ebc 88ed f73b a5bb 62bd 3a16 a738
00000200: 8177 51bd fcd5 5d3c a366 4639 72d8 d13d
00000210: 0541 1fbd 8a21 c03c fa28 2a3d b41c 4e3c
00000220: 466a 8ebc 7252 3f3d 74b8 aabc beff 883d
00000230: d7c9 3ebc e666 8f3d 1316 743b b5f1 82bd
00000240: 3b44 683d cef7 99bd 4fa8 1c3d cfeb e83c
00000250: 394a 7abd f822 28bd b021 413d b86f 97bd
00000260: 7b5d 233d 7a3c 4f3d d237 f13b f5ee 62bd
00000270: 4ed0 a8bc 3d5b 9ebd 821b 293d af11 473d
00000280: ce24 393d 2a0b 96bb 8ef5 e73b 991a c33d
00000290: eae1 29bd 6327 ff3c 9ce9 b5bd 6dd6 00bd
000002a0: 7aed 12bd 4f00 cc3d c4c4 5cbd 3c25 48bd
000002b0: 5fa8 a6bd fc35 1cbd 764f e63c f606 d2bb
000002c0: b3e7 8dbc d443 2f3c 5748 243b f943 033c
000002d0: 5081 313d 3d04 4f3d 05d6 35bd 4811 8bbd
000002e0: f27f 99bd 6220 89bd b3a2 98bd bd94 273c
000002f0: de20 06bd efc2 ef3b b73a bdbd d84c 8bbc
00000300: b965 35bd 152e 2e3e 51a7 74bd 532f 37bb
00000310: 953a 21bd 3713 1f3e bfef b33d 595d 74bd
00000320: c82a 3bbc a953 c83c 60af 433d 8416 333d
00000330: 01a8 8b3d cc8a 46bd 1d44 fc3c dda2 aebb
00000340: 75fc 48bc 93f7 583d c4a3 b03b 2b27 ae3d
00000350: f611 c43d e841 90bd d410 b23d 61aa 853d
00000360: 0826 a5bd 8d48 8fbd e9dd d73b 6b10 c33d
00000370: 81a5 633c 74fb 273c 071e 743d 1fb2 e4bc
00000380: 901d a13d 0899 a73b bf41 febc c950 62bb
00000390: 1091 be3d a2b7 373d 376f 743d dd29 b5bd
000003a0: 32e0 58bd cfeb 7dba 1094 fe3c 2753 1abd
000003b0: ec0e 133e a435 123d aef6 943d ddcf 6d3d
000003c0: 664d debb 4c2b 923d ec9f bfbd aed0 593d
000003d0: 9e64 4fbc 8356 26bd d2f0 a33c 4c7c 6abd
000003e0: afe4 9b39 ce48 793c d0fe ce3d d983 763d
000003f0: 03a0 7bbb c323 a03d 8225 f4ba d3d9 b1bd
-0.0523157 -0.003835415 0.0004718062 0.034319002 0.0878748 -0.07437667 -0.047285855 0.037541844
-0.042311095 -0.010788093 0.01483826 0.015625922 -0.021912517 0.07148258 -0.06393405 -0.02783466
0.08370391 -0.07776485 -0.05782525 -0.08329919 -0.09692743 -0.008804426 -0.013344128 -0.023467122
0.015754303 0.032164607 0.0013641239 0.012259348 -0.035699826 -0.0130113 -0.0073786275 0.050520312
0.042408187 0.052694816 -0.046117816 -0.01750854 0.020195186 -0.061231215 -0.07914858 0.059933174
-0.03980804 0.0073765707 -0.005962064 0.0019233717 0.025097372 -0.00520707 -0.071670055 -0.080551684
0.017105712 0.022466047 0.012209267 0.03340672 -0.08082428 0.072124325 -0.066248745 0.009684974
0.09023737 0.0009267681 -0.047642488 -0.013732018 0.04853209 -0.08363136 0.015220549 -0.00049403275
-0.065571345 0.03900854 -0.07493881 -0.051508565 -0.05187192 0.032455176 0.0034641847 0.012209852
0.07085698 0.03966755 0.013467947 -0.0400664 0.037421748 0.06240468 0.023336122 0.034772668
0.014496149 0.07493241 0.048230488 -0.05650597 -0.038170394 0.03009724 -0.027807945 -0.05851245
0.0033828772 0.008253036 -0.0014909718 0.042401217 0.060897652 0.031247042 -0.091980994 -0.043729268
-0.043626614 -0.05237443 -0.022209518 0.01963429 -0.0155762015 -0.066415146 0.0801617 -0.08037761
-0.037552863 0.011960764 -0.09144186 0.025800781 -0.008106395 0.036706477 -0.037417714 -0.06731106
0.02272146 0.021225743 -0.06544612 -0.05743651 -0.091100186 0.065721855 0.00551349 -0.045269094
0.017589977 -0.009898246 -0.092194565 -0.004320889 -0.009665761 0.0075661577 -0.055354733 7.9673206e-05
-0.05113936 0.013539787 0.00018920987 0.10246362 -0.038880367 0.023453493 0.041542985 0.012580086
-0.01738466 0.046709485 -0.020839907 0.06689404 -0.011644802 0.07002048 0.0037244603 -0.06393758
0.056705695 -0.07517968 0.03824645 0.028432755 -0.06110594 -0.041048974 0.047151268 -0.073943555
0.03988407 0.050594784 0.0073613906 -0.05540367 -0.02060714 -0.07732246 0.041286 0.04860085
0.045201115 -0.0045789676 0.007078833 0.095265575 -0.041475214 0.03114671 -0.08882448 -0.031454492
-0.035871007 0.09960996 -0.053898588 -0.048863634 -0.08137583 -0.03813742 0.028114062 -0.006409521
-0.017322397 0.010697324 0.0025067532 0.008011811 0.043336213 0.05054115 -0.044393558 -0.067904055
-0.07495107 -0.0669563 -0.074529074 0.010228333 -0.03274619 0.007316939 -0.092397146 -0.017004415
-0.044286463 0.17009766 -0.059729878 -0.0027951791 -0.03936251 0.15534674 0.08785962 -0.059659336
-0.011423774 0.024453955 0.047774673 0.043722644 0.068191536 -0.04847221 0.030794198 -0.0053294734
-0.012267222 0.05297048 0.005390616 0.085035644 0.09573738 -0.070438206 0.08694616 0.06526638
-0.080638945 -0.0699626 0.006587733 0.09524616 0.01389444 0.010252822 0.05959895 -0.027916966
0.07866967 0.0051146783 -0.03103721 -0.0034533015 0.09305012 0.04485286 0.059676375 -0.088458754
-0.052948184 -0.00096863223 0.031076461 -0.037676957 0.14361161 0.035695687 0.07273613 0.058059562
-0.006784129 0.071371645 -0.093566746 0.053177528 -0.012658266 -0.040609848 0.020012293 -0.057247445
0.00029734286 0.015215112 0.101071954 0.060184333 -0.0038394935 0.07819321 -0.0018626901 -0.08684125

bias f4 [140]
00000000: eb14 e83c e2c8 273d 3bc6 6c3d 5cfe afbd
00000010: f62a 9c3d aee7 25bc ab0c 36be b499 96bd
00000020: 3159 f03c 00e9 393c cff0 0f3c 0e94 90bd
00000030: ea7f dbbc ab6c 3e3d 73e2 64bd 36e3 8a3d
00000040: 8d9f e63c 208c 34bd a987 68bd c4e0 2abd
00000050: 67b0 08be f96e 28bc eab6 86bd 2585 7dbd
00000060: 03c5 3e3c 751a 0b3e baa9 41bd 703b 0c3c
00000070: 2706 293c aa86 6e3d a7d2 3d3d 460c a33d
00000080: 0a76 47bd 72d7 fabc 97b3 aebd 7407 0fbd
00000090: 8261 b43d e2b4 353e 19f6 b03d e8d4 4ebd
000000a0: 87f2 9bbd efce afbc c67e adb9 41ad 7abd
000000b0: c5c4 25bc 8daa 7d3d 87a4 db3d bb8b 6b3d
000000c0: 295c fa3d 6bb3 80bd 88c6 d5bd 24c8 2b3c
000000d0: febe abbc eb36 443d f665 9abc 9be3 b3bc
000000e0: cf28 283d e47b 263d f775 343d 381f 50bd
000000f0: 12af bcbb 1283 25bd ec67 b23d 51d0 bdbc
00000100: 88ef a9bd abbe bf3c c81b d53d 6014 63bd
00000110: c26d cebd cf81 433d 65a3 a6bd 46b2 3cbc
00000120: 2cf1 aa3d 562a d63c ce1c 893d 3984 a33d
00000130: 3654 d2bc 4cd6 dcbc d6e0 cfbd ea54 1abd
00000140: a238 bc3c 3fea 60bd 967a 22be 8b79 5abb
00000150: 63f6 073e 033f fabd d488 803d b28b 53bd
00000160: 7a08 aebc d843 333d ea55 cb3c bd8c 28bd
00000170: 1c59 453d 6939 99bd 5956 81bc 999c 4cbc
00000180: aa26 01bd 7f1d abbd 57b3 d23d f314 793d
00000190: b66e 493d 759d babd 9f8f 2c3d e207 e2bc
000001a0: 0daf 2a3e afd0 943c 1080 ae3d b2ec bebd
000001b0: 3c14 13bd 38eb 02bc 7e79 5c3c 1414 8d3c
000001c0: 67d2 c53b b6b7 b63d 6660 b0bd 24bf 793d
000001d0: 24a2 d4bc 3377 ff3d 2b1b a93d 569b 6e3d
000001e0: 509d b7bb 1e31 8b3e d60e e73c 241d eb3c
000001f0: 791d d2bd 272b c83c 7032 b33d 37ae 74be
00000200: cfd7 1c3b ca59 743d a863 4cbd 115e 74bc
00000210: 3742 f33c abef bc3c 3057 7a3d e2cd adbc
00000220: 2a16 90bd e949 523d ff0a 563b f89a 8cbd
0.028330287 0.04096306 0.057806235 -0.08593437 0.07625382 -0.0101260375 -0.1777827 -0.07353535
0.029339405 0.011347055 0.008785441 -0.07059489 -0.026794393 0.046490353 -0.05588002 0.06781618
0.028152252 -0.044078946 -0.05677 -0.04171826 -0.13348542 -0.010280364 -0.06577857 -0.061894555
0.011643651 0.13584311 -0.047281004 0.008559093 0.010316408 0.058233894 0.04634347 0.07961325
-0.048696555 -0.03062031 -0.08530348 -0.034919217 0.08807661 0.17744783 0.086406894 -0.050496012
-0.07614618 -0.021460978 -0.00033091585 -0.061200384 -0.010117714 0.061930228 0.107247405 0.057506304
0.122246094 -0.06284221 -0.104382575 0.010484729 -0.020965096 0.047903936 -0.018847447 -0.021959117
0.041054543 0.040645495 0.044057813 -0.050811023 -0.0057581747 -0.0404082 0.08711228 -0.023170622
-0.0829764 0.023406347 0.104056895 -0.055439353 -0.100795284 0.047731217 -0.08136634 -0.011517113
0.08346781 0.026143234 0.06694947 0.07984204 -0.02567492 -0.026957653 -0.10150306 -0.037678637
0.022976223 -0.054910894 -0.15867075 -0.0033336605 0.13277583 -0.1221905 0.06276098 -0.051646896
-0.021244276 0.043765873 0.02482124 -0.041149843 0.048180684 -0.07481653 -0.015788244 -0.012488508
-0.031531014 -0.08355235 0.102881126 0.060810994 0.049177848 -0.09112064 0.042129155 -0.02759165
0.16668339 0.018165914 0.0852052 -0.0932249 -0.03590797 -0.007990651 0.0134567 0.017221488
0.006037045 0.08921759 -0.086121365 0.0609733 -0.02595622 0.12473907 0.08257135 0.05825361
-0.00560347 0.2718591 0.028205317 0.028700419 -0.10259528 0.02443464 0.087498546 -0.23894583
0.0023932343 0.059655942 -0.049899727 -0.014915005 0.02969466 0.023063501 0.061118305 -0.021216337
-0.070354775 0.051340017 0.0032660363 -0.068654954

weight f4 [2, 140]
00000000: ef53 7a3c bac2 43bd cb0c 38bd f0dc 8abd
00000010: c963 8b3d 650d 8c3c e04e b83d 9861 8c3d
00000020: 9397 4bbd bf84 7c3c 69f8 3dbd 9efa 50bd
00000030: 0014 803c 814e 0cbd 03de 1ebd 9056 f6bc
00000040: 5f6a 1bbc 6444 20bd 670f 22bd 529f 563c
00000050: 02ec eebd 28a2 583c c594 5a3c 6cd1 613c
00000060: c7a7 8c3d f883 d0bc 394f 813c d13f 19bd
00000070: d53c a13d 24c7 62bd 5c61 1bbd add2 3fbd
00000080: 749f c13d 1fc3 ae3d 3250 35bd 8190 86bd
00000090: e7d4 d33d 0309 da3d 93c5 8f3c f889 48bd
000000a0: 6965 133e cf11 883c 7819 513c 29dd 22bd
000000b0: 78df 19bd 21ca 813c 3ec3 8ebc 7a17 44bd
000000c0: c87c 6b3c 6e67 0dbd eaf9 c4bc b848 36bd
000000d0: a8c3 743d d6a3 b03d 6a67 343c da11 863d
000000e0: 7b43 5d3c 841f 283d d7a8 16bd 5282 563c
000000f0: f887 eabc 2e57 38bd d288 6b3c 42ad 8e3d
00000100: 89f3 8f3d c44e 263a 7637 673d 7d74 27bd
00000110: 99fd 2fbd 4da8 383d 7eab 8a3d 3e00 15bd
00000120: facc 39bd e74e 433c 4917 39bc 8324 613c
00000130: 6a19 10bd 7b42 16bd 0e55 13bd 54f0 823c
00000140: ae3d 093e 023d 0dbd e55c 9dbd c6d8 26bd
00000150: 51c5 c53d ab32 12bd 1c20 54bd f7fb 24bd
00000160: 93c4 843c 6cc3 3f3c cf8f 1abd 08ed 953d
00000170: 2b26 e43d 2716 833d 703a f93d 590b e8bc
00000180: 694b 553c 17ee 20bd 160b 8f3c 348a 633c
00000190: e0d0 903d c126 0f3e 159a 923d ccf0 17bd
000001a0: 1988 db3d 0c49 17bd 7380 883d f1d5 24bd
000001b0: 8f0d 26bd 1c23 a23d 933b b1bc 13f7 5c3c
000001c0: f7a1 5f3c 08ab c33d dc84 30bd 4c70 4bbd
000001d0: da62 8c3d 7aa4 8c3c dc9d 8d3d 4a39 653c
000001e0: f027 553c 431b 533d 0f4e 18bd 359f b53b
000001f0: bd4f d43d 4761 4abd 0420 583c be88 dabd
00000200: bc12 17bd 4c0c c53c bb9d 47bd b359 1ebd
00000210: ff07 5b3c 0c45 20bd 6c34 763d ed21 7c3d
00000220: a27e cdbd b3d2 d2bc 6cf8 d2bc 5003 503c
00000230: 8620 5a3b 456a d3bb 1baa 8fbb 8fe2 66bd
00000240: dcb6 fcbb 1589 583b da4a 9ebe a00d 04bb
00000250: 093f 85bc 7f2d 553b 3722 d2bb 3f04 4039
00000260: 6859 3a3b cc52 013d 19c4 4fbc 08da bf3c
00000270: c059 153d 00bb 8bbc d6cc 90bc f47d be3a
00000280: 83b8 36be 021c 0d3b 958d 533a e35b 153b
00000290: 7692 493b 6876 8d3c dba3 373b 2ef5 6bbc
000002a0: 77bb b5bc 7209 c63c e17c 87bc 8eac 13ba
000002b0: 3c17 12be 4574 d83c 08e4 afbc 185a 703d
000002c0: 3d30 f53d 4d25 f33d b1da 613b fca4 b4bb
000002d0: f38b 4fbe 69bf 613b a969 f63a 4214 5cbc
000002e0: d0d9 67bc 7e91 ad3b 2c2b 023d 52e5 1bbc
000002f0: 7d8c 3e3b 1a49 363b 1700 17bc 819f 03bb
00000300: bfd5 75bc 546a d7bd 63b9 6e3a af1d a63b
00000310: f59f c43a 9196 703c 0bf9 65bc 94ec e63a
00000320: 9c37 183d 59d7 ae3c 2ebe 4b3b 85b7 c2b8
00000330: 0111 93bc ad13 bd3c c7e4 c73c 309b 61bc
00000340: dcf4 a4bc 2a15 113d ce94 a9bc 3aca 543c
00000350: 642c 453a c8d5 fd3a b4e7 173d 8d57 ee3a
00000360: 1f20 ba3c 26d8 72bc 6b88 47bc 762c 443b
00000370: 6a17 32be 75c7 1a3d bcdc 99bd 9b03 e2bb
00000380: 7328 a63c 40af 44bc 4707 18ba 23a7 89bc
00000390: 81a9 4a3b 73db 343b aad5 5ebc abd1 e13b
000003a0: 4146 243d 7789 60bc cb36 00be dd54 1b3d
000003b0: 587d ef3a 366b 1d3d a6b9 1d3b 046b 453b
000003c0: ceff 90bc d6ea 53be 5df4 063c 2750 5dbc
000003d0: e63b 8e3d 58ea 8bbc a3d5 37bc 0f31 a2bc
000003e0: dec0 70bc de4a b6bc 1731 043d 6996 453b
000003f0: 8e0d 903a eac6 d53d 3fed 5fbb 9864 a73b
0.0152788 -0.047793128 -0.044934075 -0.06780422 0.06806142 0.01709623 0.08999419 0.06854552
-0.0497051 0.0154125085 -0.04637948 -0.051020257 0.015634537 -0.034254555 -0.038785946 -0.030070573
-0.00948581 -0.039127722 -0.03956547 0.013099508 -0.11666109 0.013222255 0.0133411335 0.01378284
0.068679385 -0.025453553 0.015784847 -0.037414376 0.07872931 -0.055365697 -0.037934646 -0.046831775
0.094542414 0.0853331 -0.044265933 -0.06570531 0.10343342 0.1064625 0.017550265 -0.048959702
0.14394154 0.016610054 0.01276242 -0.039761696 -0.037566632 0.015843453 -0.017427083 -0.04787395
0.014373012 -0.034522466 -0.02404495 -0.044502944 0.059756905 0.08624999 0.011010984 0.06546374
0.013504858 0.04104568 -0.036782112 0.013092594 -0.028629288 -0.045005016 0.014375882 0.0696664
0.070288725 0.00063441345 0.056449376 -0.040882576 -0.04296646 0.04508238 0.06770991 -0.036377184
-0.045361497 0.011920667 -0.0112970555 0.013741615 -0.035180487 -0.036684494 -0.035969786 0.015983738
0.13402435 -0.03448201 -0.07683734 -0.040734075 0.09656776 -0.035692852 -0.051788434 -0.040279355
0.016207015 0.011704307 -0.037734803 0.07320601 0.111400925 0.064007096 0.12169349 -0.028325723
0.013018467 -0.03928956 0.01746134 0.013887931 0.0707109 0.13979627 0.07158295 -0.037094876
0.10719318 -0.036934897 0.06665125 -0.040243093 -0.040540274 0.07916853 -0.021634853 0.013486641
0.013649455 0.09554106 -0.043095455 -0.04966764 0.06854792 0.017168272 0.06914875 0.01399071
0.01301001 0.05153967 -0.037183817 0.0055426606 0.10366771 -0.049409177 0.013191227 -0.10670613
-0.0368831 0.024053715 -0.048734408 -0.038659763 0.013368606 -0.03912835 0.060108587 0.06155579
-0.10033919 -0.025735235 -0.025753222 0.012696102 0.0033283546 -0.0064518773 -0.004384292 -0.056368407
-0.007712228 0.0033040692 -0.30916482 -0.0020149723 -0.016265409 0.0032528338 -0.00641277 0.00018312129
0.0028434638 0.031573102 -0.012681031 0.023419395 0.036462545 -0.017056942 -0.017675798 0.0014533387
-0.17843823 0.0021531587 0.00080701086 0.0022790364 0.0030757464 0.017268375 0.002802125 -0.014401717
-0.022184117 0.024174426 -0.01653904 -0.00056333176 -0.14266676 0.02642263 -0.021471038 0.05867967
0.11972091 0.11872349 0.0034462626 -0.0055128317 -0.2026823 0.0034446365 0.00187998 -0.013432564
-0.014151052 0.005296885 0.031779453 -0.009515123 0.0029075437 0.0027814568 -0.00921633 -0.0020084085
-0.015004574 -0.10518327 0.0009106604 0.0050694565 0.0015001284 0.014684335 -0.014036427 0.0017618113
0.03716241 0.02134292 0.0031088698 -9.284824e-05 -0.017952444 0.023080671 0.024401082 -0.01376991
-0.02013629 0.035420574 -0.020700838 0.012987668 0.00075215683 0.001936608 0.037086204 0.0018184051
0.022720395 -0.014822042 -0.012178521 0.0029933727 -0.17391744 0.037787873 -0.07512805 -0.0068974025
0.02028296 -0.0120046735 -0.0005799424 -0.01680333 0.0030923786 0.0027596622 -0.013600746 0.0068914494
0.04010606 -0.013704649 -0.12520902 0.03792273 0.0018271608 0.038432322 0.0024066954 0.00301236
-0.017700102 -0.20695052 0.008236972 -0.013507879 0.069450185 -0.017079517 -0.011220369 -0.019798784
-0.014694421 -0.022252496 0.03227338 0.0030149466 0.0010990368 0.104383305 -0.003416851 0.0051084273

bias f4 [2]
00000000: 3fb0 713e 36f8 9d3e
0.23602389 0.30853432

weight f4 [140, 140]
00000000: bdee 063c 0d55 41bd 247d 7bbd 5f6b 403d
00000010: 0bf0 8dbd f810 47bd 19b2 55bd 1d7e 50bd
00000020: 4102 bcba 94d0 b4bc 43d3 19bd 0e05 3e3d
00000030: 5e3a 6f3d a674 2fbd b469 83bd f8d3 8e3d
00000040: 81a1 163d eadd 3d3d 427a 90bd 4cde 95bd
00000050: 5015 bf3d 53f2 ec3b ebec 903d 34d5 c93c
00000060: 3db1 663d 0cb6 103d 34f2 7f3d 2204 a73d
00000070: 6dd3 2c3d de4c 983d 4bc3 4dbd f544 29bd
00000080: c540 593c b695 6b3d e4f1 4a3d 1bfb 42bd
00000090: 5830 35bc 3e19 6c3d 1c4d 453d 338c 5cbd
000000a0: a237 12bd 13a7 a2bc 61e4 4cbd ed05 dc3c
000000b0: decb 3a3b 214b 90bd f997 ce3c fa10 80bb
000000c0: ec44 87bd 2fac a23c bd84 903d 4f2e 14bd
000000d0: 61fe b5bd 48e3 a3bd acfc b03d e6ae 8a3d
000000e0: 06a4 e43c e3eb a43c 55c1 71bd c7c1 f83c
000000f0: ca26 f6bc ca34 3c3d 5b6a 173b 383b 57bd
00000100: dccb 8e3c 41ec a13c 094f da3c 8c79 9c3c
00000110: 0e45 953c 7a8a 69bc ec20 66bd 540f 193d
00000120: 7b7b 0fbd 175a 853d 1617 02bd 0fd2 0abc
00000130: ed8b b0bd 08bd 80bd c5f2 a53d 07ce 3a3d
00000140: e946 123c 4d3c 88bd 2022 9b3d 6979 05bc
00000150: 1804 aa3d 92a7 1e3d 3fa6 8cbd 965e a7bc
00000160: 5e88 863c 1f46 a6bd aa2f 2d3d 5c42 d3bc
00000170: d4b6 d23c a91f 9f3d 4c64 72bd b83b 66bb
00000180: 793e a4bc a187 b9bc 6e76 9e3d bb34 3b3d
00000190: d7f6 483d e698 993d 3c4a aebc fa8e 9bbd
000001a0: af54 1fbd 13dc d43b 6f39 e23c 5eef 943c
000001b0: a1df 3b3d 95c6 a43d e8ab 28bd d0d3 33bd
000001c0: 7dfd 65bc e60c 03bc 27ef 4bbc b5a4 b93d
000001d0: 6960 3e3d 87f0 9c3d 9bc0 193d e692 9f3d
000001e0: a4a6 27bd 6bc2 9e3c 549d 813c 24bd 313c
000001f0: 4dc9 cb3c 7052 633d e288 863d da1d 093d
00000200: 5b58 743d 76c7 923c 2149 a5bc 42f3 943c
00000210: 1e04 8f3d 9d0b 55bd 4f75 59bd 0506 713d
00000220: 2b3f 70bd 3ec6 ab3d c8c9 babd fc47 273c
00000230: 5573 c8bc 2a45 8bbd 0055 e1bc 4e85 cfbb
00000240: ac7e 2ebd f929 66bd 2166 e4ba 01d8 7fbd
00000250: f1f7 acbd bff0 7f3d ab82 a3bc 8285 b1bd
00000260: 5e7f 9b3d cec6 993d aad5 5b3c 11fc 15bd
00000270: 7414 e43c 9273 7bbd cfa9 69bd d22a 7cbd
00000280: c086 29bc 7ae5 203d cd41 573d 073c 45bd
00000290: cb72 97bc 4d69 31bc 1819 873c bafc 273d
000002a0: a5bb b33d 8ac6 2a3d b42e 933d 459b a23d
000002b0: 0a44 a4bd 1139 73bd 69bf 8a3d 0ebb 6e3d
000002c0: 2bf9 033d 4d72 82bc f7ce b23d a0f4 4f3c
000002d0: 09e7 5b3d 73eb 023d e1e8 59bd 9d8d 5a3d
000002e0: 4c75 5bbc cf76 243d 6603 a0bd a3c5 ce3c
000002f0: e603 e1bb 027f 4fbd 6629 ab3d 1bfe d93c
00000300: 429c a83d e15f 523d 5eea 3d3c 9f2d ae3c
00000310: 75ab 15bd d40f 36bc b3d8 29bd 1c73 363d
00000320: 6aa4 e03d 5dab a03c 79d8 44bd bc07 48bd
00000330: f417 3b3c 5f74 a43d 94c1 603d 676e 383d
00000340: 0b45 503d b286 f63c bac5 a03d 2159 c8bc
00000350: 56a9 87bd 3c36 9e3d 057e 0b3d f2f2 b2bd
00000360: 2c3b 58bd 880c 2ebb ffbf a83d a107 04bb
00000370: af02 72bd 616e 49bd 5a1e a23d c57c b5bd
00000380: 5a44 1b3d de1d 4c3c 6ec4 f5ba 4860 afbd
00000390: 0037 ad3d 5f05 873d ffb4 8c3b 6fef 93bd
000003a0: d49c 86bd fb23 973d 6302 9bbc fcd4 6e3d
000003b0: 61ad ab3c f18a 37bd 776f 1a3d 73f6 b73d
000003c0: da3a 133d 3f99 dfbc fa93 f2bc 08e3 c73b
000003d0: 4560 9fbd dbb6 6a3d 2549 57bd 5e66 d2bc
000003e0: ec9f a03d 8529 2b3d a2c8 9cbd d53a 80bd
000003f0: 81e2 033c cd5e 913c 84ab 56bd 3308 02bd
0.008235631 -0.04720025 -0.06139864 0.046977397 -0.0693055 -0.048600167 -0.0521718 -0.05090152
-0.0014343933 -0.022072114 -0.03755499 0.04639154 0.058405273 -0.042835854 -0.06416646 0.069740236
0.036775116 0.046354212 -0.07054569 -0.073177904 0.09330237 0.0072310357 0.070764385 0.024637796
0.05632137 0.035329863 0.062486842 0.08155085 0.04219382 0.07436536 -0.050235074 -0.04132553
0.013260071 0.057515822 0.04954709 -0.047602754 -0.011058889 0.05764126 0.04816924 -0.053844642
-0.035697587 -0.019855058 -0.050022487 0.026858294 0.0028502862 -0.0704558 0.02521895 -0.0039082738
-0.06604943 0.019857494 0.07056568 -0.036176976 -0.088864096 -0.08002335 0.08641943 0.067716405
0.027910244 0.02013201 -0.059022266 0.030365838 -0.030047793 0.04594878 0.0023104164 -0.05254671
0.017431192 0.019765975 0.026649015 0.019100927 0.018221404 -0.014254207 -0.05618374 0.037368134
-0.03502987 0.06511324 -0.031760298 -0.008472933 -0.08620439 -0.06286055 0.08102945 0.04560664
0.008928039 -0.066521265 0.07574868 -0.008146622 0.08301562 0.038734026 -0.068676464 -0.020430844
0.016422447 -0.08118843 0.042281784 -0.025788479 0.025721945 0.077697106 -0.05917768 -0.003513081
-0.02004932 -0.02264768 0.077374324 0.045704585 0.04906353 0.07499866 -0.021275632 -0.0759563
-0.03889912 0.0064959615 0.027615277 0.018180545 0.045867566 0.08045689 -0.041179568 -0.043903172
-0.014037487 -0.007998681 -0.012447155 0.090646185 0.046478663 0.076630645 0.0375372 0.077916905
-0.040930405 0.019379815 0.01582209 0.010848317 0.024876261 0.05549854 0.06569077 0.033475734
0.059654575 0.017917376 -0.020176472 0.0181824 0.06983207 -0.05201303 -0.05309039 0.05884363
-0.05865399 0.08387421 -0.09120518 0.0102100335 -0.024469057 -0.068003014 -0.027506351 -0.00633303
-0.042601272 -0.056192372 -0.0017425456 -0.062461857 -0.084457286 0.062485453 -0.019959768 -0.08668043
0.07592653 0.07508622 0.013417641 -0.036617342 0.027841784 -0.061389513 -0.057046708 -0.061564274
-0.010347068 0.039281346 0.052552987 -0.04815295 -0.018487355 -0.010828328 0.016491458 0.041012503
0.08776025 0.041693248 0.07186642 0.079397716 -0.0802079 -0.059380595 0.0677479 0.058283858
0.032220047 -0.015923643 0.08730882 0.0126926005 0.05368713 0.031962823 -0.053200606 0.05335771
-0.013394665 0.040152367 -0.07813148 0.025240725 -0.00686692 -0.050658233 0.083575055 0.026610425
0.08232929 0.05136097 0.011591522 0.021261988 -0.036540467 -0.011112172 -0.041466426 0.04454337
0.109688595 0.019612962 -0.048058007 -0.0488355 0.011419285 0.080300085 0.05487211 0.045027163
0.050847095 0.030093525 0.07850213 -0.024456562 -0.06624095 0.07725188 0.03405573 -0.087377444
-0.052790806 -0.0026557762 0.08239745 -0.0020146149 -0.05908459 -0.04917753 0.07915945 -0.088616885
0.037906982 0.012458293 -0.0018750557 -0.08563286 0.08457756 0.06592821 0.0042940374 -0.07223403
-0.06572881 0.073799096 -0.018922037 0.058308586 0.020956697 -0.04481024 0.037703957 0.08982553
0.035944797 -0.027294753 -0.029611576 0.0061000623 -0.07782034 0.05730329 -0.05255999 -0.025683578
0.07843003 0.041787643 -0.07655455 -0.06261221 0.008049608 0.0177454 -0.052409664 -0.0317461

bias f4 [140]
00000000: 3757 0fbd e315 4e3d 8af8 9fbd c700 8b3d
00000010: 76f6 8bbd 507f 58bd ee48 32bd 3999 da3c
00000020: ff62 5fbd 83ba 9ebd 59f9 86bd 79a0 a53d
00000030: f8e9 9dbd 042a e83c d4ea b9bc cf8d 89bd
00000040: de0b 21bd e2ba ffbc b0a4 673c 606c 3cbd
00000050: 1649 903d e966 88bd 5196 c83c 51dc 883d
00000060: 8856 5cbd 12b6 34bd ef52 c1bc 996e 12bd
00000070: 1bc6 a5bd efd7 693c 1042 06bb 9b3f bfbc
00000080: d52f 3e3d 689e 7dbc a5a8 3bbd 4636 a83c
00000090: 7cad 4f3d 3e79 42bd 0146 f53c 584b 7bbd
000000a0: 21a9 4fbc d625 90bc f78b 4fbd a8af a23d
000000b0: 7120 8e3d 29d8 293d c011 05bd 70f3 00bd
000000c0: 9edc 24bd a03d 54bd 85d1 953b ccd2 923d
000000d0: c26e bbbc 2527 9b3d a85b 96bc 6c83 24bd
000000e0: c19e 5cbd 9c34 413c 2968 453c 12a2 39bd
000000f0: e474 973c a69b 283d 0883 4d3d 888d 303d
00000100: dfbc 073d e639 91bd 5e48 b83c 3768 a7bb
00000110: 87de b73c 3519 8b3d 7ead b9bc bc9b 43bd
00000120: 61c6 20bd 4861 1e3c 2ec7 303d 0594 26bd
00000130: 64ab 6bbd a972 893c e9cb ab3d bc20 9b3c
00000140: 0670 653d a51d 94bd accf 2cbd 9c36 413d
00000150: 6770 69bd be0c 9dbd 6bf6 76bd 421e 1fbd
00000160: 2095 553b b0cf 663d 8836 a3bd 8a67 d83c
00000170: 00fc 8fbd 54ee 393c 87dc 423d 7dd3 1d3d
00000180: 1bfe 9f3d 7610 13bd 5b4e 973b 2c3d a33c
00000190: 90c6 cfbc d5e3 d13d aa6d 03bd 5ebe 243d
000001a0: 349e a43d 0ee0 32bd 5fdf 3d3d 8e62 2c3d
000001b0: 1b55 0bbd f075 903d ed1d 8bbd 9e2d 643c
000001c0: acfb 51bb dfa2 1f3c 347f 9a3d bcfe 92bd
000001d0: 7012 3b3d 220a 8fbd f574 1cbd 86c1 993c
000001e0: 2b09 983c c3b3 b93d 3a79 0fbd 521b 913d
000001f0: 150b 82bd 052f a03c 08ee 90bc ecf4 e43c
00000200: e4f5 893d d6c8 6f3c 8870 92bd 6d72 35bd
00000210: c708 a03c fbf3 adbd 4ff5 1abd ba7e 803d
00000220: 2434 9a3b 2cb6 00bd 6e6a 83bd 8e73 c3bc
-0.034995284 0.05031384 -0.07811077 0.06787258 -0.06834118 -0.05285579 -0.043526582 0.02668439
-0.05453777 -0.07750418 -0.06590528 0.08087248 -0.077106416 0.028340347 -0.022694983 -0.06716501
-0.039317958 -0.031217042 0.014138386 -0.046001792 0.0704519 -0.066602536 0.024485739 0.06682647
-0.05379346 -0.04411895 -0.023599116 -0.035750005 -0.08094426 0.014272674 -0.0020486154 -0.02334576
0.046432335 -0.0154796615 -0.04581513 0.020533692 0.050702557 -0.047478907 0.029940607 -0.06135115
-0.012674601 -0.017596167 -0.05067059 0.0794366 0.069397815 0.041465912 -0.03248763 -0.03148216
-0.04024946 -0.051816583 0.004572096 0.071691126 -0.022879962 0.075758256 -0.018354252 -0.040164396
-0.053862337 0.011792328 0.0120487595 -0.045320578 0.018488355 0.041164063 0.05017379 0.043103725
0.033139106 -0.070911214 0.022495445 -0.005108859 0.022444976 0.06791917 -0.022665735 -0.04775594
-0.03925169 0.009666748 0.043158703 -0.040668506 -0.057536498 0.016778307 0.08388502 0.018936507
0.056015037 -0.07232217 -0.04219024 0.04717122 -0.05699196 -0.07668446 -0.060293596 -0.038847215
0.0032590106 0.05635041 -0.079693854 0.026416559 -0.07030487 0.011348326 0.047573593 0.03853177
0.07812139 -0.03590437 0.004617495 0.01992663 -0.025363237 0.10248534 -0.032087006 0.04022061
0.08037987 -0.043670706 0.0463556 0.042086177 -0.03401671 0.07053745 -0.06792817 0.013926892
-0.0032040877 0.009743421 0.07543793 -0.07177493 0.04567188 -0.069843546 -0.038197476 0.018769037
0.01855906 0.0906749 -0.03502772 0.07085289 -0.0634977 0.01955367 -0.017691627 0.02794882
0.06736353 0.014635285 -0.0715037 -0.044298578 0.019535435 -0.08493801 -0.0378316 0.06274171
0.0047059227 -0.031423733 -0.06416784 -0.023858812
