training_outputs/sigmoid_full_horizon/logs/log_sigmoid_N20/best_model_state_dict.pth (torch, 546451 bytes, 20 tensors)

nodes.0.callable.fc_input.weight f4 [140, 42]
0.15503398 -0.08501982 -0.06199133 -0.11451668 0.0950123 0.10183693 0.07272844 0.083741345
-0.1067959 0.08230911 0.0041018296 0.01226842 -0.05498032 0.010552254 -0.015119707 -0.08937413
0.021127723 -0.13167638 0.016693229 -0.026341088 -0.056017995 0.047070563 -0.008983713 -0.104539715
-0.053440757 -0.05117284 0.022492545 0.103490256 0.1070958 -0.04181674 -0.08709373 -0.027711032
0.06188773 -0.08304547 -0.055035863 -0.0338361 0.039985105 -0.07253735 -0.0464376 -0.098962285
0.01905369 0.12433541 0.15207267 0.05483069 -0.06390032 0.08028943 0.08388325 0.04893117
-0.07824137 -0.1784673 0.09635394 -0.06452783 0.12874927 0.098555304 0.095607646 -0.15727746
-0.038845196 0.081884325 0.065463565 0.11078548 0.0016310631 0.0761426 0.055597078 -0.08413414
-0.0307956 0.0003408233 0.16878971 0.09219323 -0.03706855 0.13153449 0.13413098 0.0001578245
-0.0013324547 -0.03817102 -0.029072216 -0.10209804 0.09852078 -0.069645405 0.024817483 0.042770598
0.10572807 -0.09208825 0.03149423 0.07335526 0.08211213 -0.29363903 -0.031051498 0.026196538
-0.0033242002 -0.02591272 0.023643149 0.08800455 -0.022913026 -0.045844045 -0.023221161 0.057168886
0.028851384 0.012693539 0.02062069 0.060615685 -0.027604375 -0.09218944 -0.015548057 0.07077386
-0.03737871 0.047928676 -0.010305301 0.090035945 0.023874754 -0.09327162 -0.022465428 0.04395529
0.029981727 -0.0036520876 0.017972898 -0.037920892 0.07129274 0.17072804 -0.06656428 -0.06890556
0.05197236 0.026199935 -0.024018744 -0.0015891525 -0.04221953 0.040391356 -0.09499709 -0.09183015
0.0014000683 -0.049395137 -0.0139013855 0.044850975 0.016329125 0.08891267 6.564627e-05 -0.123027466
-0.014158972 0.01761522 -0.0067682806 -0.03327075 0.032522198 -0.0036908747 -0.027749533 0.058376037
0.004258383 -0.11135881 -0.013015829 0.091036655 0.016534897 -0.072872065 -0.011538946 0.06486808
-0.006697832 -0.03607415 0.00152139 -0.04474468 -0.006890711 0.013140125 0.01515317 -0.002819554
0.026810726 0.072099626 -0.027796803 -0.108242795 0.018730307 0.032190558 -0.03239487 0.00023387623
-0.13527308 0.0402387 0.09343851 0.021170147 0.08680898 0.124920666 0.10075717 0.026414052
-0.052303176 0.21304801 0.029405072 0.11109153 -0.0992639 0.17140913 -0.019923652 0.024583802
0.047264062 -0.03088692 -0.03964939 0.02390006 0.046834417 -0.04677099 -0.0073809954 -0.022317827
-0.0010444359 0.11886572 0.022765405 0.016144188 0.071049266 -0.124810666 0.09185293 -0.065866165
0.05657293 -0.0084043 0.084299155 -0.11989803 0.0017856812 -0.05010586 0.0031530438 0.022344349
0.04125563 0.07792496 0.12243875 0.108461685 0.05784161 0.08795772 0.18279937 -0.10665008
0.07650798 0.08580549 0.09052045 0.17844132 0.09136666 -0.037196774 0.019960286 0.109074995
0.05513728 0.10223779 0.060385685 0.12661393 0.09820916 -0.12618186 -0.068755426 0.05161078
-0.03692382 -0.021278685 0.19670781 0.14225347 0.06892061 -0.055829663 0.11849956 0.0919502
0.0812302 0.08859995 0.12832145 -0.028255247 0.16801311 -0.09201148 0.17876725 0.16625573
0.12806106 -0.004027995 -0.029444462 0.09021196 -0.18858705 0.071291775 0.02287711 0.0205411
00000000: 3ac1 1e3e df1e aebd 9fea 7dbd b987 eabd
00000010: cf95 c23d e18f d03d a6f2 943d 9580 ab3d
00000020: cfb7 dabd ae91 a83d a468 863b 7c01 493c
00000030: 0b33 61bd 5ce3 2c3c a6b8 77bc c909 b7bd
00000040: 0c14 ad3c 2cd6 06be 3dc0 883c 44c9 d7bc
00000050: 2073 65bd 10cd 403d 6c30 13bc eb18 d6bd
00000060: b2e4 5abd 9d9a 51bd 4942 b83c b3f2 d33d
00000070: 0b55 db3d 0848 2bbd 335e b2bd 3f02 e3bc
00000080: fd7d 7d3d be13 aabd 496d 61bd b997 0abd
00000090: 6cc7 233d 768e 94bd 5a35 3ebd bdac cabd
000000a0: 7c16 9c3c 90a3 fe3d f0b8 1b3e 2596 603d
000000b0: 2cde 82bd c96e a43d fbca ab3d 0d6c 483d
000000c0: 033d a0bd 22c0 36be 3755 c53d 2b27 84bd
000000d0: d9d6 033e 5dd7 c93d f1cd c33d 580d 21be
000000e0: 241c 1fbd f8b2 a73d c311 863d 7fe3 e23d
000000f0: 65c9 d53a a7f0 9b3d c3b9 633d 854e acbd
00000100: 0e47 fcbc 87b0 b239 36d7 2c3e cecf bc3d
00000110: 31d5 17bd fab0 063e a259 093e b17d 2539
00000120: c3a5 aeba 3759 1cbd db28 eebc c718 d1bd
00000130: 43c5 c93d 40a2 8ebd 094e cb3c 3930 2f3d
00000140: f587 d83d c498 bcbd 1800 013d 483b 963d
00000150: 682a a83d db57 96be b65f febc 1f9a d63c
00000160: d3da 59bb ea46 d4bc 47af c13c bb3b b43d
00000170: 19b4 bbbc f7c6 3bbd 4e3a bebc ec29 6a3d
00000180: bd59 ec3c 90f8 4f3c b9ec a83c 2748 783d
00000190: 9222 e2bc d1cd bcbd 47bd 7ebc e3f1 903d
000001a0: 6b1a 19bd dc50 443d 91d7 28bc c464 b83d
000001b0: fd94 c33c 3105 bfbd 6b09 b8bc 760a 343d
000001c0: 3d9c f53c dd57 6fbb e63b 933c f052 1bbd
000001d0: ee01 923d 55d3 2e3e da52 88bd 5c1e 8dbd
000001e0: f8e0 543d 3fa1 d63c f5c2 c4bc 1c4b d0ba
000001f0: 63ee 2cbd 6871 253d d68d c2bd 7211 bcbd
00000200: 7f82 b73a 8e52 4abd a3c2 63bc a8b5 373d
00000210: a8c4 853c d917 b63d 93ab 8938 d3f5 fbbd
00000220: 08fb 67bc cb4d 903c 74c8 ddbb e946 08bd
00000230: ff35 053d 9ae2 71bb fd52 e3bc b61b 6f3d
00000240: e889 8b3b 1610 e4bd 5840 55bc 6d71 ba3d
00000250: 3174 873c f33d 95bd d90d 3dbc 8ed9 843d
00000260: 7d79 dbbb 7dc2 13bd 6169 c73a 3346 37bd
00000270: 79cb e1bb ae49 573c 0045 783c 44c8 38bb
00000280: 2ba2 db3c f8a8 933d 1fb6 e3bc 66ae ddbd
00000290: 4d70 993c 3fda 033d 7cb0 04bd ac3c 7539
000002a0: 0785 0abe 56d1 243d b15c bf3d 046d ad3c
000002b0: e8c8 b13d 68d6 ff3d c659 ce3d 4862 d83c
000002c0: db3b 56bd 4229 5a3e e8e2 f03c f583 e33d
000002d0: df4a cbbd e085 2f3e ed36 a3bc f863 c93c
000002e0: f697 413d 9106 fdbc 6667 22bd 0fca c33c
000002f0: 72d5 3f3d f092 3fbd 47dc f1bb e0d3 b6bc
00000300: 74e5 88ba df6f f33d 847e ba3c d140 843c
00000310: 4782 913d bc9c ffbd 641d bc3d d7e4 86bd
00000320: 04b9 673d 30b2 09bc 09a5 ac3d 198d f5bd
00000330: 850d ea3a cd3b 4dbd 4ca3 4e3b 7f0b b73c
00000340: aafb 283d 1f97 9f3d 2bc1 fa3d 2921 de3d
00000350: 53eb 6c3d 2d23 b43d c22f 3b3e 5b6b dabd
00000360: 37b0 9c3d caba af3d c962 b93d 52b9 363e
00000370: 721e bb3d a55b 18bd c183 a33c b662 df3d
00000380: a1d7 613d 0c62 d13d fb56 773d 15a7 013e
00000390: e221 c93d d135 01be a5cf 8cbd d365 533d
000003a0: 6e3d 17bd a350 aebc c66d 493e e5aa 113e
000003b0: 4026 8d3d a5ad 64bd e6af f23d 6350 bc3d
000003c0: 055c a63d e473 b53d b366 033e 8c77 e7bc
000003d0: a10b 2c3e 8470 bcbd c30e 373e f13e 2a3e
000003e0: 7022 033e 45fd 83bb 8335 f1bc 0cc1 b83d
000003f0: f71c 41be 6c01 923d c768 bb3c cf45 a83c

nodes.0.callable.fc_input.bias f4 [140]
-0.17725126 0.12562849 -0.2414647 0.46791646 -0.10765796 0.15345253 0.08639749 -0.21507214
0.21361136 -0.21883905 0.020268105 0.09336781 -0.002795112 -0.20444418 0.11553865 -0.12722233
0.07814462 0.2486971 0.29205224 0.29570574 -0.2640374 -0.20624968 0.12286666 -0.18006964
-0.27477807 -0.06690519 -0.0634792 0.16533685 0.26297906 0.08688084 -0.20195442 0.055507936
0.13184652 -0.058583748 0.20297529 -0.1078965 0.11920348 0.045503628 -0.4164699 -0.020901283
0.23961708 0.07827549 -0.043115176 0.18572116 0.015307639 -0.04026573 -0.0764955 0.16942628
-0.2507871 0.05943772 0.25589868 0.15712309 -0.09995474 0.20615245 -0.23504439 0.070714965
-0.033469383 0.12371501 -0.11738962 0.39608774 -0.05596596 0.14256282 -0.18396653 -0.15498415
-0.06660664 0.096556544 0.16940352 0.016802173 0.27334872 -0.120647304 -0.08047628 0.20603745
-0.346269 0.05012269 -0.0768999 -0.015035574 -0.032756817 -0.09322543 0.020073045 0.092906676
-0.15528548 -0.22478229 -0.19549736 0.14839205 0.10854762 -0.15263772 0.15183112 -0.13368489
-0.3187313 0.07979889 0.05688384 0.20979443 0.29891878 -0.26372293 -0.2007143 0.29798272
0.3378572 0.05294178 -0.07484723 -0.14596738 -0.03400302 -0.05140888 0.041651055 -0.15964992
-0.06269147 0.265606 0.020981124 -0.14115246 -0.28038827 0.22734144 -0.08663837 -0.12886249
0.22430184 -0.03271197 -0.115286805 -0.12042378 0.036747884 -0.08790659 0.0980922 -0.007215954
-0.09692324 -0.22101669 0.110052004 0.13429536 0.23042619 0.33796522 -0.21756049 -0.031681765
0.18029153 0.0011860256 -0.24490775 0.021950645 -0.027987126 0.14664112 -0.04919201 0.12384585
0.11619789 -0.0056248913 -0.19960773 -0.50313014
00000000: 5b81 35be c1a4 003e 8642 77be bf92 ef3e
00000010: c77b dcbd a922 1d3e 2bf1 b03d df3b 5cbe
00000020: f0bc 5a3e 5817 60be 4c09 a63c 9f37 bf3d
00000030: 332e 37bb d159 51be 879f ec3d 9246 02be
00000040: 490a a03d 74aa 7e3e df87 953e be66 973e
00000050: e92f 87be 1e33 53be 84a1 fb3d 2d64 38be
00000060: b6af 8cbe 9705 89bd 6201 82bd 104e 293e
00000070: 31a5 863e 95ee b13d 24cd 4ebe 4a5c 633d
00000080: c602 073e 83f5 6fbd c1d8 4f3e d7f8 dcbd
00000090: f420 f43d 0362 3a3d 8b3b d5be 2b39 abbc
000000a0: 2e5e 753e e64e a03d 8a99 30bd b02d 3e3e
000000b0: e4cc 7a3c aeed 24bd aca9 9cbd 157e 2d3e
000000c0: 2b67 80be f774 733d 2705 833e e0e4 203e
000000d0: 12b5 ccbd a119 533e 7aaf 70be 02d3 903d
000000e0: 3117 09bd 4c5e fd3d f869 f0bd 03cc ca3e
000000f0: 903c 65bd fdfb 113e b961 3cbe 2ab4 1ebe
00000100: 1069 88bd 70bf c53d 1e78 2d3e b6a4 893c
00000110: 5df4 8b3e ef15 f7bd bfd0 a4bd 7bfb 523e
00000120: 2c4a b1be 734d 4d3d b27d 9dbd c557 76bc
00000130: 032c 06bd f9ec bebd 3a70 a43c db45 be3d
00000140: 2803 1fbe 542d 66be 7630 48be 16f4 173e
00000150: 374e de3d 104d 1cbe 9e79 1b3e b1e4 08be
00000160: c030 a3be 9a6d a33d 08ff 683d 5ad4 563e
00000170: e20b 993e b106 87be 0d88 4dbe 3191 983e
00000180: 9efb ac3e 7bd9 583d 8149 99bd 7978 15be
00000190: c046 0bbd 1e92 52bd 4c9a 2a3d 457b 23be
000001a0: 6364 80bd 82fd 873e 9be0 ab3c 458a 10be
000001b0: 0d8f 8fbe 32cc 683e 756f b1bd 87f4 03be
000001c0: 62af 653e fdfc 05bd 7d1b ecbd bea0 f6bd
000001d0: f384 163d 5f08 b4bd 90e4 c83d cf73 ecbb
000001e0: b17f c6bd 3352 62be f262 e13d b984 093e
000001f0: d8f4 6b3e c709 ad3e 2dc8 5ebe bdc4 01bd
00000200: 589e 383e 6a74 9b3a 19c9 7abe d7d1 b33c
00000210: 4245 e5bc 1729 163e 907d 49bd e5a2 fd3d
00000220: 29f9 ed3d 0251 b8bb f865 4cbe 23cd 00bf

nodes.0.callable.fc1_x1.weight f4 [140, 140]
-0.03420425 -0.029435232 0.01619394 -0.04944929 0.00931413 -0.05832777 0.17150342 -0.025915047
0.033256195 0.056025483 0.09349533 0.025608083 -0.042472698 -0.0012555944 -0.007361772 -0.033487633
-0.010096871 -0.04180397 -0.028286614 0.06612398 0.076525465 -0.02140667 0.03518693 -0.017905153
-0.023406425 0.022466125 -0.06782694 -0.028470634 -0.03579338 0.080807574 0.02600662 0.050531454
-0.058091413 0.017848348 0.03856727 0.033809543 -0.056713223 -0.04596033 0.020935917 -0.0046911403
-0.028364284 0.0002339299 0.07915499 -0.029656436 -0.0035811919 -0.064469054 -0.14566693 0.026364053
-0.081789754 -0.0752814 0.06527611 -0.032530393 -0.05449238 -0.11099817 0.026678355 -0.0054119285
0.031951446 -0.013821011 -0.07456725 -0.06309065 -0.05222784 -0.0052635022 -0.07020517 0.00066762994
0.01713782 0.07198321 0.02585768 0.037027106 -0.02212885 0.027648611 -0.08346218 0.010442953
-0.049576577 -0.022861533 -0.034035597 -0.00044654138 -0.026603736 0.042248778 0.053796493 -0.050660767
-0.013315715 0.0066101104 -0.029098807 -0.026276851 -0.015804132 -0.06655129 -0.037438646 0.03326911
-0.03713038 -0.026605204 -0.031117942 0.01570531 0.01140573 -0.007938825 -0.0069623333 0.019531908
-0.008814806 0.054064598 0.0040225405 0.042839985 0.06452053 0.032956887 0.014125022 0.009114404
-0.03804776 -0.029972726 0.0058467365 0.022738049 -0.077032894 0.032808777 0.032599006 0.024757406
-0.010049731 0.041302018 0.021871038 0.06601762 0.03653267 0.07658681 -0.087721854 0.0031588883
0.05529746 -0.021632567 -0.02688589 -0.08951736 -0.043157805 0.02551034 -0.037486896 0.04472124
0.0036978032 0.03533832 -0.0021835621 0.0039995867 0.018284222 0.013468403 0.06849338 -0.014711833
-0.042824138 0.030714404 0.008126422 -0.059181083 -0.034989826 -0.03820533 0.09829552 -0.09795829
0.0055846437 -0.06177786 -0.16624191 0.081146754 0.007050445 -0.03979785 0.0057967245 -0.05477512
-0.090018675 -0.07908422 -0.06207992 0.08021478 -0.025033396 -0.0111194 0.068885446 -0.025218027
-0.011959638 0.055226374 0.0877174 0.029146051 0.02185113 0.009854303 -0.0078024934 -0.09714184
0.00083624694 0.015555615 0.0532846 0.08266779 0.008326311 -0.012681195 -0.061251342 -0.057165615
-0.04037991 0.03603496 0.12171838 0.059927665 -0.024854112 -0.040240757 -0.06583241 -0.07865267
0.06371227 -0.020045618 0.102633335 0.046872858 -0.03319646 -0.039007656 -0.05576913 0.02459242
-0.0246335 0.047499243 0.06072039 0.025354013 -0.035958346 -0.045694157 0.060444646 0.054001775
0.06810679 -0.010085956 -0.015560395 -0.030423712 -0.015166437 -0.013893943 -0.1178282 0.05046715
-0.026084106 -0.026813002 0.035569485 -0.04397542 0.17310616 0.0020146107 -0.003404184 -0.017284213
0.07501615 0.048107445 -0.060894713 -0.03321782 -0.007176193 -0.021407109 0.007824994 -0.029980078
-0.007262419 -0.012571561 0.023383252 0.0033714147 0.06285672 0.08022532 -0.04904525 -0.086785614
-0.080557115 0.044050347 0.029677596 -0.11655894 -0.019432383 -0.010985107 0.09196409 -0.05708351
0.0050387266 -0.01854227 -0.00854865 0.04588442 -0.023750821 -0.06375694 0.01305695 -0.03865646
0.027630059 0.012253735 -0.020780591 -0.008204727 -0.11991416 -0.087530404 0.014295474 0.06241932
00000000: c119 0cbd 2822 f1bc 27a9 843c 578b 4abd
00000010: 4b9a 183c 1ae9 6ebd 989e 2f3e cb4b d4bc
00000020: a637 083d fa7a 653d 7b7a bf3d 0bc8 d13c
00000030: daf7 2dbd c292 a4ba 053b f1bb 542a 09bd
00000040: 596d 25bc a43a 2bbd 54b9 e7bc 026c 873d
00000050: 62b9 9c3d 0a5d afbc 2c20 103d d4ad 92bc
00000060: d5be bfbc e10a b83c dae8 8abd 3f3b e9bc
00000070: 149c 12bd 717e a53d d60b d53c 12fa 4e3d
00000080: 43f1 6dbd b336 923c b7f8 1d3d e07b 0a3d
00000090: 204c 68bd e640 3cbd cd81 ab3c 23b8 99bb
000000a0: 375c e8bc 144b 7539 031c a23d 0ef2 f2bc
000000b0: 6eb2 6abb 5a08 84bd b629 15be 6df9 d73c
000000c0: 6381 a7bd 222d 9abd 7baf 853d 973e 05bd
000000d0: 6733 5fbd 0253 e3bd 918c da3c 8c56 b1bb
000000e0: 85df 023d 8671 62bc b7b6 98bd ac35 81bd
000000f0: dcec 55bd 7579 acbb bac7 8fbd e303 2f3a
00000100: 9d64 8c3c ef6b 933d 7cd3 d33c bca9 173d
00000110: 9047 b5bc 577f e23c 38ee aabd eb18 2b3c
00000120: cf10 4bbd 1c48 bbbc e968 0bbd c51d eab9
00000130: 14f0 d9bc 0e0d 2d3d b659 5c3d aa81 4fbd
00000140: 282a 5abc a099 d83b 9f60 eebc 8d42 d7bc
00000150: ab77 81bc 0b4c 88bd 4459 19bd 3145 083d
00000160: 0616 18bd 28f3 d9bc 0eeb febc 6ca8 803c
00000170: 19df 3a3c d811 02bc 4924 e4bb 6101 a03c
00000180: fa6b 10bc d772 5d3d 84cf 833b fb78 2f3d
00000190: 5723 843d cdfd 063d a36c 673c 9554 153c
000001a0: f8d7 1bbd 5d89 f5bc fb95 bf3b 2545 ba3c
000001b0: 6cc3 9dbd 7f62 063d 8986 053d 0bd0 ca3c
000001c0: a0a7 24bc 4e2c 293d e42a b33c 3f34 873d
000001d0: 48a3 153d 8cd9 9c3d 84a7 b3bd 5a05 4f3b
000001e0: 977f 623d c836 b1bc cc3f dcbc e154 b7bd
000001f0: 3dc6 30bd 10fb d03c dc8b 19bd 9e2d 373d
00000200: d856 723b eabe 103d 181a 0fbb f70e 833b
00000210: cbc8 953c 94aa 5c3c 4246 8c3d e609 71bc
00000220: 5d68 2fbd c69c fb3c af24 053c dd67 72bd
00000230: 7e51 0fbd 317d 1cbd 294f c93d 5b9e c8bd
00000240: 63ff b63b c80a 7dbd 523b 2abe 4530 a63d
00000250: 6b07 e73b 1203 23bd 73f2 bd3b e05b 60bd
00000260: b65b b8bd e8f6 a1bd 8447 7ebd a647 a43d
00000270: d612 cdbc 252e 36bc d013 8d3d 0996 cebc
00000280: 5cf2 43bc 0d35 623d 2ea5 b33d b3c3 ee3c
00000290: 2401 b33c f173 213c 0fac ffbb 4df2 c6bd
000002a0: 9537 5b3a fadc 7e3c f440 5a3d bb4d a93d
000002b0: 146b 083c c9c4 4fbc b0e2 7abd 7e26 6abd
000002c0: 6865 25bd 6599 133d 7c47 f93d b676 753d
000002d0: da9a cbbc 7ed3 24bd 24d3 86bd a714 a1bd
000002e0: 947b 823d b536 a4bc 6d31 d23d c1fd 3f3d
000002f0: 03f9 07bd 7ec6 1fbd 2c6e 64bd 0b76 c93c
00000300: 32cc c9bc 918e 423d f2b5 783d 38b3 cf3c
00000310: 0f49 13bd cc29 3bbd ce94 773d f730 5d3d
00000320: 937b 8b3d 913f 25bc 07f1 7ebc 263b f9bc
00000330: a67c 78bc 6ca3 63bc e94f f1bd a4b6 4e3d
00000340: 56ae d5bc f1a6 dbbc 4fb1 113d 921f 34bd
00000350: be42 313e 8f07 043b bb18 5fbb 9f97 8dbc
00000360: 11a2 993d 500c 453d bc6c 79bd 690f 08bd
00000370: 4526 ebbb f65d afbc 6734 003c c898 f5bc
00000380: 96f9 edbb f3f8 4dbc 3c8e bf3c f4f2 5c3b
00000390: 06bb 803d 2c4d a43d ace3 48bd a8bc b1bd
000003a0: 21fb a4bd 236e 343d 6e1e f33c 74b6 eebd
000003b0: a930 9fbc e1fa 33bc ab57 bc3d 66d0 69bd
000003c0: e71b a53b f5e5 97bc a30f 0cbc 4df1 3b3d
000003d0: 1591 c2bc 0093 82bd d1ec 553c 3c56 1ebd
000003e0: 6f58 e23c e4c3 483c 0f3c aabc 1f6d 06bc
000003f0: 8e95 f5bd 2443 b3bd 9037 6a3c 67ab 7f3d

nodes.0.callable.fc1_x1.bias f4 [140]
0.10210949 0.052664105 -0.020019526 -0.060765434 -0.08281943 -0.024565767 0.041848928 0.035683114
0.0013685446 -0.04447502 0.008955006 -0.02514226 -0.014126777 -0.080340765 0.017161604 0.045201406
-0.07981932 -0.02695146 0.019548574 -0.022959225 0.07426658 0.05631093 0.072025135 -0.09875985
-0.056028225 -0.05649423 0.049691644 0.0049004136 -0.084371634 -0.003835604 0.006642402 0.050845936
-0.0034007556 -0.06836163 -0.061964523 0.03726886 -0.018302904 0.041589964 -0.072736844 -0.06599657
-0.06712767 0.053863745 -0.09681669 -0.019603416 0.025401771 -0.029888554 -0.060198624 -0.029290745
0.067308836 -0.02742973 0.07589877 0.03435188 -0.034482937 0.009431411 0.045435973 -0.07810535
0.053813376 0.010300926 -0.0416814 0.017996691 0.0225771 -0.08436351 0.06989091 -0.08368206
-0.06735396 0.011405053 -0.054384537 0.07995191 -0.05956391 -0.05742115 0.028143559 -0.0463169
0.04836894 0.07522706 0.029810013 -0.08045818 -0.019241659 0.06828758 0.019806499 -0.07856384
0.05640078 -0.020500898 -0.012912947 0.05449061 0.038493313 -0.050652478 -0.044387806 0.064098
-0.07109141 -0.016001666 0.029330144 0.059490755 0.029748702 -0.040863957 0.007562267 0.025558487
0.076566786 0.016877573 -0.018717533 0.073930316 0.049389247 -0.0017193675 0.003344804 0.08243589
0.042509995 -0.025777366 -0.01121264 -0.006228208 -0.028037563 0.020817429 -0.061042305 0.07434383
-0.05529761 0.002595743 0.029138694 0.05836258 0.080225736 0.058030896 -0.00950798 -0.089171164
0.041566048 -0.049691845 0.039049912 0.009464835 0.025247835 -0.009641068 0.023366483 0.02554164
-0.0147146 0.016988132 0.006815806 0.06420176 -0.05316132 -0.026810326 -0.019455926 -0.047297083
-0.111802645 0.036862694 -0.021428186 -0.09111108
00000000: c81e d13d 51b6 573d fdff a3bc 2de5 78bd
00000010: 3c9d a9bd 263e c9bc c869 2b3d 7528 123d
00000020: bd60 b33a 702b 36bd 04b8 123c 24f7 cdbc
00000030: ff73 67bc b389 a4bd 7e96 8c3c 1c25 393d
00000040: 5078 a3bd 4fc9 dcbc 5524 a03c fc14 bcbc
00000050: 1419 983d 4aa6 663d ea81 933d 9b42 cabd
00000060: da7d 65bd 7e66 67bd 7789 4b3d a693 a03b
00000070: 09cb acbd c25e 7bbb 82a8 d93b d443 503d
00000080: 36df 5ebb 2f01 8cbd 83ce 7dbd 3ba7 183d
00000090: f9ef 95bc 3d5a 2a3d 0ef7 94bd 3629 87bd
000000a0: 3b7a 89bd 3ba0 5c3d d447 c6bd 5897 a0bc
000000b0: 6017 d03c d7d8 f4bc d592 76bd 25f3 efbc
000000c0: 37d9 893d 50b4 e0bc d070 9b3d 8fb4 0c3d
000000d0: fb3d 0dbd 3486 1a3c 121b 3a3d b3f5 9fbd
000000e0: 6a6b 5c3d 37c5 283c 1eba 2abd cc6d 933c
000000f0: 9cf3 b83c c7c6 acbd f722 8f3d 8061 abbd
00000100: dff0 89bd 42dc 3a3c 52c2 5ebd d4bd a33d
00000110: 49f9 73bd 7132 6bbd 528d e63c cab6 3dbd
00000120: 821e 463d a510 9a3d 2134 f43c 42c7 a4bd
00000130: afa0 9dbc 5cda 8b3d 3d41 a23c 14e6 a0bd
00000140: 8104 673d 80f1 a7bc d390 53bc 8c31 5f3d
00000150: 2aab 1d3d f978 4fbd fdcf 35bd d045 833d
00000160: 6098 91bd ed15 83bc c545 f03c 94ac 733d
00000170: 8db3 f33c f760 27bd e5cc f73b 0860 d13c
00000180: 0ccf 9c3d d642 8a3c 8355 99bc c768 973d
00000190: 614c 4a3d 665c e1ba 8034 5b3b 26d4 a83d
000001a0: f61e 2e3d 0e2b d3bc 39b5 37bc ff15 ccbb
000001b0: 08af e5bc 5089 aa3c 7f07 7abd 9441 983d
000001c0: bf7f 62bd 571d 2a3b 45b4 ee3c 9a0d 6f3d
000001d0: 644d a43d ceb1 6d3d 5cc7 1bbc 5f9f b6bd
000001e0: 2941 2a3d ad89 4bbd cdf2 1f3d 6512 1b3c
000001f0: 8cd4 ce3c 92f5 1dbc 116b bf3c b43c d13c
00000200: 8115 71bc b22a 8b3c 2057 df3b 367c 833d
00000210: afbf 59bd 54a1 dbbc 0962 9fbc 96ba 41bd
00000220: c9f8 e4bd 56fd 163d 2a8a afbc 7298 babd

nodes.0.callable.fc2_x1.weight f4 [140, 140]
-0.25984588 -0.013731039 -0.024597012 0.11883749 0.0091325985 0.0075380746 -0.002510067 0.0102975415
-0.038325485 -0.0056583825 -0.023135925 -0.35695294 0.00021055488 0.0061123264 0.011587402 -0.04524821
0.01249617 -0.020968826 0.008981409 0.0014297721 -0.01910633 0.013764529 0.038693044 -0.038345713
-0.0336235 0.040191334 -0.029406058 0.017882787 -0.0698311 -0.015996661 0.009458846 0.039028667
0.012850173 0.06717698 -0.122135326 -0.42177588 -0.011741438 -0.11104173 -0.14174141 0.00051913527
-0.057999395 -0.0038020408 0.014514644 -0.03926097 -0.0040287394 -0.00947247 -0.02420252 -0.05244809
-0.028530344 0.036789056 -0.02448212 0.03979586 0.0005287209 0.04104561 0.038835835 -0.006187783
0.0027015593 -0.020956853 -0.034235466 -0.01981448 0.09317021 -0.008423482 0.023320768 -0.060042877
-0.05662303 0.14894971 -0.09635586 -0.061187934 -0.026756082 0.029307691 0.009327592 -0.047187015
0.012362301 0.109260894 0.13043647 -0.013860447 0.04693609 0.059958287 -0.036665592 -0.0053966152
-0.011183442 0.06631141 0.3918258 -0.015182132 -0.031129306 0.013188576 -0.0073496704 -0.049793754
-0.014335516 -0.0557065 0.007585576 0.02410992 0.034410927 -0.031515498 -0.0034634008 -0.05151775
-0.09971417 -0.0648699 0.02225631 0.032603346 -0.017481117 -0.072825685 0.0114139505 -0.025036618
0.014505727 -0.028461883 -0.102667354 0.025376538 -0.051937655 0.0020829346 -0.06794031 -0.09541801
0.15933436 0.027701411 0.11728769 -0.046402104 -0.07558296 -0.03264143 0.037259303 0.015719611
0.03413028 0.04854663 -0.012417918 -0.0089307595 0.01043799 0.13795535 -0.045818735 -0.039980866
0.06935588 -0.0012955423 0.025235295 0.1230138 0.07500559 0.086278185 0.03174461 0.06145262
0.23226266 0.056023553 0.02766642 0.05463608 -0.09663802 0.040854715 0.09770629 -0.01062786
0.0771237 -0.007565931 0.03438525 -0.04772427 -0.06105854 0.015150371 -0.014401994 -0.11918569
-0.03429422 -0.018937824 0.0365777 -0.11309146 -0.06045853 -0.09701205 0.023150593 0.07554335
0.09393883 0.03749429 0.00951617 0.03203429 -0.08684015 -0.030885495 -0.14134794 -0.059493992
-0.14706936 -0.020259429 -0.02861121 0.021796674 -0.08315113 -0.065396324 -0.030174159 -0.028532606
-0.024633558 -0.07050899 -0.036308177 0.06424661 0.03598638 -0.0034490726 -0.09719303 -0.077934325
-0.09478429 -0.080155 -0.012161074 0.042364817 -0.03014862 0.00015534941 -0.11177221 -0.044855498
0.05210841 0.1272246 -0.050271418 -0.043976124 0.049955636 -0.04032664 0.005545452 0.04505782
-0.015824001 -0.09823218 0.1731045 0.049486518 0.08308615 0.033590015 0.028783869 -0.051890444
-0.10609926 0.018304355 -0.044888597 0.023126943 0.09867178 -0.04853383 0.118677184 0.06818553
-0.07995338 -0.025103116 -0.09354833 0.08886 -0.012946722 -0.037902627 0.09799006 -0.059674505
0.10328263 0.026345007 -0.16888316 0.03218973 0.03709346 0.0017833101 -0.047331344 -0.08807464
-0.20649819 -0.10293204 0.07555006 -0.09977332 0.04287312 -0.066127166 0.032009777 0.011647947
0.07876397 0.038924698 -0.06901774 0.06980165 0.044888854 -0.034356527 0.041773006 -0.07019964
-0.0020261977 0.056003146 -0.006994156 0.016006334 0.07670307 0.08646221 -0.010151416 0.02105069
00000000: 850a 85be 27f8 60bc ac7f c9bc 1261 f33d
00000010: e5a0 153c f401 f73b f07f 24bb 05b7 283c
00000020: 2ffb 1cbd f469 b9bb 8d87 bdbc 89c2 b6be
00000030: 65c8 5c39 e949 c83b 16d9 3d3c 3056 39bd
00000040: bcbc 4c3c d1c6 abbc c226 133c 3167 bb3a
00000050: e184 9cbc 9e84 613c 997c 1e3d 6510 1dbd
00000060: ccb8 09bd ab9f 243d f9e4 f0bc ec7e 923c
00000070: 9c03 8fbd 6e0b 83bc 47f9 1a3c 86dc 1f3d
00000080: 8889 523c 1694 893d 1622 fabd 02f3 d7be
00000090: 295f 40bc d969 e3bd a924 11be 9416 083a
000000a0: c690 6dbd a92b 79bb d4ce 6d3c 1cd0 20bd
000000b0: 8403 84bb 6b32 1bbc 5d44 c6bc cfd3 56bd
000000c0: 78b8 e9bc 1fb0 163d ba8e c8bc fc00 233d
000000d0: dc99 0a3a 711f 283d 5312 1f3d e3c2 cabb
000000e0: a50c 313b b5ad abbc 7d3a 0cbd fa51 a2bc
000000f0: 06d0 be3d a502 0abc 320b bf3c 85ef 75bd
00000100: 8ded 67bd 4686 183e 3956 c5bd 33a0 7abd
00000110: 922f dbbc af16 f03c c2d2 183c 2c47 41bd
00000120: 408b 4a3c 2dc4 df3d 2391 053e ee16 63bc
00000130: 0f40 403d d296 753d a92e 16bd 17d6 b0bb
00000140: c13a 37bc 47ce 873d 649d c83e 7abe 78bc
00000150: e302 ffbc e614 583c 81d5 f0bb 89f4 4bbd
00000160: 83df 6abc 802c 64bd 6c90 f83b 2b82 c53c
00000170: 79f2 0c3d 6516 01bd 39fa 62bb 4704 53bd
00000180: f136 ccbd 83da 84bd dd52 b63c 168b 053d
00000190: 8f34 8fbc a225 95bd 9401 3b3c 9819 cdbc
000001a0: 6ea9 6d3c e528 e9bc 4343 d2bd 75e2 cf3c
000001b0: 94bc 54bd d881 083b 4a24 8bbd 856a c3bd
000001c0: 8c28 233e 12ee e23c 8734 f03d 2210 3ebd
000001d0: 3dcb 9abd 05b3 05bd 369d 183d 6ac6 803c
000001e0: 31cc 0b3d d5d8 463d 8674 4bbc 5252 12bc
000001f0: 1a04 2b3c 2b44 0d3e 6dac 3bbd fac2 23bd
00000200: 750a 8e3d 30cf a9ba 40ba ce3c a9ee fb3d
00000210: 889c 993d 9eb2 b03d a306 023d beb5 7b3d
00000220: 43d6 6d3e f478 653d b0a4 e23c 15ca 5f3d
00000230: 27ea c5bd 4657 273d 3c1a c83d 7a20 2ebc
00000240: 08f3 9d3d a1eb f7bb 8cd7 0c3d 867a 43bd
00000250: 8518 7abd 4339 783c 57f6 6bbc a117 f4bd
00000260: 1978 0cbd 7f23 9bbc 80d2 153d 7f9c e7bd
00000270: 5da3 77bd 41ae c6bd 50a6 bd3c 79b6 9a3d
00000280: 0063 c03d 9d93 193d b6e9 1b3c 6336 033d
00000290: 40d9 b1bd 9403 fdbc 84bd 10be f9af 73bd
000002a0: 5a99 16be 1af7 a5bc 0e62 eabc f08e b23c
000002b0: 244b aabd 82ee 85bd cc2f f7bc 36bd e9bc
000002c0: 51cc c9bc 0467 90bd e2b7 14bd ba93 833d
000002d0: 7466 133d d609 62bb 240d c7bd 089c 9fbd
000002e0: 441e c2bd 4e28 a4bd 3e3f 47bc bb86 2d3d
000002f0: 3dfa f6bc 4ae5 2239 d4e8 e4bd 66ba 37bd
00000300: a16f 553d 2a47 023e 67e9 4dbd 4f20 34bd
00000310: 489e 4c3d 8c2d 25bd 9fb6 b53b 8c8e 383d
00000320: 56a1 81bc f42d c9bd 4e42 313e 60b2 4a3d
00000330: 1229 aa3d af95 093d 26cc eb3c 138b 54bd
00000340: 924a d9bd 04f3 953c 1bdd 37bd b774 bd3c
00000350: 6e14 ca3d 69cb 46bd 060d f33d dba4 8b3d
00000360: 99be a3bd 0da5 cdbc 4496 bfbd 3bfc b53d
00000370: 7d1e 54bc c93f 1bbd 03af c83d 416d 74bd
00000380: d885 d33d 7cd1 d73c b5ef 2cbe 61d9 033d
00000390: 50ef 173d f5bd e93a 83de 41bd 7a60 b4bd
000003a0: 4374 53be 09ce d2bd fdb9 9a3d f455 ccbd
000003b0: ba9b 2f3d ae6d 87bd af1c 033d 08d7 3e3c
000003c0: 014f a13d 816f 1f3d 2c59 8dbd 2bf4 8e3d
000003d0: 60dd 373d 6eb9 0cbd 2c1a 2b3d d4c4 8fbd
000003e0: f5c9 04bb 8e63 653d 3c2f e5bb b71f 833c
000003f0: 8016 9d3d 1913 b13d 2052 26bc 7f72 ac3c

nodes.0.callable.fc2_x1.bias f4 [140]
0.0038092702 0.05703588 0.0665065 -0.0673731 0.09286772 -0.07795492 -0.026592767 -0.060956776
0.015652737 -0.025712138 0.011643974 -0.10716011 -0.06305264 0.1095689 0.010103048 0.09766693
-0.05060862 0.074138165 -0.012427312 -0.07987215 0.024036245 -0.010488005 -0.0927749 -0.073619194
0.058093708 0.08779553 -0.09669294 0.05657346 0.027158163 0.14649332 0.06562764 0.03282674
0.110018775 -0.027124703 -0.0072124624 0.054275803 -0.042487286 0.0051321615 0.04303418 -0.07189319
-0.050136313 -0.07151458 -0.08253963 0.0022541857 -0.04545368 0.090635665 0.08103757 0.0868011
0.04139551 -0.07197116 0.0051542846 -0.036457963 -0.025003891 0.13219805 0.051409468 -0.08716974
0.05657742 0.10130421 0.102492556 0.01940724 0.02970937 0.026524916 0.026685052 0.03358916
-0.06931248 0.064136125 0.038467415 -0.06587102 -0.092010856 0.06269177 0.011355757 0.10103459
0.0922933 0.013372361 -0.006809249 0.06664213 -0.06490277 -0.023257593 -0.08089607 -0.0011656787
0.13129479 -0.11263096 -0.12781155 0.07542015 0.07790469 -0.12199621 0.040051818 -0.08019427
0.016194537 0.0009842791 0.088521264 -0.13774289 0.058217403 -0.099458665 -0.06524425 -0.0059853964
-0.061393484 -0.010346251 0.09007423 -0.007843629 0.05383215 -0.07415409 -0.027630016 0.036672536
0.068247154 0.056634862 0.07369605 -0.024147391 0.012183403 0.016684784 -0.08091727 0.0052572987
-0.0029011553 -0.03124323 -0.099702574 0.07509928 -0.025882257 0.1344286 0.063905016 0.032132834
-0.01546511 0.07944754 0.099418536 0.0065221684 -0.09423001 0.014091762 0.06994491 -0.15355262
0.047318153 -0.013253835 -0.11444773 -0.013792402 0.07540442 0.08181382 0.085219055 -0.13117643
0.006301227 0.0063131587 -0.0021010928 -0.11837226
00000000: f3a4 793b 749e 693d 8f34 883d e8fa 89bd
00000010: 6e31 be3d d4a6 9fbd 13d9 d9bc d0ad 79bd
00000020: 2b3a 803c 43a2 d2bc 5ec6 3e3c c276 dbbd
00000030: be21 81bd a965 e03d 4187 253c 9905 c83d
00000040: fc4a 4fbd c0d5 973d ed9b 4bbc 0394 a3bd
00000050: a9e7 c43c e2d5 2bbc c400 bebd a9c5 96bd
00000060: abf3 6d3d 25ce b33d f306 c6bd 93b9 673d
00000070: cc7a de3c 5802 163e c967 863d 5575 063d
00000080: 8651 e13d a034 debc 8556 ecbb 4e50 5e3d
00000090: 2607 2ebd b12b a83b 9c44 303d bd3c 93bd
000000a0: bc5b 4dbd 3c76 92bd 8a0a a9bd f6ba 133b
000000b0: a32d 3abd 319f b93d 07f7 a53d c6c4 b13d
000000c0: 578e 293d 9e65 93bd 46e5 a83b f254 15bd
000000d0: f6d4 ccbc ed5e 073e bc92 523d 0c86 b2bd
000000e0: babd 673d 9578 cf3d 9ee7 d13d effb 9e3c
000000f0: 1161 f33c c84a d93c 9c9a da3c c994 093d
00000100: b4f3 8dbd cd59 833d 0290 1d3d 63e7 86bd
00000110: 3070 bcbd 8b64 803d 7f0d 3a3c 39eb ce3d
00000120: 4504 bd3d bf17 5b3c 1f20 dfbb ab7b 883d
00000130: beeb 84bd b586 bebc d7ac a5bd b0c9 98ba
00000140: 2472 063e 10ab e6bd 08e1 02be e175 9a3d
00000150: 7e8c 9f3d 26d9 f9bd 600d 243d e53c a4bd
00000160: 68aa 843c ed02 813a a34a b53d 790c 0dbe
00000170: 5f75 6e3d fcb0 cbbd c79e 85bd 2521 c4bb
00000180: bc77 7bbd 5283 29bc d778 b83d 9182 00bc
00000190: 1a7f 5c3d 19de 97bd 5858 e2bc f135 163d
000001a0: 2ac5 8b3d f5f9 673d f4ed 963d c0d0 c5bc
000001b0: e59c 473c 87ae 883c f4b7 a5bd 6b45 ac3b
000001c0: 4f21 3ebb cdf1 ffbc dd30 ccbd a7cd 993d
000001d0: 0707 d4bc a7a7 093e a2e0 823d b89d 033d
000001e0: 5f61 7dbc 64b5 a23d f29b cb3d eab7 d53b
000001f0: aafb c0bd 22e1 663c 473f 8f3d e63c 1dbe
00000200: aed0 413d 9d26 59bc 9263 eabd 87f9 61bc
00000210: a26d 9a3d 018e a73d 5487 ae3d 1d53 06be
00000220: 867a ce3b 9dde ce3b 7db2 09bb 286d f2bd

nodes.0.callable.fc_output_x1.weight f4 [20, 140]
0.016667921 -0.009206902 -0.0074580777 -0.010105086 0.006861815 -0.0014258308 -0.0017983749 -0.0015107425
-0.0010195799 -0.0075351275 -0.0037625204 -0.0055153947 0.005333636 0.13668425 -0.011402867 -0.0021629655
-0.00033778042 0.106848136 0.008978612 -0.0010210898 -0.009490938 0.0030792926 -0.0011686409 -0.0009863772
0.15516673 -0.00704246 -0.0012633431 -0.009191776 -0.0019405391 0.08519254 0.0144428285 -0.00083785824
0.2306507 0.13298841 0.13757144 0.13549562 0.02389683 -0.005988288 -0.001181889 -0.00054947694
-0.00791033 -0.0015748948 -0.001094808 -0.008045424 -0.0012112152 0.17094046 -0.0021051099 -0.0024976498
-0.002235931 -0.0030443843 -0.014700139 -0.0014923303 0.0012246687 0.11951658 0.15438224 -0.0014139664
0.08563597 0.084354505 -0.011111486 0.005523249 -0.0073789046 0.12816583 -0.000987029 0.16397865
0.003288564 0.12576257 0.0030792744 -0.0015328669 -0.0008304345 0.15426856 0.086453915 0.21504699
0.0945474 -0.00078058237 -0.0008123621 0.0012658582 -0.0014746503 -0.0009592675 0.007927394 0.1518987
0.15932569 -0.00075416657 -0.006584021 -0.010630912 -0.005612872 -0.0013773639 -0.0035106777 0.008562563
0.098539375 -0.0009331573 -0.0062820916 -0.0011633623 0.17297494 -0.00070237136 -0.00038201822 -0.009779912
-0.0011907066 -0.0129557615 -0.007373079 -0.0014954587 -0.0070499405 -0.00073018466 0.0003533947 -0.007869572
0.007819967 -0.010146953 -0.009789534 -0.021039788 -0.008746355 -0.004069516 -0.0007890484 0.008144324
-0.0010770898 0.015180891 -0.0015357496 -0.004761898 -0.0031081678 0.16928527 -0.0065512224 0.008435051
0.0812424 0.0053568813 -0.008626384 -0.0010375323 -0.0014485642 -0.0038870915 -0.008104956 -0.024196353
-0.0008560032 -0.0021929033 -0.00061592046 -0.000522627 0.14356221 -0.009605029 0.0027749015 -0.03364248
-0.0008573633 -0.0015834344 -0.00968754 -0.0011359322 0.011789792 -0.0055555343 -0.0036740268 -0.0068394286
0.0033063465 -0.0022354873 0.0009526652 0.00018489703 -0.0018987803 -0.005640725 -0.004702108 -0.004865588
0.005234212 0.13208298 -0.006666856 0.00059088593 -0.0013656665 0.112473875 0.004539728 -0.0019109657
-0.006398509 0.0037655237 -0.0017386851 -0.001765854 0.1427141 -0.003456076 -0.002108909 -0.004410162
0.0011133379 0.089754485 0.011374888 -0.0018005555 0.21883692 0.12658338 0.1304191 0.13275047
0.028526781 -0.0045524742 -0.0015514314 -0.0013570229 -0.0055079986 -0.002015634 -0.0017785442 -0.0044989493
-0.0021424247 0.16307046 0.0006381009 -0.0032674214 -0.002648577 -0.0031692095 -0.009274085 -0.0020125057
0.0009941943 0.119336605 0.15311792 -0.0021978365 0.08444904 0.092807725 -0.0077793486 0.0016166965
-0.0033097793 0.12475277 -0.0017491678 0.1549003 0.0032006053 0.12503104 0.0042603165 -0.0022232067
-0.001772018 0.14919393 0.09522945 0.20976013 0.08419211 -0.0014883359 -0.0017508755 -0.0009162991
-0.0021265147 -0.001743014 0.006411433 0.1388148 0.157734 -0.0015560897 -0.004881723 -0.0071304287
-0.0014305272 -0.0022264381 -0.0030221583 0.009933208 0.10080762 -0.0016131968 -0.0062706247 -0.002112363
0.16134076 -0.0015686152 -0.0012636759 -0.006040367 -0.0017619499 -0.008671577 -0.0062913997 -0.0018778812
-0.005728894 -0.0018686603 -0.0008460453 -0.0040856553 0.0064664995 -0.00591341 -0.0062762275 -0.010047024
-0.007227535 -0.0032358135 -0.0017290242 0.0063858926 -0.0017457425 0.01015089 -0.0021106196 -0.0010515535
00000000: 2a8b 883c 8cd8 16bc e462 f4bb cd8f 25bc
00000010: 14d9 e03b f1e2 baba 73b7 ebba 1b04 c6ba
00000020: 6da3 85ba 3be9 f6bb 9e94 76bb 7cba b4bb
00000030: c8c5 ae3b f5f6 0b3e 17d3 3abc 8ac0 0dbb
00000040: 1f18 b1b9 32d3 da3d 071b 133c 17d6 85ba
00000050: e17f 1bbc f5cd 493b 152d 99ba 5449 81ba
00000060: 07e4 1e3e 70c4 e6bb c396 a5ba 1a99 16bc
00000070: b059 feba 6d79 ae3d 9da1 6c3c b7a3 5bba
00000080: b22f 6c3e 1d2e 083e 87df 0c3e 5dbf 0a3e
00000090: 49c3 c33c 6739 c4bb 9de9 9aba c60a 10ba
000000a0: 549a 01bc b36c ceba a97f 8fba f4d0 03bc
000000b0: a3c1 9eba 040b 2f3e e2f5 09bb 9caf 23bb
000000c0: b388 12bb 4b84 47bb dad8 70bc 4c9a c3ba
000000d0: 1085 a03a 1cc5 f43d 6116 1e3e d754 b9ba
000000e0: e961 af3d 0ec2 ac3d f30c 36bc 5ffc b43b
000000f0: bdca f1bb e73d 033e 335f 81ba 05ea 273e
00000100: f384 573b e7c7 003e a7cd 493b 7aea c8ba
00000110: 84b1 59ba 94f8 1d3e c00e b13d 4735 5c3e
00000120: 11a2 c13d ff9f 4cba b3f4 54ba 27eb a53a
00000130: 0e49 c1ba 5a77 7bba e6e1 013c 558b 1b3e
00000140: 4626 233e 43b3 45ba c5be d7bb 472d 2ebc
00000150: 2fec b7bb aa88 b4ba 6613 66bb fe49 0c3c
00000160: 03cf c93d 209f 74ba 01da cdbb f67b 98ba
00000170: 5820 313e 581f 38ba 9e49 c8b9 ed3b 20bc
00000180: 7c11 9cba 6744 54bc df99 f1bb 4403 c4ba
00000190: 3003 e7bb dd69 3fba d547 b939 61ef 00bc
000001a0: 521f 003c 683f 26bc 4864 20bc a25b acbc
000001b0: df4c 0fbc 9359 85bb 24d8 4eba c56f 053c
000001c0: 232d 8dba 46b9 783c 354b c9ba b209 9cbb
000001d0: 67b2 4bbb 1e59 2d3e a3ab d6bb 2b33 0a3c
000001e0: 6a62 a63d c788 af3b ad55 0dbc cffd 87ba
000001f0: c0dd bdba 93be 7ebb a6ca 04bc 6e37 c6bc
00000200: 6765 60ba d0b6 0fbb b975 21ba e700 09ba
00000210: f901 133e 695e 1dbc 1fdb 353b b2cc 09bd
00000220: adc0 60ba 3e8b cfba 7db8 1ebc 8fe3 94ba
00000230: f929 413c 330b b6bb f1c7 70bb 491d e0bb
00000240: 4aaf 583b 4181 12bb 48bc 793a ebe0 4139
00000250: 7fe0 f8ba d5d5 b8bb 2414 9abb 836f 9fbb
00000260: c183 ab3b c340 073e a475 dabb afe5 1a3a
00000270: 2a00 b3ba b458 e63d 00c2 943b 5e79 faba
00000280: 95aa d1bb 01c7 763b 97e4 e3ba 3a74 e7ba
00000290: a523 123e 557f 62bb 9f35 0abb 1f83 90bb
000002a0: 6ced 913a 33d1 b73d bd5d 3a3c 9e00 ecba
000002b0: c916 603e 139f 013e 968c 053e bdef 073e
000002c0: ffb0 e93c ec2c 95bb 6659 cbba 22de b1ba
000002d0: 717c b4bb ba18 04bb 0a1e e9ba ec6b 93bb
000002e0: ec67 0cbb f1fb 263e 3a46 273a 3c22 56bb
000002f0: c093 2dbb 83b2 4fbb 55f2 17bc 3ee4 03bb
00000300: a04f 823a c066 f43d f2ca 1c3e 9409 10bb
00000310: 9ef3 ac3d fa11 be3d e8e9 febb 55e7 d33a
00000320: e2e8 58bb 617e ff3d 5544 e5ba 2f9e 1e3e
00000330: 3fc1 513b 2308 003e 209a 8b3b 38b3 11bb
00000340: 0f43 e8ba 4bc6 183e a807 c33d 5ccb 563e
00000350: ea6c ac3d 4414 c3ba a27d e5ba cb33 70ba
00000360: ff5c 0bbb d875 e4ba 0017 d23b 7825 0e3e
00000370: 0685 213e b5f5 cbba dcf6 9fbb 5fa6 e9bb
00000380: 8780 bbba 6fe9 11bb 670f 46bb e5be 223c
00000390: 3a74 ce3d e771 d3ba d079 cdbb 926f 0abb
000003a0: 8336 253e fe99 cdba eda1 a5ba 45ee c5bb
000003b0: 3af1 e6ba 3b13 0ebc 1628 cebb 3d23 f6ba
000003c0: 72b9 bbbb d6ed f4ba 24c9 5dba f6e0 85bb
000003d0: eee4 d33b 47c5 c1bb d0a8 cdbb 469c 24bc
000003e0: f5d4 ecbb f10f 54bb 6da0 e2ba c040 d13b
000003f0: 66d1 e4ba eb4f 263c 5252 0abb 48d4 89ba

nodes.0.callable.fc_output_x1.bias f4 [20]
0.27406988 0.14105101 0.15759215 0.24045843 0.1580797 0.15356924 0.22779034 0.27862784
0.18507783 0.1814742 0.2126806 0.25518125 0.27851665 0.23227042 0.1811591 0.13296959
0.17135438 0.22901888 0.057701245 0.07753525
00000000: e352 8c3e ad6f 103e d65f 213e bc3a 763e
00000010: a5df 213e 4141 1d3e df41 693e 4fa8 8e3e
00000020: 0b85 3d3e 5fd4 393e f1c8 593e 1ea7 823e
00000030: bc99 8e3e 4cd8 6d3e c581 393e 2e29 083e
00000040: 8677 2f3e ed83 6a3e 2458 6c3d cdca 9e3d

nodes.0.callable.fc1_x12.weight f4 [140, 140]
0.05977903 -0.046106707 -0.04028075 0.11242202 -0.03793866 -0.073180854 -0.011906034 -0.05627634
0.00857757 -0.037602205 0.003947395 -0.003435469 0.054174777 -0.053553924 -0.07368944 0.025367588
-0.0031127485 0.030023105 -0.05777528 -0.057160325 0.046651278 0.00064887595 0.020534381 0.06067044
0.027037287 0.057128925 -0.0075064874 0.06011159 0.026000777 0.053509306 -0.048079986 -0.013140274
-0.0166884 0.050279353 0.042411927 -0.04510245 0.03896475 0.055736333 0.067776866 -0.016133942
-0.056238003 -0.021398947 -0.03603004 0.030678717 -0.015286422 -0.07687174 0.026182046 0.016634442
-0.052876357 0.0566229 0.05639372 -0.028385794 -0.054757513 -0.07914727 0.059172757 0.048822325
-0.006718901 0.030383958 -0.04467181 0.06569781 -0.015218745 0.04306176 0.0008984727 -0.05019359
-0.0047818776 0.038677607 -0.00518535 0.01695556 0.030850017 -0.051876593 -0.033064254 0.002571477
-0.0105398325 0.056121003 -0.022346739 -0.009632305 -0.029883651 0.004491745 0.062443156 -0.010596593
-0.026866606 -0.07198536 0.060851682 0.02265546 0.040197138 0.058222283 -0.07134252 0.01102511
0.012346849 -0.025952661 -0.0008239178 -0.022257324 0.028293263 0.045981366 -0.060132932 -0.0147231985
0.036151227 -0.024013396 0.067690395 0.05074893 0.05955214 0.03731652 -0.018802097 -0.04715351
-0.049131453 -0.011357392 0.03461938 -0.0032830527 0.053125072 0.05398771 -0.03575878 -0.02715246
-0.016364485 0.012331223 -0.0024585126 0.0953579 0.061606333 0.09239896 0.05145659 0.07679189
-0.028381256 0.044955432 0.05088894 0.0022692757 -0.021738803 0.031613827 0.06681462 0.034802277
0.05929572 0.03143856 -0.015141214 -0.029812915 0.0717718 -0.020775924 -0.02789348 0.043177493
-0.011505625 0.050740972 -0.057194885 -0.045655318 -0.024666125 -0.047502555 -0.065580875 -0.034175064
-0.030904442 -0.0475567 0.02499076 -0.071188994 -0.05485179 0.046399754 -0.059939187 -0.07089413
0.059104126 0.0867261 -0.017503045 -0.027910525 0.04499492 -0.03361956 -0.018612137 -0.05373587
-0.006975793 0.071038485 0.08743762 -0.054858115 -0.031755343 -0.012302504 -0.056077592 0.05223123
0.06872172 0.015474634 0.058744617 0.09002741 -0.08993993 -0.06676613 0.053238723 0.018940212
0.059728287 0.027181381 0.075678475 0.046761338 -0.0070807626 0.034300983 -0.012429538 0.0553081
-0.059785377 0.04403799 -0.09060146 0.054667976 -0.033962145 -0.041096352 0.089750856 0.05972717
0.07366385 0.050474558 -0.039011832 0.034410235 -0.049979404 -0.013229706 -0.019543806 0.05352993
0.07612327 0.020153709 -0.062285047 -0.053845678 -0.0057914597 0.07317261 0.062971406 0.03611577
0.057356246 0.04781715 0.06057774 -0.04570849 -0.062792785 0.061708882 -0.003599982 -0.06272705
-0.051956657 0.023865415 0.06822456 0.041927293 -0.094905466 -0.011460208 0.049191587 -0.12297984
0.030429538 0.010218855 -0.025395773 -0.06899697 0.07439782 0.089921616 0.007598009 -0.098854154
-0.0027874275 0.012279538 -0.006090515 0.06636335 0.061584573 -0.057905022 0.053130846 0.054753087
0.00975174 -0.04575949 -0.017818842 -0.004500721 -0.06629143 0.070507936 -0.038149606 0.010922675
0.053277787 0.06532046 -0.103673086 -0.07142269 -0.00029166645 -0.013773718 -0.06449581 -0.030959
00000000: dbda 743d 63da 3cbd 6dfd 24bd 843d e63d
00000010: 9165 1bbd d8df 95bd 8711 43bc 0582 66bd
00000020: f088 0c3c c504 1abd 2659 813b 9b25 61bb
00000030: 5fe6 5d3d 5c5b 5bbd 7dea 96bd b0cf cf3c
00000040: 41ff 4bbb 04f3 f53c c6a5 6cbd f220 6abd
00000050: 6915 3f3d 5419 2a3a b837 a83c 9181 783d
00000060: 4d7d dd3c 0500 6a3d fbf8 f5bb 9237 763d
00000070: 95ff d43c 932c 5b3d 85ef 44bd 4e4a 57bc
00000080: 1db6 88bc b9f1 4d3d 21b8 2d3d 59bd 38bd
00000090: 8099 1f3d c84b 643d 99ce 8a3d 542b 84bc
000000a0: d259 66bd d84c afbc 3c94 13bd ef51 fb3c
000000b0: e773 7abc ee6e 9dbd bb7b d63c f444 883c
000000c0: e194 58bd 6aed 673d 1afd 663d 5389 e8bc
000000d0: 6a49 60bd f717 a2bd 225f 723d ebf9 473d
000000e0: 3a2a dcbb c7e7 f83c caf9 36bd 938c 863d
000000f0: 0b58 79bc 8761 303d 7b87 6b3a cb97 4dbd
00000100: 4cb1 9cbb 696c 1e3d dee9 a9bb 63e6 8a3c
00000110: 2db9 fc3c 8d7c 54bd 626e 07bd 3a86 283b
00000120: 43af 2cbc 23df 653d 8210 b7bc d1d0 1dbc
00000130: 8fce f4bc 7d2f 933b 65c4 7f3d 559d 2dbc
00000140: 5b17 dcbc 0f6d 93bd 9d3f 793d f197 b93c
00000150: c1a5 243d 7d7a 6e3d 071c 92bd aaa2 343c
00000160: 704a 4a3c ad9a d4bc 30fc 57ba fe54 b6bc
00000170: 46c7 e73c f556 3c3d f34d 76bd 9239 71bc
00000180: 4f13 143d beb7 c4bc 43a1 8a3d 1cde 4f3d
00000190: f2ec 733d 35d9 183d db06 9abc 0a24 41bd
000001a0: 103e 49bd 5b14 3abc 0dcd 0d3d 7c28 57bb
000001b0: ad99 593d 3822 5d3d cc77 12bd d66e debc
000001c0: d00e 86bc e608 4a3c ff1e 21bb 014b c33d
000001d0: ec56 7c3d aa3b bd3d 25c4 523d 1145 9d3d
000001e0: cf7f e8bc 3023 383d ec70 503d 21b8 143b
000001f0: 9315 b2bc 807d 013d 1ad6 883d d58c 0e3d
00000200: 12e0 723d b8c5 003d db12 78bc 373a f4bc
00000210: 18fd 923d 4532 aabc de80 e4bc e2da 303d
00000220: 1782 3cbc c4d5 4f3d 2f45 6abd 1201 3bbd
00000230: 9d10 cabc 0a92 42bd 444f 86bd 27fb 0bbd
00000240: 502b fdbc d0ca 42bd 6cb9 cc3c 89cb 91bd
00000250: 45ac 60bd ab0d 3e3d cb82 75bd f130 91bd
00000260: 2b17 723d 749d b13d 8c62 8fbc 9da4 e4bc
00000270: 984c 383d aab4 09bd 7b78 98bc 251a 5cbd
00000280: 3195 e4bb a07c 913d 7f12 b33d e7b2 60bd
00000290: e411 02bd 7190 49bc 9eb1 65bd 6af0 553d
000002a0: f9bd 8c3d 5289 7d3c 329e 703d 4a60 b83d
000002b0: 6d32 b8bd aebc 88bd d910 5a3d 8128 9b3c
000002c0: a6a5 743d 7dab de3c 51fd 9a3d d188 3f3d
000002d0: be05 e8bb 307f 0c3d 43a5 4bbc bf8a 623d
000002e0: 83e1 74bd 2e61 343d 428d b9bd 87eb 5f3d
000002f0: e41b 0bbd a654 28bd 4ccf b73d 7aa4 743d
00000300: 13dd 963d 69be 4e3d dfca 1fbd bff1 0c3d
00000310: 34b7 4cbd 69c1 58bc 551a a0bc 3342 5b3d
00000320: 84e6 9b3d 6419 a53c 9b1e 7fbd 498d 5cbd
00000330: 49c6 bdbb 85db 953d 27f7 803d 21ee 133d
00000340: 62ee 6a3d eadb 433d 5d20 783d d338 3bbd
00000350: 8199 80bd 74c2 7c3d aded 6bbb 0a77 80bd
00000360: 81d0 54bd 6781 c33c 51b9 8b3d f4bb 2b3d
00000370: cc5d c2bd 99c3 3bbc 1e7d 493d dbdc fbbd
00000380: 5e47 f93c fc6c 273c cc0a d0bc 494e 8dbd
00000390: e25d 983d d328 b83d b8f8 f83b 0c74 cabd
000003a0: 46ad 36bb 1e30 493c f192 c7bb 82e9 873d
000003b0: 1b40 7c3d d12d 6dbd bb9f 593d c644 603d
000003c0: c3c5 1f3c 4e6e 3bbd d2f8 91bc c97a 93bb
000003d0: cdc3 87bd 7766 903d c342 1cbd 05f5 323c
000003e0: cf39 5a3d bcc6 853d 8e52 d4bd 0f46 92bd
000003f0: cfea 98b9 29ab 61bc 6116 84bd bb9d fdbc

nodes.0.callable.fc1_x12.bias f4 [140]
-0.047706198 0.062265366 -0.093784325 0.07055977 -0.070708506 -0.06436411 -0.05811189 0.056630753
-0.04335989 -0.0542417 -0.04478615 0.03254806 -0.07077642 0.018939037 -0.031868033 -0.04361589
-0.012262322 -0.0510585 0.00071366364 -0.06077528 0.07891807 -0.055261478 -0.000836391 0.053846873
-0.061528895 -0.06462649 -0.01790594 -0.022956906 -0.07767185 0.013991795 -0.01910452 -0.0111225
0.057121642 -0.01757769 -0.0642925 0.020895721 0.038554847 -0.07539723 0.046654698 -0.062349554
-0.04575535 -0.020733856 -0.06722708 0.08665427 0.03415631 0.07022095 0.00082518207 -0.028236361
-0.038640905 -0.011815117 -0.0073190713 0.064517215 -0.009226094 0.05378497 -0.023213781 -0.03962264
-0.05937782 0.012529214 0.011480379 -0.025824588 0.021790685 0.050799374 0.053857468 0.04057916
0.05882504 -0.07455151 0.011514746 -0.011480746 0.023926347 0.053587843 -0.01703246 -0.037267365
-0.049669463 0.0092472015 0.059883997 -0.030165844 -0.06902973 -0.012694815 0.07281319 0.016895693
0.062213566 -0.07563109 -0.05490564 0.049175825 -0.044495482 -0.081530385 -0.07996832 -0.021483064
-0.0058412584 0.06282339 -0.07449033 -0.0046757474 -0.07282595 0.024220087 0.050770283 0.005402626
0.07050485 -0.0447404 0.032127783 0.02113334 -0.01099621 0.06639487 -0.039769355 0.006440901
0.08416342 -0.031359356 0.052200988 0.059677914 -0.04287343 0.07870202 -0.06365587 0.013741943
-0.0054844287 0.028242921 0.07051689 -0.045027625 0.050658442 -0.066541724 -0.039756373 0.040393595
0.01607563 0.078042716 -0.05052697 0.07626971 -0.070530936 0.049251005 0.0031696716 0.04569408
0.06436254 0.034911692 -0.056601327 -0.043411974 0.047752142 -0.07665322 -0.044168428 0.07399597
0.011187306 -0.041652303 -0.026099501 -0.027956992
00000000: 9367 43bd f809 7f3d ff11 c0bd a481 903d
00000010: 9fcf 90bd 55d1 83bd bc06 6ebd a6f5 673d
00000020: 249a 31bd 8b2c 5ebd af71 37bd 1d51 053d
00000030: 3af3 90bd 0a26 9b3c 0e88 02bd 93a6 32bd
00000040: e8e7 48bc b822 51bd 2815 3b3a 80ef 78bd
00000050: cc9f a13d dc59 62bd 4041 5bba 8a8e 5c3d
00000060: b905 7cbd e55a 84bd 7aaf 92bc 1f10 bcbc
00000070: 6b12 9fbd d73d 653c 1581 9cbc 253b 36bc
00000080: 62f8 693d 16ff 8fbc c9ab 83bd 812d ab3c
00000090: b0eb 1d3d dd69 9abd ff18 3f3d 3f62 7fbd
000000a0: f669 3bbd 0cda a9bc 5aae 89bd cb77 b13d
000000b0: 7de7 0b3d 00d0 8f3d 0851 583a f14f e7bc
000000c0: ed45 1ebd 3194 41bc d2d4 efbb 9a21 843d
000000d0: 0b29 17bc a14d 5c3d d42a bebc 594b 22bd
000000e0: 2836 73bd 5547 4d3c 3318 3c3c 168e d3bc
000000f0: 6182 b23c 0113 503d a699 5c3d 5536 263d
00000100: 86f2 703d 76ae 98bd 58a8 3c3c bd19 3cbc
00000110: 3001 c43c ed7e 5b3d a887 8bbc aaa5 18bd
00000120: 3572 4bbd 9381 173c ec48 753d 5c1e f7bc
00000130: 765f 8dbd eafd 4fbc 151f 953d d668 8a3c
00000140: a7d3 7e3d 79e4 9abd bde4 60bd 976c 493d
00000150: e540 36bd 67f9 a6bd 6ec6 a3bd 40fd afbc
00000160: 0768 bfbb 8da9 803d 638e 98bd 0337 99bb
00000170: c625 95bd 3469 c63c 80f4 4f3d 8308 b13b
00000180: d964 903d b641 37bd 6c98 033d d41f ad3c
00000190: 7329 34bc 09fa 873d 31e5 22bd 320e d33b
000001a0: df5d ac3d ab72 00bd b4d0 553d d470 743d
000001b0: 0d9c 2fbd 862e a13d 025e 82bd e325 613c
000001c0: b9b6 b3bb b35d e73c 296b 903d e36e 38bd
000001d0: 3a7f 4f3d 0747 88bd 94d7 22bd c173 253d
000001e0: 0ab1 833c dcd4 9f3d 5ef5 4ebd 4b33 9c3d
000001f0: 8672 90bd 6cbb 493d 44ba 4f3b b729 3b3d
00000200: 82d0 833d 90ff 0e3d cbd6 67bd c1d0 31bd
00000210: c097 433d 5dfc 9cbd f4e9 34bd 338b 973d
00000220: f64a 373c 9b9b 2abd 9fce d5bc 1006 e5bc
