5min_model/authdata_nsteps_15/gumbel_states_model.pt (torch, 343300 bytes, 14 tensors)

nodes.0.callable.fc_input.weight f4 [140, 32]
00000000: ee63 0d3e 0a9b c1bd 39b0 6abd d4df babd
00000010: 1f0f 033e 16e3 083e ec97 833d e3bc 943d
00000020: 5d95 9abd ffa0 603d 8999 7c3c fe41 ecbc
00000030: fd3e c13a d45e 86bc 6934 b73b a600 f0bd
00000040: 422d 303d 5843 d5bd f0a7 ef3c 347c 8dbd
00000050: 9ba3 20bd 2b8c 873c 495e 393c e711 c8bd
00000060: 1654 38bd a374 e4bb f18c 853b 92f0 703d
00000070: b631 993c 96aa 07bd 4bce e6bc 158e 31bb
00000080: 7ede d63d 8303 64be 5f0c a8bd a970 86bd
00000090: e19d b13b 13b2 eabd 8c34 90bd 2bea 14be
000000a0: 7c61 67bc bf5f 113e da74 8c3d 921b 01bd
000000b0: 64a2 abbd de73 953d 6cae 993d 0372 003d
000000c0: 23ab 53bd 2b28 07be 385a 993d 36fb e9bc
000000d0: f52e 593d ead5 f53d 5b3b 93bb d2e2 20be
000000e0: 1283 c5bd 11de 693d 9f1c 23bd e57c 873d
000000f0: 17c8 ffbc d03f 0abc 9652 ebbc 782a e5bc
00000100: ab68 b0bd 329a 15bc a2f6 053e 39a1 bf3d
00000110: 609b 7cbd f2bd 003e 9f24 a33d 5aeb 72bd
00000120: 3442 a2bd 4e72 8abd 7328 5abd 7253 f6bd
00000130: f9b1 9c3d cf9a 7bbd cd1b bb3c d929 5d3d
00000140: 66ff 423d 861f adbd dc69 913c 0490 c53d
00000150: 4646 923d 29e0 a3bd 6d83 dabd ec8c de3c
00000160: 460d aabc 7788 87bd 9837 b5bc 3ad6 463d
00000170: d981 8abd 00a4 9bbc 2f92 fabc 97f2 b13c
00000180: 982d 2e3e bf44 5ebd 7f37 843d 7b0b 8e3d
00000190: 24aa afbc 405a 79bc 4fe5 1bbb ec54 373e
000001a0: 4b6d e3bc f494 cb3d 841f 80ba 316d e83d
000001b0: 70cb 343d 8e12 0bbe 93ea 2dbd fcbb 063c
000001c0: b323 c93c 4e10 2bbd 685e 5ebd b09d 83bd
000001d0: 6a31 473d a695 213e ecaf d0bd a6a9 c9bd
000001e0: e501 253d 0114 fdbb c190 9fbd bfc8 89bc
000001f0: bdb2 6dbd a61d 813d 4172 f7bc 2b82 abbb
00000200: 7bb3 8abc 2bdb ccbd a16a c7bc 0703 7e3d
00000210: fd7d 743d 112b e63d 4bb7 7fbd 5102 15be
00000220: 11af 0dbc bab8 083d de92 7a3c 6bd9 efbc
00000230: f331 923d 1562 673d 1d31 59bd 9309 933d
00000240: d301 89bd 5f3b 15be b7a7 c3bc e735 fe3d
00000250: 24e6 963d 1bb6 13bd ada3 8ebc ae55 6d3d
00000260: 11f9 90bc efa3 33bc 2fa5 13bc df5a 11bd
00000270: 05fc dfbb b757 523c fcb3 e73b 80de 8d3c
00000280: 8d4a b43d bfde 0f3e f8bb 06be 410f 1ebe
00000290: b01f 743d 0b5f 403d 909a a6bd d8d7 3fbd
000002a0: 2e8c acbd 2b62 9b3d a9a7 b83d 0d38 c93d
000002b0: 2a68 d23d 5df4 3c3e a6e5 a03d 8d5c 823d
000002c0: 42d1 67bd c1ba 0c3e 4034 bc3c 93a5 a4bd
000002d0: 7ef0 a7bd 467f a83d b291 6bbd 9e42 9f3d
000002e0: 7490 ee3c dda6 0fbd c2c5 0fbd 94f0 0a3d
000002f0: f054 553d 6b2e ac3c a48a a9bb 4ce1 773c
00000300: 1ff4 253d 22f8 363e 61a5 543d 14de 43bb
00000310: 7f82 423d c2f1 48be eb47 d53d f1b7 9dbd
00000320: e1f3 ea3d 1d6a 6fbb dc91 023e 6b48 04be
00000330: 121b e83d 84ba 62bd 9263 5e3c d896 633c
00000340: 3b73 8a3d f356 d33d ca5b 493d 7d5e 23bd
00000350: 368f c43c 40ae 163c 1904 9d3d 1852 d7bd
00000360: a629 943d abff c73c de33 0b3d 996a bf3c
00000370: c5df 723d 8084 f5bd a8e3 d33d b33e 5b3b
00000380: be2b 93ba 25ea d53d 0b9d b1b9 6f8c 8c3d
00000390: 7086 d93c 9b1f 2cbe eb54 bdbd c3fe 9d3c
000003a0: bbe6 a4bd 9ee3 4fbd 2dd0 a63d 47c4 d13d
000003b0: 9b20 fe3c 186e b7bd 4797 4c3d 00e5 003d
000003c0: c5c6 8d3c f56f 663c 7b15 833d a422 4dbd
000003d0: 0f8a 873d a09e c7bd 5919 803d 0279 df3d
000003e0: ca3c 843c 89dc 5ebd f59e 2bbc 8a22 063c
000003f0: f8e7 58bd f784 18bc 4022 c33b 1e7c c7bb
0.13807651 -0.094533995 -0.057296965 -0.09124723 0.12798737 0.13367876 0.06425461 0.0726259
-0.0754802 0.054841038 0.015417465 -0.028840061 0.0014743503 -0.01640264 0.0055909646 -0.11718874
0.04301191 -0.104132354 0.029254884 -0.069084555 -0.039218526 0.01654633 0.011313983 -0.097690396
-0.045002066 -0.006971912 0.0040756394 0.058823176 0.018700462 -0.033121668 -0.02817454 -0.0027092744
0.10491656 -0.22266965 -0.082054846 -0.06564457 0.005420432 -0.11459746 -0.070412725 -0.14542453
-0.014122363 0.1419668 0.06858225 -0.031520434 -0.08380583 0.072974905 0.075039715 0.03135873
-0.05167688 -0.13198917 0.07487911 -0.02856217 0.053023297 0.120036915 -0.0044931597 -0.15711525
-0.0964414 0.057096545 -0.039822217 0.066156186 -0.03122334 -0.008438066 -0.028725903 -0.027974352
-0.08613714 -0.009131001 0.13082364 0.09356923 -0.061671615 0.12572458 0.07965969 -0.05930648
-0.079227835 -0.06760083 -0.05326123 -0.12027635 0.07651133 -0.061426934 0.022840405 0.053994987
0.04760685 -0.08453278 0.017750673 0.096466094 0.0714231 -0.080017395 -0.10669599 0.027166806
-0.020758282 -0.066178255 -0.022121236 0.048544146 -0.06763048 -0.0189991 -0.030587284 0.021722121
0.1700958 -0.05426478 0.064558975 0.069357835 -0.021443434 -0.015219271 -0.0023787802 0.17903489
-0.027762076 0.0994052 -0.0009775017 0.113489516 0.044139326 -0.13581297 -0.042460036 0.00822353
0.024553156 -0.041763596 -0.05428925 -0.06426561 0.04863111 0.15779743 -0.101898044 -0.09846811
0.04028501 -0.007723332 -0.077912815 -0.016819356 -0.058031786 0.06304483 -0.030205848 -0.005234023
-0.016931286 -0.100027405 -0.024342837 0.062014606 0.059690464 0.11238683 -0.06243066 -0.14551665
-0.008647696 0.033379294 0.015293805 -0.029278478 0.07138433 0.056490023 -0.053025354 0.071795605
-0.06689801 -0.1457343 -0.023883684 0.12412625 0.073681146 -0.03606234 -0.017412031 0.05794304
-0.01769689 -0.010964378 -0.009011551 -0.035487052 -0.006835463 0.012838296 0.0070710164 0.01731801
0.08803282 0.14049815 -0.13157642 -0.15435506 0.059600532 0.04696564 -0.08134949 -0.046836704
-0.08425175 0.075870834 0.09016354 0.09825144 0.10273774 0.18452592 0.07856302 0.06365309
-0.05659605 0.13743116 0.022974133 -0.08039393 -0.08200167 0.082274005 -0.057511993 0.07776378
0.029121615 -0.035071243 -0.035100706 0.03392084 0.052082956 0.021018228 -0.005173998 0.015129399
0.040516015 0.17868093 0.05191553 -0.0029887008 0.047487732 -0.19623473 0.10414108 -0.077011
0.114722975 -0.0036531754 0.12750953 -0.1291825 0.11333288 -0.055353656 0.013573544 0.013890944
0.0676026 0.103193186 0.049159802 -0.039885033 0.02399407 0.009196818 0.07666797 -0.10513705
0.07234506 0.024413904 0.03398501 0.02336626 0.059295435 -0.11988163 0.10346156 0.003345412
-0.0011228246 0.1044505 -0.00033877077 0.06862723 0.026553363 -0.16808932 -0.092447124 0.019286519
-0.08051821 -0.050754182 0.08145175 0.10242515 0.031021407 -0.089565456 0.049948957 0.03146839
0.017306695 0.014064779 0.064005814 -0.050081864 0.066181295 -0.09747052 0.06254835 0.10911752
0.016142268 -0.054409537 -0.01047491 0.008186946 -0.052955598 -0.009309045 0.0059550107 -0.006087794

nodes.0.callable.fc_input.bias f4 [140]
00000000: 0973 55be c485 083e 3317 f7bc ddfe a43d
00000010: 21e6 3dbe ebb2 8e3d 9995 22bc 3644 a1bd
00000020: dbf4 653e cba2 dd3d 8516 523d 5eea 8abd
00000030: 0331 723e 8edc 6dbd 8e37 0c3e b3b2 203c
00000040: 8b7e f9bb 6a9a 123e 53a0 b73e adbf 1b3e
00000050: 8e5c 29be f4b9 a13d 6b9b ef3d 8477 19be
00000060: 542f 3f3c b878 86bd cad6 65be 2cc8 ee3d
00000070: f629 083e 7387 223e f7bb 7fbe 2fbc 4f3d
00000080: cb08 673e 64de 04bd 5f6a 4b3e 5032 36be
00000090: 6a04 c63b d435 043e 2b5e 60be a786 b9bd
000000a0: 6788 5d3e e8f6 93bd e7f7 1fbe e1bf 373e
000000b0: efff 5b3e d8f0 27be 427b dc3d 6548 3c3e
000000c0: 8ab4 29be 9b06 2d3e 8113 803e 1c3d 08be
000000d0: 5532 1abd d93f 7fbc 8a65 4abe 1446 01bc
000000e0: 4371 63bc 9278 ef3d 5860 1b3b 85c2 cf3d
000000f0: 0ff4 49bc 5722 ed3d bff4 2fbe d087 afbc
00000100: 5fe9 83bb 1807 d43d a236 f43d 6453 ac3d
00000110: e0fd 013e 5235 aebe 4adb 213e 3f2d 203e
00000120: de28 d8bd a743 9a3d 6d45 803d 01d8 13be
00000130: 9fb4 0c3d 847a abbe c410 1bbe 8343 9a3c
00000140: a7a0 06be 15dd b5be cd38 a7bd 12e8 51bd
00000150: 5424 19be 1377 1abd 1ea7 24bc a5d5 d7bd
00000160: aece 4d3e 2994 cf3d 7aff 623e 7eb0 a23e
00000170: c527 0f3e 1c04 c3bd 66c6 f5be d970 933e
00000180: 2c72 923c 685f bf3e cc08 2bbb 6149 c0bd
00000190: ae3f 95bd 5122 98be 8b4e b33c b4a3 3e3e
000001a0: 4a1d babd b575 11be 99ed d63a 3891 c3bd
000001b0: 49b7 57be 8325 c33d f2ab 643d d3cf 95bc
000001c0: 278c d1bd af76 ab3d 7734 7fbd e940 01be
000001d0: 37c6 f6bd 494d ac3d 78cb 023e ab79 8f3c
000001e0: e550 b2bc b03a 05be 5694 4d3d 6197 973d
000001f0: d5cb 6b3d 6664 723e 895c 29bd 1ee9 f7bc
00000200: 7687 0e3e be3c 6b3e 32fd 20be faac 92bd
00000210: 5d1f 053d 8227 05bc a396 41be d2cc 2c3d
00000220: 95e3 a83d e912 1cbe fbb6 cabd 7184 5abe
-0.20844664 0.13332278 -0.03016243 0.08056424 -0.18544818 0.0696772 -0.009923362 -0.07874338
0.22456686 0.10822066 0.051291008 -0.06782983 0.23651509 -0.058071665 0.13693067 0.00980823
-0.007613962 0.14316717 0.35864505 0.15209837 -0.16539213 0.07896796 0.116995655 -0.14986998
0.011668999 -0.06565994 -0.22445217 0.116592735 0.13297257 0.15871982 -0.24974047 0.050716575
0.22561948 -0.03243865 0.19864796 -0.1779263 0.0060430067 0.12911159 -0.21910922 -0.09058886
0.21634065 -0.07224828 -0.15621911 0.1794429 0.2148435 -0.16400468 0.10765697 0.18386991
-0.16572776 0.16897051 0.2501488 -0.13304561 -0.037645657 -0.015579187 -0.19765297 -0.007890243
-0.013881984 0.11692919 0.0023708548 0.101445235 -0.0123262545 0.115788154 -0.17183207 -0.021427065
-0.0040256227 0.103529155 0.11924483 0.08414343 0.12694502 -0.34025055 0.15806308 0.1564226
-0.1055467 0.07532435 0.06263242 -0.14437868 0.03435194 -0.3349191 -0.15143114 0.01883102
-0.13147222 -0.35520235 -0.08165131 -0.05124671 -0.14955264 -0.037711214 -0.0100496095 -0.10538796
0.20098373 0.10135681 0.22167769 0.31775278 0.13980015 -0.09522268 -0.48002928 0.28797033
0.017876707 0.37377477 -0.0026097773 -0.09388996 -0.072875366 -0.2971368 0.021888038 0.18617135
-0.09087618 -0.14205058 0.0016397714 -0.09549183 -0.21066011 0.09528639 0.055828042 -0.018287575
-0.1023181 0.083722465 -0.062305894 -0.12622418 -0.12049525 0.084131785 0.1277293 0.01751407
-0.02176709 -0.13010669 0.050190292 0.0740192 0.057567436 0.23671111 -0.041348014 -0.030262526
0.13918862 0.2297239 -0.15721586 -0.07161899 0.032500613 -0.008127095 -0.1890512 0.04218752
0.08246533 -0.15241589 -0.09898182 -0.21339585

nodes.0.callable.fc1_x1.weight f4 [140, 140]
00000000: 684a 2abd 26b6 04bc 86ee 563d ef7f 89bd
00000010: a8e8 97bb fe83 4abd 6f72 b0bb 7992 b2bc
00000020: 79f7 133c 7149 bd3d 4e27 0a3e c002 37bc
00000030: d255 e7bc 2e3b 393d 51d3 28b9 96f1 093d
00000040: b20b 9d3c 388e 22bd 37f8 07bd 51c8 0f3d
00000050: f270 fd3c 06aa 463c 769e b13c 6fd6 6abd
00000060: 2d0b 2abd 0ce0 d238 b698 48bd 7834 913c
00000070: a14d a13c eb7b b13d 21ef 293d 7b76 9b3d
00000080: c0b2 e63c 74a6 1f3e b8db 833c db69 623d
00000090: 56f8 a9bd fe95 93bc d754 6b3c e1fe 573d
000000a0: 0b2c 79bd 64b7 24bd 4102 0f3b 2219 ecbc
000000b0: df61 6b3d 85a7 c4bd bb05 13bd 4553 763c
000000c0: fa80 a0bd 22d5 8dbd 6fa8 603d 2262 0d3d
000000d0: 80a2 d7bc 7776 b5bd 8b81 fcbb 8240 ad3b
000000e0: 3ffc 143c 5506 363d 04b0 91ba 72e0 38bd
000000f0: 6e54 ccbd bb22 e2bc a1c0 b6bd 509a c1bc
00000100: 41ba 4a3d b949 203d f3af 0e3d 70a5 ea3c
00000110: c6aa e93b 72fc 783c 545c d6bd ecda a4bc
00000120: ac97 9abd 19d5 e4bc 4310 5cbd 7ec7 493c
00000130: 24ee 7abd 90ed 1d3d d1b8 bb3c 70ea 193d
00000140: 40de 08bc a353 09bd c560 4bbc d78b d3bb
00000150: 402d 2a3c 374f 30be 5b19 a9bd 2a45 cb3c
00000160: 577b 19bd aab0 77bd c3ed a2bd cbc9 dd3c
00000170: 8d80 0cbd 2d61 0d3d 52b2 bf3c 9052 9b3b
00000180: f07d 243e f784 a33d 0d17 593c d097 1e3d
00000190: 11b0 963c 74b2 773d 6e4b 95bd 080c 19bb
000001a0: efb1 debc 3dc5 19bb 7603 e33d c803 523d
000001b0: ab17 adbb bfef 283d 5644 e73c 74c8 d2ba
000001c0: 64da 973b 02d6 2c3d 91b1 55bc 87ec bd3d
000001d0: b3c0 703c d983 6e3d e90a 5cbd be83 74ba
000001e0: b48d 7a3d b446 3d3a e13b 21bc d3db 91bd
000001f0: ec42 71bd e1a8 0abd 5c20 41bd ee4e 353c
00000200: 6ee5 803c 2de2 aeba e8d5 77bd a769 b0bc
00000210: 6f9c 1c3d ee3e 73ba c67b 883d 84ab 0abc
00000220: 9294 abbd 02b8 413c c43f 9fbc 1ba9 2d3d
00000230: 63f7 78bd a914 84bd 7d22 c43d 950f b63c
00000240: 9ed0 cabc ea95 b0bc 76a0 b5bd f3e1 823d
00000250: fa5a a0bb 4fab b0bc af58 70bb b9b6 c8bd
00000260: 4210 93bd 9f8e 96bd 2182 2ebd 86df 873c
00000270: a1a5 e6bc 8848 033d 736b ce3d 85da fcbc
00000280: 2e85 81bd a482 e23c 20e2 b53d aa0d aebc
00000290: f5b0 6fbc 3148 c43c 77fe 81b9 500c 56bd
000002a0: 82bb 7c3c 912e 8e3d 72e8 c63d c774 c73d
000002b0: 9d83 ce3c d065 8c39 1629 d13c ef00 a7bd
000002c0: 257e 83bd 3362 c83d 6543 9c3d c44f b53d
000002d0: 8d6c abbd 6ae8 cfbc 2016 d1bc 1348 ebbc
000002e0: 22bb e9bc af73 edbc ad07 893d 72aa 803d
000002f0: cc2c 53bd 66d2 263d 4cab 2cbb e307 dd3c
00000300: a105 81bd 650c 663d 80e8 653d 0e82 363d
00000310: 4bf8 dcbb 1a0e 2fbd 15a2 9c3d 2723 0c3d
00000320: b0f7 67bc 3fb6 a1bd 67f6 c8bc 2014 a9bc
00000330: b284 80bc b1f8 193c da85 bdbd 2fd0 8f3b
00000340: 25a4 b13c 033f 46bd baac 81bc 4dca 1bbc
00000350: 1d3f a23d 5b25 933c ab5c f13c 9b7f 57bc
00000360: 3e78 163d 852e ee3b b559 9abd 7111 d1bc
00000370: e017 9d3b e225 7bbd 9d8d 7fbd cb04 87bc
00000380: c977 1dbd 59d2 52bd f920 633d be98 7e3d
00000390: 13eb f83d 3ffd 373d 9983 5bbd af30 bcbd
000003a0: 234e 883c 8a8f 973d e18e 313d a8e2 a0bd
000003b0: 0353 61bd ab10 4a3d f5cd 243d ac66 2dbd
000003c0: 4e0f edba 3167 48bd 2830 1a3b 245b 6e3c
000003d0: 0953 40bc 3d06 b6bd f397 963c 2818 aabd
000003e0: c923 2ebd 8468 a1bc 76a9 3abd d65b 3abd
000003f0: a178 45bd 06e2 b6bd 1e11 d8bc 8660 4c3d
-0.041574866 -0.008100068 0.052473567 -0.067138545 -0.004635889 -0.049442284 -0.0053847353 -0.02179836
0.00903117 0.092425235 0.13491556 -0.011170089 -0.028239165 0.045222454 -0.0001610045 0.03367766
0.019170616 -0.03968641 -0.0331957 0.035103146 0.030937646 0.012125498 0.021682005 -0.057333406
-0.041514564 0.00010055312 -0.04897376 0.017725214 0.019690337 0.086662136 0.041487817 0.07590958
0.028161407 0.1559084 0.016095981 0.055276733 -0.082993194 -0.018015858 0.014363489 0.052733306
-0.06083302 -0.040213957 0.0021821412 -0.028820578 0.057466384 -0.09602264 -0.035894137 0.015034501
-0.078371 -0.069254175 0.05484813 0.034517415 -0.026322603 -0.08860486 -0.0077058724 0.005287231
0.009093343 0.044439632 -0.0011115079 -0.045135923 -0.09977041 -0.027604451 -0.0892346 -0.023633152
0.04949403 0.039132807 0.034835767 0.02864334 0.0071309535 0.015196906 -0.10466829 -0.020123921
-0.0754846 -0.027933644 -0.053726446 0.012315629 -0.061262265 0.038556635 0.022915276 0.037577093
-0.00835377 -0.033527028 -0.012413208 -0.006455879 0.010386765 -0.17217718 -0.08256789 0.024813253
-0.03747114 -0.060471214 -0.07955506 0.027073761 -0.034302283 0.034516502 0.02340046 0.004740067
0.16063666 0.079843454 0.013250125 0.038719 0.018394502 0.06047292 -0.07289778 -0.0023353118
-0.027184455 -0.002346351 0.110846445 0.051273137 -0.0052823625 0.041244265 0.028230827 -0.0016081468
0.0046341885 0.04219628 -0.013042823 0.0927363 0.014694381 0.05823121 -0.053721342 -0.00093274924
0.061170295 0.00072203134 -0.009840936 -0.07122006 -0.058901712 -0.03385246 -0.04715 0.011066182
0.0157344 -0.0013342552 -0.06050673 -0.021534754 0.038235124 -0.00092790916 0.06664233 -0.008463744
-0.08377947 0.011823656 -0.019439586 0.0423976 -0.0607828 -0.06449253 0.095768906 0.022224227
-0.02475768 -0.02155586 -0.08868496 0.06390753 -0.0048936578 -0.021566061 -0.0036673953 -0.098004766
-0.07180835 -0.073514216 -0.04260457 0.016586076 -0.02815515 0.032051593 0.10079088 -0.030865917
-0.0632423 0.027650185 0.088810205 -0.02124675 -0.014629592 0.023960205 -0.00024794388 -0.052257836
0.015425565 0.069424756 0.09712304 0.097390704 0.025209242 0.00026778737 0.025532287 -0.08154475
-0.064205445 0.09784355 0.07630042 0.08853105 -0.08370314 -0.025379378 -0.025523245 -0.028720891
-0.028531615 -0.028985826 0.06690917 0.0628251 -0.051556394 0.040727995 -0.0026347218 0.0269813
-0.06299902 0.056164164 0.056129932 0.044557624 -0.006743466 -0.042738058 0.07648102 0.03421321
-0.014158174 -0.07896089 -0.024531556 -0.02063948 -0.015688274 0.009397672 -0.09254046 0.004388831
0.021684716 -0.048399936 -0.015829433 -0.0095086815 0.07922194 0.017962148 0.029463133 -0.013152982
0.036735766 0.007268729 -0.075366415 -0.025521012 0.004794106 -0.061315425 -0.062390912 -0.016481778
-0.038444314 -0.051470134 0.055451367 0.062157385 0.12154212 0.04491925 -0.0535923 -0.09188973
0.016638821 0.07400425 0.04334915 -0.07855731 -0.055010807 0.049332302 0.04023548 -0.042334244
-0.0018086226 -0.048926536 0.0023527239 0.014548097 -0.011738547 -0.088879086 0.018383002 -0.08305389
-0.042514596 -0.019703157 -0.045571767 -0.045497738 -0.048210744 -0.08929829 -0.02637535 0.04989674

nodes.0.callable.fc1_x1.bias f4 [140]
00000000: c5d2 ae3d c9e4 d43b 220f 9b3c 0496 babd
00000010: 7639 ddbd 814a 99bd 96e8 253d 3f82 873d
00000020: b6fe 82bd 80b8 f3bd 7306 5c3d 1706 b6bd
00000030: 737f 23bd e8ad cabc bcef aa3b 6f2a 953d
00000040: ccca c2bd 96ba 883d 6bb2 973b bc79 a9bc
00000050: 0eaf 393d 30da 9d3d bd27 3ebc 6007 9abd
00000060: bc58 97bd 5b19 75bd 9d08 fe3c 5aba 3e3d
00000070: e951 aebd a250 cc3c 03f8 803c 303b 443c
00000080: ac20 34bc 0b42 7dbd a175 c2bc db72 87bb
00000090: 5465 d03c 6777 c73b 25ab b9bd e25b 7bbd
000000a0: f9fc 65bd 6305 e13c 458c a4bd c18f 10bd
000000b0: 9888 263d 762b f3bd 7946 20be f588 e8bd
000000c0: 3a2a 263d 7d51 fdbd 0635 a13d 4f18 213d
000000d0: 9cb4 e2bc f356 8dbd 6031 8e3d a8cb a8bd
000000e0: cb09 bf3c 3a39 b5bc 0e11 61bd 8716 1fbc
000000f0: 7dd7 44bb d2a5 a6bd 3179 203d 3b27 a8bd
00000100: 5a38 a7bd 4a08 c83c bdcd 91bd 5a25 d53d
00000110: d083 88bd cc9a 6abd 15d6 f03c a307 8ebd
00000120: d910 be3c 37c1 933c 2f38 263d 2f91 6dbc
00000130: f5c8 9abd 6a87 15bb 1e47 5a3d 5315 a7bd
00000140: 0442 1d3d c8ef 3cbd 67ad 9e3b f3d9 213d
00000150: 83c6 153d 4924 e2bc 7513 4ebd 4b07 42bb
00000160: b41f 82bd aca3 7cbd d2e8 ef3c 6b97 913d
00000170: 69bb 813c fa62 503c 7915 51bd 9bc4 a2bc
00000180: a9a7 7e3b 1136 17bc 96e6 843b e150 383d
00000190: 54ea 003d 0fcb 643c 30ee 6f3c c528 903d
000001a0: f60a b2bb 4f51 24bd 15ca a4bd f154 bfbc
000001b0: 4396 8f3b 6c9c 88bb 5a8c 6ebd e182 8b3d
000001c0: 9d69 cebd 5e69 14bd a166 843d 18a2 113d
000001d0: a564 b73d 473a a13d 4731 023a f0a7 4bbd
000001e0: a913 763c af09 58bd 7d3a 5abd dfa3 b6bc
000001f0: 5b63 c63c 96b5 24ba 3a2f d8bd 08ad a03c
00000200: a0fb 13bd 4fed 0c3d 8521 17bd 507d c03d
00000210: 9482 58bd e866 1bbd a08c 2dbc c84f b5bd
00000220: ef38 a6bd 0ecc aa3c 1cc5 00bc 058d 19bd
0.08536295 0.006497 0.018928114 -0.091106445 -0.108019754 -0.074849136 0.040505014 0.06616639
-0.063962385 -0.11900425 0.053717088 -0.0888788 -0.039916467 -0.024741128 0.005216567 0.07283484
-0.09511337 0.066762134 0.0046294234 -0.02068793 0.04533296 0.077076316 -0.011606154 -0.07520938
-0.073899716 -0.059838634 0.031009967 0.046564437 -0.08511717 0.024940792 0.015743261 0.011977002
-0.010994118 -0.06183056 -0.02373773 -0.004133565 0.025438942 0.006087232 -0.09065846 -0.061366923
-0.056149457 0.027468389 -0.08034567 -0.035293344 0.04065761 -0.11873524 -0.15651883 -0.113542475
0.040567614 -0.12369058 0.078714415 0.039329823 -0.027674012 -0.0690135 0.06943011 -0.08241969
0.0233201 -0.022122014 -0.054947905 -0.009709961 -0.0030035668 -0.081370965 0.039178077 -0.082106076
-0.08165045 0.024418015 -0.071193196 0.10407515 -0.06665766 -0.057276532 0.029398957 -0.0693505
0.023201393 0.018036468 0.040580925 -0.0144999465 -0.07557861 -0.0022816309 0.05329048 -0.08158364
0.038393036 -0.04612711 0.0048424485 0.039514493 0.03656627 -0.027605193 -0.050311524 -0.0029606398
-0.06353703 -0.061679527 0.029285822 0.07108959 0.015836434 0.01271891 -0.05104587 -0.01986914
0.0038857257 -0.009229199 0.0040558083 0.044999007 0.031473473 0.013964429 0.014644191 0.07039026
-0.0054334356 -0.040116604 -0.080463566 -0.023355933 0.0043819263 -0.0041690376 -0.05823932 0.068120725
-0.10078738 -0.0362333 0.064648874 0.035554975 0.08954743 0.07872444 0.00049664493 -0.049720705
0.015019336 -0.05274361 -0.053278435 -0.022294937 0.024217298 -0.0006283162 -0.10555883 0.019613758
-0.03612864 0.034406003 -0.0368972 0.093989015 -0.052858904 -0.037939936 -0.01059261 -0.08853108
-0.08116328 0.020849254 -0.007859495 -0.037488002

nodes.0.callable.fc2_x1.weight f4 [140, 140]
00000000: 9ec3 bfbd b0e0 2e3b e2b0 ddbc 899c 983d
00000010: 3d44 d03d 0e91 1fbd 0faa b6bd 59ad a2bd
00000020: bcfd 1abc d308 a33c b3a7 b8bd 8f26 873d
00000030: 4440 4f3d 829f 363c d6cd 64bc bfc8 0abd
00000040: a7f7 493d d75e dfbd 89e2 98bc 661c 57bd
00000050: 9c3d 44bd 778f e0bd 2c3e 1f3d 884a 3dbd
00000060: 1ddf 493c 5814 0f3d b9b2 24bb 161f b6bc
00000070: 8f4a 2fbd 1eb5 0fbd 89a4 8cbc c541 943d
00000080: 112b 783c 12c6 6f3d 7ff1 33bd 6a02 3ebd
00000090: 6f4b b5bc b612 d0bd ae3d 63bd 32ba 113d
000000a0: e984 a8bd 38b1 773d 7f23 ca3c 2afd c2bc
000000b0: ca4e 0bbd 3436 393d 1319 16bd 9802 3abd
000000c0: d2d2 9bbc e6c3 353d 0787 c33b 3a5f 103c
000000d0: 69bf 6fbd cbcd 6f3d 8cba 34bd 3f97 17bc
000000e0: 8f1c 863d 16e6 6bbc a915 44bd 8b09 dd3b
000000f0: 5cd4 933d 0e72 30bd c254 a3bd eb93 84bd
00000100: 3b05 0ebd c2b5 afbc eb93 9dbd 1f62 b8bd
00000110: 7471 49bd b556 7bbc 99c5 2fbb 7cbe 71bc
00000120: 0a6a 5d3d eb38 1b3d ac55 2abd 883c afbd
00000130: 4f48 7d3d 115d a53d ba0b 29bd c7f1 5e3c
00000140: 8353 5ebd bef5 0e3d fe17 bc3d 33d9 85bc
00000150: 5312 1ebc 5ef9 913d 77d8 5bbd 4500 94bc
00000160: b80d 243c 7e7e 293c a1d4 b5bc ba18 143d
00000170: 3d67 b93c 4395 8fbd 14b0 56bd d5bf 8f3a
00000180: 74d1 b1bc 603b 71bc 7300 abbc f7ac 303d
00000190: 5101 533c d153 d0bd 3720 fabb 645c 16bd
000001a0: 2958 22bb 3fea 683c 6692 d4bc 4dd9 e33c
000001b0: 685d d0bc 5fd0 6ebb dfde 69bd 715b c3bd
000001c0: 63b5 c13d dd70 a93d 039e 84bd c271 6bbc
000001d0: 8936 c1bd 2ae2 583c 7887 adbb d8b4 5cbd
000001e0: e067 cd3b 3892 7dbc 8337 94bc dd59 883c
000001f0: 6cb3 cebb 8c88 02bd 2e92 8cbc fe74 3abd
00000200: 0645 a0bc e23e e8bc 5ebf 213d cd58 a9bd
00000210: 4a29 c0bc 32c0 0b3d b6e6 1dbc 6c2d 1a3d
00000220: 5fbe b1bd f3cc 4b3d 4795 67bc 9520 6c3c
00000230: 0dad 0cbc 77d6 623d d0c3 163d cf5c 8ebd
00000240: da59 823d debb 87bd 1a17 663d d318 013c
00000250: c2a6 05bd f12a febc 42b1 173e 2444 94bd
00000260: 19c5 29bc 5b17 583c 04a4 1dbc 8248 8bbd
00000270: bc09 8abd da0a 3cbd de10 cb3c 5edd 3e3d
00000280: b9e8 173d 1889 263b e317 00bd bf89 b33d
00000290: d4b2 67bd 01ee 82bd 4425 98bd bdbc 29bb
000002a0: b084 bebc 6449 9a3d 95db 6bbd 5ba4 2ebd
000002b0: 937d 9abd 259e 74bc 1dd2 afbb 7ca8 e2bc
000002c0: ba85 f33c a006 8d3b e11e 543c 5bd6 333d
000002d0: 873d 973d e808 493d 0d48 23bd 823a 8bbc
000002e0: 1d75 a5bd 7f83 c5bd 272a 49bd 35b0 dcbb
000002f0: efa0 90bc 1f6c bb3b 9f36 80bd 5caf 5dbc
00000300: d545 5bbd f069 1a3d 8a09 73bd 0a03 1d3c
00000310: e144 2dbd 8d54 b83c 48dd 7b3d 7a92 50bd
00000320: bbb2 6dbd 2ef5 c93c e502 87bb d363 963d
00000330: ff16 9f3d f1bd d6bc d09f 4d3d 945d 26bd
00000340: 2c88 5bbc 038e ca3c 8099 acbb 85a6 a03d
00000350: 7386 9b3d d6cd 6bbd 5f79 9a3c 7243 ba3d
00000360: 7bcb 8dbd 9ed6 d2bd 3950 92bc 9214 913d
00000370: 5cb4 3e3d 39bc b53b 33b0 d93c b4b4 33bd
00000380: aef6 823d 9592 8e3c 1402 a9bc 7f39 10bd
00000390: c9c3 203d ef43 90bc 5c23 bf3c 4d5d 93bd
000003a0: f41a 44bd 79b9 4ebd 2d4e 633d a512 38bd
000003b0: 0d81 d83d 7ead 6c3d 5e07 863d 4710 7f3d
000003c0: 0154 3fbd b259 863d be83 12bd 28d5 69b8
000003d0: 845c 6dbc 8a01 bdbc dba4 a13b b37a 1dbd
000003e0: 843f f0ba 9264 b43c 4905 6e3d 6f53 7f3d
000003f0: 23ef 0cbb 5eed 7b3d 4076 933c 6be0 90bd
-0.09363483 0.0026684217 -0.027061883 0.07451732 0.101692654 -0.038956694 -0.08919155 -0.0794322
-0.009459909 0.019901669 -0.09016361 0.06599151 0.050598398 0.011146428 -0.013965091 -0.033882853
0.049308445 -0.10906761 -0.018662708 -0.052517317 -0.047910318 -0.10964864 0.03887765 -0.046213657
0.012321261 0.03493151 -0.002513094 -0.02223162 -0.042795714 -0.035084836 -0.0171683 0.07239107
0.015146987 0.058538504 -0.04393148 -0.04638902 -0.022130696 -0.10159819 -0.055478744 0.03557796
-0.082284756 0.060471743 0.024675129 -0.023802359 -0.034010686 0.045217708 -0.036645006 -0.04541263
-0.019021425 0.044376276 0.0059670242 0.008811766 -0.058532152 0.05854587 -0.044123217 -0.0092523685
0.06548416 -0.0143981185 -0.04787222 0.0067455224 0.07218239 -0.04307752 -0.07975151 -0.064735256
-0.034672957 -0.021448974 -0.07694229 -0.0900309 -0.049180463 -0.015340497 -0.0026820658 -0.014754888
0.054056205 0.037896078 -0.04158561 -0.08556467 0.061836537 0.08074392 -0.04127095 0.013607449
-0.05427886 0.034902327 0.09184264 -0.01633892 -0.0096479235 0.07127641 -0.053673234 -0.018066535
0.010013036 0.0103450995 -0.022196116 0.036156394 0.022632236 -0.07010891 -0.052414015 0.0010967205
-0.02170632 -0.014723629 -0.020874238 0.043133702 0.012878732 -0.10172237 -0.007633235 -0.036709204
-0.0024771786 0.014216005 -0.025948714 0.027813578 -0.025435165 -0.0036440117 -0.057097312 -0.095389254
0.09458425 0.0827348 -0.06475451 -0.014370384 -0.0943423 0.013237515 -0.00529569 -0.053883404
0.0062684864 -0.015476756 -0.018092876 0.016644413 -0.00630801 -0.031868502 -0.017159548 -0.04552173
-0.019564163 -0.028350297 0.039489143 -0.082688905 -0.023457188 0.03411884 -0.009637525 0.037640974
-0.086788885 0.049756 -0.014134712 0.014412065 -0.00858618 0.05538031 0.036807835 -0.069512956
0.06364794 -0.0662763 0.056174375 0.007879454 -0.032629736 -0.031026335 0.14813712 -0.07239559
-0.010361933 0.013189162 -0.009621624 -0.06800939 -0.06740138 -0.045908786 0.024788316 0.04659783
0.037087176 0.0025411304 -0.03127278 0.08766507 -0.05656703 -0.06393052 -0.07428983 -0.002589985
-0.02325663 0.075335294 -0.057582457 -0.04263721 -0.07543483 -0.014930283 -0.0053656236 -0.02766823
0.029726852 0.0043037683 0.012946815 0.043905597 0.07384782 0.04908076 -0.039863635 -0.016995672
-0.08078978 -0.096442215 -0.049112465 -0.0067348727 -0.017654864 0.005719676 -0.06260418 -0.013530578
-0.053533394 0.037698686 -0.05933527 0.009583244 -0.042302016 0.022501254 0.061490327 -0.05092094
-0.05803178 0.024653044 -0.004120218 0.07343259 0.07768058 -0.026213618 0.050201237 -0.040616587
-0.013399165 0.02472592 -0.005267322 0.07844261 0.075940035 -0.057569347 0.018856702 0.090948954
-0.069235764 -0.10294841 -0.017860519 0.070840016 0.046558723 0.0055461195 0.026573276 -0.043873504
0.06394707 0.01740388 -0.020630874 -0.035211083 0.039249215 -0.017610518 0.02333229 -0.0719553
-0.047877267 -0.05046985 0.055494476 -0.044939656 0.105714895 0.057782643 0.06544374 0.062271383
-0.04671097 0.06560077 -0.03577017 -5.5750046e-05 -0.0144873895 -0.023072023 0.0049329824 -0.038447093
-0.0018329476 0.022020612 0.05811051 0.062335428 -0.0021504841 0.061505668 0.018000722 -0.07074054

nodes.0.callable.fc2_x1.bias f4 [140]
00000000: 399f 41bd f546 aa3c 2fb0 003d 1ff1 e8bc
00000010: 789f 273d a7a4 28bd 6b04 c0bd 4e3b 02be
00000020: bac4 e33c a0a0 873d 34c4 9ebc bb7c a1bd
00000030: bb27 6ebd ee90 023e 6258 64bd 6db1 933d
00000040: aeae e8bb 3953 6ebd a5ab 5cbd 6141 bcbd
00000050: 35f2 293d 2d88 ebb8 533a fabc e881 22bd
00000060: dab0 51bd e5be ac3d a160 49bd a470 cf3d
00000070: eb67 bf3d 3d36 0e3e 438f d43c 1278 f33d
00000080: c512 b0bd 65d3 37be 7f78 e9bc ee0e 4f3d
00000090: ffbb 44bd 7ffd 923d 939a 0e3e 82a3 1ebd
000000a0: 2e1c 0fbd 40fc 33bd ccbe b5bd 7faf 40bd
000000b0: bc05 6bbd 5dad 2c37 ef42 823c 08d3 893d
000000c0: dfa0 3b3d 6a5e 81bd 4031 d4bc ab50 2d3d
000000d0: 0f75 593c fa3d 903d 8634 573b 6e7b 6dbd
000000e0: b397 ffbc c3a9 843d c250 183d 4a0a 9938
000000f0: 36bc 993d 2286 55bd 81fc 3b3d 3bc8 9abd
00000100: 7707 02be 9dce 103d 857d b63d 8069 21bd
00000110: 8d17 8cbd 1d14 9cbd e92c dfbd 1e59 28bc
00000120: 93ee 853d 84e7 253d 97ed 32bd 4322 a83c
00000130: e56d 2dbd cfe1 efbc df05 acbd 3222 d4bc
00000140: e638 a43b a1b6 07be 7417 1bbd 96cc 3fbc
00000150: e965 533d 7033 94bd c385 d73c f778 cabd
00000160: d796 d8bc 7e41 a03d fd83 493c 23c3 fbbd
00000170: 9f0d 80bd 08f7 14bc 9e3d 4bbd 3834 95bc
00000180: 6b8c dabb d6f4 eabd 92a8 d13d 597e 433d
00000190: f674 e43d 30a8 f9bc bf87 6abd 7bc2 9dbc
000001a0: 06c0 5e3d 83d5 083d 0124 883c b253 ffbd
000001b0: c699 4d3d 4fe9 4d3d 3b77 10be 906a f6bb
000001c0: 4748 233d 3e79 d4bd c19c fabd 49ea f73d
000001d0: 4615 a13c f750 013e 4286 313c c437 d33a
000001e0: 44f4 90bd 1661 153d 6a08 7d3c 00b6 073d
000001f0: 745a 21bd 39a7 453e e155 a83d a01a 10be
00000200: a0d3 af3d 11dc 08bc f609 cdbd 6d4f 0ebc
00000210: 3c4f a4bd 15e9 afbc c8d1 5ebb 15ff dbbc
00000220: 79c3 9dbc 037b 0cbd 717b 3abd eb06 17bd
-0.047270987 0.020785788 0.03141802 -0.028435288 0.040923566 -0.04117265 -0.09375843 -0.12717935
0.027803767 0.06622434 -0.019380666 -0.078851186 -0.05814336 0.12750599 -0.05574835 0.07211576
-0.0071009016 -0.058184836 -0.05387463 -0.091921575 0.041490752 -0.00011231038 -0.03054539 -0.03967467
-0.05119405 0.08434848 -0.049164418 0.10128906 0.09345993 0.13887878 0.025947219 0.11888136
-0.0859733 -0.17951734 -0.02849984 0.050551347 -0.04803085 0.07177257 0.13926153 -0.038730152
-0.034938984 -0.043941736 -0.08874282 -0.047042366 -0.057378516 1.0292363e-05 0.015901057 0.06729704
0.045807716 -0.06316836 -0.02590239 0.04231326 0.013272538 0.07043071 0.0032837703 -0.05797904
-0.031200266 0.06477692 0.03718639 7.297525e-05 0.075066015 -0.052129872 0.045895103 -0.07557722
-0.1269816 0.03535329 0.0891066 -0.039407253 -0.068404295 -0.07621024 -0.10897238 -0.010275153
0.06539645 0.040503994 -0.043683615 0.02052415 -0.04234113 -0.029282479 -0.08399557 -0.025895212
0.0050116656 -0.13253261 -0.037864164 -0.011706492 0.05161086 -0.072363734 0.0263089 -0.098863535
-0.026439114 0.07824992 0.012299535 -0.12293079 -0.06252598 -0.0090921 -0.04961931 -0.018213376
-0.006669571 -0.1147248 0.1023723 0.047727916 0.11155121 -0.030475706 -0.057258364 -0.019257775
0.054382347 0.033406746 0.01661873 -0.124671355 0.050195478 0.05027133 -0.14107983 -0.0075200275
0.03986385 -0.103746876 -0.1223693 0.12105233 0.019663464 0.12628542 0.010835232 0.0016114642
-0.0707784 0.03646954 0.015443901 0.033132553 -0.039392903 0.19302072 0.08219505 -0.14072657
0.08585286 -0.008353249 -0.100116655 -0.008685929 -0.08022925 -0.021473447 -0.003399955 -0.026855031
-0.019258248 -0.034297 -0.04552788 -0.036871832

nodes.0.callable.fc_output_x1.weight f4 [2, 140]
00000000: ef83 94ba 2cfe 983a 26c6 1b3a 3736 283a
00000010: 674c c0ba 06c0 5fba 8c6a 23ba 123e c8bd
00000020: cab2 d03a 24ea 8cbc 975a b7ba 8630 413b
00000030: 3154 923a 66e0 31bc fb05 bdba ac1d bd3a
00000040: 1dd2 1f3a c1ee 8c3c 0076 73ba 9353 d5ba
00000050: ffb6 1a3e 3674 bc39 6451 263a f3b6 9d3a
00000060: 6c75 8cba a752 6b3a 3a5f 9e3a 4c40 073e
00000070: e668 3dbc 58c9 ec3d 9f0b b0ba cc42 9abc
00000080: d9b5 eebd 8856 86bc 53ea 523a 2971 41bc
00000090: 7c12 433a 9d05 793a 6664 d1bb fafd a8bb
000000a0: 5dfe 613a b14c 7ebc b37e 4dbd 7dfb 5838
000000b0: d3a3 29ba 2055 a7ba 02a7 8a3d 3983 c4ba
000000c0: 2d13 75ba ae13 073b c2a9 e536 e7cb 2a3a
000000d0: ab5b 02bd 9ed5 5bbc f115 863a 6b01 8f3c
000000e0: 17e3 423b e27d a43a 2ac6 95bd 0f39 a83a
000000f0: b8fd 8bbc c905 3339 782e 9e3a 84fb c7ba
00000100: 935c 9bb9 6a90 9b3b af7a e23b 0e83 6638
00000110: ada5 b7ba 58ee 9aba b103 80ba 14ad f73a
00000120: 51aa 8d39 4820 813a 6082 acba 3a1d cdbd
00000130: a5e4 a8ba a95f b8ba 9839 393c a489 203a
00000140: be2e 96ba d041 cbbd d423 cab9 3931 caba
00000150: 1ebc 83ba 2ee7 433a 3909 8bbc db80 82bd
00000160: 8077 963a 004e ccbc bb5a b9ba e41c 9abd
00000170: b578 a7ba 4d2a 663b cf83 42b8 e290 923a
00000180: 15ae 803a 5076 8bba c9f6 483a 2cab 193a
00000190: 2e48 fd3d dccc aa3a 2bb1 bfba 5451 a4ba
000001a0: 8c44 523a 125c 37ba 2ba7 a5ba 9c54 85ba
000001b0: 6196 2a3b 1ad2 f53d 3d40 29be 79e4 eeb9
000001c0: 0e7a 27ba f801 44ba eb6a b9bd 5e8a f43d
000001d0: 2f84 1c3b 991c d93d 3be6 a1ba 4478 2b3e
000001e0: ed80 8fbc 76ad 64ba 6ba1 81ba 21c8 a03a
000001f0: 620c 8f3a 754c 603e 6215 5a3a 27bf 92bd
00000200: b0c3 fc3d 0fe2 933a 4cdd a73a e939 c5ba
00000210: 20d3 063c 5278 afbd 6bd1 a2bd 4853 3d3a
00000220: 76b7 14be 682c 523c 63fd 2dbe 13c2 69bc
00000230: d412 b638 69a5 43ba 7c3a 3dba b846 4cba
00000240: 9b00 8ab7 7242 abb9 6957 0038 b33f d2b8
00000250: b038 35ba ccad 2a3e 8f84 1cb9 796f deba
00000260: c053 08ba 2b47 2e3e c643 5ab7 ed1d 4fba
00000270: 3f49 0fba caf0 413a f1f0 f838 73af deb7
00000280: f221 13ba 04a2 5aba d602 5bba e9a9 a9ba
00000290: d007 12b9 8c84 5cba 804d bcba 9213 c239
000002a0: 1cea 583e 451a ffb9 c767 1439 c265 463e
000002b0: 3b73 03ba 4cf0 a9bc 0dfa 2cba 0e21 453e
000002c0: 1538 19ba c6a2 baba 84a8 093e fb66 10ba
000002d0: f36e 40ba 36e2 3d3a 981b 06ba b44b 2f39
000002e0: 1a8e 54b9 29df 1638 c78d 14ba 1462 a3b7
000002f0: 8fdb 2d39 6e84 1cba 1c72 37ba e71b 58ba
00000300: 51d7 7c3e 52d4 073a 0f54 51ba 2ee5 d039
00000310: 39c8 80bc 38ee c0ba 572f 7c36 5af8 6fba
00000320: 028a 6b3e 4f30 e3b5 c0c8 8eba 6531 3039
00000330: 78fb 8d36 66fd be3d 606a 9a3d 082b 3839
00000340: 1423 75b8 0f3e a9b8 a99a ad38 26e3 5fba
00000350: cee1 06ba c91b 51ba e9a5 6fb9 9a0e 53b9
00000360: 05b1 d037 9736 d6b8 1707 cbb9 7b70 64ba
00000370: ebc7 6f38 307d 89b9 cfbf 013e 9ab7 62b8
00000380: 0fbf 60b8 7d7b 46ba 5025 9839 ab82 dbb9
00000390: ebee 3eba fb54 5c3e 7130 26b9 1859 d7b9
000003a0: 78ed 9fb8 ee7e f13d 683c 5239 16d3 18ba
000003b0: a572 36ba d7cf 5338 0748 48ba 5a1f 42ba
000003c0: 7ee0 54b9 e6fd 41ba 3a22 0ab8 9b07 7eb8
000003d0: 4e65 4cba 2011 1638 55b4 94b9 a5ca 1fb9
000003e0: 1ca7 e43d 8db2 2639 45f9 9039 bf42 0eba
000003f0: df93 6dba c935 1bb9 6c59 1bb8 3f9c dcb8
-0.0011330823 0.0011672429 0.0005942307 0.000641677 -0.0014671207 -0.00085353886 -0.0006233833 -0.09777464
0.0015922424 -0.01720149 -0.001398879 0.0029478385 0.0011164007 -0.010856723 -0.0014421338 0.0014428399
0.0006096678 0.01720369 -0.0009287298 -0.0016275517 0.1510887 0.00035944738 0.00063445256 0.0012032673
-0.0010716147 0.0008976855 0.0012082823 0.13208121 -0.011560654 0.11561841 -0.0013431198 -0.01883068
-0.116557784 -0.016398683 0.0008045781 -0.011806765 0.0007441414 0.00094994326 -0.0063901423 -0.0051572295
0.0008620972 -0.015521214 -0.050169658 5.173263e-05 -0.000647125 -0.0012766458 0.067701355 -0.0014992721
-0.0009348866 0.0020611095 6.8444942e-06 0.0006515369 -0.031825703 -0.0134176295 0.0010229928 0.01745673
0.0029737407 0.0012549723 -0.073131874 0.0012834388 -0.017088756 0.00017072925 0.0012068292 -0.0015257453
-0.00029632877 0.00474744 0.0069115977 5.4958327e-05 -0.0014011167 -0.00118203 -0.0009766725 0.0018896186
0.0002702051 0.000985154 -0.0013161413 -0.1001534 -0.0012885524 -0.0014066595 0.011305235 0.00061240257
-0.0011458022 -0.09924662 -0.00038555136 -0.0015426046 -0.001005057 0.0007473108 -0.016972171 -0.063722335
0.0011479706 -0.024939537 -0.001414142 -0.07525042 -0.0012777062 0.0035120428 -4.637596e-05 0.0011182094
0.0009817505 -0.0010640118 0.00076661684 0.00058619934 0.12367283 0.0013031024 -0.0014624944 -0.0012536445
0.00080210785 -0.00069946155 -0.0012638321 -0.001017231 0.0026029574 0.12002964 -0.16528411 -0.00045565123
-0.0006388732 -0.00074771 -0.09053596 0.11940454 0.0023882498 0.10601158 -0.0012351939 0.16745096
-0.017517531 -0.00087233575 -0.0009890025 0.0012266674 0.0010913725 0.21904166 0.00083192263 -0.07165366
0.12342012 0.0011282581 0.001280704 -0.0015047166 0.008229047 -0.08567871 -0.079500996 0.00072221877
-0.1452311 0.01282797 -0.1699119 -0.014267462 8.681943e-05 -0.00074633077 -0.00072184927 -0.00077925203
-1.6451164e-05 -0.00032665167 3.0598985e-05 -0.00010025445 -0.0006913049 0.16667861 -0.00014926701 -0.0016970477
-0.0005200468 0.17019336 -1.3009592e-05 -0.00079008826 -0.00054659316 0.0007398246 0.0001187044 -2.6546162e-05
-0.0005612663 -0.0008340182 -0.00083546096 -0.0012944314 -0.00013926555 -0.0008412085 -0.0014366359 0.00037017144
0.21183056 -0.00048656962 0.0001415304 0.19374755 -0.0005014424 -0.020744465 -0.000659854 0.1925089
-0.00058448437 -0.0014239184 0.1344319 -0.00055085093 -0.00073407515 0.0007243486 -0.0005115806 0.00016717502
-0.00020270832 3.597062e-05 -0.00056668784 -1.9476785e-05 0.00016580358 -0.00059706613 -0.00069978996 -0.0008243904
0.24691512 0.00051814795 -0.0007985243 0.00039843604 -0.015720474 -0.0014719432 3.7578482e-06 -0.0009154134
0.23001865 -1.6926878e-06 -0.0010893568 0.00016803069 4.2314023e-06 0.09325676 0.07539821 0.00017563638
-5.844522e-05 -8.070107e-05 8.2780905e-05 -0.00085406227 -0.0005145342 -0.00079768576 -0.00022854623 -0.00020127968
2.4877963e-05 -0.00010214483 -0.0003872446 -0.00087142707 5.716823e-05 -0.00026223948 0.12670825 -5.405359e-05
-5.35837e-05 -0.0007571502 0.000290195 -0.0004186829 -0.00072835264 0.21516792 -0.0001584904 -0.00041074376
-7.625943e-05 0.11791788 0.00020049664 -0.0005829794 -0.00069598324 5.0499886e-05 -0.00076401274 -0.00074051844
-0.00020301525 -0.00074001995 -3.293364e-05 -6.0565402e-05 -0.0007797078 3.5778736e-05 -0.00028363118 -0.00015238913
0.11164686 0.00015897509 0.0002765154 -0.0005426816 -0.0009062867 -0.00014801988 -3.703816e-05 -0.000105195206

nodes.0.callable.fc_output_x1.bias f4 [2]
00000000: 7e7b 333e a991 4a3e
0.17527577 0.19782127

nodes.0.callable.fc1_x2.weight f4 [140, 140]
00000000: b25d d6bc 71c1 b23d 870a 8f3d e5eb 013d
00000010: 9654 b83b 9dba 6cbd c9f0 18bd 6ff6 1cbd
00000020: 776e 2ebb 043d 3f3d d086 f63c 82c6 2c3c
00000030: dec2 2dbd 4403 243d 864c 553c e66e 683d
00000040: 5f11 983c a432 3c3c 5392 b93d 00b9 4cbd
00000050: e67b 4d3d 21d8 d43b 586f f33c c012 6b3d
00000060: 6abf cd3c 6a71 05bd 7db5 64bd c8a9 7fbd
00000070: 4449 9cb9 31ad 01ba e208 0abd ca2a 703d
00000080: 1335 e33c 0720 823d 7cd2 083d ae72 afbd
00000090: 84e0 9a3d 2aae 61bd 9e42 0ebd e6cc b7bc
000000a0: b558 90bd e831 8cbd 3524 913d 5722 4f3c
000000b0: 9c45 07bd dd0c adbd 8082 4fbd a204 74bd
000000c0: b259 1c3d 0667 393d b196 543c 495a cb3c
000000d0: 7f8b 343d a07b a3bd d934 a4bd 4f4f 99bb
000000e0: 2f18 62bd c977 5dbd 8e66 303d 0ccc 953d
000000f0: 6fbe b1bd fc42 2fbc e2da 743c 2eeb 743d
00000100: 628d 3b3c 3be3 f93c ec00 08bd 288d e93c
00000110: af67 92bc c2c6 16bd 5e5b 86bd 4dc6 b83c
00000120: 2643 8fbd 9fe9 d13c 62b8 823d a32d 3abd
00000130: c670 00bd 6d53 dd3c 1580 8bbd 411e 56bd
00000140: 9eec b0bc 2a80 bcbd 1b98 21bd 90ea ccbc
00000150: b0e2 283d a81f ba3b b6c1 bc3d c2db c83c
00000160: c12d e7bc 713d a9bc b368 ac3c b798 c3bc
00000170: e5e5 723d b89f f5bc 3b32 efbd d49d 70bd
00000180: 4d21 85bd 0e16 b53d 71c0 653d cd2b 7db8
00000190: 6786 8fbc fa49 febb f8cc 8d3d d6a1 1f3d
000001a0: b609 08bd 7398 53bd acb2 a63b 89ad 2f3d
000001b0: 1677 92ba 1346 f63b e650 37bd df56 a03d
000001c0: db9c 913c dd88 e7bc 2339 6c3d af2b 743d
000001d0: 6116 31bb 1fae 6d3d cab7 793d 001a 7f3d
000001e0: 741b 643d 6739 3fbd 0e16 26bd 0336 023b
000001f0: cea2 c23c c6a9 e5bc 248d 863d 81d9 823d
00000200: 4724 903d 8230 ec3c 48a1 bfbc 8ab9 7c3c
00000210: 8be8 16bd e485 773d b828 edbc 3b21 783d
00000220: d918 973d dab8 823d 1257 a5bc 17b8 5e3d
00000230: ba62 1a3d 0024 0d3c 5301 f33c 082f 923d
00000240: 4c2c 283d 58e6 6dbd c5fb 193d 83e0 6d3d
00000250: fec2 b9bd eacb a0bd f894 7dbd eab9 30bc
00000260: d39e fdbb ced0 ce3a 166f 44bd 0968 0cbd
00000270: 0eb2 8b3c 9849 733c bedd 93bd fb1b 81bd
00000280: d495 58bc 02b7 a63c 10aa 04bd feb6 153d
00000290: 8fe9 79bd fa98 713c 9923 a43d a128 8e3d
000002a0: cf92 793d 56e9 6fbd d834 ab3d e749 83bd
000002b0: df26 03bd 69d5 81bc 8d94 5e3c 9e57 673d
000002c0: 7d19 0dbd d5e3 bb3d 7e8a 8abc 8725 bf3b
000002d0: 6f17 0c3d cfd1 40bc 9f07 77bd 477f 8abd
000002e0: 4157 503d 32ce 4d3c 9b46 983d 7268 b1bc
000002f0: da9c 833d d7eb 4f3d 0c84 b93b 3f35 923d
00000300: 575a 2e3d 745c 0fbd eea0 79bc 472a 43bd
00000310: ac8a ac3c 3dca 3e3d 97d6 b5bc 7526 a3bd
00000320: 28bf 5cbc a17b 23bb 30bc 323d d09e 01bc
00000330: cfe9 8bbd 9d04 973d 64e0 27bd 0f4e 793d
00000340: 8adb 12bc d8c5 773d 2bf2 e23c 9723 f33c
00000350: ff05 903c befe b03d 8d8f 9dbc 70d9 863d
00000360: bd6c f63c 653e 633c e978 36bc e314 113d
00000370: f4f2 693d bdb9 e1bc 211a 8f3a 8cbf 99bb
00000380: 7cf1 03bd fc81 15ba 8bb0 f33c 3d91 4bbd
00000390: fc5b 0abc d5f6 953d 1732 be3c 7c55 9d3b
000003a0: 9dbc 813d 3b62 593d f7b6 9a3d 61d0 993d
000003b0: ca6c 0f3c 4de1 6d3d 656a 62bd a26a ebbc
000003c0: 6a21 7c3d 79ff 8b3d 4307 6c3c b57f 253d
000003d0: dafb 913d 2e3d 1c3d 7fdc 0c3d 2a96 803c
000003e0: 170b 833d c619 90bc ef50 e03c 2778 6fbd
000003f0: c4c1 6bbd c99c 82bd 3827 163c 83f3 0cbc
-0.026167724 0.08728302 0.0698443 0.031719107 0.005625318 -0.057795156 -0.037339006 -0.038320955
-0.0026616135 0.04668905 0.03009358 0.010545375 -0.042422168 0.040042177 0.013018733 0.056746386
0.01856297 0.011486683 0.09061112 -0.049981117 0.050166987 0.006495491 0.029716179 0.05739093
0.025115687 -0.032578863 -0.055837143 -0.062417775 -0.00029809226 -0.0004946767 -0.033699878 0.058634557
0.027735269 0.06353765 0.03340386 -0.08566795 0.07562354 -0.055097736 -0.0347315 -0.02243657
-0.070481695 -0.06845456 0.07086984 0.012642465 -0.03302537 -0.08449719 -0.050661564 -0.05957473
0.038171478 0.045264266 0.012975381 0.024823325 0.044078346 -0.07982564 -0.080178924 -0.004678644
-0.055198845 -0.054069314 0.043066554 0.073143095 -0.086789005 -0.010697123 0.014944764 0.059794597
0.0114472825 0.03050386 -0.033204004 0.028509691 -0.017871706 -0.036810644 -0.06560396 0.022555495
-0.069952294 0.025624095 0.063828245 -0.04545368 -0.03135755 0.02701732 -0.06811539 -0.052274946
-0.021597203 -0.09204133 -0.0394517 -0.025014192 0.04123181 0.0056800433 0.09216635 0.024518851
-0.02822006 -0.02065918 0.021046018 -0.023876531 0.059301276 -0.029983386 -0.116795026 -0.058744267
-0.06500492 0.08842097 0.05609173 -6.0360693e-05 -0.017520143 -0.0077602835 0.0692386 0.0389727
-0.033212386 -0.05165906 0.0050872173 0.042890105 -0.0011174406 0.0075156777 -0.044754885 0.07829069
0.01777499 -0.028263504 0.057671677 0.059611972 -0.0027021396 0.058027383 0.06096629 0.062280655
0.055690244 -0.046685603 -0.040548377 0.001986862 0.023759272 -0.028035056 0.06569889 0.06389142
0.07038169 0.028831724 -0.023392335 0.015425095 -0.036842864 0.060430422 -0.02895008 0.060578566
0.07377786 0.06382914 -0.02018312 0.05437478 0.03769181 0.00861454 0.029663717 0.07137877
0.04105787 -0.058081 0.03759362 0.05807544 -0.09070395 -0.078513935 -0.061909646 -0.010786513
-0.0077398806 0.0015778781 -0.047957502 -0.034278903 0.017052677 0.014849089 -0.07220028 -0.06304165
-0.013219316 0.020350937 -0.032388747 0.036551468 -0.061013754 0.014745945 0.08014602 0.06941343
0.060931023 -0.058572136 0.083596885 -0.0641058 -0.032019492 -0.015848832 0.013585222 0.056480043
-0.034448136 0.09174315 -0.016911741 0.005833331 0.034202036 -0.011768772 -0.060310002 -0.067625575
0.05086446 0.012561368 0.07435342 -0.021656249 0.064264014 0.050762024 0.005661493 0.07139062
0.042566624 -0.03500028 -0.0152361225 -0.04764774 0.021062218 0.04657959 -0.022197051 -0.079663195
-0.01347331 -0.0024945515 0.0436365 -0.007911399 -0.06831705 0.07373927 -0.04098548 0.060865458
-0.008963475 0.060491413 0.027703365 0.029680056 0.017580984 0.08642338 -0.01923349 0.06584442
0.030081147 0.0138698565 -0.011137226 0.03542031 0.057116464 -0.027554387 0.0010917821 -0.0046920236
-0.03221272 -0.0005703268 0.029747268 -0.049699057 -0.008444782 0.0732247 0.023217244 0.0048014503
0.06334803 0.053072196 0.07554429 0.07510448 0.008753965 0.05807619 -0.055277247 -0.02873737
0.061555304 0.06835837 0.014406028 0.040404994 0.07128115 0.038144283 0.03438997 0.015696604
0.063985996 -0.017590415 0.027382342 -0.058464196 -0.057557836 -0.06377561 0.009164624 -0.00860298

nodes.0.callable.fc1_x2.bias f4 [140]
00000000: b208 763b db6e be3d 65ff 30ba 7bf1 79bb
00000010: 7c84 693d 04fb b2bb 9eaf 653d 4f5b c5bd
00000020: 4307 2cbd 8ff9 df3c 6b1b f8bc a0bf 5cbc
00000030: 18fd 263c 4951 9b3d 2b70 553d 8d54 a9bd
00000040: e4ce 98bd dee7 a7bd 34b6 39bd e8ec 7f3c
00000050: c648 773d 0043 30bd 05ce 7ebd 79e7 85bd
00000060: 5f02 65bd 7b38 51bd 3e5d 8c3c 5120 2a3d
00000070: 5b99 c83c 6c2c 7d3d ee79 d7bb 9fd1 6cbd
00000080: 441b 1fbc 530e 61bb 3f93 ab3d e8c1 cfbd
00000090: beb0 41bd b9d8 2dbb 6c22 07be b5d3 983c
000000a0: 1d1a e33c 39a1 1a3d f2f9 cf3b e246 8cbd
000000b0: c0f5 84bd ebb8 8cbc 0e19 db3c c02e df3c
000000c0: 2c77 3c3a 888c 7abd 202c 4f3d c0e6 5abc
000000d0: aeed 413d 939e 0b3c 37ee 36bd 30ac 4fbd
000000e0: 3696 7fbc 1d20 28bd c4e7 b5bd a050 c23d
000000f0: 178f 93bd 9512 753b b191 92bb 44dd f3bc
00000100: cacc db3c 9972 df3c 9a30 c83b d1be a0bc
00000110: f0fc 9cbb 74e3 393c 3b1d ba3d a6d6 d8bd
00000120: 8305 453d 7a7f bfbd 521b 5dbd 7f93 bc3c
00000130: c1ff 4a3d bc14 84bd eb85 b83d 9344 48bd
00000140: 5b43 c8bd 9d65 bf3d 361f 8fbc 1f5e 39bd
00000150: 4434 c03c 1d71 b03d 193d a5bd 72e9 4c3c
00000160: bd8d a03c 4a97 73bd 85c1 103d e1ad 433d
00000170: 063a 263d e65a c9bd 1e66 e53d c9bd 2bbd
00000180: 3551 b93a 45d4 e63c 3c21 dfbc 9c8e 1c3d
00000190: d224 033d 79de 62bd c9a0 103d 5934 8f3d
000001a0: acb9 86bb a246 abbd 697b 8bbd 2585 3c3d
000001b0: bcbe 8d3d d490 2dbd 90d6 d3bd 7547 a83c
000001c0: 949f c03d 02b6 17ba 082a 9ebd 1c95 b63d
000001d0: 623f ab3c 0adf 6fbc 7af3 b5bd 2350 e03d
000001e0: 0393 cc3c c475 9abc 3c9f 8bbd dd4f 8ebd
000001f0: e045 11bd 9b4f 5e3c cc1a 1ebd 3ac6 d7bc
00000200: daf5 a53d 645c a0bd 50c4 d83c 6588 24bd
00000210: b79c 0a3d a3c6 f33d ced2 403d 8d9b 993d
00000220: a128 10bd fa95 fa3c 0e25 aabc a467 96bb
0.0037541804 0.09298488 -0.0006751924 -0.0038138318 0.057011113 -0.0054620523 0.056075685 -0.09636556
-0.041999113 0.027340678 -0.030286511 -0.013473421 0.010192178 0.07583863 0.052108925 -0.0826808
-0.07461336 -0.08198522 -0.045339778 0.015620448 0.060372137 -0.043032646 -0.062208194 -0.065382905
-0.055910464 -0.051079255 0.017134305 0.041534726 0.024487188 0.061809942 -0.0065758144 -0.057817098
-0.0097110905 -0.0034340813 0.08377694 -0.101444066 -0.047287695 -0.0026526882 -0.13196725 0.018655637
0.027722413 0.03775141 0.0063469345 -0.06849457 -0.064921856 -0.01717802 0.026745345 0.027243972
0.0007189389 -0.061169177 0.05057919 -0.013360679 0.04734581 0.008521694 -0.044660773 -0.05070132
-0.015599778 -0.04104625 -0.088820964 0.09488034 -0.072050266 0.003739511 -0.004472934 -0.029768594
0.02683105 0.027276324 0.0061093094 -0.019622238 -0.0047908947 0.011345733 0.090876065 -0.10587816
0.04810096 -0.09350486 -0.053981133 0.02301955 0.049560312 -0.06449267 0.09009918 -0.048893522
-0.09778472 0.09345553 -0.017470937 -0.045255776 0.023462422 0.08615325 -0.08068294 0.01250683
0.019598836 -0.059470452 0.035340805 0.047773246 0.04058268 -0.098317906 0.11201118 -0.04192904
0.0014138581 0.02817739 -0.027237527 0.03822194 0.032017536 -0.055387948 0.035309587 0.069924064
-0.0041114893 -0.083630815 -0.06810648 0.046025414 0.06921145 -0.042374447 -0.10343659 0.020541886
0.09405437 -0.0005787314 -0.077228606 0.08915159 0.020904247 -0.014640579 -0.0888433 0.10952785
0.024972444 -0.018854983 -0.06817481 -0.069488265 -0.03546703 0.013568784 -0.038599774 -0.026339639
0.08103533 -0.07830122 0.026460797 -0.04016914 0.03384086 0.11903121 0.04707604 0.07500372
-0.035194997 0.030589093 -0.020769622 -0.0045899916
