5min_model/authdata_nsteps_15/log_threshold_N15/best_model_state_dict.pth (torch, 340098 bytes, 26 tensors)

nodes.0.nodes.0.callable.fc_input.weight f4 [95, 32]
0	0x3e3b4c08	0.18290722
1	0xbddc3345	-0.107519664
2	0xbd4b1d76	-0.049588643
3	0xbe23ddc9	-0.16002573
4	0x3df0d06b	0.117585026
5	0x3dc90569	0.09815485
6	0x3da4a1fe	0.0803871
7	0x3d54f6be	0.051993124
8	0xbd8ff5e3	-0.07029321
9	0x3d41e276	0.04733511
10	0x3c6a6550	0.014306381
11	0xbd44bfda	-0.048034526
12	0x3c8e89fd	0.017399782
13	0xbb144956	-0.002262672
14	0xbc8f4d06	-0.017492782
15	0xbde0245f	-0.10944437
16	0x3dca12fa	0.09866901
17	0xbe1830a8	-0.14862311
18	0x3cfbcc4a	0.030737061
19	0xbca3eb93	-0.020009791
20	0xbdb2cad2	-0.08730091
21	0x3d9ae408	0.07563025
22	0x3cf077c7	0.02935399
23	0xbe118ac1	-0.14213087
24	0xbd9df4ca	-0.077127054
25	0xbd448d1c	-0.047986135
26	0x3d757d17	0.059933748
27	0x3d5b5c94	0.053555086
28	0x3d581598	0.05275497
29	0x3ae18fc1	0.001720898
30	0xbc6ec254	-0.014572699
31	0x3cb21824	0.021740027
32	0x3dee61ff	0.11639785
33	0xbe861958	-0.2619121
34	0xbd978aeb	-0.073995434
35	0xbd6e357b	-0.05815647
36	0x3cadfe63	0.021239465
37	0xbd9709fa	-0.0737495
38	0xbd67abef	-0.056560453
39	0xbddfe404	-0.109321624
40	0xbcd4b365	-0.025964448
41	0x3e0cd70e	0.13753912
42	0x3dbc90db	0.092073165
43	0xbcc28f58	-0.023749992
44	0xbdce2075	-0.100647844
45	0x3d794ea8	0.060866028
46	0x3d5e5eab	0.0542895
47	0x3d96f6d6	0.07371299
48	0xbd80fb40	-0.06297922
49	0xbdced0e7	-0.10098439
50	0x3d94ac40	0.072594166
51	0xbd057563	-0.03258265
52	0x3d8ab77f	0.0677328
53	0x3de771dc	0.11301014
54	0xbc36dde4	-0.011161301
55	0xbe4f5d70	-0.20250487
56	0xbdaeb72b	-0.0853103
57	0x3d10a603	0.03531457
58	0xbbaa3af6	-0.005195017
59	0x3d3cf82d	0.046135116
60	0xbcd88835	-0.026432136
61	0xbd750436	-0.05981847
62	0x3c26d31b	0.010182167
63	0xbddc708f	-0.10763656
64	0xbdde6a19	-0.1086008
65	0xbd67f5b7	-0.056630816
66	0x3def0f55	0.11672846
67	0x3ddbd138	0.10733265
68	0xbd47136a	-0.0486025
69	0x3e1e7687	0.15474902
70	0x3dae5f69	0.08514292
71	0xbd37410b	-0.044739764
72	0xbd66c13c	-0.056336626
73	0xbdb007e7	-0.08595257
74	0xbd26172d	-0.040549446
75	0xbe1f44f4	-0.15553647
76	0x3da60a83	0.08107474
77	0xbd898935	-0.06715623
78	0xbc5f54dc	-0.013631072
79	0x3d8d8b05	0.069112815
80	0x3cbf005c	0.023315601
81	0xbdb38d3d	-0.087671734
82	0x3d1871e1	0.03721798
83	0x3d9ced0f	0.07662403
84	0x3c3422f1	0.010994659
85	0xbddd729a	-0.10812874
86	0xbdd11474	-0.10208979
87	0xbbb92fd4	-0.0056514535
88	0xbce037cd	-0.027370358
89	0xbd4987a1	-0.04920161
90	0x3c7b3d41	0.015334428
91	0x3d16b1f8	0.036790818
92	0xbd4f14fe	-0.05055713
93	0xbd34e0e3	-0.04415978
94	0x3b121c9e	0.002229489
95	0x3d974c0d	0.073875524
96	0x3e798b31	0.24369504
97	0xbdd06d9c	-0.10177156
98	0x3dabf466	0.08396225
99	0x3d60d597	0.054891195
100	0xbcf732b4	-0.030175544
101	0xbdec3276	-0.11533062
102	0x3cd8d90f	0.02647069
103	0x3df97ae1	0.121816404
104	0xbdcc93c0	-0.099891186
105	0x3d4a0349	0.04931954
106	0xbb437c48	-0.0029828716
107	0x3dc17a2a	0.09447129
108	0x3d712022	0.058868535
109	0xbe158bd1	-0.14604117
110	0xbd9b8ac8	-0.0759483
111	0xb902be36	-0.00012468625
112	0x3d8de6c2	0.06928779
113	0xbd4240b9	-0.047425006
114	0xbc0a3121	-0.008434565
115	0xbdf13474	-0.11777583
116	0x3d7b1e84	0.0613084
117	0x3e290aec	0.16508073
118	0xbe03cbdb	-0.12870733
119	0xbd9e921a	-0.077427104
120	0x3de58263	0.1120651
121	0x3d4c7256	0.049913727
122	0xbdb4b3a7	-0.088233285
123	0xbcd94d8b	-0.026526233
124	0xbda4615f	-0.080263846
125	0xbc000d0e	-0.0078156125
126	0xbbcab859	-0.0061865267
127	0xbd9cb948	-0.07652527
128	0xbbda8a86	-0.0066693453
129	0xbe3712a7	-0.17878209
130	0xbd1356b4	-0.03597136
131	0x3dbaac2a	0.09114869
132	0x3d5206d4	0.051276043
133	0x3e017655	0.12642796
134	0xbcdad2a9	-0.026711779
135	0xbdf7da2c	-0.1210216
136	0xbcbb1857	-0.022838755
137	0x3c0a7b25	0.0084522115
138	0x39a3b824	0.00031226978
139	0xbd3e299f	-0.04642641
140	0x3d47ad76	0.04874941
141	0x3d8c5274	0.06851664
142	0xbd8ab871	-0.06773461
143	0x3db1c842	0.08680774
144	0xbe030473	-0.12794666
145	0xbde9b6f6	-0.1141185
146	0xbd64aad1	-0.055826966
147	0x3db96db0	0.09054124
148	0x3d824817	0.06361406
149	0xbd457f98	-0.048217386
150	0xbc82f4b4	-0.015985824
151	0x3d7bce11	0.061475817
152	0xbd1a4227	-0.037660744
153	0xbd219082	-0.039444454
154	0x3cbf47fb	0.023349753
155	0xbc3ea415	-0.0116358
156	0x39bdaa0c	0.00036175584
157	0x3d080d78	0.03321597
158	0x3db5ef55	0.088835396
159	0x3cbefea7	0.023314787
160	0x3d86f1b8	0.06589073
161	0x3e4057e7	0.18783532
162	0xbdfc83ac	-0.12329802
163	0xbe3804be	-0.17970559
164	0x3da0f094	0.07858387
165	0x3d3ccff6	0.046096765
166	0xbdf28ed5	-0.11843649
167	0xbd1d7015	-0.038436968
168	0xbdf7daf8	-0.12102312
169	0x3d410728	0.047125965
170	0x3daaf0ac	0.08346686
171	0x3b855d99	0.0040699956
172	0x3db915e3	0.09037378
173	0x3e13e74a	0.14443699
174	0x3df1f639	0.11814541
175	0x3c6b89ac	0.014376085
176	0xbdf25e66	-0.11834411
177	0x3e3c35b3	0.1837986
178	0x3d1f4c46	0.0388911
179	0x3d7ae4c8	0.06125334
180	0xbdae09c1	-0.08497954
181	0x3dcbe441	0.09955645
182	0xbd258b26	-0.040415905
183	0x3c6431e5	0.013927911
184	0x3d2c0945	0.042001028
185	0x3b97f6d2	0.0046375776
186	0x3d2c0423	0.041996133
187	0x3d1ec0f3	0.03875823
188	0x3d114778	0.03546855
189	0x3d799fc4	0.06094338
190	0x3d686881	0.056740288
191	0xbcd8277d	-0.026386017
192	0x3d9accb1	0.07558573
193	0x3eca1909	0.39472225
194	0x3c6fdfc9	0.014640757
195	0xbbbf29a9	-0.0058338237
196	0x3d271673	0.040792894
197	0xbe225323	-0.15852027
198	0x3ddd894c	0.10817203
199	0xbd9bb2f0	-0.07602489
200	0x3e191c74	0.1495226
201	0x3c021dce	0.007941676
202	0x3dbfdd34	0.09368363
203	0xbe176d74	-0.14787847
204	0x3dcf118e	0.1011077
205	0xbd418afc	-0.047251686
206	0x3dccaced	0.099939205
207	0x3da8626b	0.08221897
208	0x3db6684e	0.08906613
209	0x3e00b191	0.12567736
210	0x3dd27873	0.1027688
211	0x3ccd3019	0.025047349
212	0x3db76da4	0.08956459
213	0x3dbe8676	0.0930299
214	0x3dd12a06	0.102130935
215	0xbdd71d68	-0.10503656
216	0x3d0f246f	0.034946855
217	0x3dbb9631	0.09159506
218	0x3d92be4f	0.07165205
219	0x3df3bd01	0.11901284
220	0x3dc41ef1	0.09576214
221	0xbd8b36a5	-0.06797532
222	0xbd8a47d4	-0.067519814
223	0xbd3f7fd5	-0.04675277
224	0xbca1b4eb	-0.019739589
225	0x3e2dd0b2	0.16974142
226	0xbcc24f98	-0.023719594
227	0x3d982c27	0.074302964
228	0x3c9886ca	0.01861896
229	0xbe2e43e7	-0.1701809
230	0xbdd52eae	-0.10409294
231	0x3be0d180	0.006860912
232	0xbdba2b25	-0.090902604
233	0xbd9de601	-0.077098854
234	0x3df9a81a	0.12190266
235	0x3dbcabb2	0.09212436
236	0xbc7bdaeb	-0.015372018
237	0xbdd2209f	-0.10260128
238	0x3d4ad71c	0.04952155
239	0x3d13feab	0.036131542
240	0xbbcc6251	-0.006237306
241	0x3d262a0b	0.04056744
242	0x3d00740d	0.031360675
243	0xbd15cd22	-0.036572583
244	0x3da8ecb3	0.08248272
245	0xbdb56b99	-0.08858413
246	0x3d42a727	0.04752269
247	0x3dd62dad	0.10457931
248	0x3cdd75b1	0.027033659
249	0xbcfe1ed1	-0.031020554
250	0xbd70d056	-0.058792435
251	0x3d11067d	0.03540658
252	0xbd2e8c0c	-0.042614028
253	0x3cd19761	0.025584878
254	0x3c763360	0.015026897
255	0xbd0819b1	-0.033227626

nodes.0.nodes.0.callable.fc_input.bias f4 [95]
0	0xbe527c2d	-0.20555182
1	0x3e42d5bd	0.19026847
2	0x3de9f3c9	0.114234515
3	0x3e372a70	0.17887282
4	0xbe25c236	-0.16187367
5	0x3d8deab8	0.06929535
6	0x3d6f103b	0.058365088
7	0xbe011540	-0.12605762
8	0x3e2f8a2d	0.17142554
9	0xbe9aa852	-0.30206543
10	0x3b8e28e6	0.0043383716
11	0x3afc9d9e	0.0019273048
12	0x3e870b58	0.26375842
13	0x3cd36a87	0.025807632
14	0x3da30447	0.079598
15	0xbda11e4e	-0.07867108
16	0xbd5d7538	-0.054066867
17	0x3e0c23f8	0.13685596
18	0x3e679ff5	0.22619613
19	0x3e8a1465	0.26968685
20	0xbe2d1053	-0.16900758
21	0x3d035739	0.032065604
22	0x3c5eb47a	0.013592834
23	0xbe403d11	-0.18773295
24	0xbc8bf4ea	-0.017084558
25	0x3ce81b73	0.028333401
26	0xbe3b4ac4	-0.1829024
27	0xbb71ceb5	-0.0036896889
28	0x3e840e63	0.25792226
29	0x3e17ff45	0.14843471
30	0xbe60969c	-0.21932453
31	0x3c794f60	0.015216678
32	0x3e82a6a8	0.25517774
33	0xbdafd245	-0.085850276
34	0x3e262f1d	0.1622891
35	0xbe3fc52a	-0.18727556
36	0x3d50ec82	0.0510068
37	0x3e3e0906	0.1855813
38	0xbe017cdf	-0.12645291
39	0x3d93ca16	0.07216279
40	0x3dfcfc5d	0.12352822
41	0x3b405298	0.0029346105
42	0xbe4c3173	-0.19940738
43	0x3e100fb0	0.14068484
44	0x3dbe5371	0.09293259
45	0xbe9862ab	-0.29762778
46	0x3a19feac	0.0005874436
47	0x3eea3970	0.45746946
48	0xbe6837e5	-0.22677572
49	0x3e451f5b	0.19250242
50	0x3e549619	0.20760383
51	0x3d9d6b3e	0.076864704
52	0xbe0c5cbe	-0.13707253
53	0x3dc6a1ff	0.09698867
54	0xbe59681f	-0.21231125
55	0x3e32dd8b	0.17467324
56	0xbdf8b866	-0.12144546
57	0x3dd36004	0.10321048
58	0xbdb42e6c	-0.08797917
59	0x3e03db77	0.12876688
60	0x3def3da9	0.116816826
61	0x3e1e99a0	0.15488291
62	0xbe4c2a9c	-0.19938129
63	0xbbb63584	-0.005560579
64	0xbdc7b362	-0.097510114
65	0x3d803962	0.06260945
66	0x3d82910e	0.06375323
67	0x3d731eb0	0.059355438
68	0x3e5796a0	0.21053553
69	0xbead2816	-0.33819646
70	0x3e07c077	0.13257013
71	0x3e2e2e86	0.17009935
72	0xbe3229fb	-0.17398827
73	0x3e14d2d7	0.14533554
74	0x3dabc7a9	0.083876915
75	0xbd720eee	-0.05909627
76	0x3db90a69	0.09035189
77	0xbe4d3101	-0.20038225
78	0xbe759681	-0.23983194
79	0x3d48b939	0.049004767
80	0xbe4a9064	-0.19781643
81	0xbdce89bf	-0.10084867
82	0xbc38b857	-0.011274419
83	0xbd9e4ade	-0.077291235
84	0x3cdcb735	0.026942829
85	0x3d703081	0.058640007
86	0xbdeef8bd	-0.11668537
87	0xbd94e5fc	-0.072704285
88	0xbdd9632b	-0.10614618
89	0xbdbc6956	-0.09199779
90	0xbe0e8adf	-0.13920163
91	0x3e696e14	0.22795898
92	0x3d8e9480	0.06961918
93	0xbe1548c5	-0.1457854
94	0xbeb7e5de	-0.35917562

nodes.0.nodes.0.callable.fc1_x1.weight f4 [95, 95]
0	0xbda7676d	-0.08174024
1	0xbd0cc44f	-0.034366902
2	0x3da06e59	0.07833547
3	0xbdb7604f	-0.08953916
4	0xbd05149d	-0.03249036
5	0xbd79fd17	-0.06103238
6	0x3cccdd80	0.025007963
7	0xbcaa10ee	-0.020760026
8	0x3d19d202	0.037553795
9	0x3db1a067	0.086731724
10	0x3dcc9b6b	0.09990581
11	0xbc564855	-0.013078769
12	0xbd42b85b	-0.047539096
13	0xbca54141	-0.020172717
14	0xbc90b628	-0.017664984
15	0x3ce839a5	0.0283478
16	0x3dcec491	0.10096086
17	0x3a0c4481	0.0005350784
18	0xbd63afe3	-0.05558766
19	0x3d88e027	0.06683379
20	0x3dd183ce	0.10230218
21	0x3cd8a980	0.026448011
22	0xbbf818b2	-0.0075713033
23	0xbce43b05	-0.027860174
24	0xbd08927e	-0.03334283
25	0x3aa06804	0.001223803
26	0xbdc32bda	-0.095298484
27	0xbcec499a	-0.02884369
28	0x3d5e819e	0.05432283
29	0x3dad2343	0.08453991
30	0x3cf77035	0.030204872
31	0x3d8d0255	0.068852104
32	0x3d0769a4	0.03305973
33	0x3db06ba1	0.086142786
34	0x3d5a0733	0.053229522
35	0x3d80d4d8	0.06290597
36	0xbd9f7bbb	-0.077872716
37	0xbba93e11	-0.0051648696
38	0x3d2dccab	0.042431515
39	0x3d4b99fb	0.049707394
40	0xbc9e33b3	-0.019311761
41	0xbd5ae69e	-0.05344259
42	0xbc83de12	-0.016097102
43	0xbd0c3c5f	-0.03423726
44	0x3d96b1a7	0.07358103
45	0xbdc3038f	-0.09522163
46	0xbd0622c6	-0.032748006
47	0x3b5561f8	0.0032559615
48	0xbda32a11	-0.07967008
49	0xbde880b2	-0.11352672
50	0x3de6cec8	0.11269909
51	0xba66758e	-0.0008791321
52	0xbd9a2385	-0.07526306
53	0xbdb9f76c	-0.09080395
54	0xbd18b4a4	-0.037281647
55	0x3cb1daa2	0.021710698
56	0x3d6e7e45	0.05822589
57	0x3da9c074	0.08288661
58	0xbcf21ddb	-0.029555252
59	0xbdd56765	-0.104201116
60	0xbd9c08c4	-0.076188594
61	0xbd26d820	-0.040733457
62	0xbdaa79da	-0.083240226
63	0xbcfc1eee	-0.030776467
64	0x3d5f4e14	0.05451782
65	0x3da514e7	0.080606274
66	0x3d6efe7a	0.058348157
67	0x3d1c7934	0.038201526
68	0xbcc4cf4d	-0.02402463
69	0x3ca8b319	0.020593213
70	0xbdbe3058	-0.092865646
71	0x3c9bb653	0.019007837
72	0xbde9dc7f	-0.114190094
73	0xbc26c2cd	-0.01017828
74	0xbd8778ba	-0.06614824
75	0xbcc4617e	-0.02397227
76	0xbdc9f01c	-0.0986025
77	0x3d214357	0.03937086
78	0xbc3bf6d0	-0.011472419
79	0x3d25b7ae	0.040458374
80	0xbc9d5cc0	-0.019209266
81	0x3b6a349d	0.0035736926
82	0xbde05da5	-0.10955361
83	0xbd6acf11	-0.05732638
84	0xbcc399f6	-0.023877125
85	0xbda68ae5	-0.08131961
86	0xbda10cf4	-0.07863799
87	0x3d03d384	0.03218414
88	0xbd5a2119	-0.05325422
89	0xbdc9101e	-0.09817527
90	0xbcab7d50	-0.020933777
91	0x3d288b6d	0.04114859
92	0xbc930c80	-0.017950296
93	0x3da37d3a	0.079828694
94	0x3c730dad	0.0148348035
95	0xbcf95f5b	-0.030440977
96	0x3d782c5b	0.060589176
97	0x3d31e71f	0.043433305
98	0xbcfab34f	-0.03060308
99	0x3d330df3	0.043714475
100	0x3cc930e5	0.024559448
101	0x3d81f042	0.06344654
102	0xbd54fd40	-0.05199933
103	0xbb83edc6	-0.0040261475
104	0xbd7789a0	-0.060433984
105	0xbcb80d4d	-0.02246728
106	0xb97af7c3	-0.00023934156
107	0x3e035056	0.12823614
108	0xbd8a62de	-0.06757139
109	0x3de60630	0.11231649
110	0x3c76e519	0.01506927
111	0x3b163d99	0.0022924899
112	0xbcbcd7b1	-0.023052068
113	0x3dc7ec33	0.09761848
114	0x3d818fc0	0.06326246
115	0x3d374af9	0.044749234
116	0x3d6a1565	0.05714931
117	0x3dad8ed8	0.08474511
118	0xbd17103c	-0.036880717
119	0xbd8722ab	-0.06598409
120	0x3de41a15	0.11137787
121	0x3d1ef63f	0.038809057
122	0x3bd1c686	0.0064018397
123	0xbd529e1c	-0.051420316
124	0xbd967fe0	-0.07348609
125	0xbba6e9fa	-0.00509381
126	0xbdb3b740	-0.087751865
127	0x3df12b02	0.11775781
128	0xbd2acec0	-0.04170108
129	0x3df1b552	0.11802162
130	0xbd4c378f	-0.049857672
131	0xbb71d9bf	-0.0036903468
132	0x3d3aa675	0.045568902
133	0xbd03cf48	-0.0321801
134	0x3dca9d48	0.0989328
135	0xbd226d1c	-0.039654836
136	0xbc9d2f9f	-0.019187747
137	0x3c817014	0.015800513
138	0xbc9e374a	-0.019313473
139	0x3d45deee	0.048308305
140	0x3cc53b41	0.024076106
141	0xbd3fafc4	-0.046798483
142	0x3dee456a	0.116343334
143	0x3cf9de96	0.030501645
144	0xbd259a27	-0.040430214
145	0x3d28ef63	0.041243922
146	0xbdf6d888	-0.12053019
147	0x3bb2432d	0.005440137
148	0xbd4f03a8	-0.050540596
149	0xbd976093	-0.07391467
150	0x3dd4b350	0.10385764
151	0xbddb3eef	-0.10705363
152	0xbdec46a5	-0.11536912
153	0xbd5a6b7f	-0.053325173
154	0xbe00a68d	-0.12563534
155	0x3d4900d1	0.049073044
156	0xbd86ec47	-0.06588035
157	0x3c8789d2	0.01654521
158	0x3cf2b4cb	0.029627224
159	0xbcef374d	-0.029201174
160	0xbc20e2fd	-0.009819743
161	0x3bfd07e9	0.00772189
162	0x3d8be92c	0.068315834
163	0xbbc950d4	-0.0061436687
164	0x3c5ab3f7	0.013348571
165	0x3d1b7c82	0.037960537
166	0xbc618348	-0.01376421
167	0xbd8c1587	-0.068400435
168	0x3d31f741	0.04344869
169	0x3da48ff8	0.08035272
170	0x3da03fde	0.07824682
171	0x3d801938	0.0625481
172	0xbcdb2a16	-0.026753467
173	0xbd4ba7d4	-0.0497206
174	0xbc6acfd5	-0.014331778
175	0xbd39da7c	-0.04537438
176	0xbd37b8cd	-0.044853974
177	0x3d9ee0ef	0.077577464
178	0x3ca80cec	0.020513974
179	0x3d927dce	0.071529016
180	0xbdc2007c	-0.09472749
181	0xbc3cd80a	-0.011526117
182	0xbc7d0d1d	-0.015445021
183	0xbd92744a	-0.07151087
184	0x3bf2892b	0.0074016056
185	0xbd851944	-0.0649896
186	0x3d9320ae	0.071839675
187	0x3db95076	0.0904855
188	0xbdab46ca	-0.08363111
189	0x3d3105bb	0.043218356
190	0xbc7daeb1	-0.015483544
191	0x3d0f5301	0.034991268
192	0xbd99e380	-0.07514095
193	0x3db8359b	0.089945994
194	0x3d9d3b10	0.07677281
195	0x3d4b2fee	0.049606256
196	0x3ce241d9	0.02761929
197	0xbdae1b4c	-0.085013
198	0x3d5211a6	0.051286362
199	0x3d1a279c	0.03763543
200	0xbc9a018e	-0.01879957
201	0x3cfe6307	0.03105308
202	0xbd7e64b6	-0.062107764
203	0xbb3a0ab2	-0.0028387723
204	0x3b97e668	0.004635621
205	0xbd06363e	-0.032766573
206	0xbdf246ab	-0.11829885
207	0xbd147b93	-0.036250662
208	0xbd07cb42	-0.033152826
209	0xbccf9ffe	-0.025344845
210	0xbc879211	-0.016549142
211	0xbc97c595	-0.018526832
212	0x3dbae817	0.09126299
213	0x3bec8d52	0.007218995
214	0x3d3a92b6	0.04555007
215	0xbc839ca5	-0.016065905
216	0x3d4a4633	0.049383353
217	0x3c8dd19d	0.017311865
218	0xbd6cfebb	-0.057860117
219	0xbde14060	-0.10998607
220	0x3c90c97f	0.017674206
221	0xbe15529e	-0.14582297
222	0x3b731ad3	0.0037094846
223	0x3cf02a0c	0.029316925
224	0xbd9758c5	-0.07389978
225	0xbd1be728	-0.038062245
226	0x3c90c35d	0.017671281
227	0x3d6bc29c	0.05755864
228	0x3d339c47	0.04385021
229	0x3d5a2067	0.053253558
230	0xbdccdcac	-0.10003027
231	0xbd08ee5d	-0.033430446
232	0x3d3daaec	0.046305582
233	0xbb23dbf6	-0.0025002933
234	0x3d124d5d	0.03571831
235	0xbcf99df6	-0.03047083
236	0xbbee6ff9	-0.007276532
237	0x3da24e4d	0.07925091
238	0x3ce44e0f	0.027869252
239	0xbc2e5309	-0.010639914
240	0xbd11109f	-0.03541624
241	0xbb630435	-0.0034639959
242	0x3d7af1b0	0.061265647
243	0x3d12a776	0.035804234
244	0xbc704158	-0.014664017
245	0xbdd56f08	-0.10421568
246	0x3c26de4f	0.010184838
247	0xbdf7c4d0	-0.12098086
248	0xbd72f221	-0.059312943
249	0xbcb49a3a	-0.022046197
250	0xbcdd7a8b	-0.027035972
251	0xbbbb8856	-0.0057230396
252	0xbdb16c07	-0.08663183
253	0xbdb53411	-0.088478215
254	0xbdf8f83c	-0.12156722
255	0x3d89f59a	0.06736298

nodes.0.nodes.0.callable.fc1_x1.bias f4 [95]
0	0x3dcee92c	0.10103068
1	0x3d022031	0.03176898
2	0x3ce5d656	0.028056305
3	0xbd61c499	-0.05511913
4	0xbdd7b8d6	-0.105333015
5	0xbd47633b	-0.048678618
6	0x3d3ec7c1	0.04657722
7	0x3cafb032	0.021446321
8	0xba2fa2fe	-0.0006700008
9	0xbde358d3	-0.11100926
10	0x3cb68997	0.022282405
11	0xbd83820f	-0.06421291
12	0xbcefc6ec	-0.029269658
13	0xbd7b482f	-0.061348137
14	0x3cf2a472	0.02961943
15	0x3dc8b591	0.09800256
16	0xbd77e85d	-0.060524333
17	0xbc5f0033	-0.013610887
18	0x3d532726	0.051551007
19	0xbbf9b2d9	-0.0076201973
20	0x3dadbbf6	0.08483116
21	0x3db403c1	0.087897785
22	0x3d803e26	0.06261854
23	0xbdd0d3c3	-0.1019664
24	0xbd064e2b	-0.03278939
25	0xbda8bea8	-0.0823949
26	0x3c35bd71	0.01109253
27	0x3cbf2358	0.023332283
28	0xbda45bff	-0.08025359
29	0x3d20e30c	0.03927903
30	0x3d471727	0.048606064
31	0x3d65c471	0.056095544
32	0x3c3296ef	0.010900243
33	0xbda0cf9b	-0.078520976
34	0xbde5a1fb	-0.11212536
35	0x3c6bfb51	0.01440318
36	0xbc050376	-0.008118501
37	0x3b67e7be	0.0035385932
38	0xbdb61da8	-0.08892375
39	0xbd7fadf5	-0.062421758
40	0xbd82f78b	-0.06394871
41	0x3d7cd073	0.06172223
42	0xbdefeb3e	-0.11714791
43	0xbcc5ff99	-0.02416973
44	0x3d604a45	0.05475833
45	0xbd8cea22	-0.06880595
46	0xbdd5eb14	-0.10445228
47	0xbda72812	-0.0816194
48	0x3d3e0736	0.046393596
49	0xbd548ac8	-0.051890165
50	0x3d7ec46f	0.062199052
51	0x3d4a3061	0.049362544
52	0xbc6311b0	-0.0138591975
53	0xbd58d263	-0.052935015
54	0x3d99f254	0.075169235
55	0xbda273cf	-0.07932245
56	0x3d554609	0.052068744
57	0x3d00faea	0.03148929
58	0xbd5bbd75	-0.053647477
59	0xbc58ca9a	-0.013231898
60	0x3c4050da	0.0117380265
61	0xbd92cefb	-0.07168385
62	0x3ced8b34	0.028997041
63	0xbde4b07d	-0.11166475
64	0xbdf080fd	-0.117433526
65	0xba05112d	-0.0005076107
66	0xbd9ca6b1	-0.07648981
67	0x3dbb46a7	0.09144335
68	0xbd905a05	-0.0704842
69	0xbd77d79b	-0.06050835
70	0x3d630e6e	0.055433683
71	0xbd134822	-0.035957463
72	0x3d2d6784	0.04233505
73	0x3ddc1e28	0.10747939
74	0x3d573716	0.05254277
75	0xbdba4308	-0.090948164
76	0xbd3e523a	-0.046465136
77	0x3dc99644	0.09843114
78	0x3cfa28e3	0.030537074
79	0xbd913c3d	-0.07091568
80	0x3d68d395	0.056842405
81	0xbd188b80	-0.037242413
82	0x3c6e0f53	0.014530021
83	0x3d197bad	0.037471462
84	0x3d8a2478	0.06745237
85	0xbd16cb88	-0.036815196
86	0xbd7b6d1b	-0.061383348
87	0x3d11b8be	0.035576575
88	0xbd9a9d54	-0.07549539
89	0xbd0e79b2	-0.034784026
90	0x3d69c590	0.057073176
91	0x3dc787ac	0.09742674
92	0x3d0cfd2a	0.034421124
93	0xbcee4d7b	-0.02908968
94	0x3ca02609	0.019549387

nodes.0.nodes.0.callable.fc2_x1.weight f4 [95, 95]
0	0xbdf74088	-0.12072855
1	0x3d50b960	0.050958037
2	0xbc84fd02	-0.016233925
3	0xbe303609	-0.17208113
4	0x3e261c93	0.16221838
5	0xbd20e9c9	-0.039285455
6	0xbe497cab	-0.19676463
7	0x3d8d3aac	0.068959564
8	0xbda93940	-0.08262873
9	0xbd05ca5a	-0.03266368
10	0x3dd5af07	0.104337744
11	0xbdf4b5b1	-0.119487174
12	0x3cb6bc21	0.022306504
13	0x3d1f440c	0.038883254
14	0xbca438f0	-0.020046681
15	0xbdd50d6f	-0.10402953
16	0xbc603ee6	-0.013686871
17	0xbacaed1a	-0.0015482039
18	0xbcd874b0	-0.026422828
19	0x3c0cf1a3	0.008602533
20	0x3c17b3a1	0.009259135
21	0xbb162115	-0.0022907902
22	0x3cf4dcac	0.02989038
23	0xbd5e906f	-0.05433696
24	0xbd95fb0a	-0.073232725
25	0x3d4b1501	0.049580578
26	0x3dbc265c	0.09187004
27	0xbd6d2261	-0.057894114
28	0xbe3bce25	-0.18340357
29	0xbb85cd2c	-0.0040832963
30	0xbda49ced	-0.08037744
31	0x3d2019b0	0.039086998
32	0xbda27973	-0.07933321
33	0x3da84711	0.0821668
34	0x3a57d2be	0.0008233002
35	0x3d8980ca	0.06714018
36	0xbe3f433b	-0.1867799
37	0xbd7b769b	-0.061392408
38	0xbd857b8d	-0.06517706
39	0x3d7705d3	0.06030829
40	0xbdf6dcbc	-0.120538205
41	0x3d636b5f	0.05552232
42	0x3dc29476	0.09500973
43	0x3bd01d11	0.0063511212
44	0xbcba72f4	-0.022759892
45	0x3dcc7afc	0.09984395
46	0xbdb31a2a	-0.08745225
47	0x3d36b7ab	0.044608753
48	0x3d9b61da	0.07587023
49	0x3d30b508	0.043141395
50	0x3d370ef1	0.044691984
51	0x3d21f42f	0.039539512
52	0xbe1a65e6	-0.15077934
53	0x3d8996fa	0.067182496
54	0x3d8a0f40	0.0674119
55	0x3c9ce13a	0.019150365
56	0xbcb89289	-0.02253081
57	0xbd688c73	-0.056774568
58	0xbd71072d	-0.058844734
59	0xbc5c2b3f	-0.013438045
60	0x3e4dea4d	0.2010891
61	0xbdcc1898	-0.099656284
62	0x3d3e9e98	0.046537966
63	0xbcd4a130	-0.025955766
64	0xbc42e549	-0.011895486
65	0x3cfce026	0.030868601
66	0xbd7c9add	-0.061671127
67	0xbd54d587	-0.051961448
68	0x3ca92c10	0.020650893
69	0x3d011c7a	0.031521298
70	0xbb81ebe4	-0.003964888
71	0xbd0c6dc7	-0.03428438
72	0x3e187947	0.14890014
73	0x3d7bb383	0.061450493
74	0xbd88b105	-0.06674389
75	0x3cc20137	0.02368222
76	0x3d88a895	0.066727795
77	0x3da079bc	0.07835719
78	0x3d7ef213	0.06224258
79	0xbdaa230c	-0.08307466
80	0x3d7ee1d2	0.062227078
81	0x3df1d0da	0.118074134
82	0x3ba1680d	0.004925734
83	0xbd7ac121	-0.06121934
84	0xbda2d851	-0.07951415
85	0x3dceec74	0.101036936
86	0xbd70ee7f	-0.058821198
87	0xbd99ca9c	-0.07509348
88	0xbca66d51	-0.020315798
89	0x3d85621c	0.065128535
90	0xbc642b9d	-0.013926414
91	0xbbe360ea	-0.0069390433
92	0xbe04d371	-0.12971283
93	0xbd27fa78	-0.04101035
94	0xbe35bc53	-0.17747621
95	0xbd6375ae	-0.05553215
96	0xbd94426e	-0.07239233
97	0xbd9686f3	-0.07349958
98	0xbd7c7c36	-0.061641894
99	0x3d8a9396	0.06766431
100	0x3ce42e4a	0.027854104
101	0xbdc90715	-0.09815804
102	0x3d8965af	0.06708848
103	0xbd37c223	-0.044862878
104	0xbd60bad9	-0.05486569
105	0x3d0e2b8a	0.03470949
106	0xbd832d3c	-0.06405112
107	0x3dae4bf5	0.085105814
108	0xbcc9fb71	-0.02465603
109	0x3cb8aba9	0.022542791
110	0xbd96ebbb	-0.07369181
111	0xbde52fa5	-0.11190728
112	0x3de36065	0.1110237
113	0x3d577dc0	0.05261016
114	0xbd6ee744	-0.05832602
115	0xbd96bedb	-0.073606215
116	0xbda4d74c	-0.08048877
117	0x3d8a7477	0.06760495
118	0x3ce74756	0.028232258
119	0xbda0ff61	-0.0786121
120	0x3d23869e	0.039923303
121	0x3d581604	0.05275537
122	0xbdb08e30	-0.0862087
123	0xbbc992dd	-0.0061515407
124	0xbd0ef705	-0.034903545
125	0xbc996ae3	-0.018727725
126	0xbd820cc0	-0.06350088
127	0xbddcf82f	-0.10789525
128	0xbce55329	-0.027993755
129	0x3bef31b1	0.007299625
130	0x3d39e98d	0.045388747
131	0x3d33cf46	0.043898843
132	0xbccbce7a	-0.02487873
133	0x3d8cfad1	0.06883777
134	0x3d690272	0.056887098
135	0x3d1522ba	0.03641007
136	0xbcc9de90	-0.024642259
137	0x3dbc9eae	0.09209953
138	0x3bfa485b	0.00763802
139	0x3d8c9aef	0.06865489
140	0xbd6a94f1	-0.057270948
141	0x3d80e260	0.062931776
142	0x3d99bbd3	0.07506528
143	0xbd9dce19	-0.07705326
144	0x3e021d05	0.12706383
145	0xbdaa00e6	-0.083009526
146	0x3d76f738	0.06029436
147	0x3cadcfd0	0.021217257
148	0xbcd81acf	-0.02637997
149	0xbd0d14f1	-0.0344438
150	0x3dc67aa5	0.09691361
151	0xbd99cdb5	-0.07509939
152	0xbbb1089f	-0.005402639
153	0x3abaa5cd	0.0014240086
154	0x3c70d754	0.014699776
155	0xbd4c4d40	-0.04987836
156	0xbe0b5bba	-0.1360921
157	0xbdacc04d	-0.08435116
158	0x3c4f9191	0.012668983
159	0x3de28637	0.11060756
160	0x3d3c5432	0.045978732
161	0x3c9e5bce	0.019330885
162	0x3d394c8e	0.045239024
163	0x3d8e25b3	0.06940784
164	0xbdae8afa	-0.085226014
165	0xbce910d6	-0.02845041
166	0xbdc331ea	-0.09531005
167	0x3c8f5ff2	0.017501805
168	0xbdb1636c	-0.08661541
169	0x3dae9604	0.08524707
170	0xbd8705b5	-0.065928854
171	0xbd03682a	-0.03208176
172	0xbdceeab3	-0.10103359
173	0xbd3f0953	-0.04663975
174	0xbc7b24be	-0.015328584
175	0xbd08e7d3	-0.03342421
176	0x3dae8e77	0.08523267
177	0x3b703b0d	0.003665629
178	0x3c08a150	0.008339241
179	0x3ca038b0	0.01955828
180	0x3d868e8f	0.0657016
181	0x3d8f7206	0.0700417
182	0xbc81f40c	-0.01586344
183	0xbd9ab05c	-0.07553169
184	0xbda56745	-0.08076338
185	0xbde7482e	-0.11293064
186	0xbd9d34d6	-0.07676093
187	0xbb0dc808	-0.002163412
188	0xbd2ace9a	-0.041700937
189	0x3d076427	0.033054497
190	0xbdd0c161	-0.10193134
191	0xbd04ee1b	-0.032453638
192	0xbd8fd3b1	-0.07022799
193	0x3e2134bd	0.15742774
194	0xbdbb12c4	-0.09134439
195	0xbb839ea7	-0.0040167156
196	0xbbeb3946	-0.0071784584
197	0x3d220a43	0.039560568
198	0x3ddf5ad7	0.10905998
199	0xbd5c4dd2	-0.053785153
200	0xbd578488	-0.052616626
201	0x3db46bf0	0.0880965
202	0x3d4731f6	0.04863163
203	0x3d8fa34c	0.07013568
204	0x3dcafb7c	0.09911248
205	0xbd308e7e	-0.04310464
206	0x3d637bf9	0.05553815
207	0xbd407cce	-0.046994023
208	0xbcc14dc4	-0.023596652
209	0xbc3b4b77	-0.011431566
210	0xbbe92d76	-0.007116015
211	0x3d9d7bd0	0.07689631
212	0x3d9ce2b1	0.076604255
213	0xbdbb7ea7	-0.091550164
214	0x3d72d57f	0.059285637
215	0x3dc6c425	0.0970538
216	0xbe07acd7	-0.13249527
217	0xbda69b82	-0.081351295
218	0x3e02dc97	0.12779461
219	0x3db0fb1e	0.08641647
220	0x3cd8cfb6	0.026466232
221	0xbccea9ba	-0.025227416
222	0x3da78ac7	0.081807666
223	0xbd778e50	-0.060438454
224	0x3d5e3104	0.054245964
225	0xbc857c84	-0.016294725
226	0xbb8f47da	-0.004372579
227	0xbcd83020	-0.026390135
228	0x3dad0e7a	0.08450027
229	0xbbc141d2	-0.005897739
230	0x3cbf2e21	0.023337426
231	0xbdb9e66c	-0.090771526
232	0xbd9239ff	-0.07139968
233	0xbd1e0e75	-0.038588006
234	0x3d5a6d7b	0.053327065
235	0xbd8e4e02	-0.069484726
236	0x3dc5e2d0	0.09662402
237	0x3cf5172a	0.029918272
238	0x3d785837	0.060631003
239	0x3d93d6ec	0.072187275
240	0xbc9935a2	-0.018702332
241	0x3db7a5e6	0.089671895
242	0xbd90da90	-0.070729375
243	0x3d7bc9e9	0.061471853
244	0x3c5b66c6	0.013391202
245	0xbda7dbc9	-0.081962176
246	0x3d495ad1	0.049158875
247	0xbd6ac91e	-0.057320707
248	0xbd48241f	-0.048862573
249	0x3ca2351d	0.019800717
250	0x3d22cec7	0.03974798
251	0x3d75197f	0.059838768
252	0x3caa96ea	0.020823915
253	0x3dbfc45d	0.09363625
254	0xbd05620c	-0.032564208
255	0xbdc03582	-0.09385206

nodes.0.nodes.0.callable.fc2_x1.bias f4 [95]
0	0x3d434be9	0.047679815
1	0x3d01cfb8	0.031692237
2	0x3d3cf61c	0.046133146
3	0xbd007545	-0.031361837
4	0x3dc80531	0.09766615
5	0xbd2edf25	-0.042693276
6	0xbc17b8a1	-0.009260328
7	0xbdd78125	-0.10522679
8	0x3c06beff	0.008224248
9	0xbcd83289	-0.026391285
10	0x3b4a0c0a	0.003082993
11	0xbd0b7eb1	-0.03405637
12	0xbd8b16e8	-0.067914784
13	0x3da28df1	0.079372294
14	0xbcabe9a0	-0.020985425
15	0x3dd70cf2	0.10500516
16	0xbd43adc7	-0.04777315
17	0xbca88d62	-0.02057523
18	0xbd0d557f	-0.034505364
19	0xbdb853b6	-0.090003416
20	0xbcdd1b8d	-0.026990676
21	0x3c615717	0.013753674
22	0xbd243d46	-0.040097497
23	0xbd177172	-0.036973424
24	0x3c8bfa22	0.017087046
25	0x3d609563	0.054829966
26	0xbd9c79e4	-0.07640436
27	0x3d6bf4b1	0.057606403
28	0x3d03a75e	0.032142036
29	0x3ddd7ce7	0.10814839
30	0x3dded94f	0.10881292
31	0x3de8ed6e	0.11373411
32	0xbd0e7767	-0.03478184
33	0xbdab0485	-0.083504714
34	0xbd806461	-0.06269146
35	0xbd460aef	-0.04835027
36	0xbd096ee7	-0.03355303
37	0x3d966fe5	0.07345561
38	0x3d525e7a	0.05135963
39	0xbd961e46	-0.07329993
40	0xbdcb6b85	-0.09932617
41	0xbddfc028	-0.10925323
42	0xbcef10f3	-0.029182887
43	0xbd7c207d	-0.06155442
44	0xbc391e63	-0.011298749
45	0x3d25d93a	0.040490367
46	0x3d85f016	0.065399334
47	0x3d51bd3c	0.05120586
48	0x3da94a4c	0.08266124
49	0xbd3cdc66	-0.046108626
50	0xbd714a8b	-0.05890898
51	0x3d023ec7	0.03179815
52	0xbd697ec3	-0.057005655
53	0x3d6f8ac5	0.05848195
54	0xbc862321	-0.016374173
55	0xbd839cb9	-0.06426377
56	0xbd05dc06	-0.032680534
57	0x3da47dce	0.08031808
58	0x3e09c9ab	0.13455836
59	0xbc69b5be	-0.014264522
60	0xbd1993d5	-0.0374945
61	0xbcc2d1fd	-0.02378177
62	0x3d04481f	0.032295343
63	0xbd97e03f	-0.074158184
64	0xbe0635de	-0.13106486
65	0xbc8d9cb3	-0.017286634
66	0x3de455b6	0.111491606
67	0x3c3061d3	0.010765511
68	0xbd200f86	-0.039077304
69	0xbcd4d5e2	-0.025980894
70	0xbda9414b	-0.08264407
71	0x3d2b9df9	0.0418987
72	0x3d886f2e	0.06661831
73	0x3d3c961f	0.046041604
74	0x3d6ee7ac	0.05832641
75	0x3e08a416	0.13343844
76	0x3c94c6d2	0.018161211
77	0xbce7339e	-0.028222855
78	0xbded2aa1	-0.115803964
79	0xbd36a66a	-0.0445923
80	0x3dd85acb	0.105641924
81	0xbd5364a7	-0.05160966
82	0xbdd5cab3	-0.104390524
83	0x3d8d5987	0.069018416
84	0x3db35a83	0.08757498
85	0xbd9a9071	-0.07547081
86	0x3db5b054	0.088715225
87	0xbd9aa581	-0.075510986
88	0x3b963a06	0.0045845537
89	0x3d31f863	0.04344977
90	0x3dd09a49	0.101856776
91	0xbdf316b4	-0.11869565
92	0xbc7f0fff	-0.015567779
93	0xbd9b9dd8	-0.07598466
94	0xbca0283f	-0.01955044

nodes.0.nodes.0.callable.fc_output_x1.weight f4 [2, 95]
0	0xbcbbd325	-0.02292783
1	0xbcb95648	-0.02262415
2	0x3bc95b05	0.0061448836
3	0x3d0567f4	0.03256984
4	0xbd9f5a5f	-0.07780909
5	0xbd855532	-0.0651039
6	0xbd5945e1	-0.053045157
7	0xbd65ff6f	-0.056151804
8	0x3c7f0c9e	0.015566973
9	0xbd500b21	-0.050791863
10	0xbd26ea5e	-0.040750854
11	0x3cafa7fc	0.021442406
12	0x3d614ae9	0.05500308
13	0xbd5f20f3	-0.054474782
14	0xbdb07aac	-0.08617148
15	0x3d1de1c1	0.038545374
16	0x3d5a9ff7	0.05337521
17	0x3d7c8f51	0.061660115
18	0xbca56611	-0.02019027
19	0xbcb34e42	-0.021887902
20	0x3cc0aae6	0.02351899
21	0x3ce58afc	0.028020374
22	0x3d2a34d1	0.041554276
23	0x3caeca69	0.021336751
24	0x3bf73545	0.007544192
25	0x3ce64cbe	0.028112765
26	0x3c804e6e	0.015662398
27	0x3d7b701e	0.06138622
28	0x3cb548f0	0.022129506
29	0x3d25dad9	0.040491913
30	0xbd98360e	-0.07432185
31	0xbd77ee5f	-0.060530063
32	0x3ca8b090	0.020592004
33	0x3d0755c8	0.03304079
34	0x3ccc741c	0.024957709
35	0xbd77d576	-0.060506307
36	0x3ac62507	0.0015117236
37	0x3cf0cc73	0.029394364
38	0x3d07dc27	0.033168938
39	0xbcaefa5a	-0.021359611
40	0xbd23142a	-0.03981415
41	0xbc804f1a	-0.015662719
42	0xbd6cb7be	-0.057792418
43	0x3d31db29	0.043421898
44	0x3ce0a7f2	0.027423833
45	0xbd3c9f3b	-0.04605029
46	0x3d0319e2	0.032007106
47	0x3c91f87a	0.017818678
48	0xbd469c86	-0.048489116
49	0x3d1a8fbf	0.037734743
50	0x3d66b66c	0.056326315
51	0xbd46906a	-0.048477568
52	0xbd5bdfbc	-0.053680167
53	0xbd064e67	-0.032789614
54	0x3d5d6043	0.05404688
55	0x3d8e2e6f	0.0694245
56	0x3bfc99c5	0.0077087604
57	0xbc157199	-0.009121322
58	0xbd8cbe47	-0.0687223
59	0xbc1cda8b	-0.009573589
60	0xbc9b4b5e	-0.018956836
61	0x3d1f606d	0.03891032
62	0x3b9aa993	0.004719922
63	0xbca1b0ff	-0.019737719
64	0x3cbbf649	0.022944586
65	0x3c2b1e37	0.0104442155
66	0x3cda3c12	0.026639972
67	0xbb8f7bf2	-0.004378789
68	0x3cf886e0	0.03033775
69	0xbc7c7fb9	-0.015411311
70	0xbd558b23	-0.052134644
71	0x3d36ae47	0.044599798
72	0xbd129547	-0.035786893
73	0x3d7bf1e9	0.06151
74	0xbcf46af5	-0.029836157
75	0xbd0c6681	-0.034277443
76	0xbd7b5711	-0.06136233
77	0xbd421c30	-0.047390163
78	0x3d9e5263	0.07730558
79	0x3c95155c	0.018198662
80	0xbc6d1a35	-0.01447158
81	0xbd417354	-0.047229126
82	0x3d11610c	0.03549294
83	0xbcaa2d36	-0.020773511
84	0x3d2a2b0c	0.04154496
85	0x3ccad60e	0.024760272
86	0xbcfb9489	-0.030710476
87	0xbc42fc20	-0.011900932
88	0xbaf51021	-0.0018696823
89	0xbd44bcd1	-0.04803163
90	0x3bf18ac9	0.007371281
91	0x3c7752b3	0.015095401
92	0x3c937a7d	0.018002743
93	0x3d94e7a2	0.07270743
94	0xbcd0cc66	-0.02548809
95	0xba48e263	-0.0007663129
96	0xbc56385a	-0.013074959
97	0x3bd9b720	0.0066441447
98	0x3c2cc413	0.010544795
99	0x3d17c54f	0.037053403
100	0x3cd890d6	0.02643625
101	0x3d8e28cc	0.06941375
102	0x3c6c22a7	0.014412559
103	0xbd272c5c	-0.04081379
104	0x3c1014ce	0.008794023
105	0x3b94203d	0.0045204447
106	0x3c65470a	0.013993988
107	0xbc1a813a	-0.009430224
108	0x3c9bffcb	0.01904287
109	0x3d0961b4	0.033540443
110	0xbd760592	-0.060063906
111	0xbc99cca6	-0.018774342
112	0xbc920ba0	-0.017827809
113	0xbc655483	-0.0139972
114	0xbc8f4f32	-0.017493818
115	0x3caea06e	0.021316733
116	0x3c6318eb	0.013860921
117	0x3a646c88	0.0008713682
118	0x3c131b62	0.008978697
119	0x3cf0329b	0.029321006
120	0xbd48bcf9	-0.049008343
121	0x3ca2a1f8	0.019852623
122	0xbc00e836	-0.007867863
123	0x3c3400fc	0.010986563
124	0x3b5b7759	0.0033487885
125	0x3d2bc325	0.04193415
126	0x3cc00f61	0.023444833
127	0x3ae5d0b4	0.0017533512
128	0x3c5e048a	0.013550887
129	0xbd3e2c78	-0.046429127
130	0x3c3e13ef	0.011601432
131	0x3cfe78d3	0.031063473
132	0x3c0e5c93	0.008689064
133	0xbd5fb1e1	-0.054612998
134	0xbcd8f57f	-0.02648425
135	0x3d837af5	0.064199366
136	0xbccf763b	-0.025324931
137	0x3d966094	0.073426396
138	0xbd912da2	-0.07088782
139	0xbaa3c5da	-0.0012494877
140	0xbc02b7a1	-0.007978351
141	0xbd710aa4	-0.05884804
142	0xbd3add2b	-0.04562108
143	0x3be8ee62	0.0071084956
144	0xbd7e67af	-0.0621106
145	0xbd69db9b	-0.057094198
146	0x3c2cf58e	0.010556592
147	0x3bf64b4e	0.0075163012
148	0xbc35d2a6	-0.011097586
149	0xbc122ca2	-0.008921774
150	0xbcc348d1	-0.023838433
151	0xbd1adcc5	-0.0378082
152	0x3d15a66c	0.036535665
153	0x3da32e10	0.0796777
154	0xbc980d98	-0.01856117
155	0xbc5f40e0	-0.013626307
156	0x3b1bb9fb	0.0023761976
157	0xbd095763	-0.033530604
158	0xbc9efc8e	-0.019407537
159	0xbd4d3e74	-0.050108388
160	0xbd16b546	-0.03679397
161	0x3c4e5e57	0.012595735
162	0x3d0bb7cd	0.034110833
163	0xbd6fd731	-0.058554832
164	0xbca02bc5	-0.019552121
165	0x3c4be509	0.012444743
166	0xb9c5c694	-0.0003772272
167	0x3d69328f	0.056932982
168	0xbc15a422	-0.009133371
169	0x3d5e3a8a	0.054255046
170	0x3d61434f	0.05499583
171	0x3d9a3b0b	0.07530793
172	0x3a58d20b	0.0008271045
173	0xbda5f642	-0.081036106
174	0x3c9a2785	0.018817673
175	0x3d255146	0.04036071
176	0x3d8684b6	0.06568281
177	0xbd5c492a	-0.053780712
178	0x3d3b146c	0.045673773
179	0xbb817a58	-0.003951352
180	0x3c5ed1d2	0.01359983
181	0x3d587844	0.05284907
182	0xbca09d42	-0.019606236
183	0x3d08866a	0.033331312
184	0xbb131df7	-0.002244828
185	0x3d02a93d	0.03189968
186	0xbd2d6043	-0.04232813
187	0x3c585577	0.01320397
188	0xbcd75bd2	-0.0262889
189	0xbc7b56d3	-0.015340525

nodes.0.nodes.0.callable.fc_output_x1.bias f4 [2]
0	0xbd98403d	-0.074341275
1	0x3e0eae02	0.13933566

nodes.0.nodes.0.callable.fc1_x2.weight f4 [95, 95]
0	0xbc77faa3	-0.01513544
1	0x3e2d8f50	0.169492
2	0x3d5a38e2	0.053276904
3	0x3d7cf1ca	0.061754026
4	0xbc10e90a	-0.008844623
5	0xbd94844f	-0.07251798
6	0xbd0d6d9f	-0.03452837
7	0xbd95ae06	-0.07308583
8	0x3b1b7c4d	0.0023725212
9	0x3c65fa3d	0.014036712
10	0x3d216ef2	0.039412446
11	0xbd06534b	-0.032794278
12	0xbd861b31	-0.06548155
13	0x3cf04762	0.029330913
14	0x3c00837e	0.00784385
15	0x3d616632	0.0550291
16	0x3d161f7f	0.03665113
17	0x3bb51e4f	0.0055272947
18	0x3da619f0	0.08110416
19	0xbd7c4ea1	-0.061598424
20	0xbc9e2012	-0.019302402
21	0x3d10a66b	0.03531496
22	0xbbac443f	-0.005257159
23	0x3d5c197f	0.053735252
24	0xbd928728	-0.07154685
25	0xbd00a676	-0.03140875
26	0xbc7e0e90	-0.015506402
27	0xbd4c0e95	-0.049818594
28	0x3dd24610	0.102672696
29	0x3cf2aeea	0.029624421
30	0xbc742baf	-0.014902993
31	0x3d89b8c9	0.06724698
32	0x3cccd954	0.025005974
33	0xbbde8416	-0.006790648
34	0x3cc0156c	0.023447715
35	0xbdd02e35	-0.10165063
36	0x3e0e2101	0.13879777
37	0xbd9430f2	-0.07235898
38	0xbdb50d3e	-0.08840416
39	0xbc7c33b1	-0.015393184
40	0xbe24d347	-0.16096221
41	0xbd6ec715	-0.05829533
42	0x3d98cdc1	0.074611194
43	0x3c336c89	0.01095117
44	0xbc434ab2	-0.011919664
45	0xbd94a354	-0.07257715
46	0xbd2e5c8e	-0.042568736
47	0xbdcb39dc	-0.09923145
48	0x3d44097b	0.047860604
49	0x3d834299	0.06409187
50	0x3b912ad8	0.004430156
51	0x3b549e86	0.003244312
52	0x3d59067f	0.05298471
53	0xbde85906	-0.11345105
54	0xbd1e62dd	-0.038668502
55	0xbc6ee391	-0.014580623
56	0xbce99105	-0.028511534
57	0xbdbbc36a	-0.09168132
58	0x3d6934d4	0.056935146
59	0x3da5d67c	0.0809755
60	0x3d7adede	0.0612477
61	0xba92ed64	-0.0011209664
62	0x3c0601b4	0.008179117
63	0x3d623999	0.05523071
64	0xbb9541f4	-0.0045549814
65	0x3bf3c4f9	0.0074392525
66	0xbd91d353	-0.07120385
67	0x3d358621	0.04431737
68	0xbdb93ca7	-0.09044772
69	0xbd897f04	-0.067136794
70	0xbda0c359	-0.078497596
71	0x3cde94a0	0.02717048
72	0xbcdec73f	-0.027194617
73	0xbd02b895	-0.031914312
74	0x3d2c9b4c	0.04214029
75	0xbcc583d3	-0.02411071
76	0xbda429f5	-0.08015815
77	0x3c491532	0.01227312
78	0xbd9e9c49	-0.07744653
79	0xbd8772f8	-0.066137254
80	0xbc81ba7c	-0.015835993
81	0xbd88165f	-0.06644892
82	0xbcbdee13	-0.023184812
83	0xbc4b6e6a	-0.0124164615
84	0x3d03f617	0.03221711
85	0xbcf0ba57	-0.029385729
86	0x3deadd74	0.1146802
87	0x3d1a3fd2	0.03765852
88	0xbd598790	-0.053107798
89	0x3c05d50f	0.008168473
90	0xbaab8be3	-0.0013087954
91	0xbd1c7bed	-0.038204122
92	0x3cc15f55	0.023605028
93	0xbbbe048f	-0.0057988833
94	0xbdbdb080	-0.0926218
95	0xbdd320db	-0.10309001
96	0xbd8eec19	-0.06978626
97	0x3d2becb4	0.041973785
98	0x3cd39bcf	0.025831131
99	0xbca423ae	-0.020036545
100	0xbd00ff89	-0.031493697
101	0xbc5bd2ae	-0.013416929
102	0x3d3e46e2	0.046454318
103	0x3cff0534	0.03113041
104	0xbc9452ff	-0.018105982
105	0xbd2e51dc	-0.042558536
106	0x3de8d8d0	0.11369479
107	0x3d943f8f	0.07238685
108	0x3ce1e8e5	0.027576873
109	0x3d14a0f1	0.0362863
110	0xbd66bc29	-0.056331787
111	0x3db3b355	0.08774439
112	0x3d0cfbfe	0.034420006
113	0xbd8c8688	-0.06861597
114	0x3d80f073	0.06295862
115	0x3d332448	0.043735772
116	0x3c041cea	0.008063534
117	0x3cb0f9a5	0.021603415
118	0x3e11cbce	0.14237902
119	0x3d486467	0.048923876
120	0x3dd570d7	0.10421913
121	0xbcdc0273	-0.026856637
122	0xbd19b7d1	-0.037528817
123	0x3d4f5018	0.050613493
124	0x3d185557	0.03719076
125	0xbb29c6dd	-0.0025905885
126	0x3d716431	0.05893344
127	0x3d89f0ba	0.06735368
128	0x3da3be3a	0.07995267
129	0x3d2dc39e	0.042422883
130	0x3b918f8b	0.0044421605
131	0xbc9386c1	-0.018008592
132	0xbd6e6bdd	-0.058208335
133	0x3df451b1	0.11929644
134	0xbd60efd9	-0.054916237
135	0x3daedc1d	0.08538077
136	0x3dba1e12	0.09087767
137	0x3dc1605e	0.09442209
138	0xbc98a2f0	-0.018632382
139	0x3d372b0b	0.044718783
140	0x3b9af30a	0.0047286795
141	0xbbd9ab0f	-0.006642706
142	0x3c4812e3	0.012211534
143	0x3db240f1	0.08703793
144	0x3cdb5213	0.026772534
145	0xbd643e8b	-0.055723708
146	0x3d33f9e5	0.04393949
147	0x3d978d32	0.07399978
148	0xbd93a428	-0.07209045
149	0xbd7b04aa	-0.061283745
150	0xbdb19833	-0.08671608
151	0x3d485662	0.048910506
152	0x3ccd67c6	0.025073897
153	0x3d6ef58c	0.05833964
154	0xbdda1556	-0.10648601
155	0xbd522abc	-0.051310286
156	0xbbbdc409	-0.0057911915
157	0x3d208835	0.039192397
158	0xbda18a87	-0.0788775
159	0xbdac155e	-0.08402513
160	0xbc4a6795	-0.012353797
161	0x3d04b27d	0.032396782
162	0xbd70f904	-0.05883123
163	0x3d3db83a	0.04631827
164	0xbd8fe0d6	-0.07025306
165	0x3c326911	0.010889308
166	0x3d6ff389	0.058581863
167	0x3dbbf37d	0.09177301
168	0x3d8b3c00	0.067985535
169	0xbd6d76db	-0.057974678
170	0x3dd3eb3b	0.10347601
171	0xbd8dc643	-0.06922581
172	0xbd18970d	-0.03725343
173	0xbc6da517	-0.0145046925
174	0x3cf28f83	0.029609447
175	0x3da79902	0.08183481
176	0xbd583f3d	-0.052794684
177	0x3c8dad5f	0.017294584
178	0xbbb63d7d	-0.005561529
179	0x3d58744a	0.052845277
180	0x3cea5467	0.0286047
181	0x3b14d69a	0.002271092
182	0xbd93604a	-0.071961
183	0xbdaebf2c	-0.08532557
184	0x3d6726bf	0.056433436
185	0x3d2f5cfd	0.04281329
186	0x3da2cda6	0.079493806
187	0xbd36d532	-0.044636913
188	0x3da69a1e	0.08134864
189	0x3d8ad5b2	0.067790404
190	0x3d153f11	0.036437098
191	0x3d98fce3	0.07470109
192	0x3df6a032	0.120422736
193	0xbd495613	-0.049154352
194	0xbc040c49	-0.00805957
195	0xbd73308a	-0.059372462
196	0x3c152ff9	0.009105676
197	0x3d667317	0.056262102
198	0xbd9d3f1b	-0.07678052
199	0xbddd478b	-0.10804661
200	0xbd1a616c	-0.037690565
201	0xbc42c658	-0.011888109
202	0x3ce4e4b1	0.02794108
203	0x3dd08f2b	0.10183557
204	0xbda7056e	-0.081553325
205	0x3d945673	0.072430514
206	0xbddfb9e7	-0.1092413
207	0x3d883b38	0.0665192
208	0xbd4f7dc1	-0.050657038
209	0x3d7453dc	0.059650287
210	0x3d0794a8	0.033100754
211	0x3cb82d69	0.02248259
212	0xbb9a177e	-0.0047025075
213	0x3dae2cb6	0.08504622
214	0xbaa382c6	-0.0012474887
215	0x3d93ee77	0.07223218
216	0x3d880764	0.06642035
217	0x3af37cb9	0.0018576599
218	0xbd7684c5	-0.060185213
219	0x3d176dbc	0.036969885
220	0x3d9bcc0a	0.07607277
221	0xbc8916a4	-0.016734429
222	0xbb2bc0b5	-0.0026207392
223	0x3d2b1ce3	0.041775595
224	0xbd1b2ff5	-0.037887532
225	0x3c169221	0.009190113
226	0x3d5be300	0.05368328
227	0xbd84824e	-0.06470166
228	0xbcc118c3	-0.023571378
229	0x3d9f3eb1	0.07775629
230	0x3c797b63	0.015227172
231	0xbbba5ff4	-0.005687708
232	0x3d95b341	0.073095806
233	0x3c7c08be	0.015382944
234	0x3d949a36	0.07255976
235	0x3db2417e	0.08703898
236	0x3c13ff6c	0.009033065
237	0x3da8d9de	0.0824468
238	0xbdb57bb3	-0.088614844
239	0x3c4356bc	0.011922535
240	0x3d62e39f	0.055392858
241	0x3d6e585d	0.05818974
242	0x3cf2bfcb	0.02963247
243	0x3cbbb395	0.02291278
244	0x3dee621e	0.11639808
245	0x3d1b1cbf	0.03786921
246	0x3b019cf1	0.0019777382
247	0x3cf4f7c6	0.029903304
248	0x3d3d778c	0.046256587
249	0x3cc3f57f	0.023920773
250	0x3d6043ea	0.054752268
251	0xbd66be96	-0.0563341
252	0xbd8ed09a	-0.06973381
253	0xbd98ca26	-0.07460432
254	0xbd4db857	-0.05022463
255	0xbb99b222	-0.0046904245

nodes.0.nodes.0.callable.fc1_x2.bias f4 [95]
0	0xbd205baf	-0.039149936
1	0x3db77085	0.08957008
2	0xbc7921de	-0.0152058285
3	0xbc478aaf	-0.012179061
4	0x3c5db55f	0.013532012
5	0xbd18fcbf	-0.037350412
6	0x3d4b3296	0.04960879
7	0xbda27895	-0.079331554
8	0xbc9da5eb	-0.019244155
9	0x3d2566e8	0.040381342
10	0xbd80a55e	-0.06281541
11	0xbcf1e3c2	-0.029527549
12	0x3d2362bd	0.039889086
13	0x3dabdad7	0.0839135
14	0x3cbfa6b8	0.023394927
15	0x3c8d5117	0.01725058
16	0xbdad0c98	-0.08449668
17	0xbc9ccf04	-0.019141681
18	0x3d6fe72a	0.058570065
19	0xba972c7f	-0.0011533647
20	0x3d2c2339	0.04202578
21	0xbd29d8ac	-0.0414664
22	0xbd4995af	-0.049215015
23	0xbd623207	-0.05522349
24	0x3ce7edf4	0.028311707
25	0xbcbeff63	-0.023315137
26	0x3d0cb21a	0.03434954
27	0xbbb2dd67	-0.005458522
28	0x3b8044ba	0.003914443
29	0x3d25e8f4	0.040505365
30	0xbd0d7890	-0.034538805
31	0xbd06777a	-0.032828785
32	0xbc8d5774	-0.017253615
33	0xba5dbfce	-0.0008459062
34	0x3dc0c415	0.094124
35	0xbdb612dd	-0.08890317
36	0xbd9e3409	-0.07724769
37	0x3d2ee603	0.042699825
38	0xbdb9fc6a	-0.09081347
39	0xbc732b67	-0.014841891
40	0x3d414f05	0.0471945
41	0x3d6c67bf	0.057716127
42	0xbc62e676	-0.0138488915
43	0xbd9c7930	-0.07640302
44	0xbdc9a2d8	-0.09845513
45	0x3c669ccc	0.014075469
46	0x3cc2f403	0.023797994
47	0x3d8b20d0	0.06793368
48	0xbb9b42be	-0.004738181
49	0xbd483704	-0.048880592
50	0xbc942b2e	-0.018086996
51	0x3b63a334	0.0034734728
52	0xba11bd86	-0.0005559552
53	0x3cd55aeb	0.02604433
54	0xbcd867ac	-0.026416622
55	0xba9689c7	-0.0011485153
56	0xbc2cf527	-0.010556496
57	0xbbea3d1b	-0.0071483976
58	0xbd914122	-0.07092501
59	0x3dc58652	0.0964476
60	0xbdd61bdf	-0.10454535
61	0xbd1a52c0	-0.037676573
62	0xbb19c779	-0.0023464842
63	0xbd632b97	-0.055461492
64	0x3d26c766	0.040717505
65	0x3c236d9a	0.0099748615
66	0x3ccb0210	0.024781257
67	0xbcdf8468	-0.027284816
68	0xbd2019cb	-0.039087098
69	0xbb9888cc	-0.0046549793
70	0x3db0b092	0.08627428
71	0xbd31025a	-0.043215133
72	0x3d42ad4b	0.047528546
73	0xbdbf4857	-0.093399696
74	0xbd663b91	-0.05620915
75	0x3c81d18a	0.015846986
76	0x3d77a2ff	0.06045818
77	0xbd6062cb	-0.054781716
78	0x3dcd07de	0.10011266
79	0xbc9fbd06	-0.019499313
80	0xbdc5531b	-0.09634992
81	0x3da82cfb	0.08211704
82	0xb9280f13	-0.00016027344
83	0xbd9ce4c0	-0.07660818
84	0x3ceeed21	0.029165806
85	0x3dcb7fc7	0.09936481
86	0xbd83c23b	-0.06433531
87	0x3d2eab55	0.042643864
88	0x3d015c08	0.03158191
89	0xbdf7ca26	-0.12099104
90	0xbd23f55b	-0.04002891
91	0x3da28a23	0.07936504
92	0x3c986828	0.018604353
93	0xbdb9f3bf	-0.09079694
94	0x3ddd171a	0.10795422

nodes.0.nodes.0.callable.fc2_x2.weight f4 [95, 95]
0	0xbdb2c3b9	-0.087287374
1	0xbccb718d	-0.024834419
2	0x3dca9a97	0.09892767
3	0xbc75b308	-0.014996298
4	0xbd017615	-0.031606752
5	0x3d929702	0.07157709
6	0x3d9d23cc	0.07672843
7	0x3d23d7b1	0.04000062
8	0x3d61d2a0	0.05513251
9	0x3c55d1cc	0.013050508
10	0xbc1bfb87	-0.009520418
11	0x3d5925b2	0.053014465
12	0x3dc5f4c7	0.09665828
13	0xbd85d85b	-0.06535407
14	0xbd3532b7	-0.04423782
15	0x3c40e436	0.01177316
16	0xbdd9f076	-0.106415674
17	0xbda81d44	-0.08208707
18	0xbceeda44	-0.029156812
19	0xbc1e358f	-0.009656324
20	0xbd26cdcc	-0.040723607
21	0xbd50c262	-0.050966628
22	0xbd4efba5	-0.050532956
23	0x3cbb498c	0.022862218
24	0xbd232666	-0.03983154
25	0xbd8bbf71	-0.06823624
26	0xbd88da61	-0.066822775
27	0xbb549d27	-0.0032442303
28	0xbcf9df55	-0.030502
29	0xbd8c4e43	-0.06850865
30	0x3d4de7c6	0.050269864
31	0x3b112f9c	0.0022153622
32	0xbd31eecc	-0.043440625
33	0xbc59e1bc	-0.013298448
34	0xbdc98560	-0.098398924
35	0x3ca289d4	0.019841112
36	0xbcbab16d	-0.022789681
37	0x3d1fed36	0.03904458
38	0x3d93e142	0.07220699
39	0x3da08e78	0.07839674
40	0x3d2157e0	0.039390445
41	0x3d1ffde5	0.039060492
42	0x3d2f2857	0.04276308
43	0x3ca78a76	0.020451766
44	0x3d3fa3c6	0.046787046
45	0x3d938b16	0.07204263
46	0xbd9e8a73	-0.07741251
47	0xbcd9e8e3	-0.026600307
48	0xbd24d7f0	-0.040244997
49	0xbdb5bbb5	-0.08873693
50	0x3c45567c	0.012044545
51	0x3ce7cf4f	0.028297095
52	0x3d831438	0.06400341
53	0x3da15ebc	0.07879397
54	0xbdc59cd8	-0.09649056
55	0x3d1a412d	0.037659813
56	0xbc8259cc	-0.01591196
57	0xbd9dc6ab	-0.077039085
58	0xbd835a7b	-0.06413742
59	0x3d762884	0.060097232
60	0x3d3229e2	0.043496974
61	0x3db658ec	0.08903679
62	0xbd908dac	-0.07058272
63	0x3b553938	0.0032535326
64	0x3db309f0	0.0874213
65	0x3d0c2640	0.034216166
66	0xbdbd2e46	-0.092373416
67	0x3cbc0d7c	0.022955649
68	0x3d97e920	0.07417512
69	0xbcc7c53f	-0.024386046
70	0xbd33e2a6	-0.04391732
71	0x3c750803	0.014955523
72	0x3be07f1b	0.0068510897
73	0xbd0593be	-0.0326116
74	0xbba1745d	-0.0049272017
75	0xbd177905	-0.036980648
76	0x3cca13d9	0.024667667
77	0xbdab0f8a	-0.08352573
78	0x3dd30b3b	0.103048764
79	0x3d903751	0.07041801
80	0x3d25a56b	0.040440958
81	0x3d8f1898	0.06987113
82	0xbd46c2a6	-0.048525475
83	0xbc0e57f7	-0.008687965
84	0x3db01614	0.08597961
85	0xbd75c273	-0.059999894
86	0xbc7dbed0	-0.015487388
87	0xbd879052	-0.06619324
88	0xbb917e81	-0.0044401293
89	0x3dd8b0dd	0.10580609
90	0x3da621e1	0.08111931
91	0x3d8e3947	0.069445185
92	0xbd753458	-0.059864372
93	0xbd793c28	-0.060848385
94	0xbd923f0c	-0.071409315
95	0xbb768991	-0.0037618617
96	0xbda76172	-0.08172883
97	0xbd2ca7f8	-0.042152375
98	0xbcf48cd0	-0.0298523
99	0x3b383cb7	0.002811236
100	0x3d8ce9fd	0.06880567
101	0xbd9603ce	-0.073249444
102	0x3d996f9a	0.074919894
103	0x3ca7e39d	0.020494277
104	0xbccf308f	-0.02529171
105	0x3d13cb99	0.036082838
106	0xbd45da17	-0.04830369
107	0xbdb2cb39	-0.08730168
108	0xbd051085	-0.032486457
109	0xbcd31fd9	-0.025772022
110	0xbc3cfa61	-0.011534304
111	0xbda1974e	-0.07890187
112	0xbcdd118d	-0.026985908
113	0xbdd22b6b	-0.102621876
114	0xbc3cd144	-0.011524502
115	0x3d2a60eb	0.041596334
116	0x3d9564de	0.072946295
117	0xbd0a1e33	-0.033720206
118	0x3b95cc75	0.0045714923
119	0xbdbf78d2	-0.093492165
120	0x3dcb6a97	0.0993244
121	0xbdb89a07	-0.090137534
122	0x3d8196b2	0.06327571
123	0xbd58dc3a	-0.0529444
124	0x3d7fbb86	0.062434696
125	0x3cac735e	0.021051105
126	0x3cd3016e	0.025757518
127	0xbb846dd3	-0.0040414124
128	0x3db627a2	0.08894278
129	0x3be7e461	0.0070767854
130	0xbd3aded9	-0.04562268
131	0xbc9ea061	-0.019363584
132	0x3db60177	0.08886998
133	0x3c7af9a9	0.015318313
134	0x3d96d63e	0.07365082
135	0x3d5ecead	0.05439632
136	0x3d554e23	0.05207647
137	0x3d233b81	0.03985167
138	0x3d5d0d57	0.0539678
139	0x3d57480c	0.052558944
140	0xbcbe32ad	-0.023217523
141	0xbd624c6a	-0.055248655
142	0xbd783768	-0.060599715
143	0x3cb2ea3d	0.02184021
144	0xbda998a5	-0.08281068
145	0x3d805267	0.06265717
146	0xbca734d4	-0.020410933
147	0x3d8e675c	0.06953308
148	0x3da7ab6c	0.08186993
149	0xbd4ff926	-0.050774716
150	0xbb6c8114	-0.0036087679
151	0x3d83eb4e	0.06441365
152	0xbdc98c72	-0.09841241
153	0xbd408be6	-0.047008418
154	0x3cfa7f08	0.030578151
155	0xbddb1b5f	-0.1069858
156	0x3cdb247c	0.026750796
157	0xbcfe43a3	-0.031038111
158	0x3da93446	0.082619235
159	0xbbae9a86	-0.005328479
160	0xbdc77b64	-0.09740332
161	0xbc418c4b	-0.011813234
162	0x3db320fb	0.08746525
163	0xbdc7df0e	-0.09759341
164	0xbd6c8475	-0.05774351
165	0x3d8a16e7	0.067426495
166	0x3c0d73fe	0.008633612
167	0x3d8e1b8d	0.06938849
168	0xbdc6c42c	-0.097053856
169	0x3cf901f7	0.030396445
170	0xbd5c83c5	-0.053836603
171	0xbd4af2b8	-0.04954788
172	0x3c9f7fee	0.019470181
173	0xbd63d4b8	-0.055622786
174	0xbdb4ac2c	-0.08821902
175	0x3d9f623f	0.07782411
176	0x3c8f24a7	0.017473532
177	0xbd809514	-0.062784344
178	0x3d67e85d	0.056618083
179	0xbdc29f3b	-0.09503027
180	0xbdbcb015	-0.092132725
181	0xbcf1cd36	-0.029516798
182	0xb9567b34	-0.00020454527
183	0x3d35c035	0.044372756
184	0x3c137a4a	0.009001324
185	0xbdaf89d1	-0.08571208
186	0x3db5370c	0.0884839
187	0x3d02eb42	0.03196264
188	0xbcd240d7	-0.025665684
189	0xbca30162	-0.01989812
190	0x3b7482be	0.0037309374
191	0x3dab8885	0.083756484
192	0xbcb46cfb	-0.022024622
193	0x3d6077a3	0.054801594
194	0x3ddafb7d	0.10692499
195	0xbd7f1e65	-0.062284846
196	0x3db0742f	0.0861591
197	0xbdf2e4e0	-0.11860061
198	0xbd94b519	-0.07261104
199	0x3d3de667	0.046362307
200	0x3c53ec2d	0.012934727
201	0xbd80208d	-0.062562086
202	0x3da3384f	0.079697244
203	0x3d340d0e	0.043957762
204	0xbdd8c2a9	-0.105840035
205	0xbdc9f6d9	-0.098615356
206	0xbc60618b	-0.013695131
207	0x3d8fcbb1	0.07021273
208	0x3dad81a6	0.08471994
209	0xbd2e5f82	-0.042571552
210	0xbc849c34	-0.016187765
211	0x3dac6275	0.08417217
212	0xbd6f5793	-0.058433127
213	0x3d8967d9	0.067092605
214	0xbd9bb1f0	-0.07602298
215	0xbb2a38e0	-0.0025973842
216	0xbd30a6b5	-0.043127734
217	0x3d8ea76c	0.06965527
218	0xbdbf8810	-0.09352124
219	0x3d9edaba	0.077565625
220	0x3dc11ad2	0.09428944
221	0x3d9d385d	0.07676766
222	0x3d2e6ada	0.04258237
223	0x3c428007	0.011871344
224	0x3d021c6b	0.031765383
225	0x3d9b1a79	0.07573409
226	0xbd8740c5	-0.06604151
227	0xbdb4243c	-0.08795974
228	0x3dbd4155	0.09240977
229	0xbd8036b5	-0.062604345
230	0xbc25acb2	-0.010111975
231	0xbd4bfb28	-0.04980007
232	0x3ca1d4a8	0.019754723
233	0xbd5544d2	-0.052067585
234	0xbdc9dbd3	-0.09856381
235	0x3cfad2c5	0.03061808
236	0xbbe61ef5	-0.0070227333
237	0xbd84e126	-0.06488256
238	0x3d80d274	0.06290141
239	0x3dde695b	0.10859939
240	0xbda3a219	-0.07989902
241	0xbc78dad6	-0.015188893
242	0x3cbd3a58	0.02309911
243	0xbcc658cc	-0.024212264
244	0xbd6d2583	-0.057897102
245	0xbda2cab2	-0.07948817
246	0xbd1c927d	-0.03822564
247	0xbd5df946	-0.054192804
248	0xbcf0d837	-0.029399974
249	0x3d177027	0.03697219
250	0x3d9a4ae2	0.07533814
251	0xbd78a510	-0.06070429
252	0xbd5abc80	-0.053402424
253	0xbdcb301d	-0.09921286
254	0x3de33acf	0.11095201
255	0xbc01ebf2	-0.007929789
